trained/exp_train_3_3_1111_0.0001_0.001_32_0.95/model/ctrl_critic_1.pth (torch, 556171 bytes, 7 tensors)

weight f4 [128, 20]
000000 dc 8c 81 be d1 71 82 3f f6 0d a4 3f e4 85 91 3f
       -0.2530278 1.0190984 1.281676 1.1368985
000010 6d 1d 13 3f 43 da ed be 80 a8 0c 3f 2d 02 85 3f
       0.57466775 -0.46455583 0.5494461 1.0391289
000020 e2 8e 5a 3d 94 3a 0a 3e 80 3b bc bc dc fb 9e 3e
       0.05335892 0.13498908 -0.02297759 0.31051528
000030 5f 3a 99 be 19 7f 5a 3f ce 55 ee 3e 82 ed d7 3e
       -0.29927346 0.85350186 0.4654984 0.42173392
000040 c3 bd 89 be c4 03 f1 bb 44 b5 06 be c0 cc 00 3e
       -0.2690259 -0.007355185 -0.13155085 0.12578106
000050 51 4d 66 3e 5d 5a 4a 3e 2a 98 19 3f 4b 9b d6 3e
       0.22490431 0.19761033 0.5999781 0.41915354
000060 1d 04 23 bf 99 46 1a bf e1 c4 80 be 00 c7 36 bf
       -0.6367815 -0.60263973 -0.25150207 -0.713974
000070 ff c2 be 3f f9 ec 09 3f cf f9 14 3f a5 d7 b0 3f
       1.4903258 0.53877217 0.5819368 1.381581
000080 7d 84 78 3e 1f 59 5a bf ca 0a e4 3c b3 cf 30 3f
       0.2426929 -0.8529224 0.027837176 0.69066924
000090 d6 38 8d be 41 a8 1e bf db b8 0e bf 69 86 ab be
       -0.27582425 -0.61975485 -0.5575082 -0.33500984
0000a0 80 07 78 3f 4b 82 8d bd f7 ea 1f 3f d5 8e 4d 3f
       0.96886444 -0.06909617 0.624679 0.8029607
0000b0 73 b1 e8 bb bd e6 d7 bf 7a 9e 3d bf 9e 6d 13 3f
       -0.0071012317 -1.6867291 -0.7406994 0.5758914
0000c0 af 55 5e 3f 6f 3c 3e 3f 3a c9 49 bf fe 36 a6 be
       0.8684949 0.74310964 -0.7882267 -0.3246383
0000d0 6e f8 94 be 97 a9 51 3e e0 b1 cd 3e 74 39 63 3f
       -0.29095787 0.2047485 0.4017477 0.8875954
0000e0 05 e3 d0 be 94 bc 97 3e b1 2c 0b 3e e6 ba 9a 3b
       -0.40798202 0.2963606 0.13591267 0.004721987
0000f0 fe 60 b2 be 93 91 cb 3e ca 12 09 be 94 c0 f4 3f
       -0.34839624 0.39759502 -0.13386074 1.912127
000100 3f 55 35 bf 43 7c 30 3f 5f 3e a9 3e 36 5c 74 3f
       -0.708332 0.6893961 0.33055398 0.954532
000110 a2 6d 2c 3f 96 ab b9 3f a2 13 20 be ce b3 73 be
       0.67354786 1.4505489 -0.1563249 -0.23799059
000120 bb 57 5e 3e 03 34 23 be 1b d6 d5 3e 96 9e 12 bf
       0.21713154 -0.1593781 0.41764912 -0.5727323
000130 91 61 96 3d aa 7d 03 3e 0b 3a e4 3d 9e 94 8f be
       0.07342828 0.12840906 0.11143883 -0.28043073
000140 66 af c7 3e 96 1b 1a bf 93 e1 bf be 0b 97 b8 3d
       0.39001006 -0.6019834 -0.37476787 0.09013184
000150 71 49 37 be 83 5b cf bf 37 54 0c bf e6 f4 d8 be
       -0.1789911 -1.6199802 -0.54816 -0.42374343
000160 16 49 a5 3e 26 04 b5 3f 08 4b 2d 3e 54 33 30 3f
       0.32282323 1.4141891 0.16923153 0.6882832
000170 34 eb 9b be bf 78 b9 3e 22 06 fa be 80 ab 35 3f
       -0.30452883 0.36224934 -0.48832804 0.70964813
000180 67 3f 73 3e 6c 44 a8 3d 7b c8 4e 3f 0b 58 01 3d
       0.23754655 0.082161754 0.8077466 0.031578105
000190 26 50 5b bf a7 a2 11 bf 26 2a f7 bf 89 80 0e 3f
       -0.8566917 -0.5688881 -1.9309738 0.5566488
0001a0 6c b2 22 3f e7 95 f9 be 75 9a 93 3c 65 56 60 be
       0.635535 -0.4874718 0.018017987 -0.21907957
0001b0 06 c8 b6 be 2d 37 88 3e a5 3d 88 be a7 51 01 3f
       -0.3569948 0.26604596 -0.2660953 0.50515217
0001c0 63 13 bd bf 15 8a 85 be 7a 62 94 bf 39 e0 90 3f
       -1.4771541 -0.2608191 -1.1592553 1.1318427
0001d0 cf 3d 64 bc 1a f7 02 3e d8 8a 39 3e 95 25 b6 3e
       -0.013930752 0.12789574 0.18119371 0.35575548
0001e0 2a fd 1f bf 54 2c 81 be 0a 1e 1a bf 68 c9 04 be
       -0.6249567 -0.25229132 -0.60202086 -0.12967455
0001f0 0e f9 b6 be b5 b3 6b bf 39 17 43 3f be ce 00 3f
       -0.3573689 -0.92071086 0.7620731 0.50315464
000200 de c1 17 bf 7d ea 49 bd 96 e0 c4 bd 50 2e 83 bf
       -0.5928019 -0.04929589 -0.09613149 -1.0248508
000210 80 8d b1 bf 58 42 94 3c e7 2b a2 3f c1 40 74 3f
       -1.3871307 0.018098041 1.2669648 0.95411307
000220 a6 40 02 3f a3 86 fb bb 71 84 04 3f 4f f4 93 3d
       0.50879896 -0.007675962 0.5176459 0.072243325
000230 78 32 57 bf 2d 77 eb 3d 83 f0 98 bd 6a 17 37 bf
       -0.84061384 0.1149734 -0.07467749 -0.715201
000240 10 03 cc 3f 32 e7 4f be f8 11 6d bf ae f3 3b 3d
       1.5938435 -0.20303038 -0.92605543 0.045886688
000250 b3 04 0d 3f 1d c9 26 bf e6 69 a6 3e 91 92 09 3f
       0.55085295 -0.65150625 0.3250267 0.5373927
000260 87 4f 3c be 52 72 74 bf 8f 65 8b bf 15 9e c2 be
       -0.18389712 -0.9548694 -1.0890368 -0.38011232
000270 02 ee 27 3e 3e f6 d9 3e be 4a e1 be c2 7a 64 3d
       0.16399387 0.4257068 -0.44002336 0.055781133
000280 1d 12 b6 be c0 c0 87 3e 5f 4b 3c bf 73 03 b8 be
       -0.35560694 0.26514244 -0.7355251 -0.35940132
000290 dd 78 82 3f c9 ae ab be 7a cb 4e bf 72 c4 32 3e
       1.0193135 -0.33531788 -0.8077923 0.1745775
0002a0 e4 b7 be 3f bf 49 06 bf db 87 dc be ec 8a 01 bd
       1.4899869 -0.5245628 -0.430724 -0.031626627
0002b0 ec 27 75 bf 00 55 40 3f c7 67 8a 3d 37 d8 6c 3c
       -0.9576404 0.751297 0.06758075 0.0144558465
0002c0 4b 01 4a 3e 9f c2 a5 be 5b 6e e6 bc a7 0b 0d be
       0.19727056 -0.32375047 -0.028128793 -0.13773976
0002d0 6e e3 89 be 25 b8 60 3d b9 dd 18 be a9 1f 19 3f
       -0.26931328 0.054863114 -0.1492833 0.59813935
0002e0 ac e8 be bf fd 9f 8f 3f 9b c9 b8 3f 3c 06 0c bf
       -1.4914756 1.12207 1.4436525 -0.5469701
0002f0 85 0d 56 be dd b4 19 bf a5 64 07 3f 2e 64 96 3d
       -0.20903595 -0.600416 0.52887946 0.073433265
000300 40 9f 1f bf 72 4c 17 3f 40 24 51 3e 39 03 0c bf
       -0.6235237 0.5910102 0.20423985 -0.5469242
000310 eb fb 08 bf 16 cd ea bd 14 81 f3 3d 81 70 01 be
       -0.53509396 -0.11464898 0.11889854 -0.12640573
000320 b3 35 04 be c1 1f ad 3f 8c 9f 19 bf fa eb f1 3e
       -0.1291111 1.3525316 -0.60009074 0.47250348
000330 aa f1 27 be d5 72 a6 3f f3 34 9c bd b1 83 5d be
       -0.16400781 1.3003794 -0.07627287 -0.21632268
000340 6d 7a 57 bf 3e e2 35 3f 1d e4 22 3e 3d d2 56 be
       -0.8417118 0.71048343 0.15907331 -0.20978637
000350 fd 86 f7 3e dc 4b cc be 22 a7 83 3e ef c2 bd bf
       0.48345175 -0.39901626 0.2571345 -1.4825114
000360 31 63 56 3e db ff 9a 3e 4f 52 98 be 30 7f ab 3d
       0.20936276 0.30273327 -0.29750296 0.083738685
000370 ca e8 30 3e eb ce c3 3d d5 52 00 3c 8b 33 75 3e
       0.17276302 0.09560951 0.007832249 0.23945443
000380 f7 16 07 be bc 85 90 be dd a9 a9 bf 33 91 b8 bf
       -0.13192354 -0.2822703 -1.3254963 -1.4419311
000390 54 d5 b5 3e 5f 3a 1b bf 7d 22 cd be aa 64 d9 3e
       0.3551432 -0.6063594 -0.40065375 0.42459613
0003a0 41 9a 19 bf a4 8b ad 3f 37 bc 05 3f a6 95 fe 3e
       -0.60001 1.355824 0.5224032 0.49723548
0003b0 00 97 84 3f cf cf 9d 3e ca ed 2b 3f 32 42 21 bf
       1.0358582 0.30822608 0.6715971 -0.6299163
0003c0 67 0b a9 bd dc 63 42 bf 1d c3 f5 3c 0a a3 94 be
       -0.08254128 -0.75933623 0.030000264 -0.2903064
0003d0 97 dd f6 3e 5b dd 81 be 35 03 03 bf 44 33 8e 3f
       0.48215935 -0.25364193 -0.5117677 1.1109395
0003e0 c6 4c 99 bf a2 6b 14 bf 5e 75 b2 be bd 4a 9e bd
       -1.1976554 -0.57976735 -0.3485517 -0.07729099
0003f0 1a de f8 3e aa a2 d2 3f 4b 06 44 3f 0e e3 43 bf
       0.4860695 1.6455891 0.765721 -0.7651833

bias f4 [128]
000000 88 24 2f c0 ba 64 cd bf e1 ec 6e c0 95 60 04 c0
       -2.7366047 -1.6046364 -3.733208 -2.068395
000010 a2 c2 84 c0 ca 0c 60 c0 e4 92 9e bf 51 51 1b c0
       -4.148759 -3.5007806 -1.2388577 -2.4268382
000020 8b e5 8a bf 3e 83 fa bf df b9 4a c0 cb 5e 27 c0
       -1.0851301 -1.9571302 -3.1675947 -2.6151607
000030 c8 7d e6 bf 93 5c 21 bf c9 e9 04 c0 33 db bf bf
       -1.8007135 -0.6303188 -2.076769 -1.4988769
000040 34 30 21 c0 c5 98 34 c0 87 7c 6f be 95 53 ab be
       -2.518567 -2.8218243 -0.23387347 -0.33462206
000050 ba 04 dc bf d3 5e bf bf e0 71 87 c0 8b 83 15 c0
       -1.7188942 -1.4950813 -4.2326508 -2.3361537
000060 f6 d2 05 c0 5e de 26 c0 25 ce 9a bf 2a 56 c4 bf
       -2.091001 -2.6073222 -1.209416 -1.5338795
000070 d7 86 0b c0 47 a5 3a c0 54 79 1e c0 4e 0b a9 bf
       -2.180105 -2.9163377 -2.4761553 -1.3206575
000080 34 6f 23 c0 8e b1 44 c0 3b 4b e1 bf 5d b1 c5 be
       -2.5536623 -3.073337 -1.7601084 -0.3861188
000090 bc 90 8a c0 7f 7b 7e c0 9d ed 61 c0 2b cb 0d c0
       -4.330168 -3.9762876 -3.5301278 -2.2155254
0000a0 4b 68 3b c0 d5 c3 67 bf 61 a7 67 c0 b7 f0 d7 bf
       -2.9282405 -0.9053319 -3.619591 -1.6870335
0000b0 d5 0f 52 bf d7 64 a5 bf e7 a4 0f c0 0d 43 f7 bf
       -0.8205541 -1.2921399 -2.2444398 -1.9317337
0000c0 1d 4b 39 c0 e1 f9 f0 be 22 6c 80 3e ae 75 fb bf
       -2.8952096 -0.47065642 0.250825 -1.9645288
0000d0 a0 c6 2c c0 63 94 15 c0 37 b9 54 c0 74 c8 31 c0
       -2.699623 -2.3371818 -3.3238046 -2.7778597
0000e0 02 13 b6 bf bb 22 2a c0 81 c0 16 c0 f9 a3 48 c0
       -1.4224551 -2.6583698 -2.3554995 -3.135008
0000f0 9c 95 1e c0 d2 fc 64 c0 92 ae 4b c0 02 0e 53 bf
       -2.4778814 -3.577931 -3.18253 -0.8244325
000100 72 8f 76 c0 30 05 59 c0 b5 1b 41 bf 38 15 38 c0
       -3.8525052 -3.3909416 -0.754329 -2.876295
000110 78 34 7a bf e3 e9 1b c0 b9 d8 48 c0 57 fb e4 bf
       -0.9773631 -2.4361503 -3.1382277 -1.7889203
000120 43 da 23 c0 0e 4c 0d bf 16 2c 55 c0 32 af ec bf
       -2.5601966 -0.55194175 -3.3308158 -1.8490965
000130 93 a9 ce bf a4 0d 32 c0 0d fa 2d c0 32 a7 d7 be
       -1.61455 -2.7820826 -2.718387 -0.42119747
000140 d6 b9 3d c0 1e f2 66 c0 f1 95 c7 bf 29 9b 55 c0
       -2.9644675 -3.6085277 -1.5592633 -3.3375952
000150 1b 1a 4b c0 ae 82 ca bf 64 33 3d c0 6a d2 80 bf
       -3.1734684 -1.582113 -2.9562616 -1.0064213
000160 c2 6c 95 bf 43 8b 41 c0 75 d6 ba bf 14 ca ef bf
       -1.1673815 -3.0241249 -1.4596697 -1.8733544
000170 31 d1 e1 bf 5c a4 6a be bd 8c f3 bf a8 a3 07 c0
       -1.7641965 -0.2291426 -1.9027325 -2.1193638
000180 54 34 42 c0 30 61 e9 bf 80 a3 c5 bf 5f cf 7a c0
       -3.0344439 -1.8232784 -1.5440521 -3.918907
000190 b9 95 85 c0 d2 68 74 c0 9f 41 64 be 81 bc 7e c0
       -4.1745267 -3.8188977 -0.22290657 -3.9802554
0001a0 f5 31 42 c0 4c 3b 0e c0 9e 3e 36 c0 e8 f7 89 bf
       -3.0342991 -2.2223692 -2.8475718 -1.077878
0001b0 77 e8 4c bf 70 bf 0e c0 7a 0a 2c c0 dc 1b 07 c0
       -0.80042213 -2.2304344 -2.6881394 -2.1110754
0001c0 62 f5 2f c0 ae e8 2b c0 03 d7 02 c0 d8 44 77 bf
       -2.749352 -2.6860766 -2.0443733 -0.9658942
0001d0 d0 d9 0c bf eb 8b 7a c0 63 d4 e7 bf 98 ce 88 be
       -0.55019855 -3.91479 -1.811169 -0.2672012
0001e0 66 48 a6 bf ba da 0f c0 5d b1 7d c0 80 64 ec bf
       -1.2990844 -2.247725 -3.9639504 -1.846817
0001f0 00 44 a7 bf 6f e5 4d c0 49 28 62 c0 90 0f e7 bf
       -1.3067627 -3.2171285 -3.5337088 -1.8051624

weight f4 [256, 399]
000000 5b db 2a bc ee 26 44 bf 73 17 d2 3e 0b 26 c3 3e
       -0.010428275 -0.766219 0.41033515 0.38114962
000010 7a 5a 0d bf 2d d3 6b bf 04 11 53 3f ab 31 bf 3e
       -0.5521618 -0.92119104 0.8244784 0.3734258
000020 22 26 6d 3f 5c d5 80 be d0 cb f5 be 60 0b 67 3e
       0.9263631 -0.2516278 -0.4800706 0.22562933
000030 20 6d 91 3f dc 36 04 3f 3b 1f dd 3c 1a 36 59 3e
       1.1361427 0.5164621 0.02699243 0.21212044
000040 5e ed 5f bf 52 81 0d 3f 42 a9 ac be ca 51 d0 bc
       -0.8747157 0.5527545 -0.33722883 -0.025429625
000050 40 97 25 bf 04 c0 28 3f d9 3d 22 3f 52 ff 0c 3f
       -0.64683914 0.6591799 0.6337562 0.5507709
000060 81 b6 92 3e 74 3d 5e 3e 22 ce b0 3e fa be 17 3e
       0.28654864 0.2170313 0.34532267 0.14818946
000070 f4 ad 8f 3e a7 71 d5 3d 99 21 82 3f 9c f0 48 3f
       0.28062403 0.10422068 1.0166503 0.7849214
000080 be 99 81 bf f6 15 9c be 52 d8 14 be 12 01 3b 3e
       -1.0125043 -0.30485505 -0.14535645 0.18262127
000090 ea ee 4e 3d 1a 83 33 3f eb aa ff be 4d 47 00 bf
       0.050520815 0.7012192 -0.49935088 -0.50108796
0000a0 83 ea 87 3e b5 71 5c 3f 36 17 bb bf 68 9d 38 3d
       0.26546106 0.86111003 -1.4616458 0.04507199
0000b0 c5 3b 13 be 01 4f a2 3e a4 d4 ec 3f c6 80 25 3e
       -0.14378269 0.317009 1.8502393 0.16162404
0000c0 52 da c4 3e 6d a8 ca 3d ad 26 14 3f f5 8c eb bd
       0.38447815 0.09895406 0.57871515 -0.11501495
0000d0 57 19 5d bf b6 be 19 be c2 94 30 3f fb 78 55 3f
       -0.8636679 -0.15014157 0.68976986 0.83387727
0000e0 e3 0b 57 bf ad b1 68 3e 77 7f 8b 3e 81 78 f7 bd
       -0.8400251 0.22724028 0.27245685 -0.12083531
0000f0 3d ec 4d 3f 5a c4 4b 3f d6 2f 07 c0 b3 3b ae be
       0.80438596 0.79596484 -2.1122947 -0.34029922
000100 b2 21 3b bf ca 48 f9 bd 89 0d 81 bd 09 16 5d 3f
       -0.7309829 -0.121720865 -0.0630141 0.8636175
000110 7e 3e 29 3f ac b0 df bf 25 e6 a3 bd cb e8 0e 3f
       0.6611098 -1.7475791 -0.08002881 0.55823964
000120 17 ee be 3e f1 dc 1c 3e 8b c8 95 bd c9 ba b6 bf
       0.37291023 0.15318657 -0.07313641 -1.4275752
000130 4b 34 36 be 98 b2 9a 3e c3 2e 75 3f e9 f3 19 bf
       -0.17793386 0.3021438 0.9577448 -0.601378
000140 ae 8b b5 3e b0 1a 49 3f 80 61 f1 be 99 03 2e bf
       0.3545813 0.78556347 -0.471447 -0.6797424
000150 ad be a1 3f c8 6d 51 bf 56 72 8d bf 3a ae 6b 3e
       1.2636315 -0.8180814 -1.1050518 0.23015681
000160 9f 3f 13 3f e6 0b bc be d7 a7 9b bf 2e f2 3f 3e
       0.57518953 -0.36727828 -1.2160596 0.18744728
000170 ac 87 d0 bd b9 8d 6d 3f 53 3c 21 3f 48 0e 35 bf
       -0.10182127 0.92794377 0.6298267 -0.70724916
000180 fb 8a 38 bf 01 7a 08 bf b1 e9 e0 3d 86 2f 8b bf
       -0.7208707 -0.53311163 0.10982073 -1.0873878
000190 52 be 82 be b4 7e d8 3c c0 e8 73 3f 64 21 a4 bf
       -0.25535828 0.026427604 0.95277023 -1.282269
0001a0 33 8e e4 3e 5e f9 03 3f c7 99 03 3f ea 01 9c be
       0.4463974 0.5155238 0.5140652 -0.3047021
0001b0 63 4f 34 bf 6b 10 1e 3e 25 9f 16 3f 01 a3 1b bf
       -0.70433635 0.1543595 0.58836585 -0.607956
0001c0 89 e9 13 3e 56 d2 1e bf 4e 11 64 bd d7 fd 3e bf
       0.14444555 -0.620397 -0.055680566 -0.7460608
0001d0 35 ef 38 3f 22 d5 60 bf 84 2d 4b be c1 c4 e3 3e
       0.7224 -0.87825215 -0.19841582 0.4448605
0001e0 ec 4d 10 3e 33 67 36 3f 33 26 15 bd 35 2e 18 3f
       0.14092225 0.7125122 -0.036413383 0.59445506
0001f0 4b b5 53 3f 28 1c 8b bf a0 f9 3c 3f 67 3f 51 3c
       0.82698506 -1.0867968 0.738184 0.012771464
000200 e3 b2 85 bf 5d 0a cc 3d ca d6 c6 3e 2f 1f e2 3e
       -1.0445217 0.09962914 0.38835746 0.44164416
000210 36 1c 72 bf 1a 1c ae 3f 75 36 38 be 7c e8 1e be
       -0.94574296 1.3602326 -0.17989524 -0.15518373
000220 ff bf 95 bf 6a 54 6a 3e fe ff cf 3e 28 34 f0 3d
       -1.1699218 0.22883764 0.40624994 0.11728698
000230 33 78 09 3e 8c 5f 43 3e d6 5c 80 bc 4f ca a8 be
       0.13424759 0.19079417 -0.015669268 -0.3296685
000240 32 e2 61 be 55 1f 1f 3e 06 a4 01 3f 1c 4a 99 bd
       -0.22058943 0.15539296 0.50640905 -0.07484838
000250 e7 46 34 3e 75 6b bc be e4 8b b4 3c c6 29 28 3f
       0.17605172 -0.36800733 0.022039361 0.6568874
000260 c3 95 13 3e 15 b3 9d bd f8 a1 f5 be db a1 67 3e
       0.14412598 -0.07700173 -0.47975135 0.22620337
000270 92 a1 0a 3f a1 45 82 bb 6f 1a 01 3f d7 31 cd 3e
       0.54152787 -0.0039755856 0.5043096 0.40077087
000280 44 48 f8 3e eb 91 66 3e 8e b6 e7 3d f5 ae e6 3c
       0.48492634 0.22516601 0.113141164 0.028159598
000290 15 44 ec 3b 91 31 13 bf 67 77 1a 3d 6b 85 17 3e
       0.0072102644 -0.5749751 0.037711527 0.14796989
0002a0 d8 76 22 3f 2f 8a 08 bf 3c 75 1a bd 64 bc ab bf
       0.6346259 -0.5333585 -0.03770946 -1.3416867
0002b0 6a 0c a8 bf 8e c6 d0 bf a1 72 60 3e c5 98 1d c0
       -1.3128788 -1.6310594 0.21918727 -2.4624493
0002c0 bb df 6b be 1d c0 45 3e b1 a0 bb be d9 3b 8f 3f
       -0.23034565 0.19311567 -0.36646035 1.1190139
0002d0 f3 f2 ef 3e a6 a7 00 3f 41 9d 33 bf 29 8c 20 be
       0.46865043 0.5025581 -0.70161825 -0.15678467
0002e0 24 f3 62 be f0 3a 28 bf db 53 29 bd c0 6c 44 3f
       -0.22163063 -0.6571493 -0.041339736 0.7672844
0002f0 49 07 41 bd b9 a0 48 bf bf 3c 10 3f ea 95 56 3f
       -0.04712609 -0.78370243 0.5634269 0.838225
000300 76 7d a2 be c8 07 e6 3d f5 34 8a 3f ae 35 90 bd
       -0.31736344 0.11231953 1.0797411 -0.070414886
000310 4f da f3 3c f9 2f d5 3d ab 68 f8 3d 27 d7 a8 be
       0.029767184 0.10409541 0.12129339 -0.32976648
000320 30 bd 02 3e c5 d9 21 3f 81 7c 9a bf 77 68 a7 be
       0.12767482 0.63222915 -1.2069246 -0.32696888
000330 70 66 8a 3d 92 f6 8b 3e 0c 03 55 3e eb 2f 3e be
       0.0675782 0.27336556 0.20801944 -0.18572967
000340 7b 02 5b bf 4f ca 84 3e 20 8c 45 3e dd be 94 3f
       -0.8555066 0.259356 0.19291735 1.1620747
000350 0a 47 03 be f8 b5 0b bf e7 83 17 bf 70 c4 02 bd
       -0.12820068 -0.5457454 -0.5918564 -0.03192562
000360 75 c4 a9 bf 5d 10 b5 3d b3 7b 9c bf b0 f1 a7 3e
       -1.3263079 0.08841012 -1.222525 0.3280158
000370 5e c6 66 be 41 58 c6 3e 48 42 09 3f 7f 01 54 3f
       -0.22536609 0.38739207 0.5361676 0.8281478
000380 ee d8 b6 3d 7a 07 5e 3f 7f 82 fd 3e ee b0 4b 3d
       0.08928095 0.8673016 0.49513623 0.04972928
000390 b3 81 1e c0 1d 45 1f bf 4e 3e 3f be 2f e9 f5 3e
       -2.4766662 -0.62214833 -0.18676111 0.48029467
0003a0 c2 57 b4 3d a2 a3 12 bf 6e bf 2c 3f 68 12 75 3f
       0.08805801 -0.57280934 0.674796 0.9573121
0003b0 82 62 00 bf 18 68 3c bf a0 73 be 3d 00 68 2a be
       -0.5015031 -0.73596334 0.092993975 -0.16641235
0003c0 75 d2 f3 be 45 80 a5 3e 32 4d 3f bf 96 2f 85 3e
       -0.47621503 0.32324424 -0.74727166 0.26012868
0003d0 5f dc 8d be 67 6d bb be f8 b0 31 bf a3 b2 ce 3e
       -0.27707192 -0.36606905 -0.6941066 0.40370664
0003e0 8c 0a 51 3f 11 72 fc be 0c a6 b9 3d 4a 48 98 3e
       0.8165672 -0.49305776 0.09064874 0.29742652
0003f0 40 52 d1 be 68 d4 49 3f f9 13 8f be 1f 13 74 3e
       -0.40883064 0.7883973 -0.27944925 0.23835419

bias f4 [256]
000000 64 f5 cb bf ba d9 d8 3a 31 7f a1 bf 93 a9 b9 3c
       -1.5934262 0.001654438 -1.2616941 0.022663867
000010 57 fa 9b bd e0 08 f0 3c 76 71 68 c0 3d 0c 0c 3d
       -0.07616108 0.029301107 -3.631925 0.03419136
000020 28 3b 4e 3e 3f 89 fc 3c 3f 07 81 bb 15 16 30 3c
       0.20139754 0.030827163 -0.0039376314 0.010747452
000030 7d d6 e4 3e 60 84 24 bd 5d eb 36 3d 57 c4 aa bf
       0.44694892 -0.040165305 0.044658054 -1.3341168
000040 7c 00 24 3f f4 18 54 3b 7f e0 9b bf c9 04 db bb
       0.6406324 0.0032363506 -1.2177886 -0.00668392
000050 70 24 83 3d 9c d5 57 bc 53 04 88 3d 52 b2 a7 bb
       0.06403434 -0.013173487 0.0664145 -0.005117693
000060 53 90 cc bf 24 de 59 3d f3 53 76 bf 44 1f 34 bd
       -1.5981544 0.053190365 -0.96221846 -0.04397513
000070 78 1f 2d bf 4e 33 a6 bf dc c9 1c bd d3 1b b6 bd
       -0.6762614 -1.2984407 -0.038278446 -0.08892026
000080 14 7f 90 bd 0e 0a 51 3c 94 02 d3 bc de ab 8a 3d
       -0.07055488 0.012758745 -0.025758065 0.06771062
000090 73 41 08 3d 88 8b 96 bb 97 a7 d5 bf e2 79 05 c0
       0.033265542 -0.00459427 -1.6691769 -2.0855641
0000a0 9c 9c c7 bc a7 a1 aa bc a0 e4 35 bd 0b af ba 3d
       -0.02436667 -0.020829035 -0.044407487 0.09115418
0000b0 69 28 06 bf 36 a0 d5 bf e1 78 84 bc 95 85 3d 3c
       -0.5240541 -1.6689517 -0.01617092 0.011567493
0000c0 a7 8d bc bc 66 fc d6 3b 66 80 7e bc cb a4 99 bb
       -0.023016764 0.00656085 -0.015533542 -0.0046888343
0000d0 98 c7 8a be 2f 1c ed bf 9f ef 8c 40 81 d4 a1 3b
       -0.27105403 -1.8524226 4.4042506 0.0049386625
0000e0 80 18 0a c0 46 99 ad bd 17 dc c7 bf 9c 70 47 3c
       -2.1577454 -0.084765 -1.5614041 0.012172844
0000f0 1b 72 47 bf f9 66 34 3b d3 1b cb bc cd 3b 9a be
       -0.77908486 0.0027527197 -0.024793541 -0.3012375
000100 74 5f 9a bf 6c 9f fd bf df 1b 02 3d b9 63 42 bd
       -1.206038 -1.9814277 0.03176486 -0.047458384
000110 e0 62 84 3f 4e e6 90 be 5d 20 98 3e 72 6b 1c 3d
       1.0342674 -0.2830071 0.2971219 0.038188405
000120 4b a5 7c bc 02 1d 7c c0 d2 e5 2a bc 31 59 39 3c
       -0.015420268 -3.9392705 -0.01043077 0.011312769
000130 da 66 04 bd 23 f2 c0 bd fb fe 23 3f d9 75 7d bf
       -0.03232465 -0.09421184 0.64060944 -0.99007946
000140 4f 9e 04 3b cf 2f 80 bd ff f2 39 bd 19 d3 7b bf
       0.002023596 -0.06259119 -0.045397755 -0.98368984
000150 03 d6 6b be 6d a7 12 bd b4 9d b8 3e 11 d4 b6 bd
       -0.23030858 -0.0358042 0.36057818 -0.08927167
000160 9b 7c 71 3c 7a f2 6e bc bc da 0a 3f b8 75 8f 3d
       0.014739181 -0.014584178 0.5424001 0.07004875
000170 8a ff 60 3f 6a 68 0a bf 89 05 19 3e 00 17 93 bf
       0.8788992 -0.54065573 0.14943518 -1.1491394
000180 fc b3 41 bf 38 a0 af 3f fd 82 7f be ab 74 57 bd
       -0.7566526 1.372077 -0.24952312 -0.052601498
000190 3b 04 0e bf d3 99 9f 3f 52 e0 92 bb e8 31 ea 3c
       -0.55475205 1.2468818 -0.0044823075 0.02858825
0001a0 76 a6 9f 3a 48 bd d2 bc 38 56 79 bd 1e 0c 4c bd
       0.0012180347 -0.025725022 -0.06087324 -0.049816243
0001b0 65 30 0e bf 87 1d 17 3c 5a 1e cb 3c 93 1e 34 bf
       -0.55542594 0.009223348 0.024794746 -0.7035915
0001c0 a4 ae 87 bd 4a 48 cf bc 1c 9b c1 bd 28 6a e2 bc
       -0.06625107 -0.025303025 -0.09453413 -0.02763851
0001d0 e6 19 d9 bf 82 b2 ba 3d bb ee a0 3f 03 78 b2 be
       -1.6961029 0.09116079 1.2572855 -0.34857187
0001e0 54 0c 92 be 9a 84 c3 3e df 0a e7 3c 8e 29 b1 3b
       -0.2852503 0.38187104 0.028203426 0.005406565
0001f0 f6 8e ef 3b 96 af 49 3d 19 8f f2 bf 6a 1d a2 bd
       0.0073107434 0.049239717 -1.894992 -0.079157665
000200 c3 c3 78 c0 6e 20 d3 be f2 83 60 bd 75 1d da bc
       -3.8869483 -0.4123568 -0.054813333 -0.026625374
000210 fa 26 cd 3b ab 7f 8f 40 a5 49 24 bb f0 8e ed 3e
       0.00626075 4.4843345 -0.002506831 0.46398115
000220 a2 37 c2 3c 81 ab 20 bf 6b e2 f0 be 54 c3 f3 3b
       0.023708168 -0.62761694 -0.47047743 0.0074390564
000230 bb e2 cc 3c f6 b9 2b bf 8d 27 7e 3d 4a cb 8c be
       0.025010457 -0.6708063 0.062049437 -0.27498847
000240 1b a1 a5 3e 73 37 21 3c 0d 8c 22 bf 1d b6 2a bd
       0.32349476 0.00983988 -0.6349495 -0.041677583
000250 bc 00 3c 3d e3 85 75 bd 57 fd 44 bd 10 e5 27 3f
       0.045899138 -0.059942137 -0.048093166 0.65583897
000260 18 a4 9c 3c a2 f8 b3 3d 17 5f ce bc 39 3c 3c 3f
       0.019121215 0.08787657 -0.025191827 0.7352939
000270 5d 16 4d bd 54 ee 32 bd 28 61 7c bc 6a 6f 12 3b
       -0.050070155 -0.04368432 -0.015404023 0.002234424
000280 22 1e 2f bd 0f 73 49 3e 64 fd f4 bc c5 d1 88 40
       -0.042753346 0.19672798 -0.029905982 4.2756066
000290 97 d2 5e 3c f6 ee 2b 3f b4 d8 3c bf e2 15 79 3d
       0.013600013 0.671615 -0.7376816 0.060811885
0002a0 a2 25 eb 3f df 95 55 bc 64 4a 19 bd 91 a8 81 3c
       1.837086 -0.01303622 -0.03742446 0.015827449
0002b0 b5 bf 23 bd df b7 31 3f e6 79 1b 3c 99 e3 91 bc
       -0.039977748 0.6942119 0.009489512 -0.017808722
0002c0 95 42 bc be 5a 72 b1 bd 5c ac d3 bb 90 7f 01 40
       -0.36769548 -0.08664389 -0.006459756 2.0234108
0002d0 da d1 02 bd 91 df 07 be 1a 66 1e be 67 bc 9c bd
       -0.03193841 -0.13268878 -0.15468636 -0.076531224
0002e0 b9 38 df 3c cb bd a0 bd 87 44 62 bf d1 01 cb 3e
       0.027248727 -0.078487 -0.88385814 0.39649823
0002f0 14 bc ca be 8f db c2 bb be 8c 53 3c db ac 58 bf
       -0.39596617 -0.0059465836 0.0129119735 -0.84638757
000300 e8 42 b3 3d 66 1d 53 bd f3 a2 92 bc ca 02 4e bd
       0.08752996 -0.05154171 -0.017899966 -0.05029563
000310 3c 4b f4 bc 9d 32 1b bf 03 0d cc bc 46 3f e7 bc
       -0.02982103 -0.60624105 -0.024908548 -0.028228413
000320 cb 84 85 bd 48 09 93 3d 3c 93 95 bc d5 9b f8 bc
       -0.06519469 0.07179505 -0.018258683 -0.030347744
000330 30 f5 f5 3c 81 53 42 bd b3 3d 10 3c 3c 33 24 bd
       0.030024141 -0.047442917 0.008803773 -0.040087923
000340 88 86 02 3f 53 4a 3a bf c0 f3 1a 3c f4 92 82 3c
       0.5098653 -0.7276966 0.009457529 0.015939213
000350 db 13 a0 bc ce e5 af bd 43 e4 20 bd b4 dc 3b bc
       -0.019540718 -0.08588754 -0.039280187 -0.011466194
000360 89 6a af be 3b ec 75 bd 53 c7 30 bd fd 93 52 bd
       -0.34260967 -0.06003974 -0.04315884 -0.051410664
000370 fd 4d 13 be 40 b8 bd be 19 db cd bb f2 11 a0 3c
       -0.14385219 -0.37054634 -0.006282222 0.019539807
000380 80 ef 1a bd 39 d3 14 bf 7e 0d 8c 3f 88 59 51 bd
       -0.03782606 -0.581348 1.0941617 -0.051110774
000390 98 cc f6 3e 6f 44 98 bc e2 17 6d bc 96 69 22 3d
       0.48202968 -0.01858732 -0.014471026 0.039651476
0003a0 3d 51 28 3e 89 73 bb 3c ce 60 e7 bc 82 0e 83 bc
       0.1643724 0.02288224 -0.028244402 -0.015998129
0003b0 3b c1 91 bd 6c 71 12 bc 57 5c c0 3f 9d 8a 60 3c
       -0.07116934 -0.008938175 1.502818 0.013704923
0003c0 13 94 87 bd 1a 7e 34 bd 45 e2 1b bf 85 c2 97 bf
       -0.0662004 -0.044065572 -0.60892135 -1.1856238
0003d0 72 b5 80 b9 5d 32 cd be 19 76 b5 3a 44 66 60 bd
       -0.0002454925 -0.40077487 0.00138444 -0.054785028
0003e0 91 be f2 bf 36 d8 39 bd b6 0b c2 be 11 1f 4f bf
       -1.8964406 -0.04537221 -0.3789956 -0.8090678
0003f0 34 2d 15 bd 19 14 02 bd 20 85 3e bf aa f9 a7 ba
       -0.036420062 -0.031757448 -0.7442188 -0.0012815495

weight f4 [128, 256]
000000 fa e8 2f be 94 d0 c6 3c 0f 05 77 3e 78 6b 3f 3d
       -0.17178717 0.02426938 0.24123023 0.04673335
000010 b9 60 8b 3c b8 10 99 3e 8f fd 04 be 4b 1c ac bd
       0.017013894 0.29895568 -0.1298735 -0.08403834
000020 71 28 66 bd 9b 02 43 3d f6 39 b4 3b b6 b6 48 bd
       -0.05619091 0.047609907 0.0055000735 -0.04900237
000030 b7 86 af 3d b4 0b 82 3d 97 ee 21 bc 06 b5 ad bc
       0.08570617 0.063498884 -0.009883544 -0.021204483
000040 ec af 97 be 4c 04 3a 3d 27 c0 b1 bc b0 e3 97 3c
       -0.29626405 0.045414254 -0.02169807 0.018541187
000050 b0 e0 98 be 30 e9 75 3d ae c5 7f 3c e4 4d 0d bd
       -0.29858923 0.060036838 0.015611095 -0.03449811
000060 ae 0e 20 3e b1 b5 2c 3c 23 1a 05 3e a6 f3 2d 3d
       0.156306 0.0105413655 0.12998252 0.04246869
000070 46 8c ef 3d e8 ad 03 3d d3 a8 30 bc 40 11 1c 3d
       0.11696677 0.03214827 -0.010782438 0.03810239
000080 99 03 e7 3c 2c 7d 9a bc c8 dc 13 3c ab eb 9b bd
       0.028199958 -0.018858515 0.009024806 -0.076133095
000090 c8 53 84 3a b5 fa d4 bc 19 99 f4 3d 06 fe 04 be
       0.001009577 -0.025998453 0.119432636 -0.12987527
0000a0 d5 83 e8 bb 30 bd 77 3d a0 1f a5 3d 27 c3 24 3b
       -0.0070957937 0.060483158 0.080626726 0.0025140734
0000b0 f9 0a 5e 3e a8 09 b0 bd 1c 87 00 3c 0e b6 32 bc
       0.21683873 -0.08595592 0.007844713 -0.010907663
0000c0 35 4a cc 3a b6 cf 12 bb 10 ea a4 3d eb 37 81 3c
       0.001558608 -0.0022401637 0.080524564 0.015773734
0000d0 9d 46 2f 3e d0 25 ff bb d2 11 81 be 2e 0e 10 3e
       0.1711678 -0.00778649 -0.25208908 0.14067909
0000e0 aa 7d 85 be 62 2e 25 bd 4e 53 3c bd 38 cb 9b 3d
       -0.26072437 -0.040327437 -0.045977883 0.0760712
0000f0 9a 63 d6 3d 31 4d 16 bb 99 18 47 bb 0b eb 21 be
       0.10468216 -0.0022934193 -0.0030379652 -0.15812318
000100 71 07 6c bc 01 1b 8d 3e 8b 42 da 39 05 f4 59 bd
       -0.014406071 0.27559665 0.0004162978 -0.05321123
000110 7e 1e fb be 3b ab b2 3e a0 03 72 3d 01 ee 44 bd
       -0.490467 0.34896263 0.05908549 -0.04807854
000120 1b 4e 59 3d 21 ae 7b be cd 61 45 3a 34 46 2d bd
       0.053053003 -0.24578144 0.0007529527 -0.04230328
000130 02 d6 61 bd 73 66 9a 3e e4 49 65 be 53 0a 98 be
       -0.055135734 0.30156288 -0.22391468 -0.29695377
000140 f5 d3 62 bb de 32 89 bd 4d d5 15 bd fd 76 c9 bd
       -0.00346112 -0.06699155 -0.036580373 -0.09837148
000150 20 8b 7d bc 37 12 81 3c 99 dc 24 3e e6 67 02 bd
       -0.0154750645 0.015755756 0.16099776 -0.031837367
000160 ff 70 c8 3c 7a 4c 4a 3c b4 e0 d7 3d 05 68 9a bc
       0.024467943 0.012347335 0.105409056 -0.018848429
000170 f0 d8 88 be 07 58 32 bd dd fe 9e 3c 06 8a 97 bb
       -0.2672801 -0.04354098 0.019408638 -0.004624608
000180 ff a7 27 3e d3 72 b4 be 5d f9 3b 3e 07 b5 a7 3c
       0.16372679 -0.35243854 0.18356843 0.020472063
000190 1b c1 8b bc f7 fd 7f be e2 47 03 bd 3c 2e b0 bc
       -0.017059853 -0.24999224 -0.032050975 -0.021506421
0001a0 1d a9 d2 3c 71 a4 02 bd 14 a8 ef bc 39 14 a0 ba
       0.025715405 -0.031895105 -0.02925495 -0.0012213058
0001b0 5e ba c4 be a1 79 a6 3c 0b 68 05 3d b7 1e 34 3d
       -0.38423437 0.020321669 0.032569926 0.043974604
0001c0 85 68 fa 3c 09 09 71 3c 7e 4d b5 be c2 c5 40 bd
       0.030567417 0.014711627 -0.35410684 -0.047063597
0001d0 ea bc fe 3d 6d b6 da bc 4a 55 e4 be 62 d0 87 3d
       0.12438376 -0.026698316 -0.4459632 0.06631543
0001e0 b6 5d 5f bd ac 12 95 be 3d ed 19 bd 26 e8 45 3c
       -0.05453273 -0.29115808 -0.037579764 0.012079274
0001f0 8f c0 d7 bc 66 80 5c bd 1a 72 7a 3d c0 64 31 3d
       -0.026336936 -0.053833388 0.061143972 0.043308973
000200 a7 5f 16 be 37 88 c9 bd 53 b5 6f 3c 36 15 50 bc
       -0.14684926 -0.09840434 0.014630633 -0.01270037
000210 9f fd 56 3e 2d 72 dd be fe f2 3e bd 41 d0 c1 be
       0.20995186 -0.43251172 -0.046618454 -0.37854198
000220 14 9e f5 bc 95 f4 a6 be c5 15 86 be 9e 16 bc bc
       -0.029982604 -0.32608476 -0.26188484 -0.022960003
000230 de ef 23 bd 6c c2 8f 3d 6f dc aa 3e d6 b0 0e 3d
       -0.040023677 0.07019505 0.33371302 0.034836613
000240 30 6f 62 be 86 f9 f7 ba f5 bf 7f 3d ed 2c a2 bd
       -0.22112727 -0.0018918968 0.062438924 -0.07918725
000250 39 c2 cf 3c 43 7a 2c bc 18 ec 97 3c 81 bd 93 be
       0.025361167 -0.010527196 0.018545195 -0.28855518
000260 c4 f1 76 bd 0c 1e 95 3c e1 41 c3 bb ed bc a1 3d
       -0.06028916 0.018202804 -0.005958781 0.07897363
000270 da 6d 6f 3d 3f 1f be bc 07 90 e8 3c 7d aa 8a bc
       0.058454372 -0.023208259 0.02838899 -0.016926998
000280 1f ba 1c bd 4f 5d 44 be c7 cc 55 3b 13 98 e0 bd
       -0.038263436 -0.1917622 0.0032623278 -0.10966506
000290 67 45 ef bc 9d 2f 95 be e6 64 42 be 06 56 d9 3b
       -0.029207898 -0.2913789 -0.18983802 0.0066325692
0002a0 9c f9 99 be 4d 6e 80 3d 1e a1 db bc 5c 5d 08 3d
       -0.3007325 0.06271038 -0.026810225 0.03329216
0002b0 6f 76 60 3d 03 71 8f be 7d d8 f1 bc d7 cf a0 3c
       0.054800447 -0.2801591 -0.029522175 0.019630356
0002c0 26 38 8c be cf 9c 67 3d 34 86 4d bd d7 bf 8a be
       -0.27386588 0.05654603 -0.050176814 -0.27099487
0002d0 e2 83 f1 bc df 0c 31 bd 87 82 1f be 6f 97 17 bd
       -0.029481832 -0.043225165 -0.15577136 -0.037009653
0002e0 13 dc 5f 3d 58 d0 82 39 4b 74 a0 be de a9 95 be
       0.05465324 0.0002495076 -0.31338724 -0.2923116
0002f0 43 12 75 3e f3 8e 55 3c 57 2e 54 bc 66 c9 12 3e
       0.23932748 0.01303457 -0.012950501 0.1433464
000300 65 2b a0 bc 94 64 4f 39 d5 6b 52 3d 43 6f 26 bd
       -0.019551942 0.00019778527 0.051372368 -0.04063345
000310 00 94 29 3d 8a e4 85 be 32 97 1c 3d ec 33 82 3d
       0.04140091 -0.26150924 0.03823013 0.063575596
000320 95 70 d4 3c 49 bc e9 3c f3 6f c5 bc 54 57 f1 3b
       0.02593259 0.028532164 -0.024101233 0.0073651467
000330 07 46 04 3d 97 61 90 bb fe 95 25 3d 2e 10 93 bd
       0.032293346 -0.004406165 0.040426247 -0.071808204
000340 95 20 67 be a3 6b 95 3c 36 d1 02 3c af 61 fc bc
       -0.22571023 0.018239802 0.00798445 -0.030808298
000350 84 b0 57 3d 29 93 5a bc d5 65 af bb b7 f4 e5 bb
       0.052658573 -0.01334075 -0.0053527155 -0.0070176977
000360 fb 63 36 3d 53 0b d3 3c fd 15 26 bd 16 6b 17 bd
       0.044528943 0.025762236 -0.040548313 -0.03696736
000370 97 03 c9 bd af 5b 28 3d 58 28 9e bd 8e 31 98 bc
       -0.09815138 0.04110306 -0.07722539 -0.018578317
000380 87 62 87 3d 35 c5 14 3e d3 67 a3 be 48 37 8a be
       0.066105895 0.14528354 -0.3191515 -0.269953
000390 85 c2 33 bc f4 74 07 bd e0 9a 89 bc 1d a3 fd 3c
       -0.01097167 -0.03307052 -0.016797483 0.030961568
0003a0 89 d8 1c 3e 6c 4d e8 bc 20 bb 06 3d e2 48 17 bc
       0.15316977 -0.02835723 0.0328933 -0.009233685
0003b0 fc 5b 65 3d 6c 47 27 3c db 3b 81 be 4a e2 6c bb
       0.055995926 0.010209899 -0.2524098 -0.003614562
0003c0 5b fd 63 bd d7 88 02 bd 7a 31 8e bd 67 e7 66 be
       -0.05566154 -0.031868782 -0.06943031 -0.2254921
0003d0 71 31 ef 3c 1e 5f 3c 3e a0 d2 32 bd e7 af a7 bc
       0.02919838 0.1839566 -0.0436579 -0.020469619
0003e0 d9 e5 07 3e 76 93 db bc 39 5b 1b be b9 41 b0 3d
       0.13271274 -0.026803713 -0.15171517 0.086062856
0003f0 05 06 3c 3d 40 08 d2 3d 0e b7 91 3c 5f ff 68 bd
       0.04590418 0.1025548 0.017787483 -0.056884166

bias f4 [128]
000000 cc 63 c5 3c 4d 24 9d bd 8b 46 5b bd 0f a8 54 c0
       0.024095438 -0.076729394 -0.053534072 -3.3227575
000010 7e 6a 0a 3b 5f 4d b9 bd 07 a0 46 bd 26 30 81 3e
       0.0021120603 -0.090479605 -0.048492458 0.25232047
000020 91 62 42 bd 2b 11 1b bf 2e 30 9a bd 78 c8 59 ba
       -0.04745728 -0.6057307 -0.07528721 -0.0008307765
000030 40 95 fd bc 3e e4 88 bd 8d 98 19 be b4 82 31 bf
       -0.030954957 -0.06684159 -0.149996 -0.6934006
000040 84 9f b5 bd 2f af 74 40 0c 24 e6 3f 99 6f ad be
       -0.08868316 3.8231924 1.7979751 -0.33874205
000050 ca df a7 bd 8c 5d 80 bd 7f 1e f0 bd d0 16 90 bc
       -0.08196981 -0.06267843 -0.11724567 -0.017589003
000060 87 20 78 bd 80 c2 ed 3d 85 3b a0 bd c0 76 8d bc
       -0.060577895 0.116093636 -0.078238524 -0.017268538
000070 00 26 3b bd a7 ff 1e 3f 81 67 b7 bc 2f 91 53 3f
       -0.045690536 0.62108845 -0.022388222 0.8264341
000080 f9 26 d4 bd d0 61 9f bf 3b 36 15 be a8 6b 8a bb
       -0.10358996 -1.2451725 -0.14571469 -0.0042242594
000090 aa e1 0d 40 03 12 c4 bd aa 12 f6 bd e9 40 6c 3c
       2.2168984 -0.09573748 -0.12015279 0.014419773
0000a0 e1 45 79 bd 8a f1 85 bd 5b ec 8b bd 93 70 8d c0
       -0.060857657 -0.065402105 -0.068321906 -4.419992
0000b0 03 16 90 bc e8 e9 a0 bd 60 0e 2b be e0 2a b5 bd
       -0.017588621 -0.07857114 -0.16704702 -0.088460684
0000c0 34 c2 9f bd a4 0b b1 bd 73 e8 24 bd 30 54 ac c0
       -0.07800713 -0.086447984 -0.040260743 -5.385277
0000d0 2f 77 6f bd 9b f6 cf be cb 7e cb bc 6a 5a 47 b9
       -0.05846327 -0.40617833 -0.024840733 -0.00019011801
0000e0 61 ca 8c bd 1a 07 f7 3b a9 50 43 3f 78 71 91 bd
       -0.06874538 0.0075386884 0.7629495 -0.071017206
0000f0 4f 39 9f bd d8 83 5f bd 53 89 d7 bc 26 b1 f9 bd
       -0.077746026 -0.054569095 -0.026310598 -0.121919915
000100 bb 47 f7 bc 44 a4 08 be af 81 be bd c1 f6 c0 bb
       -0.030185571 -0.13343912 -0.09302079 -0.0058887904
000110 3b e6 08 bd 48 43 b7 bd e1 7f 95 bd 5f 0d 8b bd
       -0.03342269 -0.0894838 -0.072997816 -0.0678966
000120 ab 24 cd bd 45 20 be bf 51 22 34 40 a7 2b c5 bf
       -0.100167595 -1.4853598 2.8145945 -1.5403947
000130 5a 94 c8 bd ec cf 15 3f 85 4f 09 be c2 5f 0c c0
       -0.09793921 0.5852039 -0.1340924 -2.1933446
000140 10 27 ab bf 7c d0 4d bd a2 fb a4 bd f0 09 99 bd
       -1.3371296 -0.050247654 -0.08055808 -0.074725986
000150 7d ef f1 bf 10 90 a3 bc ff 03 e1 3c 16 14 87 bf
       -1.8901211 -0.019966155 0.027467726 -1.0553005
000160 51 47 d8 bc 9a 50 d4 bc b1 54 df bd 8c 18 00 bd
       -0.026401194 -0.02591734 -0.109048255 -0.03127341
000170 4d ea 84 bf ab b5 8b bd 6e 6d cb 3d d8 53 02 40
       -1.0384003 -0.0682176 0.099329814 2.0363674
000180 e3 76 b0 3d 0b 9f 0b 3b 14 e4 ac 3d b5 98 26 bd
       0.08616426 0.0021304514 0.0844194 -0.040672977
000190 7c cc ae bd 7a 3a a0 bd 9d 00 0a bd 88 da b5 bc
       -0.08535096 -0.078236535 -0.03369199 -0.02219893
0001a0 6e 81 ed bc ab 88 e2 3f 10 a8 9a bd f3 02 bd bd
       -0.028992381 1.7697958 -0.07551587 -0.09229078
0001b0 2c bf d0 bd 61 a6 dd bd 7d 91 a5 bc 1a 0b c3 bd
       -0.10192713 -0.1082275 -0.020210976 -0.09523602
0001c0 d5 4d 26 bd 5c 68 d0 bd 90 9a fa bc d0 a8 fa 3d
       -0.04060157 -0.10176155 -0.03059128 0.1223923
0001d0 94 ba a6 3f c6 16 4f bd 4e 2e cf 3f 45 b0 2b bd
       1.3025689 -0.050558828 1.6186006 -0.04191615
0001e0 e4 c9 a1 bd 07 c6 a5 bc 19 9e b8 bd e3 71 ec 3e
       -0.07899836 -0.020236028 -0.0901453 0.4618064
0001f0 a9 9b c6 3f 32 bb 95 be c8 75 0b be 5f 39 22 bc
       1.5516254 -0.2924438 -0.13619149 -0.009901374

weight f4 [1, 128]
000000 60 4a 6d 3c cf 3b 8b bb 01 0e cc 3c 97 27 9c 3e
       0.014483064 -0.004249073 0.024909021 0.30498955
000010 89 2a ad 3c 1b a8 8c 3c 6e 45 e3 3c a1 ee 3d 3f
       0.021138446 0.017170003 0.027743068 0.74192244
000020 bc 9d 2b bc ad 4b 14 be 94 a2 59 bc 67 15 ce b8
       -0.0104746185 -0.14481993 -0.013283391 -9.826832e-05
000030 76 d0 27 3c fb 5f 65 3c 9c e5 9b 3c 70 ac 84 3f
       0.010242572 0.013999934 0.019030385 1.0365124
000040 d1 97 40 3c 7d 77 a2 bd d3 ff 1b be 1a be 20 3e
       0.011754946 -0.07932947 -0.15234308 0.15697518
000050 65 2e e9 bc 79 61 1c bc 22 2a 72 bd c6 14 fe 3c
       -0.028464505 -0.009544724 -0.059122212 0.031015765
000060 75 8e 76 39 9a c8 83 3c 73 ad 82 3c f3 9f eb 3c
       0.00023513458 0.016086865 0.015951848 0.028762793
000070 d3 44 d5 3c 76 2f 04 be e4 70 19 3d 66 d1 9d 3d
       0.026033795 -0.1290873 0.037461177 0.07705955
000080 31 06 f3 3c 0a 84 4c be ac 91 c3 bc b0 28 b3 bb
       0.029666038 -0.19972244 -0.023873173 -0.005467497
000090 3d 44 f5 bd 84 d5 97 bc ba 46 cf bc 56 db e3 bb
       -0.11975906 -0.01853443 -0.02530228 -0.006953637
0000a0 4e de 96 bc 85 f8 79 bc 46 aa 59 bc d9 e3 8d 3d
       -0.01841655 -0.015257006 -0.013285225 0.06928224
0000b0 ee a1 f7 bb 61 fd 03 bc 5b b0 1f 3c 1c 02 8f 3c
       -0.0075571453 -0.008056016 0.009746636 0.01745706
0000c0 d8 17 12 bc 80 43 dd 3c 54 0a 00 3d 95 70 48 3f
       -0.008916818 0.027009726 0.03125985 0.78296787
0000d0 64 de 0d bc 5c 71 44 3f cc c5 a5 bb 86 a0 fd bb
       -0.008658979 0.7673547 -0.0050589796 -0.007740083
0000e0 10 1d 1c 3c 22 53 d7 3c 7f 6b 35 be 27 5b e9 3c
       0.009528413 0.026284758 -0.17716788 0.028485848
0000f0 27 0d f5 bc ee 41 33 3c 92 86 79 bc 7a 0f 30 bc
       -0.029913498 0.010941012 -0.015229838 -0.010745877
000100 07 ba f0 3c 8f 3b 41 ba b8 fa d1 3c 3c 70 f4 3c
       0.02938558 -0.00073712406 0.025632247 0.029838674
000110 df fa ce bc 1e 43 33 bc 86 be 9d 3d 3c a1 21 3c
       -0.025266109 -0.010941295 0.07702355 0.009865101
000120 73 e4 d4 bc 0f 81 41 3f a0 df 0b be df b3 ce be
       -0.02598784 0.7558755 -0.13659525 -0.40371606
000130 41 d5 44 3d 5b 91 43 3e 8f 88 93 3b c5 ba 8c 3d
       0.048054937 0.19098417 0.004502363 0.06871561
000140 be 79 8c 3d fa df ee 3c 80 dc 96 3c d3 21 2e 3c
       0.06859158 0.029159535 0.01841569 0.0106281815
000150 dc 90 93 3d 0b 63 b1 bc 86 51 3c 3c 6c 83 60 3f
       0.07205364 -0.021653673 0.011494046 0.87700534
000160 bc d6 a1 3e 0d e2 a4 bc 21 aa 35 3c 71 9f a4 3c
       0.31609142 -0.02012732 0.011087925 0.020095559
000170 83 81 1d 3f c9 87 d5 3c 0d 46 ae bb d2 e1 fc be
       0.61525744 0.026065724 -0.0053184093 -0.49391037
000180 f3 31 ff ba 66 4b c5 bc 29 ce 3b bd d1 2b b3 bc
       -0.0019469842 -0.024083804 -0.045850907 -0.02187148
000190 64 ff 33 bc ba ee 5a bc 4b c2 e0 39 77 56 d7 3c
       -0.010986183 -0.013362581 0.0004286937 0.026286347
0001a0 84 82 18 3d 63 b1 76 be 53 85 e4 3c ac 39 a1 bc
       0.037233844 -0.24091105 0.027895605 -0.01968082
0001b0 d2 be 9f 3b 3f 83 94 3c 38 dd 4e 3b b3 63 af bb
       0.0048750425 0.01812899 0.0031564962 -0.0053524612
0001c0 35 f9 8a bc 36 b5 e2 bc 8b cb 3c 3c 28 f4 fa 3b
       -0.016964534 -0.027674299 0.011523138 0.0076585
0001d0 80 89 1d be 85 21 e5 3c 9c 75 19 bf 99 fe 8f bc
       -0.15384483 0.027970085 -0.5994508 -0.017577456
0001e0 b6 58 de bc ac 18 81 3a 64 6b c6 bb 13 1f 98 3d
       -0.02714191 0.0009849272 -0.0060552824 0.07427802
0001f0 cf c5 c5 bd dd 22 ce 3d 65 b3 22 bd a5 2e e4 3b
       -0.096568696 0.100652434 -0.039721865 0.0069635683
