trained/exp_train_3_3_1111_0.0001_0.001_32_0.95/model/ctrl_actor_2.pth (torch, 311295 bytes, 6 tensors)

weight f4 [512, 20]
00000000: 3e10 40be 849c 023e 5038 f73d 6f1a 553e
00000010: 0b0a ef3d 5421 9abe 4ce4 ca3e b9ad 8f3d
00000020: 0842 4b3e bf4e 6cbe 0f9b e03d 8827 4f3d
00000030: 67de e9be b036 9b3c bed1 bc3d 5bb2 2ebd
00000040: 2558 173e d3c4 7ebe 257c 61bd 96c6 783e
00000050: 03c8 e5bc c79d 29be 9009 8bbc b26b 203e
00000060: 4131 853e 1c70 cfbe 133d 833e eb4e 0a3d
00000070: 6a54 bfbc 056a 26be 73ee efbd 230a d73c
00000080: c833 4abe a04f a9be 1e05 92bd 63f8 453d
00000090: ca46 203e f218 953e 3b9a 8cba b64e 2d3e
000000a0: d7ee bf3c 9218 1ebe 48ad 833e 8577 f7bd
000000b0: 4f08 8fbe 65fb 373e 3b90 223e 9f5e 30be
000000c0: d027 753e e518 173e fd60 5e3c 043b 2e3d
000000d0: 60d3 31be 637d a5bd cd13 b43d d8c5 55be
000000e0: 4580 723e 6e84 66be b5ba 1c3c 4b87 fa3d
000000f0: 2e02 81bd 0a42 2a3e 38eb d73b feb2 5a3e
00000100: 6ad9 4dbe 6dec 47be a0e0 803e d0fa cb3d
00000110: d364 043e aad1 ee3d 0c0c 213e df99 223e
00000120: db9c ca3e 8df3 96be 85db 6abe 8ea8 02be
00000130: f1cc 8c3c 865b 483e 84ea 38be 7f0a 9fbb
00000140: 31d9 3e3e c22a 04be 820e 243e 4459 36bd
00000150: 5fe7 303e 8a6a 3fbe faaa a8be 08e0 1f3e
00000160: 591b ac3d bf78 02be 8176 d8bd 67fe 19be
00000170: 1f09 6f3c d05e 273e 4e3a c73d e5c6 db3e
00000180: c7a7 f53d ad1c 9cbe 8b13 82bd 5b36 3b3d
00000190: 5f67 14be 57a0 bdbd 6d6d 94be 6f87 19be
000001a0: 03fe 00be f1a2 33be 8947 a9be 8e42 97be
000001b0: 0b14 afbe d725 a1bd 4d0e cc3d 37f4 c83d
000001c0: 85d9 b3bd 464b c5be b66d f73d df3e d2bd
000001d0: f8e4 523e 9d30 0c3f a0f7 6c3e f4e9 a4bb
000001e0: 333d 503b c40b 98bd 5b16 a43e 72c8 45be
000001f0: 4473 a53e 8115 933e 3232 183e d260 13bd
00000200: 844f c1be e3aa 87be 99fa 3d3c dd4e 493e
00000210: e614 003e 3931 d43d 4161 d9bd 9393 1dbd
00000220: a070 9b3d 4004 833d 5f4f 813c 6e40 71be
00000230: 1965 813d 53f6 203e 3419 80be 625b 1b3e
00000240: 70bb 643e 5a82 0e3e c16c 513e 44a3 a53d
00000250: 3844 653d 8831 cf3e 3aa8 293e bfe9 1e3e
00000260: 7306 87be ba3d e4be bd47 543e b940 9bbd
00000270: 7db4 09be f1bd 3ebe 3bd0 9abe 6754 e93d
00000280: 0d21 493d c26e 0cbe ffbc 1ebe 4ef3 8abd
00000290: 26f8 783d 367e a13e 9569 283e 6e39 793e
000002a0: 3615 793e a75a abbe 319b 93be b8ba e7bc
000002b0: df6e 39be df28 0e3e c739 4c3e 1452 22be
000002c0: d085 2dbe ee88 4e3d e78d 38be 529b babd
000002d0: c1f2 72be c751 de3d 19f9 9d3e bec5 a5be
000002e0: f7d4 043e 6bf3 2fbe f3e2 8a3e a3e4 8fbd
000002f0: ec3b 13bf 0bf4 193e a247 8f3e 868d a83d
00000300: e9b6 363e c171 9abe 425c 613d acaf 7ebe
00000310: d4eb 0fbe b65f 4b3c b407 9d3d 9e52 4c3e
00000320: eafb e73d cbbe 473c c51d 15be 75ad babb
00000330: 87d7 b2be 241e 223e 3818 ab3e 1b34 50bc
00000340: aadb aebe 42b7 2cbe b2d7 763e 8d88 94bc
00000350: b19f 103d 6194 adbe f0ca 683d c49c d93e
00000360: 3021 06bd af01 6d3e 28b7 e03c d00d 653d
00000370: a039 d43d e3fc bd3d b06f 173d 31e0 c73e
00000380: f1da 58be d301 a43d ec24 59be bec7 b7bd
00000390: a897 803c d9c6 14be ae5c 973c 4d75 093e
000003a0: 5d1c cc3d 98ff a9be 797e 14bd 9f88 07be
000003b0: 715e 8dbe 3010 963e 3232 283e 2cb3 5dbd
000003c0: e15f 6d3e 7d9d ebbd 4674 5f3e e1f1 c5bd
000003d0: a7df 4abe 9771 39be 1e81 10be f896 a33b
000003e0: 700d 1d3e 1356 a43d f6e6 0d3e 111f 17be
000003f0: d119 29be 2bcd cc3e da03 113e 1abc 80be
-0.18756196 0.12755018 0.12071288 0.20810865 0.116718374 -0.30103552 0.39627302 0.07015557
0.19849408 -0.23076914 0.10967075 0.05057481 -0.45677492 0.018946975 0.09219693 -0.04265056
0.14779718 -0.2487977 -0.055050034 0.24294505 -0.028049475 -0.16564094 -0.016972333 0.15666083
0.2601414 -0.4051522 0.25632533 0.03376667 -0.023355681 -0.1625138 -0.117154025 0.02624995
-0.19746315 -0.33068562 -0.07129882 0.048332583 0.15652004 0.29120594 -0.0010727117 0.16924557
0.023429317 -0.1543906 0.2571814 -0.120833434 -0.27936026 0.17966993 0.15875332 -0.17223595
0.23940969 0.1475559 0.0135729285 0.04253675 -0.1736579 -0.08080556 0.08792839 -0.20876253
0.23681743 -0.22511455 0.009565999 0.12232836 -0.06299244 0.16626754 0.0065893196 0.21357343
-0.20102468 -0.19523783 0.25171375 0.09959948 0.12929086 0.11661084 0.15727252 0.1587901
0.39572796 -0.2948269 -0.22935303 -0.12759611 0.017187567 0.19566163 -0.1805821 -0.004853546
0.1863754 -0.12906936 0.1602116 -0.044518724 0.17275761 -0.18692985 -0.32942945 0.15612805
0.08403654 -0.12741373 -0.10569478 -0.15038453 0.014589577 0.16344762 0.097279176 0.42925182
0.119948916 -0.30490628 -0.06351384 0.045706134 -0.14492558 -0.09259098 -0.28989735 -0.1499307
-0.12596898 -0.17542626 -0.3306239 -0.29542965 -0.3419498 -0.078685455 0.09963665 0.09812205
-0.08781723 -0.38533992 0.120814726 -0.10265898 0.20595157 0.5476168 0.23141336 -0.005032772
0.0031774759 -0.07424119 0.32048306 -0.19314745 0.32314503 0.28727344 0.14862898 -0.035981007
-0.37755978 -0.26497564 0.011595392 0.1965899 0.12507972 0.10360951 -0.10614253 -0.038470816
0.07589841 0.06397295 0.015784917 -0.23559734 0.06318111 0.15718965 -0.25019228 0.15171579
0.22337127 0.13916913 0.20451643 0.08087781 0.05597326 0.40467477 0.1656808 0.15518855
-0.26372108 -0.44578344 0.20730491 -0.07580704 -0.13447757 -0.18627144 -0.30236992 0.113930516
0.049103785 -0.13714126 -0.15501784 -0.06784688 0.060783528 0.31541604 0.16446526 0.24338314
0.24324498 -0.334676 -0.2882934 -0.028287277 -0.181087 0.13882779 0.19943915 -0.15851623
-0.16945577 0.050423555 -0.18022881 -0.09111656 -0.23725416 0.108554415 0.3085411 -0.32377428
0.12971865 -0.171827 0.27126274 -0.07026031 -0.5751331 0.15034501 0.2798434 0.082301185
0.17843212 -0.30164912 0.055019625 -0.24871701 -0.14054805 0.012412956 0.07667485 0.19953391
0.11327346 0.012191485 -0.14562137 -0.005696947 -0.3493006 0.1583181 0.33416915 -0.012707735
-0.34151965 -0.16866782 0.24105719 -0.018131519 0.035308544 -0.33902267 0.05683416 0.42502415
-0.032746494 0.23145173 0.027431086 0.055921376 0.103625536 0.0927675 0.036971748 0.39038232
-0.2117727 0.080081604 -0.21205491 -0.08973645 0.015697315 -0.1452898 0.01847681 0.13423653
0.09966347 -0.33202815 -0.036253426 -0.1323571 -0.27611116 0.29309225 0.16425398 -0.05412595
0.23181106 -0.11504648 0.21821699 -0.09665275 -0.19811879 -0.18109737 -0.14111754 0.004992362
0.15337157 0.0802423 0.13857636 -0.14757945 -0.16513754 0.4000028 0.14161626 -0.2514351

bias f4 [512]
00000000: d7d9 96be 38b6 3cbe 98e4 e3be fa7d f23e
00000010: 9406 653e 48e5 3f3d ef48 fabd 6d95 9cbd
00000020: 7e4f 58be e170 2cbe 0137 8a3e c640 90be
00000030: a54b 8fbe 84dc 693e 78c4 713e 7f03 44be
00000040: da83 78be 650c e0b9 8ae9 dd3e 28e6 67bd
00000050: 7b43 423e 4bfc eebe 58e8 863e a98c d43d
00000060: 54d9 2a3e 6fa6 953e 7c1c 21be 2d37 8a3e
00000070: 7b61 87be d57c f5bd e8ad 06bf 113c 033d
00000080: 1d68 8bbe 8890 93be 1778 6abd 3d1b 3dbe
00000090: 78fa b7ba 6da9 1cbe 6055 5ebe d72f 71bd
000000a0: 6afe bdbd 3814 f2be 8643 393e 16bb 893e
000000b0: 3b9a b23d ec01 fbbe 1c61 b7be 97a8 85be
000000c0: 529b 80bd 752c 01be b1f1 603d 8f12 e9be
000000d0: 4919 c83c e767 a83c d80d 30bf 1cc6 a0be
000000e0: b9a1 04bf a37f 193d 7569 efbd 0079 5b3e
000000f0: 4bea 78be 5d7b 06be 8d96 273e b248 8b3c
00000100: f77f 62be 2450 e83d 5641 3abc 0058 2c3f
00000110: 5ae7 1a3e e037 6fbe 2ba4 45be 1343 2ebe
00000120: 261f 80bc 3020 31bf 0260 11bf 70ae 23be
00000130: 0c5a c2be dc95 ccbd 0fd3 3fbe aedf cfbe
00000140: ad97 713e 357e 88be e2e9 6e3e 8b34 06bf
00000150: 3389 d7be 1fe1 0cbf cb48 d9be 95b3 483e
00000160: e445 7e3d c9ce 91be 5c28 d5bd f659 1d3d
00000170: f333 323d 6a90 78bd 3562 cdbe a1fe 65be
00000180: ef1b 8d3e 660e 17bd 0148 0fbe 85c9 443e
00000190: 38f9 e4bd acd6 b5be 7d07 b9bd 7f2b bf3c
000001a0: 7e4e 4b3b 291e d1be b868 71be 065a 58be
000001b0: 4142 2dbe ddfa d0be adca c6bd 2c14 b93d
000001c0: 3675 24be 8596 90bd 540a 183e 02b4 8cbe
000001d0: 4cb5 b3be 5f2b 2abe ca1a 813d 0481 0cbe
000001e0: e1fe 21be a085 26bd 9c1e 7bbd f44d 92bd
000001f0: 9ebf e2bc f795 cebe b4a5 da3c 05f5 15be
00000200: db6d 02bf 3e86 1fbe 8fce 30bc dd46 53be
00000210: 449f a8be 2eb5 003e ae6c 5fbe fa9f 6bbe
00000220: 2b6f 5ebd f88c f7ba dfd2 19be 0c00 4c3b
00000230: f543 293e 4284 c13e 60b5 81bc a023 923e
00000240: c730 dbbe 4561 3abe 2347 ed3d c91c 6ebc
00000250: 3c24 c43d 6321 35bd 82ec 723e 1053 12bb
00000260: 7b81 b73d ab4e f3bd 5174 90bd b45c a6bc
00000270: b3bf a4be 1d08 37be db73 ed3e e5da 30be
00000280: c966 c6bd 4427 e1be e85c 5c3e 4a3e c03d
00000290: b2d3 10be b83f 9ebe fe47 37be f95f 923e
000002a0: f529 44be 350b 63be 1f05 a63d 285f 89bd
000002b0: 5fb6 0bbe 9e91 eabe 40f1 cdbe f218 a3be
000002c0: 05c5 78bb 266c 40be 4d1c 1fbf 1fd2 02be
000002d0: 1132 f53c c565 713d 7c00 93be a463 9abe
000002e0: 316c c1be 1eb8 7bbe 5938 80bd 2851 fc3c
000002f0: faaf 2bbe 83e2 08bd 5b25 233d 2323 a3be
00000300: d43d 53be 8738 8bbe 73c3 00bf ca65 34bd
00000310: ad43 51bd 8e68 0abf 9320 14be 896b 9bbe
00000320: b96b fd3d ef98 9d3e 216a 933e 2fe3 30be
00000330: 9f76 6ebe 2dc3 9f3d bf7a ffbd 8e3d 303d
00000340: 2e23 c4be 8960 8a3e 5335 25be fb48 b7bd
00000350: 87ab 34bc 778a 4cbe c412 95bd 3679 1bbf
00000360: 748a 103d 9b3d 2f3e 4663 b5bd 4b93 96bd
00000370: 669d a6be 9641 55be d9f3 bbbe 4b1d 0a3e
00000380: b068 0a3f 8b26 a63d 62fd 543e 5924 dcbd
00000390: 1252 b23d 25dc d8bd e869 923e 8304 01be
000003a0: dd65 82bd e12b 393e aedc bdbe 63b0 353e
000003b0: 2f31 0fbd 54eb 52be 2f2e b6bc cb65 b5be
000003c0: 2502 51be 7dec 4d3e b073 833e 210c ca3e
000003d0: f730 9ebd 1088 5dbe c2b3 a1be e188 e9bd
000003e0: 6d3b 4bbc bf24 e7be c4bd 9dbe 32b2 bc3d
000003f0: 3b8b 573b 25c6 edbd f29c 9bbe acbd 45be
-0.29463074 -0.18428886 -0.4451034 0.47361737 0.2236579 0.04684952 -0.12220942 -0.07645688
-0.21124074 -0.16839935 0.2699509 -0.28174418 -0.279874 0.22838026 0.23610103 -0.19141959
-0.24269047 -0.00042733844 0.4334224 -0.05661598 0.18971054 -0.4667686 0.2634914 0.10378391
0.16684467 0.2922854 -0.15733522 0.2699522 -0.2644156 -0.119867004 -0.5260911 0.032039706
-0.2722787 -0.28821206 -0.057243433 -0.18467422 -0.0014036437 -0.15299006 -0.21712255 -0.058883514
-0.09277041 -0.4728105 0.18092164 0.26900548 0.087208234 -0.49024904 -0.35816276 -0.26105186
-0.06279625 -0.12614615 0.054917995 -0.45521972 0.02442612 0.020557357 -0.68771124 -0.31401145
-0.5180927 0.03747524 -0.11690036 0.21432877 -0.24308126 -0.13132997 0.16366024 0.017002437
-0.22119127 0.113434106 -0.011368116 0.6732178 0.15127316 -0.23361158 -0.19300906 -0.17017774
-0.015639853 -0.6918974 -0.5678712 -0.15984511 -0.37959325 -0.09989521 -0.18732856 -0.40600342
0.23593016 -0.26658788 0.23331407 -0.52423924 -0.42096862 -0.5503101 -0.4243835 0.19599755
0.06207837 -0.28478077 -0.104080886 0.03841587 0.043506574 -0.0606846 -0.4011399 -0.22460414
0.27560374 -0.036878966 -0.13992311 0.19217499 -0.11180347 -0.35515344 -0.090346314 0.02333617
0.0031022127 -0.40843323 -0.23575103 -0.21128091 -0.16919805 -0.40816393 -0.09706626 0.090370506
-0.16060337 -0.07059959 0.1484769 -0.27481085 -0.35099256 -0.16618107 0.06303938 -0.1372109
-0.15819885 -0.04065478 -0.06130849 -0.07143775 -0.02767926 -0.4034879 0.026690342 -0.14644249
-0.50948876 -0.15578553 -0.010791435 -0.20632501 -0.3293401 0.12569115 -0.21818802 -0.23010245
-0.054305237 -0.0018886616 -0.15021847 0.0031127958 0.1652983 0.37796217 -0.015833557 0.28542805
-0.42810652 -0.18201168 0.11585834 -0.01453323 0.09577224 -0.044221293 0.23723033 -0.002232734
0.08960243 -0.11880239 -0.070534356 -0.020307876 -0.32177505 -0.17874189 0.46377453 -0.17271002
-0.096875735 -0.4397527 0.21519816 0.09386881 -0.14143255 -0.3090799 -0.17898557 0.28588846
-0.1915663 -0.22172244 0.081064455 -0.06707603 -0.13643788 -0.45814222 -0.40223122 -0.3185497
-0.003795923 -0.18791255 -0.6215256 -0.12775467 0.0299311 0.058934946 -0.28711307 -0.30154145
-0.37777856 -0.24581954 -0.062607475 0.030800417 -0.16766348 -0.033419143 0.039830547 -0.31862745
-0.20629054 -0.27191564 -0.5029823 -0.044042386 -0.05108993 -0.5406579 -0.14465551 -0.3035548
0.12374062 0.30780742 0.28791907 -0.17274164 -0.23287438 0.07800899 -0.12474584 0.043027453
-0.3830809 0.27026775 -0.16133623 -0.08949467 -0.011027223 -0.19974695 -0.0727897 -0.6073183
0.03528829 0.17113344 -0.088568255 -0.07352313 -0.3254196 -0.208258 -0.36709478 0.13487737
0.5406599 0.0811282 0.20799783 -0.1074912 0.0870706 -0.10588864 0.28596425 -0.12599377
-0.06367085 0.18083145 -0.37082428 0.17743067 -0.034959015 -0.20597583 -0.022238819 -0.35429224
-0.20410974 0.20109744 0.256742 0.3946238 -0.07724183 -0.21633935 -0.31582457 -0.11403061
-0.012404305 -0.45145223 -0.30808842 0.092136756 0.0032889384 -0.11610059 -0.30393177 -0.19310635

weight f4 [128, 512]
00000000: e50a 123e 8832 2f3e 0652 babd 802d 59bd
00000010: f1b9 c3bd 9801 1dbe 718a 373e 5500 8bbd
00000020: bb50 ecbd 684b 323d 49ec 463e acf6 39bd
00000030: c7f7 683e b38d 55be 7e39 d63d 4905 263e
00000040: 570e 0e3d 9096 1fbd 65c5 8bbd af33 2b3e
00000050: 9fcf 2bbd 680f bebd 305c 6b3d 0378 67bd
00000060: c72a e23b 62ce 91bc d585 4a3d 867b be3d
00000070: 10c4 143e 5dce 07bc df1a 26be 61d8 53be
00000080: 3b56 c33d b8dc e83c 0a6a 7bbe 107d c43d
00000090: fac5 a8bd 727b eebd a810 f33d 6c58 aebe
000000a0: de53 82be eda6 7abd 1690 20be 0aa7 503e
000000b0: b501 bdbd a156 5abd 8109 033e c68b 623d
000000c0: 3707 8dbe a609 8e3d 5152 89bd 6d2b 853d
000000d0: 3e21 fe3d 54d0 55bd 2322 d03d 5643 103e
000000e0: 5f9c 4bbd 941d 3bbd 03dd 9c3c 283a 34be
000000f0: 0d77 7e3d 1787 a6bc a623 0cbd dc48 923d
00000100: fa83 32be 8db8 b6bd 2465 e63d d3a6 01be
00000110: 3492 b1be 5ac9 403d 496f e93c 51b7 f53c
00000120: 7e31 70be 1f03 6e3d 10b9 2abe 4908 dabc
00000130: 74c5 f53b 5735 543e 2d89 d13d df5b dc3d
00000140: 78ad 86bd 369e 5bbd 93d0 103d 6e05 603e
00000150: d0f7 dcbc 8491 cb3d adcf 353e f152 433e
00000160: 1a24 883e 9f42 42bd 0d80 a5bd 9e2e 19bc
00000170: ba5e 92bd 8fb0 bf3d c119 f43d 0c78 9c3b
00000180: 3a3b 65be cb69 42bd 58a3 d13d 391d 19be
00000190: 5a07 533d 1f1d d03c 6431 bc3c 558b 21be
000001a0: 353e 0cbe dccc f43b 67fd d33c 04f5 fd3b
000001b0: 09b3 4b3d 65b4 8c3d 48a8 b63d 522d fabd
000001c0: 1ae7 ab3d fd53 c6bc be9a 593e d82a c3bd
000001d0: be0b d93d ab37 3fbd 7e27 633e beb5 663d
000001e0: 4ca1 56bd c7d3 acbd 469f 563e f9f8 3fbe
000001f0: 383f 313c 6ebe df3d f470 80be 0b84 4e3e
00000200: 46ca a63c e4af 10bc 26cc 9aba 74a3 a5bd
00000210: ff98 b2bc 32e0 24be 7008 7e3d 36a3 28bd
00000220: 5964 cfbd 3dba 893c 6690 b2bd 7317 2b3d
00000230: 7114 2abd 2c18 183d d81d 90bd f894 773c
00000240: 4e9f 0dbe e967 12be 9667 6bbe 6678 19bd
00000250: 37a8 0c3d e7a8 7cbd 08cc 7dbc 130f 833c
00000260: e1a5 dabd 43eb 72bd 6049 b63c 95ac 4dbe
00000270: 23e2 33bd 2612 07bc 4392 003d fc6c 60bd
00000280: 6df8 05be 8dd6 d9bc 63b3 fabd e32e b13c
00000290: 6d19 063e a753 eabd 2e1e 16be 5c70 34be
000002a0: ab35 34bd 791e 193d b05d b9bd 2315 313c
000002b0: e1d6 423d c5b1 293d cd5f 83be 225c 093e
000002c0: 61ab 913d dabd 28be bad6 c2bd 8550 283e
000002d0: d092 70bd 38bf 343d 1e06 39be 7111 463d
000002e0: 089d 49bd a060 65bd 4300 f13a c47e ff3c
000002f0: 5a68 ed3d 0ef5 a13d 14b3 333d 0489 c8bd
00000300: 1753 37b9 815c 523d e24b b73d 44a4 80be
00000310: 69df 00be 65be d23d 8a67 073e 213c 46bd
00000320: 8ec3 073d 2be3 e53d 3544 8b3d 8776 12be
00000330: 224b a43d 31ef 07be 6eb9 aabd b908 b83b
00000340: 6c06 17be 1bc1 0fbe df0f de3d 6b1a 58bc
00000350: 2725 24bb fce3 9c3d 03ab 863d abff 5cbd
00000360: 690e 1f3d 5fc5 a9be e3f0 4abd 0799 22bd
00000370: fe9e 44bd b7df dabd 29a3 64bc 4076 c43b
00000380: 0ac0 d43d c721 0b3c 0d91 f83c f271 97bd
00000390: 74af 7bbd 2335 c4bc d216 98bd 6be0 8fbb
000003a0: 3d21 cc3d e50e d2bb a584 04be ce54 01be
000003b0: 5698 76be b37c 823c 930f c23c 653c 1b3d
000003c0: 5b71 be3c 8473 303d 7f97 d7bc 68cc 483c
000003d0: 50ef ec3d e4df dd3c 91eb 1dbe 8591 793d
000003e0: f87e bcbc 8481 b5bc 376c 643d 4ce4 423c
000003f0: 9af7 d93d 6bca b03c 9ec8 9d3d 42c7 c4bd
0.14261968 0.1710912 -0.09097676 -0.053021908 -0.0955695 -0.15332639 0.17923905 -0.06787173
-0.115388356 0.043528944 0.19426073 -0.04540126 0.2275077 -0.20854835 0.104601845 0.16212954
0.034681644 -0.038961947 -0.068247594 0.16718934 -0.04194605 -0.09280282 0.057460964 -0.056510936
0.006902072 -0.017798606 0.04944404 0.09300904 0.14527917 -0.008288947 -0.16221188 -0.20688011
0.095379315 0.02842556 -0.2455217 0.09594166 -0.08240886 -0.11644639 0.11868411 -0.34051836
-0.2545461 -0.06119435 -0.15679964 0.2037622 -0.09228841 -0.053305272 0.12796594 0.05530908
-0.27544567 0.06935434 -0.06705154 0.065024234 0.12408684 -0.05220063 0.10162761 0.14088187
-0.049709674 -0.045682505 0.019148355 -0.1760031 0.062125254 -0.020328088 -0.034213684 0.07142803
-0.17433158 -0.08921919 0.1124976 -0.12661295 -0.34681857 0.047067024 0.028495448 0.029994639
-0.2345638 0.058108445 -0.16672158 -0.026615279 0.007500345 0.20723473 0.10231242 0.107597105
-0.06576055 -0.05361768 0.035355162 0.21877071 -0.026973635 0.09939864 0.17755003 0.19074608
0.26590043 -0.047426816 -0.080810644 -0.009349493 -0.07146974 0.09359848 0.11918975 0.004775053
-0.22385874 -0.047464173 0.102362335 -0.14952554 0.051520683 0.025404511 0.02297277 -0.15775807
-0.13695605 0.00747071 0.025877668 0.0077501554 0.049731288 0.06870345 0.08918816 -0.122156754
0.083936885 -0.02420997 0.21250436 -0.09529656 0.10597943 -0.04668395 0.22183034 0.056325667
-0.05239992 -0.08438831 0.20959195 -0.1874732 0.010818295 0.109249935 -0.25086176 0.20167558
0.020360123 -0.008830998 -0.0011810109 -0.08087817 -0.02180147 -0.16101149 0.062019765 -0.041171275
-0.10126562 0.016812438 -0.08718948 0.04177041 -0.0415234 0.037132427 -0.07036942 0.0151112005
-0.13830301 -0.14297451 -0.22988734 -0.037468337 0.03434011 -0.061684515 -0.015490539 0.015998399
-0.1067617 -0.059306394 0.022251785 -0.20085366 -0.043916833 -0.008244073 0.031389486 -0.054791436
-0.13083048 -0.026591564 -0.122412466 0.021628803 0.13095637 -0.11441737 -0.1465995 -0.17620987
-0.043996494 0.037382577 -0.090510726 0.010808262 0.047568206 0.0414293 -0.25659028 0.13414052
0.07112766 -0.16478673 -0.09513612 0.16436966 -0.05873376 0.044127673 -0.1806874 0.048356477
-0.049222022 -0.056000352 0.0018386919 0.031188376 0.11592169 0.079080686 0.043871954 -0.09791759
-0.00017483193 0.05135775 0.089500204 -0.25125325 -0.12585224 0.10290221 0.13223091 -0.048397187
0.03314548 0.112249695 0.06800119 -0.14303027 0.08022143 -0.13274838 -0.08336149 0.005616274
-0.14748544 -0.14038508 0.10842871 -0.013189892 -0.0025046559 0.07660672 0.06575587 -0.05395476
0.038832102 -0.33158395 -0.049546134 -0.03969672 -0.04800319 -0.106872015 -0.013954916 0.005995542
0.10388191 0.00849194 0.030342603 -0.0739478 -0.061446622 -0.023951119 -0.07426228 -0.0043907664
0.09967277 -0.006410467 -0.12941225 -0.12630007 -0.24081549 0.015928602 0.023689067 0.037899394
0.023247411 0.043078914 -0.026317356 0.0122557655 0.11569083 0.027084298 -0.15421893 0.060929794
-0.023009762 -0.022156484 0.055767264 0.0118952505 0.106429294 0.021580895 0.0770428 -0.09608318

bias f4 [128]
00000000: 84f1 00bd 5113 1c3e 7e9d 973d e17b 8a3e
00000010: 99b6 90bd 9993 ac3d 45ff d2bb 90ff 0abe
00000020: 3b7d 18be ccdc 38bd f44d 8fbc b0be fbbd
00000030: 7e8d 23bd 36ba 7dbe 160a 7f3e 4f94 893e
00000040: 745e f03b 2f52 893d f581 973c 0a9d 2bbe
00000050: 6b21 81be 5a9d 013e e3df 0c3e eb05 82bd
00000060: bd0b 8d3d 00f6 80bd bb95 85be bf12 133e
00000070: 3cdf 80bc b279 3c3d fd75 fd3d 2c8e 103e
00000080: 2bef 80bc 801f 5fbe 7508 be3c 8c22 86be
00000090: 6e52 c0bd 6cb6 993d fc2c 8b3d 343e 00be
000000a0: fd07 74be f614 3c3d 1f66 ac3d d4ab 933e
000000b0: 81e7 133d 73d1 ee3d 8df2 543d fd1a 39bd
000000c0: 2241 8b3d 7022 ccbd 3cb6 4b3e 4216 a9bd
000000d0: 30c5 283e f5b0 4a3e b733 cdbc 4cb2 a33b
000000e0: a042 113e 0c2b ed3d 2cdb b1be 380c 273c
000000f0: eb34 ba3c e1f1 6abd 5603 843b 715b 3dbd
00000100: 6502 77be 0d64 5e3e 36af 923b 71d2 6d3e
00000110: 16c5 e93d 042b 90bd 33c5 7e3e 56c8 223e
00000120: a2bd 923e 2583 8cbd 2ee9 643e 480a c2bd
00000130: 359f 343d c055 3ebe 20b0 0f3e fea2 f7bd
00000140: ce77 dbbd 849c a13e 5b82 c33c af89 543e
00000150: 70ee 36bb 3ffc 423e 39b2 58be 75c4 203c
00000160: 44ca 00bb 2593 cf3d f9db a4bd 7688 4dbe
00000170: 3912 1d3c 6e32 383d bff0 2cbe 06a9 393e
00000180: fd08 603e dabb 8d3c a36a df3d 2bf2 08be
00000190: 0274 c5bd 22b5 e0bc 6182 cc3d 417c 023e
000001a0: 30df 22bc c7ec 38be 4895 b23d 4c56 b3bd
000001b0: a214 9ebd 0c7d c2bb a845 85bd 5102 7f3d
000001c0: 3616 3d3e 54a8 e7bb 31b9 41be 0981 56bd
000001d0: 4e65 093c 1493 2bbe 35a0 233e 5f56 8f3b
000001e0: 6c17 66bd 77a8 17be 001c 0cbe ea84 fbbc
000001f0: 064c 923c 1b02 4b3d 9eca 15be 2177 a53d
-0.031480327 0.15241744 0.07403086 0.27047637 -0.07066078 0.084265895 -0.006439122 -0.13574052
-0.14891522 -0.045132443 -0.017493226 -0.1229223 -0.03992986 -0.24778065 0.24906191 0.26870963
0.0073354784 0.067051284 0.018494586 -0.16759124 -0.25220808 0.12657681 0.13757281 -0.06348785
0.068870045 -0.06296921 -0.26090798 0.1436262 -0.015731446 0.046014495 0.1237602 0.14116734
-0.015739044 -0.2178936 0.023197392 -0.26198232 -0.09390722 0.07505497 0.067956895 -0.12523729
-0.23831172 0.045918427 0.084179156 0.28842032 0.03610945 0.11661043 0.051989127 -0.045191754
0.067995325 -0.09967506 0.19893736 -0.082561985 0.16481471 0.19794066 -0.025049074 0.00499562
0.14185572 0.11580476 -0.34737527 0.010195784 0.022730311 -0.05735958 0.004028718 -0.046229783
-0.24122007 0.21717854 0.004476453 0.23224808 0.11414544 -0.070394546 0.24879913 0.15896735
0.28660303 -0.06860951 0.22354576 -0.09474617 0.044097144 -0.18587399 0.1403203 -0.12091635
-0.1071621 0.31564724 0.02386587 0.20755647 -0.0027913116 0.19041537 -0.21161737 0.009812464
-0.001965181 0.101354875 -0.08049769 -0.20071587 0.009586864 0.04496997 -0.16888712 0.18130884
0.21878429 0.017301489 0.10909011 -0.1337363 -0.09641267 -0.02743012 0.09985805 0.12742712
-0.009940907 -0.18059073 0.087198794 -0.08756694 -0.07718779 -0.005935317 -0.065074265 0.06225807
0.18465504 -0.007069627 -0.18918301 -0.05236915 0.008385969 -0.16755325 0.15979083 0.00437431
-0.05617468 -0.14810358 -0.13682556 -0.030703027 0.017858516 0.049562555 -0.14628074 0.08079363

weight f4 [5, 128]
00000000: ba77 cd3d 9869 2a3d c629 483e 1bbc 5f3d
00000010: fe17 16bc afe1 edbe d8ed 0d3e 6712 b9be
00000020: b235 44be 915d 17bc 675d 63bd 3d7d 76bd
00000030: 5e8b 51be b27e 3ebe 898d f8bd bec7 213e
00000040: 6e99 e2bd 67b3 9d3d 0e94 95bd 31f7 ccbd
00000050: 8398 e3be ef72 9fbe e72d 933c a975 fabd
00000060: 95d8 0dbe bee3 15be 5aff cbbe c2ef ff3d
00000070: b965 67be 42d2 c5be 30cd 8c3e 3b38 b83e
00000080: 2d4d 84bd d16a 8ebe 5002 4abe 97c5 efbe
00000090: d0d4 393e 04c1 3ebe dca3 07be c0eb 3a3d
000000a0: ffd4 a6be 97c0 393f 2895 7a3d c2aa b63e
000000b0: ad53 6d3e 89ae a03e 0c09 cf3e 966b 0e3c
000000c0: 2291 963e 3c82 1e3e e9ec 2d3f bcc1 15be
000000d0: 5ffd 11be f8df a83e 50cc 6e3e fb47 55be
000000e0: fb49 d63d 76a8 173f 0a82 f2be 1526 15bd
000000f0: cca8 113d 87ab 5ebd 5c18 aebd 0c42 613e
00000100: 5c14 dabe eca3 a9be fc7c ae3c 4bcc b53e
00000110: f0ae 4c3e c2a8 12bd 9dec ab3d 3833 b13d
00000120: 7dfb 4c3d 1ac2 0fbe 8fc1 a73e 5fb7 4cbe
00000130: 50bb d33d 8df5 ecbd 2565 003e 2a03 08bf
00000140: b145 6fbd 085f 5a3e 81a2 dbbe 4e03 2b3e
00000150: 5de2 953c e57d 9b3e 426b 9ebe 8db2 043f
00000160: 416d 8b3d 8ab3 b23e be5c 28be 5970 e0be
00000170: f9bd 3dbd 3a47 d63d 5ca5 a1bd bbce 063f
00000180: 848b 1f3e e52e ca3d 7db7 3dbe 46cf 89be
00000190: 757b 83be 3037 623d 8745 843e 958d 313e
000001a0: 23d4 f3bd 6b9f bcbe 9744 3d3e d625 293e
000001b0: a56f e4bd a70a 63be af4e 5ebd cd71 963e
000001c0: 239b ac3d 3f00 0c3c 82d6 d9be bde1 c7bc
000001d0: 1351 963e fbf0 3ebe 4341 e8bc 759e c53d
000001e0: 0d64 bf3d 89af 24bc 01f6 c73d cd10 903e
000001f0: b99f 173e 857a d6bb 6c6e 95be c0de 8e3e
00000200: 9a0e b53e c288 11bd 17c0 a2be 2aad ba3e
00000210: fee7 65be 826b 91be 5443 98be a5ed d73e
00000220: 9226 a03d fb7d a23d a28e 223d 9ce6 c2be
00000230: 87eb 8fbe 4a08 b93e 6559 84bb 7e28 253e
00000240: 62d0 2abe f275 a23e 0877 afbd a8eb edbd
00000250: 73cb 8bbe 253e f5bd becf d93e 6d18 0fbe
00000260: eb2f a6be 911e 5dbd bc2d 06bf 68a5 f5be
00000270: 4cd1 303c 2ed7 8b3e 766c 813e d6bb 943e
00000280: c024 7fbd 931d 303c d7ef 87be 7eb5 85be
00000290: 432a d5bd 963f 103f 4d61 d33e b836 07bd
000002a0: eba1 cb3d 98c3 04bf 9fce 843d 7f96 273e
000002b0: 2c17 d43d c33b c33e ba88 e13e 11e6 b0bd
000002c0: 6372 32be 8225 e1bd 862c 15be 0877 ec3e
000002d0: 51e7 7d3d 66b0 d23e 587e 603d a492 0e3d
000002e0: 7fd9 b8bd f5ba 143d 87c5 b5be f8e1 6dbd
000002f0: 2983 6a3f 33a0 203e c790 57be a9fb 40bd
00000300: ea26 2cbd 226d 8abd 31ac 1e3e df84 b53b
00000310: e533 003f 81cb 933e 9266 cb3c fe8c 713e
00000320: 0723 61be 49a5 0a3e 4405 cbbc f5d3 b33d
00000330: 4c75 a9be 7f39 66be 72ef 9e3e fac6 073e
00000340: 59a0 163e d6d6 49bd fcab 28be 9df6 a6be
00000350: e466 0fbd c947 143e 8407 3ebe db8e 843e
00000360: 5bae 263d dd39 47be 37a2 cdbe ed73 e7bd
00000370: c540 94bd 344c db3e 7ca4 29be c6e4 1d3d
00000380: a406 5b3e 0078 203f d44d 273e 50de d93e
00000390: 3d2e 8fbd 8302 a4be f2bc ffbd f14c a7be
000003a0: e921 c9be 52a7 cf3e f3e1 523e b0b3 d3be
000003b0: 3e7d 2fbd f12f cfbe d39b 2d3e 3183 acbe
000003c0: 1c11 bcbd d762 87bd 6dcf 10be 9ef1 703d
000003d0: c1fb f6be e46d 023f 02f3 e33d 209f dfbe
000003e0: 171b a23e 1aa6 36be c8a7 5abe de10 1c3f
000003f0: b272 cc3e c4be 16bf 6653 4d3e 64e6 e93e
0.10032602 0.04160461 0.19547185 0.05462275 -0.009160994 -0.46461245 0.13860261 -0.36146852
-0.19161108 -0.009238617 -0.055508997 -0.06017803 -0.2046332 -0.18603018 -0.12136371 0.15798852
-0.11064421 0.07700234 -0.0730363 -0.100080855 -0.44452295 -0.31142375 0.017966224 -0.12229473
-0.1385215 -0.14637658 -0.39843255 0.12496902 -0.22597398 -0.38636976 0.27500296 0.359804
-0.064600326 -0.2781587 -0.19727445 -0.46830437 0.18147588 -0.18628317 -0.13246101 0.045634985
-0.32584378 0.72559494 0.061177403 0.35677153 0.23176451 0.3138316 0.4043659 0.008692643
0.29407603 0.15479368 0.6793962 -0.14624685 -0.1425681 0.32983375 0.23320127 -0.2082824
0.104633294 0.59241426 -0.47364837 -0.03641327 0.035561368 -0.0543628 -0.0850074 0.21997851
-0.42593658 -0.33132875 0.021299832 0.35507426 0.19988608 -0.03580547 0.0839474 0.08652347
0.050044525 -0.14038888 0.3276486 -0.19991826 0.103384614 -0.115702726 0.12538584 -0.5312983
-0.058416072 0.21325314 -0.42897418 0.1670048 0.018296415 0.30369487 -0.30941206 0.51834947
0.06807948 0.34902602 -0.16441628 -0.43835714 -0.04632375 0.10462804 -0.07892868 0.52659196
0.15580565 0.09872226 -0.18527026 -0.2691595 -0.25680128 0.055228412 0.25834295 0.17339166
-0.11905696 -0.36840376 0.18483196 0.1651834 -0.11154107 -0.22172032 -0.054274257 0.29383698
0.084280275 0.008544981 -0.4254647 -0.024399633 0.2935873 -0.18646614 -0.028351432 0.09649364
0.09345255 -0.0100516165 0.097637184 0.28137818 0.14807023 -0.006545367 -0.29185808 0.2790432
0.35362703 -0.035530813 -0.31787178 0.3646024 -0.22451779 -0.28402334 -0.29738867 0.42173496
0.07819857 0.07934185 0.039686806 -0.38066566 -0.2810938 0.36139137 -0.004038977 0.16128728
-0.16681054 0.3173061 -0.08567625 -0.116172135 -0.27303657 -0.11974744 0.42541307 -0.13974161
-0.32458434 -0.05398423 -0.52413535 -0.47977757 0.010792088 0.27312607 0.25278062 0.29049557
-0.062290907 0.010749239 -0.2655017 -0.2611503 -0.104084514 0.56347024 0.41285172 -0.03301117
0.09942993 -0.5186095 0.06484722 0.16366003 0.10355982 0.38131532 0.44049627 -0.08637632
-0.17426448 -0.10993482 -0.14567766 0.46184564 0.06198818 0.41150206 0.05480799 0.034807816
-0.09025859 0.03631111 -0.35502264 -0.05807683 0.91606385 0.15686111 -0.21051322 -0.047115
-0.0420293 -0.06759097 0.15495373 0.005539521 0.50079185 0.288662 0.024829183 0.2358894
-0.21986018 0.13539614 -0.024782784 0.08780662 -0.33097303 -0.2248287 0.31042057 0.13259497
0.14709605 -0.04927715 -0.16471857 -0.32610026 -0.035010234 0.14480509 -0.18557554 0.2589024
0.040693622 -0.19455667 -0.40162823 -0.11301408 -0.07238916 0.42831576 -0.16566652 0.038548253
0.21389252 0.62683105 0.16338283 0.42552423 -0.06991241 -0.32033166 -0.1248721 -0.3267589
-0.39283684 0.40557343 0.20594005 -0.41348028 -0.04284405 -0.40466264 0.16953973 -0.3369384
-0.09182951 -0.06610649 -0.14141627 0.058824174 -0.48238948 0.5094893 0.111303344 -0.4367609
0.31661293 -0.178368 -0.21353066 0.6096324 0.39931256 -0.58884835 0.20051345 0.45683587

bias f4 [5]
00000000: 6e67 c13e c357 943d 290c 06be 9398 77be
00000010: 48c8 18be
0.37774223 0.07243302 -0.13090576 -0.24179296 -0.14920151
