trained/exp_train_3_3_1111_0.0001_0.001_32_0.95/model/ctrl_critic_2.pth (torch, 556171 bytes, 7 tensors)

weight f4 [128, 20]
00000000: d095 3a3f 2da6 35bf 936e b2be 45f2 dcbf
00000010: bbee 62bd 7d06 a4bf 3800 183f 8d5a 25bf
00000020: 2b49 50bf c0c0 edbe 4918 5dbe 09e5 8ebd
00000030: e1a8 94bf 629c 533e a7c0 153f 2f4a da3e
00000040: 9044 c13e 47d1 d7be e20e 1f3e 277c 2cbe
00000050: e6b5 3cbf b26e e93c 3279 80be 9def 02bf
00000060: c62e aa3e 9225 2ebf 8f4e f23e cd0c d23e
00000070: 5f9b 2dbe a425 88bf 53a6 193f 5389 febe
00000080: 7fcf cabf f21c fb3f fa74 8c3d f2d9 93be
00000090: 6dd3 aebd 364f 90be 6076 3d3d 7535 dcbd
000000a0: 53e3 0e3c 59d8 3bbf e29b a8be a12e cebf
000000b0: e973 473e 830f 393e 25ed bd3e beb1 a23f
000000c0: 13e8 ef3e 9e67 9bbf be6e 173f 760f 053f
000000d0: 3e6a 7fbf f203 87bf 9a88 05bf 6dcb c5bf
000000e0: 27bc 6b3e a9c1 5c3e 187c d43d d9d5 ce3e
000000f0: 19a9 df3d a03c 1f3f 7af8 70be 3ff2 85be
00000100: 721d 7b3e c0c9 95bf db6a 973e 4302 89be
00000110: f455 993d cf27 10be e7d9 8ebf c695 ab3e
00000120: 51a9 4fbf 599c 4cbf 2328 823f 9d80 1e3f
00000130: dd99 c53e bcb5 8a3e a891 25bd 7cea 303e
00000140: 5769 29be 778d f8be 4a64 0fc0 047d bfbd
00000150: b15a 01bf 81e8 f83e 9807 15be 88d3 8c3f
00000160: 3e30 223e 79f7 2d3f df29 18bf cd7d 6bbf
00000170: 9c87 61bf 334d 85bf 38e3 19bf 59ed f5be
00000180: 631d f0be 5bf8 c23e b87e dc3d 34f5 5cbe
00000190: dcd4 233e df25 083f 8bb8 8b3e c61f 163f
000001a0: 3894 c1bd cb35 86be 3b79 c7be 69c5 ddbd
000001b0: 34ad 28bf 8696 4cbd a32b d73f f58e 8d3f
000001c0: 3266 903e 8432 60bf 13a9 073f 70ff 8d3f
000001d0: 6314 53be c21b c13e de47 0cbe b0b5 12be
000001e0: 965f 79be d8b2 29be 5a01 6abe 904c aebe
000001f0: b58c 593d 4f27 093f 591a 953e d4de 2cbe
00000200: a26c 5dbf 4ffb 113e 4b95 0b3f ff92 37bf
00000210: 72c6 83be 2baa e2bf 0899 73be a84c 9c3f
00000220: 69b0 e4bd 8304 99be 97b7 dbbd cad2 44bf
00000230: 7b2e 063f db0e 783e 61e9 303f 0a66 6fbf
00000240: e507 f0be f333 f13e 4ed4 8e3f 7a02 68bf
00000250: 34d7 043f f2c4 533e 4031 7bbd 7b76 4abf
00000260: ebbf f5be 6c2e 1f3f af06 c0be 025d a33d
00000270: 6ed0 983e 1564 cf3e 4621 9bbe 3171 7abf
00000280: c0b7 693d 53d6 0bbf f770 fabf 3dac 53bf
00000290: a190 423e 3ebf 92be 6952 3e3f 88dd 34be
000002a0: 2125 5fbf 4456 373f c6bb 96bf 37dd c93e
000002b0: 45ea c03d d3e5 99bf 7389 51be ad73 ecbe
000002c0: a5c4 103e 9f17 a03e 2b6f 3cbe 0a60 bb3e
000002d0: 9971 a93d 2c39 f43e 64fd 583f 73ba 953f
000002e0: eed1 663f 7853 e63d 6e51 f1be 29af 003f
000002f0: 2e3c 77bf 00bb 823f b4a9 bbbe 7c24 dcbd
00000300: f14c c4bc e175 65bf 1670 ac3e 9df3 c5be
00000310: efff 263f 2867 efbe 14b6 a73d 2774 013d
00000320: 5931 973c 7b1d 3e3f 3051 163f e58d 9a3e
00000330: f534 8bbf 9954 053f 4208 87bf 5320 743e
00000340: 2c2e 043f d1d0 473f 4964 633f 5537 bebe
00000350: c9bd 003f fdc6 98bf 76cb 3e3f 16df 453f
00000360: 8f86 763e eae9 61bf cd68 193e 3dbb 73bc
00000370: 36c2 a93e b648 b83e 52c7 25bf c3ba 403f
00000380: 08cc 8c3f 70b8 cd3e dbf7 67bf ae5b 13bd
00000390: 3eda 41bf 7d44 18bf d800 f6bd 85d6 433f
000003a0: 1225 153f 3c2a bf3f 878a 2dbe 844f 663d
000003b0: 40e7 823c 36f5 78bf 93cc 0cbf eaec 8cbe
000003c0: 225f 95bd f4d4 2f3e 8f25 b0be 38c2 043e
000003d0: d7d0 a9bf 77c5 55bf b628 983f e7d3 453f
000003e0: 0548 a8be 7669 db3d 6efd e5bc 0155 22be
000003f0: ac3b a53c 7cfc 433e c994 b63d f2d9 f4bd
0.72884846 -0.7095669 -0.34849986 -1.7261435 -0.055403452 -1.281448 0.59375334 -0.64591295
-0.81361645 -0.4643612 -0.21591295 -0.06977279 -1.1614038 0.20665124 0.5849709 0.42634723
0.37747622 -0.42151853 0.15533021 -0.16844235 -0.73715055 0.028495166 -0.25092465 -0.5114687
0.3323881 -0.6802608 0.4732556 0.4102539 -0.169538 -1.0636487 0.60019416 -0.49714145
-1.5844573 1.9618208 0.06858249 -0.28877217 -0.0853642 -0.28185433 0.04625547 -0.107523836
0.0087211905 -0.73376995 -0.3293143 -1.610798 0.1947781 0.18072324 0.3709499 1.2710493
0.46856746 -1.2140996 0.59153354 0.51976717 -0.9977149 -1.0548079 -0.5216156 -1.5452706
0.23020993 0.2155825 0.103752315 0.40397528 0.10920925 0.6220188 -0.23532286 -0.26161382
0.24522951 -1.1702194 0.29573712 -0.26759538 0.074870974 -0.14077686 -1.1160249 0.33512706
-0.8111773 -0.7992607 1.0168499 0.61915 0.3859395 0.27091777 -0.04042211 0.17276949
-0.1654409 -0.4854543 -2.2404962 -0.09350017 -0.5052901 0.48614886 -0.14553678 1.1002054
0.15838715 0.6795574 -0.5943889 -0.9198883 -0.8809755 -1.0414184 -0.60112333 -0.48032644
-0.4689742 0.38080105 0.10766357 -0.21577913 0.15999168 0.53182787 0.27289233 0.5864223
-0.094520986 -0.26212916 -0.3895968 -0.108286686 -0.65889287 -0.049948238 1.6810192 1.1059252
0.2820297 -0.8757708 0.5299236 1.1093578 -0.20613246 0.3771649 -0.1369929 -0.14327121
-0.2435287 -0.1657213 -0.22852078 -0.34042788 0.053112704 0.53575605 0.29121664 -0.16881877
-0.86493886 0.14256023 0.5452468 -0.71708673 -0.2573734 -1.7708181 -0.23788846 1.2210894
-0.1116646 -0.29886255 -0.10728376 -0.7688414 0.52414674 0.24224417 0.6910611 -0.93515074
-0.46881023 0.47109947 1.115854 -0.9062878 0.51890874 0.20680597 -0.061326265 -0.79087037
-0.47997984 0.6218021 -0.375051 0.07976724 0.2984652 0.40506044 -0.30298823 -0.97828966
0.057060003 -0.5462391 -1.9565724 -0.8268469 0.19000484 -0.2866153 0.743445 -0.17662632
-0.8716603 0.71616006 -1.1776054 0.39426586 0.09419683 -1.2023262 -0.20462589 -0.46182004
0.14137514 0.3126802 -0.18401782 0.3659671 0.0827362 0.4769987 0.84761643 1.1697525
0.9016408 0.11246389 -0.47132438 0.50267273 -0.965762 1.0213318 -0.3665291 -0.10749146
-0.02396247 -0.89632994 0.33679265 -0.38662425 0.65234274 -0.4675839 0.081890255 0.031604912
0.018456148 0.74263734 0.5871763 0.30186382 -1.0875536 0.5208221 -1.0549395 0.23840456
0.5163295 0.78053004 0.888249 -0.3715159 0.5028959 -1.1935726 0.74529207 0.7729353
0.24074768 -0.8824755 0.14981385 -0.014876184 0.33155984 0.35992974 -0.64757264 0.75284976
1.0999765 0.40179777 -0.9061257 -0.035976104 -0.75723636 -0.59479505 -0.1201188 0.76499206
0.5825969 1.4934764 -0.16947375 0.056228176 0.01597941 -0.9724916 -0.54999655 -0.275245
-0.07293536 0.17171079 -0.34403655 0.12964714 -1.3266858 -0.8350443 1.1887424 0.7727646
-0.32867447 0.107134745 -0.028074946 -0.15852739 0.020170055 0.19139284 0.08915097 -0.11955632

bias f4 [128]
00000000: 1758 9bbf e8f0 04c0 b693 91c0 7aec dfbf
00000010: 633e 14c0 4388 bebf ee2f 61c0 3866 f8bf
00000020: 3946 2ec0 27fc c7be 9d9d 15c0 336e 22c0
00000030: 9bdc 2d3d c942 15c0 e160 73bf 5ab5 67c0
00000040: b30d 27c0 ff1b c8bf e254 7dbf 004f 3fc0
00000050: 1d88 2ec0 c4ed 50bf 5fda 24c0 f11e 37c0
00000060: 2b1c c2bf 9d0a dbbe 24f0 3dc0 e8a6 7abf
00000070: 8321 c5bf 6f36 7fc0 8262 03c0 9784 09c0
00000080: 0cf3 62c0 6edc 4bc0 412e 62c0 3faf 68c0
00000090: f35e 09c0 86cb 98bf 4bcd bcbf 1603 f4bf
000000a0: 19a7 bfbf 9019 07c0 dc20 71c0 8cc0 b1bf
000000b0: cf61 12c0 309d 9abf 08c8 20c0 fbf0 37c0
000000c0: dd53 76c0 6437 09c0 a527 7cbf 59ca e3bf
000000d0: 4262 4ec0 35bd 28c0 e66f 89c0 84f3 21c0
000000e0: 7f0e a9bf cae3 8bbf 288e 9cbf 1680 edbf
000000f0: bc46 17c0 73ca 5cc0 a2f5 c3bf 6c0e 1ec0
00000100: 16d5 51bf 0652 adbf 1ec1 16c0 2ec8 ddbf
00000110: c24b 19c0 e52b 80c0 d25e 2bc0 dc64 6ac0
00000120: c653 f7bf 96d4 86bf 04ad 11c0 ce4e 2abf
00000130: ef94 c3bf 125c 1fbf 6fa3 5fc0 04a0 1dc0
00000140: 9ec3 73c0 0c82 12c0 9901 8fbf 2b56 efbf
00000150: 3c64 93be 8c29 dabf 333a 62c0 58d7 82bf
00000160: adeb c4bf ee8a 04c0 150d 30bf 5338 43c0
00000170: 0c9a dcbe 204a 0dc0 61ec 20c0 d632 41c0
00000180: 49cc d0bf 2511 41bf 8118 38c0 f7a2 48bf
00000190: a7bf 8ebf e4f3 7ec0 ee10 49bf d961 56bf
000001a0: 413d 45c0 8e27 38bf 187a 0ac0 f645 67bf
000001b0: bfb4 2fbf db50 bbbf 3071 04c0 9a1b 0cc0
000001c0: 0ddc 38c0 27ea 39c0 14df e3bf 6f81 1cc0
000001d0: d69e 60bf e3b6 45c0 9522 e9bf ad57 babf
000001e0: 1415 4ec0 b096 0ac0 ee1e 72c0 5c69 c4bf
000001f0: fa21 02c0 2202 48c0 b6e5 b7bf 7997 b1bf
-1.2136258 -2.0772038 -4.549281 -1.7494042 -2.3163078 -1.4885334 -3.5185504 -1.9406195
-2.723036 -0.39059564 -2.337745 -2.537976 0.042446714 -2.3322012 -0.950697 -3.6204438
-2.6102111 -1.5633544 -0.98957646 -2.9891968 -2.7270577 -0.816128 -2.5758283 -2.8612635
-1.5164846 -0.42781535 -2.967782 -0.9791093 -1.5400852 -3.9876974 -2.0528874 -2.1487176
-3.5460844 -3.185329 -3.534073 -3.6356962 -2.1464202 -1.193711 -1.475015 -1.9063442
-1.4972869 -2.1109352 -3.7676306 -1.3886886 -2.2872198 -1.207922 -2.512209 -2.8740833
-3.8488686 -2.1440058 -0.9849799 -1.7796127 -3.2247472 -2.6365483 -4.2949095 -2.530488
-1.3207549 -1.0928891 -1.2230883 -1.8554714 -2.3636923 -3.4498565 -1.5309336 -2.4696302
-0.8196577 -1.3540657 -2.355537 -1.7326715 -2.395249 -4.005358 -2.6776624 -3.662406
-1.9322441 -1.0533626 -2.276185 -0.66526496 -1.5279826 -0.62249863 -3.4943502 -2.4628916
-3.8088145 -2.2891874 -1.1172363 -1.8698171 -0.2878741 -1.7043929 -3.5348022 -1.0221968
-1.5384423 -2.0709796 -0.6876996 -3.0503128 -0.43086278 -2.2076492 -2.5144274 -3.0187278
-1.6312343 -0.75416785 -2.8764956 -0.78373665 -1.1152238 -3.983636 -0.7854146 -0.83743054
-3.0818636 -0.71935356 -2.163702 -0.90341127 -0.6863517 -1.463405 -2.0694084 -2.1891847
-2.8884308 -2.9049165 -1.7802453 -2.4454 -0.87742364 -3.0892875 -1.8213679 -1.4558007
-3.2200365 -2.1654472 -3.7831378 -1.5344653 -2.0333238 -3.1251302 -1.4366977 -1.3874351

weight f4 [256, 399]
00000000: 4652 cfbc 92ab 2ebd cc74 c2bb 7c81 b9bd
00000010: 0607 f3bd 4fc4 53bd cb67 d0bd a216 03be
00000020: ad7c c8bd c0d0 e8bd 2814 5abe 05b2 b5bd
00000030: 4aa8 1dbe dbe1 0ebe 3425 dfbc 0f10 64b9
00000040: 248a 6abd 2dd1 cdbd dd67 34bd 7fc7 acbd
00000050: 40bf f03c e216 d5bd c658 88bc 82a1 07be
00000060: 45b8 73be 8965 f4bd 8043 09be d693 80bd
00000070: 3ee1 51bd eb97 dfbd 41f3 19bd ab56 45bc
00000080: 7785 343d c7a9 e1bd 0d3d edbd e192 d7bd
00000090: 6f53 34bd 2cb3 1f3d 9c40 cbbc eba8 f8bd
000000a0: 3c07 52be 6540 33be 56d6 e8bd 7345 673d
000000b0: f3d8 60bc c5ce 0cbe eb1b 08be ffe4 25be
000000c0: ab2b 123c 03d4 bdbd c29a bcbd bfbc 2c3d
000000d0: 8494 d6bd 8683 bfbd ffb4 17be e1fb 42bd
000000e0: cb61 9ebd 3ea1 e4bd 3bae 1c3d ce16 8cbd
000000f0: c92b 03be f22f 0bbe 7840 8bbd d6cd 0e3d
00000100: 2300 30bd 8cbf 5f3c fac6 393c aad2 183c
00000110: ec3f bfbd 39dd c9bd a184 11be 33bd acbd
00000120: c032 b1bd cb5a cebc 0922 1dbc 2d33 ac3b
00000130: d4e2 43be a14b 3a3b 655c 1b3d c682 bcbd
00000140: fb02 11be 3f83 b3bd 3361 d83d d99c 803d
00000150: 35b9 bbbc bad9 9d3c e9f5 a3bd 7548 4cbc
00000160: 5532 22be 262a 0e3b 827e 60be ce25 4cbc
00000170: fc67 00bc 85e7 aabc aaef e5bd ae0a c13b
00000180: 4a0b 7fbd 43fd 0cbe 8ced 103d dc9e 21bd
00000190: c6ed a9bc 323b eb3b 5d38 2ebe f250 063d
000001a0: 02a1 c5bd 16f8 6ebc b2b2 96bd a318 4bbd
000001b0: c47d 34bd 4692 3abd 71cc 0f3c ca28 2fbd
000001c0: c0ec 6f3d ae1e 7bbd c9e5 24bd ddd8 dcbd
000001d0: efae 26bd 597f 72bd 80d6 0d3c c358 ae3b
000001e0: e480 b5bc 8459 8ebd a5dd 183c 60d7 08bd
000001f0: db94 ebbd 273d 98bd e13b afbd 5d7b dabc
00000200: b452 2bbd 0de4 e43c eb49 c13c 9844 36bd
00000210: 20f1 e3bb 94c0 85bc 027b c2bd e231 09be
00000220: 654c e4bd 10a1 c7bd e970 46be c563 a7bd
00000230: d078 14be 132d 03be f146 12bd 2fb3 adbd
00000240: 1e91 febc adad a33b 5ab6 11bd 9e7c 2cbd
00000250: 547b dfbc fdac 143c 5b32 14be e162 aa3c
00000260: 5322 c4bd aba8 90bc de1d abbd ddfe d0bd
00000270: 126d 0ebe 1270 98bc 1fb5 cfbb 61a6 17bb
00000280: e643 e0bd 8aee aebd 6fc8 99bd 3f82 debb
00000290: c4ef d5bd 122e 9e3b b8ae 4abe 0b9b eebd
000002a0: 6d3d 54bd d935 8bbd 5b38 c03c 3145 3ebe
000002b0: 2511 bbbd ed6a d9bd 9c61 01be 2f6a dfbd
000002c0: 3b0d a33d bd05 e03b 91c8 2dbe 8cfe 7cbd
000002d0: 108a c5bd 03ff 85bc b972 10be 1823 d0bc
000002e0: 7e8c e43c 15ba a1bd 6a39 fc3c 3b5f e0bd
000002f0: fbf5 15be c9ad 08be a18b 33bd 87e5 f23c
00000300: 032b f0bc 951b 76bc d85b 333c 1b81 1dbe
00000310: f0e2 66bc 8286 29be 627d babc f35f 93bc
00000320: 8ae3 15be 3b19 a6bd 1f8d 10bd 4ebb cfbd
00000330: e116 29be 8052 8cbd 5861 14be b189 95bd
00000340: 9397 88be 1090 1abd 6cae d7ba db00 c1bd
00000350: 2a0e 4bbd 4018 8dbd 0b8a 44be 3295 ab3d
00000360: aac9 0a3c 26b4 4fbb bde1 803d 75c0 b7bd
00000370: 6f93 2dbe 84ec 94bd 1fbf 3fbc 5c37 31bd
00000380: 3622 2dbe 9421 7fbd ef24 05be 154e 54be
00000390: a77c 233d 354e 49be 067c 06be 9b66 6a3c
000003a0: d1f4 acbd 3e2e 513d 3424 4d3d 82b3 26bd
000003b0: daf7 c33b a5a9 aabd cdb9 e6bd 88db 2cbc
000003c0: 141b ffbd 924b fcbd adce dabd a371 8f3c
000003d0: a708 e2bb 7b9e 853d 39d4 e8bd d317 efbd
000003e0: 03a2 99bd 181f bbbd 6be0 98bc a784 aabc
000003f0: 3644 27be c48e 35bd 5712 d8bd c196 15bc
-0.025307786 -0.04264409 -0.0059343334 -0.090579 -0.11866574 -0.051700886 -0.10176047 -0.12801602
-0.09789405 -0.11367941 -0.21296751 -0.08871845 -0.15396228 -0.13953345 -0.02723942 -0.00021749757
-0.057260647 -0.10049663 -0.044044364 -0.08436488 0.02938807 -0.10404755 -0.016643893 -0.13245204
-0.23800762 -0.11933429 -0.13404655 -0.062781975 -0.0512402 -0.10917648 -0.0375855 -0.012044589
0.044072594 -0.110187106 -0.1158391 -0.10526062 -0.04402488 0.03898923 -0.024811082 -0.121415935
-0.20510572 -0.17505033 -0.11369006 0.056462716 -0.0137236 -0.13750751 -0.132919 -0.16200636
0.008921544 -0.09268954 -0.09209205 0.04217219 -0.10477546 -0.09351258 -0.14815138 -0.04760349
-0.07733496 -0.11163567 0.038252097 -0.06840287 -0.12809671 -0.13592508 -0.06799406 0.03486427
-0.04296888 0.013656508 0.011338944 0.00932757 -0.09338364 -0.09856648 -0.1421075 -0.084345244
-0.08652258 -0.025189778 -0.009590634 0.005255124 -0.19129497 0.0028426426 0.03792991 -0.092046306
-0.14161293 -0.087652676 0.10565414 0.06279916 -0.022915462 0.01926886 -0.08005888 -0.012468447
-0.15839513 0.0021692603 -0.21923259 -0.012460185 -0.007837292 -0.02086235 -0.11227353 0.0058911657
-0.062266625 -0.13768487 0.035382792 -0.03945814 -0.020743262 0.0071786875 -0.17013688 0.03279204
-0.096498504 -0.0145855155 -0.07358302 -0.049584042 -0.044065252 -0.045549653 0.00877677 -0.04276351
0.05857539 -0.061308555 -0.040258203 -0.10783551 -0.040694173 -0.05920348 0.008657098 0.00532064
-0.022156186 -0.069506675 0.009330188 -0.033408523 -0.11503001 -0.07433539 -0.08556343 -0.026670152
-0.04182692 0.027940774 0.023594817 -0.04449901 -0.0069562346 -0.01632718 -0.09496118 -0.13397935
-0.111473836 -0.09747517 -0.1937901 -0.081733264 -0.14499211 -0.12810163 -0.035712186 -0.08481442
-0.031075057 0.004995069 -0.035574295 -0.04211103 -0.027280487 0.009074447 -0.14472334 0.020799102
-0.09576859 -0.017658552 -0.08355306 -0.10204861 -0.13908795 -0.018608127 -0.00633873 -0.002313994
-0.109504506 -0.085415915 -0.07508933 -0.006790429 -0.10446122 0.0048272694 -0.19793212 -0.11650666
-0.051816393 -0.0679738 0.023464372 -0.18581082 -0.091341294 -0.106160976 -0.12634891 -0.10908925
0.07961508 0.0068366216 -0.16971041 -0.061766192 -0.09645474 -0.01635695 -0.14106263 -0.025407359
0.027899023 -0.078968205 0.030789096 -0.10955664 -0.14644615 -0.13347544 -0.043834332 0.029650463
-0.029317385 -0.0150212245 0.01094719 -0.15381281 -0.014092192 -0.16555217 -0.022764865 -0.017990088
-0.1463758 -0.08110281 -0.035290834 -0.101431474 -0.16512634 -0.06851673 -0.14490259 -0.07301653
-0.26678142 -0.037735045 -0.001645518 -0.09423991 -0.049574055 -0.06889391 -0.19193284 0.08378066
0.008470932 -0.003169307 0.06293056 -0.08972255 -0.16950773 -0.07271674 -0.011703282 -0.043265685
-0.16907582 -0.062287882 -0.1300237 -0.20732911 0.0399138 -0.1965874 -0.13133249 0.01430669
-0.084451325 0.05106949 0.050083354 -0.040698536 0.005980474 -0.083331384 -0.112659074 -0.010550387
-0.124563366 -0.123191014 -0.106839515 0.01751024 -0.006898004 0.065243684 -0.11368603 -0.11674466
-0.075016044 -0.0913679 -0.018661698 -0.020815207 -0.16334614 -0.044325605 -0.10550373 -0.009130181

bias f4 [256]
00000000: 5f99 66bd d30e 883f feb0 b23e 9bd5 37bb
00000010: 7dd5 fc3f ccd4 de3d 4d81 523d 273d b13c
00000020: e9c1 0a40 3b8e 94be 12c3 c3bc a467 2cc0
00000030: 20f9 9b3f d534 743c 608a 8bbd 274e 173b
00000040: f7f3 c1bd eb1e c6bd ce09 74bf 52a8 17bd
00000050: e537 5abd 604f 973b a3cf 803f 0513 a8bc
00000060: 45ea 743c ca8e 293c 7508 71bc fc12 bfbf
00000070: e6d1 b53f b915 9abf 45d4 58bd 9950 f13c
00000080: a6b8 7040 ee81 473c 3f76 2abb 3dc9 2c3e
00000090: b57c 5abc da94 f53b f4c6 a5bc 210c ccbc
000000a0: aa2d db3f 58a6 dabc f243 b73e bbad 793f
000000b0: c52b 1dc0 9d4b 99bd 01ab d63c 47b3 ebbf
000000c0: 3dda 49bd e380 dcbd 4d51 3c40 19a6 06bd
000000d0: 6bbd 5a3c e790 58bd f99e 1cbd a0f0 89bd
000000e0: fd09 18c0 8872 80bf 2e35 c03f 65ce 9abf
000000f0: 5891 0ac0 db1f 7f3f 6196 1d40 7644 5a3c
00000100: 295a 763f 4d11 98bc a216 1dbf b7f6 c4bf
00000110: 0daf 0f3d 9f95 02bd dd12 4c3f 56b4 333f
00000120: 5f3a efbc 6109 e5bb 5a00 2c3b e59b 463c
00000130: be3a 1abd abe5 1dbd f5a4 82bd 3d86 00be
00000140: a003 64bc f5cd 75bc 8ea3 393e ce16 b5bc
00000150: 58c6 153f 50b9 39bd 1d43 1dbc 3365 96be
00000160: 5dda e83e 8783 e7bd 2fa4 adbf 1013 95bd
00000170: 212a 23bc 762e 373e ebb1 c0bc 7e8b 5a3d
00000180: a181 cc3f 2a70 5f40 70d6 6dbd 911b 103c
00000190: a5a9 343f 5bba 97be 47c2 0bc0 d117 ecbc
000001a0: 56dd ec3c 5d29 5dbc 4ddd acbe 4fd3 183e
000001b0: c8b2 dbbe e689 2cbd 24b2 26bc 8263 2cbd
000001c0: a061 88b9 451a 573d 1512 7cbd 3755 2f3b
000001d0: e7e2 cebf fe11 41bd 1f87 b8bf 5116 393f
000001e0: 64f0 89be abab b73d daa7 0abd d900 f3be
000001f0: 882e 97bf 5aec 003d 209e 6d3f 92e5 91bf
00000200: 316b 213f 782b d73c 8faa f8bc b701 9a3f
00000210: 9160 c7bc 1287 f3be fe3e 783c e4b2 393d
00000220: d589 073e ffed 1a3f 87a5 68bd e0f1 02bd
00000230: 057c a0bd 6711 c2bd 3c4d e4bb cb92 83bb
00000240: efd6 98bd 348c 4bbf 348d e1bd 07c2 3140
00000250: 75c5 8abc 1ef5 cd3c 7f29 95be 8f22 9abe
00000260: 25b7 e1bb c914 0240 1b8c e6bb c32f e9bc
00000270: d29a 1cbd e7d4 1fbd b829 6b3f e359 a7bc
00000280: c120 a5bc 58ec 593f 5b8c 093c 5cf2 ed3f
00000290: 982a 6f3f dafd b9bf 2dbb a8bc 1c36 d83f
000002a0: 15a1 74bc 012a cfbf cc2f bdbd 728d 75bd
000002b0: 6f8f 31bc 7996 3cbd 8fd5 243f f37f dabb
000002c0: 0dd8 75bd b157 b3bd fd68 2dbc 2d36 663f
000002d0: 363d 29bf 74bc 5b3f 2c56 96bf bcbd a5bf
000002e0: 3c55 babf 6034 623f 0da4 ea3f 033a 773f
000002f0: 0067 91bd fbff 403c 1968 7fbd 0988 463c
00000300: e309 da3c aea8 713e 0194 2bbd ef3b a6bd
00000310: 3785 15bd 912e 143e 5594 013f 463e fabd
00000320: 4a44 1fbd 8f96 4bbf 0fec 24bc 72dd 5b3f
00000330: 8da2 5b3c cc61 acbd 33e7 73bf 3a30 793e
00000340: 70b2 89bb 5d97 213d 3ffb a7bc e872 49bc
00000350: 1a81 953c 23e3 edbf 620b 54bc 0d6d 4c3d
00000360: ccc1 a3bf 7e64 d5bf 1c7f acbd 8aa0 52bd
00000370: cddf 273f 3105 b23c 9196 8cbd 1a1a 83bd
00000380: 8419 8a3f 5950 45bd 7864 593e 6744 87bd
00000390: 063b 31bc 283d c13e 727b ce3c b714 3f3e
000003a0: e7fc 91bf 60f3 593f ded8 8fbd c175 99bd
000003b0: 44e2 7ebd 6174 82bf 7325 25bc cb90 d7bc
000003c0: 3125 8e3f 5d04 a1bc f3bb d43c 0d98 153d
000003d0: 38c4 963c da72 a93d dceb ffbc 8b26 8e3f
000003e0: 46bc b33f 00ef 95bb a4ea 683f d317 693c
000003f0: 6b81 b9be c457 f93d e50d 213d 827f 67bd
-0.05629861 1.0629524 0.3490066 -0.0028050903 1.9752651 0.108804315 0.051392842 0.021635605
2.1680853 -0.29014763 -0.023896728 -2.6938257 1.2185402 0.014905174 -0.06813502 0.0023087354
-0.09470361 -0.09673866 -0.9532746 -0.037025757 -0.05327596 0.0046176165 1.0063366 -0.020516882
0.014948432 0.010348985 -0.014711489 -1.4927669 1.4204681 -1.2037879 -0.05293681 0.029457377
3.76127 0.012176974 -0.0026010422 0.16873641 -0.013335397 0.007494551 -0.02023647 -0.024908127
1.712331 -0.026690647 0.35794026 0.97530717 -2.4557965 -0.07485125 0.026204588 -1.8414086
-0.049280394 -0.10766771 2.9424622 -0.032873247 0.013350825 -0.052872565 -0.038237546 -0.06735349
-2.3756096 -1.0034952 1.5016229 -1.2094237 -2.165121 0.9965798 2.4623034 0.013321986
0.96231323 -0.018562937 -0.6136266 -1.5387791 0.03507905 -0.03188097 0.79716283 0.70197046
-0.029202638 -0.0069896434 0.0026245327 0.012122129 -0.037653677 -0.038549107 -0.06379119 -0.12551208
-0.01391688 -0.015002717 0.18128797 -0.0221056 0.58505774 -0.045342743 -0.009598521 -0.29374084
0.45479098 -0.11304384 -1.356573 -0.072790265 -0.009958775 0.17888817 -0.023522338 0.053355686
1.597706 3.491221 -0.05806583 0.008795635 0.70571357 -0.29634365 -2.1837327 -0.02881995
0.028914135 -0.013498631 -0.3376259 0.14924358 -0.42909837 -0.042123698 -0.010174308 -0.042087086
-0.00026012678 0.052515287 -0.061540682 0.0026753673 -1.6162995 -0.0471363 -1.4416236 0.7229968
-0.26941216 0.0896829 -0.033851482 -0.47461584 -1.1811075 0.031475402 0.92819405 -1.1398184
0.63054186 0.026265845 -0.030354766 1.2031773 -0.024338039 -0.47563988 0.015151737 0.04533662
0.13236172 0.60519403 -0.056798484 -0.03196895 -0.07836155 -0.094759755 -0.006967215 -0.004015302
-0.0746287 -0.7951081 -0.110132605 2.7774675 -0.016939858 0.025141295 -0.29133222 -0.3010449
-0.0068882876 2.0325186 -0.007035745 -0.028465157 -0.038233586 -0.0390214 0.9186053 -0.020428604
-0.02015722 0.85126257 0.00839528 1.8589587 0.9342437 -1.4530594 -0.020597065 1.6891513
-0.014930983 -1.6184694 -0.09237632 -0.059949346 -0.01083742 -0.04604194 0.64388365 -0.0066680848
-0.060020495 -0.0875696 -0.010584113 0.89926416 -0.66109025 0.8583443 -1.1745048 -1.2948527
-1.4557261 0.8836117 1.8331314 0.96572894 -0.07099724 0.0117797805 -0.062355135 0.012117394
0.026616042 0.23599502 -0.041889194 -0.081169 -0.036503997 0.14470889 0.5061696 -0.12218909
-0.038883485 -0.7952661 -0.010066046 0.85884774 0.013405454 -0.08417091 -0.95274657 0.24334803
-0.0042021796 0.039450992 -0.020505546 -0.012295462 0.018250037 -1.8584942 -0.012942167 0.049908686
-1.2793517 -1.6671293 -0.08422682 -0.051422633 0.6557587 0.021730991 -0.06864656 -0.06401463
1.0789037 -0.04817233 0.21229732 -0.066048436 -0.010817295 0.3774197 0.025205348 0.18660246
-1.1405305 0.85136986 -0.07023786 -0.07493163 -0.062227502 -1.0191766 -0.010079729 -0.02631416
1.11051 -0.0196554 0.025968527 0.03652196 0.018404111 0.08273859 -0.031240396 1.1105512
1.4041831 -0.00457561 0.90983033 0.014226872 -0.3623155 0.12174943 0.03931989 -0.056518085

weight f4 [128, 256]
00000000: 703e 3b3d 1aa8 35bd 997e 18bd 649b 7dbb
00000010: 98f4 8ebd 3127 8c3d bf3d c33c 6d86 353d
00000020: cc96 423d b5fd 4ebb f659 3b3d 8396 c5bd
00000030: dcde b6bc 3832 57bd b85c 083c 0c9b 593d
00000040: 90ad 47bd 1c81 bf3c 9492 a63c 68ea 1d3d
00000050: 70d0 d9bc 5c9f 013d 16fb b9bd b6cc 373d
00000060: 9a46 333d 94d4 82bc c09b e8bc 7826 843d
00000070: 79d7 06bc 483f 33bd a88b 483c eed1 03bd
00000080: b13e 2bbe d864 453c 0a39 583d 2607 3fbd
00000090: 6f80 b13c e0c4 dc3b 30bb 263d 6ead 60bd
000000a0: 4654 86bd cc63 f23b 26ff 7dbc 9cc8 c8bd
000000b0: e03c 193b 8498 eb3c 100b 5ebd d922 9e3d
000000c0: e2b8 503d f0f7 bebc c5a3 1cbd 8046 313d
000000d0: b891 a8bc 86cc 4abc bf82 b33c 6a91 633d
000000e0: 4cdd 173d 26cb 32bd 332a 66bd e0ce 86bc
000000f0: a9d6 313d 6e4b 003d 0b1b 6fbd d20f 19bd
00000100: dd92 1abc 6152 81bd 828b 6abd 9606 79bd
00000110: dacf 80bc 0586 c9bc 5c9d 403d 17f5 99bc
00000120: 9019 22bd 7c15 09bd 546c fdb9 88b5 343c
00000130: 51b7 2a3c 6757 1d39 6205 2c3d cbb2 39bd
00000140: 6018 78bd d89a 503c 9aff 78bd 30b1 22bd
00000150: 4309 93bd 82e7 ccbb 505a bf3b 6aba 01bb
00000160: 2baa e3bd da30 003d c14e f2bc 80fa 543c
00000170: 1f66 403c cead 07be 7aa0 19bd 24de 463d
00000180: 305b 9fbd 9b38 c8bd 3c42 19bd f0ae 5abc
00000190: a8bb 85bd 3d2a 05bd 9498 09bc 686f 0d3c
000001a0: 04c7 30bd b544 f4bc 3c50 34be af1b a2bc
000001b0: 525e 04be 18d9 503d 9485 483d 8d6d d1bc
000001c0: 11cf efbc fa2a 473d cfa6 883c e0b8 afbb
000001d0: 476a 713d 4d50 12bd 8ec0 c5bd cd30 a3bd
000001e0: 8075 433d 2d29 cabb d4ca ac3c 3012 493c
000001f0: 0f96 72bd 6733 8a3c c0b8 debd e454 a3bb
00000200: 2bf5 a3ba 62c0 79bb dc91 5fbd d765 a93c
00000210: f507 12bd 2dec 483d c211 04bc 4897 35bd
00000220: dbbf cebc 1de1 fdbd 13db 823c 2214 e53c
00000230: 6850 70bc 7708 c73c ed2f dd3c bafd 5bbd
00000240: 8285 583d dd24 35bd 0a34 bdbd a0cd 51be
00000250: 3086 c93b f64b 253d c8d1 4ebc 37e5 28bc
00000260: d7e3 8a3c 9fee 67bb 5066 56bc 509c 4e3d
00000270: def5 373d 0704 ac3c b3a2 ccbd 8c25 96bc
00000280: 5a71 71bd 5b5d b33c cf9a 543d e118 89bd
00000290: 5aed 1abe b05b 713d 4e62 f63c b406 3f3d
000002a0: e4f9 d13c 5d4d 87bd ff9b 843c ed00 b3bc
000002b0: 72c2 2fbd c843 8cbc 0c1f ac3c 3c03 53bd
000002c0: 542c b6bc 40f5 29bd 71a4 9fbc 1cb4 b5bd
000002d0: 5b97 d23c c0f6 f63c 333a e83c 9018 0bbd
000002e0: caf1 6dbd e729 0ebc 0ae3 12bd 70d9 3abd
000002f0: 84c9 d33c 2b88 753c 3576 d6bc b6da 433d
00000300: 8634 05bd b20c 393d 3091 003c 859a 49bd
00000310: acd9 5f3d 47cf 323d 77c5 633d 238e d1bc
00000320: 702f 2bbd 6758 503c e4f1 263d 8ee0 f3bd
00000330: e348 12bd 280e 68bd 59c7 9a3c 16bc 7abc
00000340: 30ad 41bd 224a 03bc 6869 37bc 2c7a a2bc
00000350: 2e04 633d ef86 19bc f652 3fbd 160f f93c
00000360: c04c 2b3c 024e 9bbd 48fa 4a3c d7a1 813b
00000370: 62e4 e2bd 78f0 d1bc b823 463c 2e4c c93c
00000380: da8e 19be 3c2d 1a3d 40df 08bd 50de 7abd
00000390: 5711 8b3b 13b1 41bc 1bc7 87bd 2d25 843d
000003a0: 4628 b83d 8b0d 99bd 6c8a 4ebd e6b9 423d
000003b0: 370e 7fbc 226b e0bd 241b 2cbd baf7 8e3c
000003c0: 84cc 4bbc 4028 62bc b4ee 103d b986 17bd
000003d0: 90a5 63bd 5c42 613d dcfb 75bd 6033 1ebe
000003e0: 28c6 68bd a6fc 063d 7499 87bd f886 8fbc
000003f0: 3021 8dbd 1aa9 89bd c06f c4bc f9eb 8abd
0.045713842 -0.044349767 -0.037230108 -0.0038697356 -0.06980246 0.06843413 0.023833154 0.04431765
0.047507092 -0.0031584327 0.04574009 -0.096478485 -0.022323065 -0.052538127 0.008322887 0.05312638
-0.048749506 0.023376994 0.020333566 0.038553625 -0.026588649 0.031646118 -0.09081094 0.044872962
0.043768503 -0.015970506 -0.02839458 0.0645265 -0.008230084 -0.04376152 0.012240328 -0.032182626
-0.16723134 0.012047969 0.05278877 -0.046637677 0.021667687 0.0067373365 0.04070586 -0.054852895
-0.06559043 0.0073971506 -0.015502727 -0.09803888 0.0023382232 0.028759249 -0.05420977 0.077214904
0.050957568 -0.023311585 -0.03824212 0.043280125 -0.020577297 -0.012377864 0.02191293 0.0555586
0.03707628 -0.04365077 -0.056192588 -0.016456068 0.043417607 0.031321935 -0.0583754 -0.037368603
-0.009434429 -0.06314541 -0.05726195 -0.060797296 -0.015724111 -0.024600038 0.04702507 -0.018793626
-0.03957516 -0.033467755 -0.0004833663 0.011029609 0.010419683 0.00015005247 0.04199732 -0.045336526
-0.06057012 0.01273223 -0.060790636 -0.03971976 -0.07179501 -0.006253184 0.0058396235 -0.001979495
-0.11116441 0.03129659 -0.029578568 0.012999177 0.011743098 -0.13249895 -0.037506558 0.048551694
-0.077810645 -0.09776422 -0.03741668 -0.013347372 -0.06529933 -0.032510985 -0.008398194 0.008632518
-0.043158546 -0.029817918 -0.17608732 -0.019788591 -0.12926605 0.050988287 0.048955515 -0.025564933
-0.029273542 0.04862497 0.016681103 -0.005362615 0.058939245 -0.035721112 -0.096558675 -0.079682924
0.04771948 -0.0061694593 0.02109281 0.012272403 -0.05922514 0.016870214 -0.10875082 -0.004984485
-0.0012508979 -0.0038109054 -0.05458246 0.020678444 -0.03565212 0.04905336 -0.008060874 -0.044333726
-0.025237968 -0.123964526 0.015973603 0.027963702 -0.014667608 0.024296029 0.027000392 -0.05370877
0.052861698 -0.04422461 -0.09238441 -0.20488596 0.0061500296 0.040355645 -0.012623258 -0.010308555
0.016954346 -0.0035390032 -0.013085917 0.05044204 0.04491221 0.020998014 -0.0999197 -0.01832845
-0.05894599 0.021895101 0.05190545 -0.066941984 -0.15129605 0.05892533 0.030076172 0.046637252
0.025631852 -0.06606553 0.016187666 -0.021851027 -0.042910047 -0.017122164 0.021010898 -0.051516756
-0.022237934 -0.041493654 -0.019487591 -0.08872244 0.025706938 0.030146956 0.028348064 -0.03395897
-0.058091916 -0.0086769825 -0.035861053 -0.04561752 0.025852926 0.014986078 -0.026179412 0.047816
-0.032520793 0.045178123 0.007847115 -0.049219627 0.054650947 0.043654706 0.05560824 -0.025580471
-0.041793287 0.012716389 0.04075803 -0.11908065 -0.03571404 -0.056654125 0.018893884 -0.015303632
-0.047284305 -0.00801328 -0.011194564 -0.019833647 0.055423908 -0.00937055 -0.046709977 0.030402701
0.01045531 -0.07583238 0.012388773 0.0039560604 -0.11078717 -0.02562736 0.012093477 0.024572458
-0.149959 0.037640795 -0.033416033 -0.06124717 0.0042440104 -0.011822003 -0.06629773 0.06452403
0.089920565 -0.07473286 -0.050424978 0.047540568 -0.015567354 -0.10957934 -0.04201807 0.01745211
-0.012438897 -0.013803542 0.035383895 -0.036993716 -0.055577815 0.054994926 -0.060054645 -0.15449286
-0.0568296 0.032955788 -0.06621066 -0.017520413 -0.06891096 -0.06721707 -0.023979068 -0.067832895

bias f4 [128]
00000000: e624 52bd ee89 06be c49b 34bd 4f32 aa3f
00000010: f322 34bd 136d 0abe 2647 693f d28f 50be
00000020: 8ee7 abbd 2e0f 8e3f 51e0 adbd 2758 fdbd
00000030: dcd3 f7bd 3393 273f 28d1 45bf 4fdc e1bd
00000040: 87b9 693e dc91 c63f acc3 853e 55c4 55bd
00000050: e520 9fbd 0c7e bb3e c623 6bbd f30e a9bf
00000060: a9ba 0ec0 f541 2fbd 90b7 92bd 0edf 52bd
00000070: 0f68 f8bd 6127 35bd a313 5dbd f5a2 cbbe
00000080: 1fbd b9bd dd8e 98be 527b f4bd b19b c6be
00000090: a843 e0bd a0ac b53c e7cb 7b3f e5fc 22bc
000000a0: 5e25 f5bc 49ce aec0 4b7f 52bd 5e7a c5bc
000000b0: 8c0b d1bd 0ccd 283c 7343 dbbd f5f9 04bd
000000c0: bc28 41bd 6fed 06be b55d 3abe b098 dbbd
000000d0: 60f2 86be c428 bdbe 19e6 f4bd 07cf cd3d
000000e0: 2fae c53e 627e 50bd 44eb 54bc 714e ecbd
000000f0: 59fe 66bf 57e1 673e ac8f e8bd a615 07bf
00000100: daf3 bfbd 343d 25bf c0e7 c63e 11b0 a0bd
00000110: 27d7 d63f 1afc f63e f2a3 fbbd d8f1 1fbe
00000120: 9b73 ffbb 3e93 7d3f b068 19bf 31cf 3bbc
00000130: 2c88 1a3d 57ea 25be e71b 6a3c fbdb b2be
00000140: d654 b13f cd61 50bc 29ec 08be aa9b cfbd
00000150: 5203 02be 77f0 26bc b3f4 65bd 84d7 693c
00000160: 115e 08be e7b5 5cbc 0638 dcbc e976 063d
00000170: 1c9e dcbd 33d3 21bd 8a48 84bf 1cd9 e7bc
00000180: d80f 66bd be83 89bf f2f0 e83f 98eb 4b3f
00000190: 70a8 82bd 161c 8cbc 0608 1cbf 92d0 e43f
000001a0: 06b1 5fbd 697b dc3f e73e fa3d 7e32 92bf
000001b0: 45bb 62bb 1fcb 993f 8459 c8bd 7182 8a3f
000001c0: 8fd7 13bd a3bb 04bd ea65 3640 2b63 f8bf
000001d0: 32c9 64bd bc4c 7ebd 7648 52c0 91c9 85bc
000001e0: 06ca c8bc 0a2a 54bf 90e1 9ebd 5079 08be
000001f0: 22f9 0fbe 5c9d 8abe 6625 493e 1a37 0cbe
-0.05130472 -0.13138554 -0.044093862 1.3296603 -0.043978643 -0.13518171 0.9112419 -0.20367363
-0.08393775 1.1098382 -0.084900506 -0.12370329 -0.12100956 0.65458983 -0.7727227 -0.11028349
0.2282468 1.5513263 0.26125848 -0.05218919 -0.07769946 0.36619604 -0.057407163 -1.3207687
-2.2301428 -0.04278751 -0.07163918 -0.051482253 -0.121292226 -0.044227008 -0.053973805 -0.39772764
-0.09069275 -0.29796496 -0.11937584 -0.38790658 -0.109504044 0.02217704 0.98358005 -0.00994799
-0.029925045 -5.4626813 -0.051390927 -0.0241062 -0.102072805 0.010302793 -0.10706224 -0.03246494
-0.047157988 -0.13176511 -0.18199809 -0.10722482 -0.26356792 -0.36945164 -0.1195795 0.10049253
0.38609454 -0.050901778 -0.012995545 -0.11538399 -0.90231854 0.22644554 -0.11355528 -0.5276741
-0.09372683 -0.64546514 0.38848686 -0.07846082 1.6784409 0.48239213 -0.122871295 -0.156196
-0.0077957637 0.990528 -0.59925365 -0.0114629725 0.03772752 -0.16202675 0.014288879 -0.34933457
1.3854015 -0.01271863 -0.13371338 -0.101371124 -0.12696579 -0.010189167 -0.056141566 0.014272574
-0.13317133 -0.013471103 -0.026882183 0.032828245 -0.107723445 -0.039508056 -1.0334637 -0.028301768
-0.056167454 -1.074333 1.8198531 0.7965636 -0.06379783 -0.017103236 -0.6094974 1.7876151
-0.054612182 1.7225162 0.12219029 -1.1421659 -0.0034596485 1.2015113 -0.09782699 1.0821058
-0.036094245 -0.032405507 2.8499703 -1.9405264 -0.055855937 -0.0620849 -3.2856727 -0.016331466
-0.024510395 -0.82876647 -0.077578664 -0.13327527 -0.1405988 -0.2707318 0.19643173 -0.13692895

weight f4 [1, 128]
00000000: 8e36 08bc fb50 39bf 5e32 943c 0a95 153f
00000010: ffe6 6d3c 8b71 d5bc fa38 4b3f 4fab 8dbc
00000020: 5e1a c13c 9663 873d 92f1 5ebc 10c3 9fbc
00000030: 4429 99b9 7fb3 2ebe 479c 6d3d 14fc 08bc
00000040: df47 163d e3ef 8bbe 9e2c 023e 9ab5 8fbc
00000050: a8c0 843c 0e00 1fbe 0889 ee3c d533 773d
00000060: 48d5 ac3d 1139 ed3c 9296 c0bb c9f7 ffbc
00000070: 626a ce3c 1cc9 1a3d 6c10 69bc 5fe6 6f3e
00000080: 9007 a5bb a7d9 13bf 586b ebbc 93ac 02bf
00000090: be70 9c3c 37a7 dcbc 6b71 a4bc 5efb 77bc
000000a0: eb7c 8b3c 0880 423e 4666 15bc f142 a6bc
000000b0: 733a c3bc 15e4 833c 9dd8 e0bc b678 94bc
000000c0: 43b1 7abc 3a7c b7b9 1ab9 afbc d12c 89bc
000000d0: cb2c eb39 726a 0d3e 7087 9a3c 498b d03e
000000e0: 6a09 d5bc 99e1 a33c 41de 6f3c d673 e03c
000000f0: c4c0 35bf 536c afbe 6fd5 7abc d8b1 d83e
00000100: 5140 f33c 8a06 ad3d ddce e6be 959d edbc
00000110: 8559 a4be aa82 a1be eaa7 823a b182 7c3c
00000120: 2f2b f33c 7733 05bf a72e 9dbe 767d 6e3c
00000130: cc09 8abe 3aa9 e53d 3aa8 33bc 7527 613d
00000140: ede2 2fbf ce6b f23c 7036 a13b a9b3 d33a
00000150: d86b 8fbc fdda c6be 74bb d63c dcb0 eeba
00000160: 9ec5 b3bc f91f dd3c 7a03 a3bb 4f1b bbbc
00000170: 1821 b83c 65c9 c4bc 5c79 2fbf 1249 d73a
00000180: 3e2b 34bc e558 923e 8342 c8be b29c 3e3d
00000190: 6181 cd3c 7cc8 813c a8f0 09bf ffda bfbd
000001a0: be67 293c 0a9f 28be e7e1 123e c723 213f
000001b0: 3b8c 9a3c 585b 44bd 5357 683e d18f edbd
000001c0: 86f1 54bc 41e7 153e 9620 1bbe 4720 7e3e
000001d0: 2e05 dd3b 1c88 b4bb 8911 503e b653 e83c
000001e0: 03ae 74bc f22b 2a3d 05b3 aabb 1135 8d3d
000001f0: 76d6 ec3c 3ea3 da3c 3d51 75be 11e1 e0be
-0.008313788 -0.7238919 0.018090423 0.5843054 0.014520406 -0.026055118 0.79383814 -0.0172936
0.023572143 0.066107914 -0.0136074 -0.019502193 -0.0002921318 -0.1706066 0.058010366 -0.008360881
0.036689635 -0.27331457 0.12712333 -0.017542649 0.016205147 -0.15527365 0.029118076 0.060352165
0.08439118 0.028957875 -0.0058773244 -0.031246083 0.025197212 0.03778945 -0.014225107 0.23427723
-0.005036302 -0.57753986 -0.028737709 -0.5104458 0.019096728 -0.026935203 -0.020073613 -0.015135614
0.017027339 0.18994153 -0.009118622 -0.020295592 -0.023831582 0.016099969 -0.02744704 -0.018123966
-0.015301052 -0.00034997036 -0.021450568 -0.016745003 0.00044856066 0.13810137 0.01886341 0.40731266
-0.026005466 0.020005034 0.014640392 0.027398985 -0.7099726 -0.34262332 -0.015309676 0.42323184
0.029693754 0.08448513 -0.450797 -0.029005805 -0.32099548 -0.31545 0.0009968255 0.015412019
0.029683677 -0.52031654 -0.30699655 0.014556279 -0.269606 0.11213918 -0.010965401 0.05496927
-0.68705636 0.02959242 0.0049198195 0.0016151565 -0.017507479 -0.3883895 0.026212431 -0.0018210667
-0.021944817 0.026992785 -0.0049747797 -0.02284017 0.022476718 -0.024021814 -0.68544555 0.0016424975
-0.010996638 0.28583446 -0.39113244 0.046536155 0.025086107 0.015842669 -0.5388284 -0.09367942
0.0103396755 -0.16466919 0.14343987 0.62945217 0.018865695 -0.047938675 0.22689562 -0.115996964
-0.012997037 0.14638998 -0.1514915 0.24817 0.006745002 -0.0055093896 0.20319189 0.028360229
-0.014934066 0.041545816 -0.005209329 0.06894887 0.028910857 0.026689168 -0.23956771 -0.43921712
