trained/exp_train_3_3_1111_0.0001_0.001_32_0.95/model/ctrl_actor_0.pth (torch, 311295 bytes, 6 tensors)

weight f4 [512, 20]
0.13785279 0.115693785 -0.14697286 0.06578875 0.021904312 -0.05498529 0.16088146 -0.46092483
0.014265797 0.06992954 -0.55153614 -0.12813462 0.39472204 -0.11614744 -0.18314907 0.3929934
-0.08076221 -0.014732622 0.041637454 0.037787925 0.1517701 0.05218128 -0.04491169 0.16612665
0.19683208 0.058484763 -0.32445818 0.16910486 -0.1771006 -0.037002735 -0.076839924 -0.26306748
0.22301817 -0.03655652 -0.18177629 -0.19775288 -0.100054115 0.15346268 0.15460339 0.19606906
-0.10941903 0.16459188 0.35680354 0.25212923 0.20490734 0.43978006 0.24791259 -0.43983266
0.070731744 0.26724347 -0.061414555 -0.17501171 -0.19098693 -0.27212158 -0.03426605 0.28221333
-0.043541703 0.104797244 0.06166981 -0.093596056 0.066809386 0.15569162 0.08053893 -0.032815278
-0.18039559 -0.28222197 -0.22551095 0.6197394 0.00020275646 -0.15842246 -0.08445465 -0.24802315
-0.008659028 -0.15466698 0.30640978 0.15293425 -0.020095909 0.017888296 0.17748904 0.068238705
0.14765199 -0.08816254 0.3214314 0.46388024 -0.2541795 -0.15225917 0.20558597 0.06375954
-0.20076613 0.06612071 0.25745687 0.15371108 0.14354599 -0.36819574 -0.113611475 0.17390844
0.093190156 -0.21557024 -0.14786234 0.049933903 -0.036839895 0.1167881 -0.08121587 0.16802457
-0.0016605263 -0.026875554 -0.09784354 0.27998683 -0.023335434 0.012196369 -0.1828792 0.29481015
0.13460574 -0.26603046 0.08284436 -0.028610649 -0.1402668 -0.079058245 -0.26618713 -0.061953545
0.044193175 0.1574818 -0.034100465 0.08609342 0.32345533 0.104855284 0.1527849 0.26362103
-0.4119567 0.06708053 -0.30081585 -0.07672979 0.01209781 -0.40069306 -0.069817185 -0.052885674
0.24724466 0.098031916 0.09751985 0.027840918 0.2950153 -0.08080229 0.10109773 -0.07421108
-0.01612875 -0.23312505 -0.104082085 0.3966919 -0.3429544 0.15029858 0.010349033 0.099459074
-0.17463039 -0.054696277 0.05684893 -0.22179909 0.11271128 -0.18089367 -0.06066194 -0.10918488
-0.0068966355 -0.1727483 0.22965685 -0.16713414 -0.26553065 0.011691511 -0.14877522 -0.11220246
-0.060891394 0.09676273 0.42193243 0.04297768 0.013680985 -0.20960797 0.10154572 -0.046275504
0.028226843 0.30942374 0.012231988 0.10989257 -0.008972332 -0.3099314 -0.2759058 0.119233035
-0.23732252 0.21522449 -0.1816284 -0.03454671 0.2947789 0.012731274 -0.1921748 -0.18838851
0.08454162 0.3786731 0.10824685 -0.19529377 0.30973595 0.031596687 -0.21724044 0.15523629
-0.11825449 -0.14344558 -0.25516585 0.011833931 -0.3526 0.33613932 -0.011564705 -0.10925883
0.32313952 0.12581113 -0.201343 0.15255311 0.09046305 0.17238344 -0.13658097 -0.21514727
0.16656594 -0.0785023 -0.037707064 -0.2599035 -0.044626605 -0.030733738 0.06378315 -0.019452991
0.28188613 0.25491875 -0.0668111 -0.20053867 -0.032453764 0.1294198 -0.3318219 -0.2600519
0.060993545 0.5558724 -0.05384737 -0.22823736 0.058724727 -0.32724497 -0.081427634 0.18034111
-0.1533996 0.23509334 0.23829713 0.07156601 0.058583807 -0.249585 0.15565014 0.05143376
0.40011317 0.1974615 -0.0061457413 0.14513186 0.17517598 -0.33446813 -0.3013309 -0.23761478
00000000: 4829 0d3e ddf0 ec3d 0e80 16be 41bc 863d
00000010: ac70 b33c 4138 61bd 1cbe 243e 57fe ebbe
00000020: 17bb 693c 3837 8f3d 7931 0dbf b935 03be
00000030: 0219 ca3e b6de edbd 6e8b 3bbe 6e36 c93e
00000040: a866 a5bd 1861 71bc 098c 2a3d 83c7 1a3d
00000050: 9f69 1b3e 0abc 553d 52f5 37bd 1b1d 2a3e
00000060: 598e 493e b88d 6f3d 621f a6be d329 2d3e
00000070: dc59 35be 2e90 17bd 405e 9dbd c8b0 86be
00000080: e05e 643e 4abc 15bd 9023 3abe bb7f 4abe
00000090: 2ce9 ccbd 5225 1d3e 5a50 1e3e 54c6 483e
000000a0: 1617 e0bd c68a 283e f4ae b63e 1517 813e
000000b0: 3bd3 513e da2a e13e ccdc 7d3e bf31 e1be
000000c0: cedb 903d 23d4 883e d48d 7bbd 4536 33be
000000d0: 1492 43be 8553 8bbe 8f5a 0cbd 447e 903e
000000e0: c958 32bd f09f d63d 7c99 7c3d 4aaf bfbd
000000f0: 5cd3 883d a06d 1f3e 98f1 a43d 5069 06bd
00000100: 9fb9 38be 667f 90be 58ec 66be 3ea7 1e3f
00000110: 069b 5439 7f39 22be 8ff6 acbd c8f9 7dbe
00000120: 99de 0dbc 0561 1ebe bee1 9c3e cc9a 1c3e
00000130: 2da0 a4bc 7a8a 923c b0bf 353e bcc0 8b3d
00000140: 1532 173e 908e b4bd a892 a43e b681 ed3e
00000150: d123 82be d4e9 1bbe 2185 523e 5d94 823d
00000160: a395 4dbe 4b6a 873d 63d1 833e 7066 1d3e
00000170: b8fd 123e 2784 bcbe 22ad e8bd 0e15 323e
00000180: 7bda be3d 72be 5cbe 3a69 17be 7e87 4c3d
00000190: 6ee5 16bd 992e ef3d 8254 a6bd a20e 2c3e
000001a0: 04a6 d9ba 1f2a dcbc 3262 c8bd 6f5a 8f3e
000001b0: f429 bfbc 47d3 473c af44 3bbe 5bf1 963e
000001c0: 16d6 093e 2535 88be 4eaa a93d e160 eabc
000001d0: 1aa2 0fbe 4ae9 a1bd ae49 88be 00c3 7dbd
000001e0: e703 353d e942 213e eeac 0bbd bf51 b03d
000001f0: f09b a53e 5ebe d63d a573 1c3e 56f9 863e
00000200: fdeb d2be 8461 893d 8904 9abe 8224 9dbd
00000210: e535 463c a427 cdbe 50fc 8ebd a69e 58bd
00000220: b42d 7d3e f5c4 c83d 7db8 c73d a312 e43c
00000230: 3f0c 973e ac7b a5bd 540c cf3d fbfb 97bd
00000240: 7120 84bc 55b8 6ebe fd28 d5bd 331b cb3e
00000250: b897 afbe dfe7 193e fe8e 293c 33b1 cb3d
00000260: 4fd2 32be 3409 60bd 6cda 683d 4d1f 63be
00000270: 2cd5 e63d 313c 39be a878 78bd 539c dfbd
00000280: 2cfd e1bb eee4 30be 2a2b 6b3e 3625 2bbe
00000290: a2f3 87be c08d 3f3c 8858 18be 67ca e5bd
000002a0: 4169 79bd 8a2b c63d 8707 d83e 5d09 303d
000002b0: 3626 603c 79a3 56be 34f7 cf3d 628b 3dbd
000002c0: fb3b e73c ca6c 9e3e ad68 483c 5b0f e13d
000002d0: b000 13bc 54af 9ebe 8643 8dbe 7330 f43d
000002e0: ad04 73be cf63 5c3e ccfc 39be da80 0dbd
000002f0: 43ed 963e d596 503c 79c9 44be ebe8 40be
00000300: 2824 ad3d 71e1 c13e 86b0 dd3d 17fb 47be
00000310: b695 9e3e 876b 013d 4774 5ebe 43f6 1e3e
00000320: 692f f2bd 66e3 12be 19a5 82be 1be3 413c
00000330: fd87 b4be 741a ac3e e379 3dbc 18c3 dfbd
00000340: 8b72 a53e a2d4 003e dc2c 4ebe e236 1c3e
00000350: b144 b93d 4985 303e e2db 0bbe 914f 5cbe
00000360: 4390 2a3e d0c5 a0bd b972 1abd 1212 85be
00000370: 63ca 36bd 52c5 fbbc bda0 823d e15b 9fbc
00000380: 6153 903e b684 823e 42d4 88bd 025a 4dbe
00000390: 3dee 04bd a086 043e 8fe4 a9be 8625 85be
000003a0: 5ed4 793d a74d 0e3f 0f8f 5cbd 0eb7 69be
000003b0: 5789 703d a78c a7be 88c3 a6bd 57ab 383e
000003c0: c914 1dbe 4fbc 703e 2a04 743e 3391 923d
000003d0: 93f5 6f3d 3693 7fbe c062 1f3e 35ac 523d
000003e0: a2db cc3e 5933 4a3e 3762 c9bb 729d 143e
000003f0: 5561 333e 683f abbe 0b48 9abe 4a51 73be

bias f4 [512]
-0.0019002474 -0.16940361 0.045006763 -0.21278761 0.24335082 -0.2866575 0.330151 -0.29427376
0.093117945 -0.14080732 -0.27941832 -0.14791195 0.16631913 -0.13953844 -0.026559176 -0.28642675
-0.058332857 0.102403454 -0.1232449 -0.106823385 -0.3738127 0.033550613 -0.18300785 0.13911748
-0.119287245 -0.35180447 -0.22704856 0.081166774 -0.12945247 -0.37806085 -0.15072282 -0.32763013
-0.33566332 -0.2349988 -0.32638332 -0.28197372 -0.04011879 -0.18033935 0.18501644 0.22838205
-0.10526 -0.15887988 0.13023409 -0.33588776 -0.09196875 0.1278166 -0.13292979 -0.49456742
-0.05885866 -0.009191887 -0.11704528 -0.00090348354 -0.33456242 -0.010744375 -0.2858441 -0.09375235
0.07281985 -0.6521011 -0.2902121 -0.40975076 0.01795076 -0.39360166 0.060664803 -0.16246817
0.31167167 -0.15146226 -0.031751722 -0.22556108 0.06983209 -0.08243804 -0.07393967 0.06031958
0.062911764 -0.53452 0.003351102 -0.041908447 -0.034656085 -0.26769915 -0.30367404 -0.59612775
0.1288783 -0.4185425 0.1145143 -0.38977367 0.18949838 -0.3798767 -0.3887652 -0.07152338
-0.40540934 -0.34801978 -0.30810034 0.1897872 -0.26672098 -0.2536528 -0.25706434 -0.13792238
-0.051240925 -0.21110614 -0.20451067 0.5146525 -0.20344412 -0.27461606 0.18201183 -0.30029345
-0.13474621 0.3236323 -0.15154052 -0.15406336 0.185432 -0.1262171 -0.18223031 -0.038918104
0.105971135 -0.38198566 -0.0998329 0.07405513 -0.09886552 -0.21897203 0.17512642 -0.033438418
-0.12957416 -0.1738335 -0.18146022 0.03393163 0.13107179 -0.32941645 0.14996023 -0.060640298
0.03178764 -0.061284374 -0.20173132 -0.38226014 0.06285483 -0.30555028 -0.12295806 -0.29352635
-0.052274924 -0.20952044 -0.25866604 -0.37832126 -0.23234548 -0.34703815 -0.5306844 -0.15825666
-0.20115376 -0.14821592 -0.3015749 -0.26996607 -0.13328138 0.17755787 -0.09477697 -0.17835571
0.3304224 -0.22811563 -0.1655959 0.28099394 0.17989448 0.4593711 -0.20699073 0.010319081
-0.36490637 -0.039491653 -0.24697733 -0.100545526 -0.5684457 -0.12780447 0.121435136 -0.00066546514
0.052363835 0.07793783 -0.06809477 -0.07717385 -0.2800815 0.23361914 -0.16498365 0.14035189
-0.23477338 0.013825915 0.030974302 0.040361404 -0.16594966 -0.10008546 0.266133 -0.18337138
-0.050630625 -0.30457988 -0.2484286 -0.009559434 -0.19659448 0.36474407 0.11148548 0.18371168
0.10380707 0.051563084 -0.2131776 -0.2716155 -0.32898116 -0.04981215 -0.028123252 -0.14151926
-0.20154259 -0.16325651 -0.049455218 -0.17863266 -0.17412801 -0.31314167 -0.24442703 -0.5396943
-0.25079006 -0.2035121 -0.41969407 -0.12825316 -0.35625786 -0.15747663 -0.32763374 -0.1929896
-0.028907279 -0.04832999 0.1799839 -0.14472997 -0.47518083 0.20160832 -0.0072047645 -0.25889537
-0.05535024 0.12131971 -0.078038655 -0.06827342 -0.15954925 -0.5607239 -0.32966846 0.072492175
0.03925934 -0.18284139 0.03330473 -0.14985308 -0.27457467 0.13915819 -0.46388978 -0.21954489
-0.21314576 0.09853655 -0.07415802 -0.03616931 -0.13895984 0.15659371 -0.10906971 -0.43149763
-0.0013753482 -0.23606922 -0.38820896 -0.0889031 -0.19965364 -0.26545098 -0.24476986 -0.3543661
00000000: b911 f9ba 2478 2dbe 0359 383d ffe4 59be
00000010: f530 793e c6c4 92be 8d09 a93e 0dab 96be
00000020: 9fb4 be3d cb2f 10be eb0f 8fbe 3b76 17be
00000030: 904f 2a3e 2ae3 0ebe a192 d9bc 87a6 92be
00000040: 6fee 6ebd e7b8 d13d d267 fcbd 38c6 dabd
00000050: 6164 bfbe 5e6c 093d 6966 3bbe d074 0e3e
00000060: df4c f4bd b71f b4be 6b7f 68be c43a a63d
00000070: 308f 04be 3191 c1be 1557 1abe 23bf a7be
00000080: 10dc abbe 87a3 70be b71b a7be dc5e 90be
00000090: 9a53 24bd e1aa 38be f374 3d3e fcdc 693e
000000a0: 8e92 d7bd 68b1 22be 165c 053e 7bf9 abbe
000000b0: 1d5a bcbd 5be2 023e bf1e 08be f137 fdbe
000000c0: c715 71bd 9299 16bc 70b5 efbd c1d7 6cba
000000d0: c44b abbe 2d09 30bc 285a 92be 3b01 c0bd
000000e0: 9322 953d 19f0 26bf ae96 94be daca d1be
000000f0: 790d 933c 2886 c9be a87b 783d 0e5e 26be
00000100: 6e93 9f3e ec18 1bbe 180e 02bd 7cf9 66be
00000110: 2004 8f3d 46d5 a8bd af6d 97bd aa11 773d
00000120: e2d7 803d 4dd6 08bf 299e 5b3b 31a8 2bbd
00000130: 8af3 0dbd dd0f 89be 2a7b 9bbe d49b 18bf
00000140: acf8 033e 344b d6be 7986 ea3d 6a90 c7be
00000150: dd0b 423e 337f c2be 3b0c c7be da7a 92bd
00000160: d091 cfbe a62f b2be 54bf 9dbe 9357 423e
00000170: a78f 88be c8de 81be f09d 83be 863b 0dbe
00000180: 01e2 51bd 352c 58be 3f6b 51be 44c0 033f
00000190: a853 50be 7a9a 8cbe 4f61 3a3e 10c0 99be
000001a0: e9fa 09be 22b3 a53e 702d 1bbe c9c2 1dbe
000001b0: e3e1 3d3e 0e3f 01be 959a 3abe 9768 1fbd
000001c0: 6507 d93d a093 c3be 3175 ccbd 37aa 973d
000001d0: 017a cabd 343a 60be 5754 333e b9f6 08bd
000001e0: 17af 04be 6901 32be b5d0 39be e5fb 0a3d
000001f0: af37 063e 46a9 a8be 2d8f 193e f661 78bd
00000200: c233 023d 5305 7bbd a892 4ebe 9ab7 c3be
00000210: 08ba 803d 1671 9cbe 6fd1 fbbd 1649 96be
00000220: 3b1e 56bd 878c 56be e06f 84be 53b3 c1be
00000230: f9eb 6dbe fcae b1be efda 07bf 090e 22be
00000240: 40fb 4dbe eac5 17be 0668 9abe fe38 8abe
00000250: ea7a 08be bbd1 353e 6e1a c2bd e1a2 36be
00000260: 202d a93e 2597 69be f991 29be 70de 8f3e
00000270: 4236 383e b032 eb3e 61f5 53be 5d11 293c
00000280: 02d5 babe 00c2 21bd a0e7 7cbe d0ea cdbd
00000290: a885 11bf 2ddf 02be fcb2 f83d 9c72 2eba
000002a0: 767b 563d de9d 9f3d 4575 8bbd 530d 9ebd
000002b0: d866 8fbe db39 6f3e 79f1 28be 68b8 0f3e
000002c0: 6f68 70be 1786 623c d2bd fd3c 0052 253d
000002d0: b5ee 29be 9bf9 ccbd 9642 883e b5c5 3bbe
000002e0: 0f62 4fbd e5f1 9bbe 1164 7ebe 2c9f 1cbc
000002f0: 1050 49be bcbf ba3e 8052 e43d ea1e 3c3e
00000300: cd98 d43d d033 533d 3b4b 5abe 3011 8bbe
00000310: 3870 a8be d307 4cbd bc62 e6bc 6dea 10be
00000320: 2e61 4ebe b72c 27be 8e91 4abd 7beb 36be
00000330: 9d4e 32be 1b54 a0be 144b 7abe 6829 0abf
00000340: 8e67 80be 7a65 50be 24e2 d6be cc54 03be
00000350: 6e67 b6be 8e41 21be 9cbf a7be 119f 45be
00000360: f5ce ecbc abf5 45bd b34d 383e 1834 14be
00000370: e74a f3be 6972 4e3e f215 ecbb ef8d 84be
00000380: efb6 62bd 7876 f83d bbd2 9fbd efd2 8bbd
00000390: e160 23be 9a8b 0fbf 4eca a8be c776 943d
000003a0: 67ce 203d c63a 3bbe 8a6a 083d 1673 19be
000003b0: 0d95 8cbe 7c7f 0e3e f682 edbe 60d0 60be
000003c0: e242 5abe 88cd c93d 29e0 97bd 4526 14bd
000003d0: 7d4b 0ebe 1a5a 203e f15f dfbd 42ed dcbe
000003e0: 0745 b4ba 21bc 71be 53c3 c6be d412 b6bd
000003f0: 0172 4cbe 31e9 87be f3a4 7abe 796f b5be

weight f4 [128, 512]
0.11390001 -0.017389733 0.011632834 0.040620003 -0.26039368 -0.2802055 0.29692027 0.08595612
-0.026864912 0.07873661 0.1074227 -0.023028376 -0.2295716 0.026615389 -0.17927778 -0.004589358
0.04261885 0.17545916 -0.2561883 0.1330267 -0.04353221 -0.10193969 0.08001913 -0.015261936
-0.05339663 0.13757925 -0.05927674 0.16508214 0.09130129 -0.046519782 0.14504443 -0.091621526
-0.06548402 0.0213941 -0.15086521 -0.15116325 0.08834412 -0.06938128 0.14093974 0.13091421
0.13266145 0.018112918 0.054609504 -0.12259455 0.065192424 0.14801179 0.18117285 -0.37365493
0.15260337 -0.06390172 0.19943643 -0.060203627 -0.21513064 -0.38991565 0.22792825 -0.05019673
0.001124058 -0.095854744 0.043531522 -0.077508755 0.0059074587 -0.096256375 0.017579174 -0.07194615
0.1173206 0.010279636 -0.1776144 0.21245073 0.03278312 0.10831897 0.24452999 0.045228872
0.13186845 -0.0860976 0.34738845 -0.04040241 0.020335577 0.12554353 0.030209968 -0.17447603
0.20004036 0.11302172 0.1396921 0.07361186 0.1237345 0.17169566 -0.036340334 -0.046401847
0.044147734 0.06770869 0.26989672 0.006895803 0.11305681 0.10792856 -0.08956859 -0.11281617
-0.12547426 0.014370673 -0.047233168 -0.023220997 0.0018396622 0.09433817 -0.112258114 -0.07287635
0.30931613 0.0031677878 0.079230614 -0.13709521 -0.07566504 -0.106831335 0.059161305 -0.0293575
0.006074816 -0.03017005 0.36219326 -0.17358983 -0.011793541 -0.016181536 -0.034564983 -0.20262223
-0.033723302 0.02469135 -0.025949989 -0.08155993 -0.021140376 0.30239454 -0.026489362 -0.15304613
-0.09303766 0.098903775 0.049812708 -0.3679513 -0.04047163 0.15507983 0.0941928 0.043367166
0.07602177 -0.10457401 0.15890801 -0.23474771 -0.0719649 -0.17855188 -0.1268802 0.07759947
0.13357157 -0.052110773 -0.066985354 -0.11063901 -0.11052012 0.012285931 0.17003515 -0.06570419
0.032619577 -0.10715808 -0.0066956296 -0.03172812 0.098055184 0.056293778 0.16137876 0.0930702
-0.048671044 -0.39453912 0.14826278 -0.09221025 0.15093504 -0.13644518 -0.13030605 0.07464375
0.082710534 -0.16925876 0.053400535 -0.114203066 0.031218056 0.084454745 -0.064489715 0.032676566
-0.10161213 0.21977548 -0.3391149 0.30430058 -0.184221 0.0032325576 0.072661944 -0.18067074
0.24989419 -0.1321621 0.037166398 0.050073817 -0.0865379 -0.035614666 0.101828784 0.16663752
0.20658572 -0.035701364 -0.014452194 0.053419884 0.01839105 -0.3049348 0.1610525 -0.2189878
0.29437342 -0.06111671 0.058197614 0.15912873 -0.16399907 0.015089906 -0.13384674 0.28850546
0.06738001 0.15402466 -0.06254451 -0.032911304 0.19715941 -0.12712969 0.08748846 -0.0626458
-0.13666284 -0.05423446 -0.018936714 -0.002158095 -0.0032200536 0.017073937 -0.120955884 0.2078898
0.07974798 0.03982721 0.08293646 0.13966575 0.14135417 0.052432604 -0.13095775 0.05413279
-0.18812333 0.13685788 -0.12438919 0.1675507 0.08813609 -0.0100699505 -0.17310324 0.014402576
-0.057063583 -0.059120506 0.017620865 -0.13399562 -0.1561683 -0.08875577 0.13428347 0.08683993
0.053052638 0.07723489 -0.09919667 0.095213346 -0.074808195 0.21903436 0.011370176 -0.05540394
00000000: 6944 e93d ea74 8ebc a497 3e3c 2961 263d
00000010: 5252 85be 1877 8fbe ef05 983e c309 b03d
00000020: ce13 dcbc a940 a13d 6f00 dc3d 01a6 bcbc
00000030: d114 6bbe 8408 da3c 9894 37be 5362 96bb
00000040: 1a91 2e3d 91ab 333e 1d2b 83be 2738 083e
00000050: d54e 32bd c2c5 d0bd 12e1 a33d 330d 7abc
00000060: 6db6 5abd 93e1 0c3e 2bcc 72bd 4b0b 293e
00000070: 2cfc ba3d 878b 3ebd 8786 143e 11a4 bbbd
00000080: 7c1c 86bd ae42 af3c 697c 1abe 8aca 1abe
00000090: c3ed b43d c617 8ebd 8252 103e 600e 063e
000000a0: 67d8 073e 8b61 943c 37ae 5f3d da12 fbbd
000000b0: 9b83 853d 6790 173e 6085 393e b34f bfbe
000000c0: 0f44 1c3e e8de 82bd 1039 4c3e 1498 76bd
000000d0: 354b 5cbe 06a3 c7be 0666 693e 169b 4dbd
000000e0: 2155 933a 7e4f c4bd 1c4e 323d e9bc 9ebd
000000f0: 5b93 c13b 1022 c5bd 3302 903c 8158 93bd
00000100: c845 f03d eb6b 283c 8de0 35be af8c 593e
00000110: 9847 063d 56d6 dd3d 1266 7a3e e941 393d
00000120: 8608 073e f053 b0bd e6dc b13e ff7c 25bd
00000130: cc96 a63c 7c8e 003e e57a f73c d8a9 32be
00000140: 61d7 4c3e ee77 e73d 720b 0f3e d1c1 963d
00000150: 8368 fd3d fdd0 2f3e 9ad9 14bd dd0f 3ebd
00000160: 41d4 343d dbaa 8a3d e72f 8a3e 30f6 e13b
00000170: 548a e73d a609 dd3d bd6f b7bd 2a0c e7bd
00000180: 537c 00be f972 6b3c 9177 41bd f639 bebc
00000190: d220 f13a 5f34 c13d 95e7 e5bd 3240 95bd
000001a0: af5e 9e3e a99a 4f3b a943 a23d b062 0cbe
000001b0: 46f6 9abd 63ca dabd 2053 723d 247f f0bc
000001c0: 400f c73b 2e27 f7bc 6571 b93e 88c1 31be
000001d0: b239 41bc 248f 84bc 0394 0dbd 347c 4fbe
000001e0: 7221 0abd 8445 ca3c 1295 d4bc e508 a7bd
000001f0: 952e adbc 75d3 9a3e 3800 d9bc 20b8 1cbe
00000200: 878a bebd 108e ca3d 6908 4c3d 1d64 bcbe
00000210: 94c5 25bd 3fcd 1e3e 28e8 c03d c5a1 313d
00000220: 4db1 9b3d e62a d6bd c8b8 223e b461 70be
00000230: 5562 93bd 4ed6 36be e2ec 01be 79ec 9e3d
00000240: fcc6 083e 1b72 55bd 9e2f 89bd b596 e2bd
00000250: 5f58 e2bd ee4a 493c b21d 2e3e eb8f 86bd
00000260: 1b9c 053d b275 dbbd 0367 dbbb 58f5 01bd
00000270: 28d1 c83d 4e94 663d 7940 253e 979b be3d
00000280: 4a5b 47bd 0801 cabe 33d2 173e bad8 bcbd
00000290: b78e 1a3e 49b8 0bbe f36e 05be d3de 983d
000002a0: 2464 a93d 2b52 2dbe 85ba 5a3d 4ce3 e9bd
000002b0: 02bd ff3c 9cf6 ac3d 2f13 84bd ddd7 053d
000002c0: 051a d0bd d30c 613e 78a0 adbe 49cd 9b3e
000002d0: 6ea4 3cbe 51d9 533b c9cf 943d c001 39be
000002e0: 43e4 7f3e 8055 07be cb3b 183d 341a 4d3d
000002f0: c83a b1bd afe0 11bd 9c8b d03d 07a3 2a3e
00000300: 358b 533e 983b 12bd e5c8 6cbc cfce 5a3d
00000310: d4a8 963c 6a20 9cbe f2ea 243e 563e 60be
00000320: 1db8 963e 8455 7abd 9f60 6e3d a4f2 223e
00000330: 5fef 27be a73b 773c 1f0f 09be fdb6 933e
00000340: 88fe 893d a4b8 1d3e 5617 80bd 01ce 06bd
00000350: 28e4 493e 492e 02be 262d b33d 714c 80bd
00000360: 58f1 0bbe f424 5ebd 2b21 9bbc d36e 0dbb
00000370: 8907 53bb a4de 8b3c b8b7 f7bd 10e1 543e
00000380: e952 a33d db21 233d 97da a93d 8a04 0f3e
00000390: 26bf 103e 92c3 563d ca19 06be 58ba 5d3d
000003a0: 67a3 40be 7924 0c3e c2bf febd 6992 2b3e
000003b0: b280 b43d 6ffc 24bc fa41 31be c8f8 6b3c
000003c0: 81bb 69bd 5828 72bd a259 903c 2636 09be
000003d0: 95ea 1fbe 96c5 b5bd 9b81 093e 22d9 b13d
000003e0: b94d 593d 532d 9e3d a027 cbbd 37ff c23d
000003f0: 0a35 99bd 8b4a 603e fa49 3a3c 3eef 62bd

bias f4 [128]
0.1441428 0.08913723 -0.05388391 0.006131325 0.0659253 0.01722157 -0.041191634 0.10530353
-0.051013667 -0.0384137 0.12692222 0.02905884 0.061741974 0.11258514 -0.017221356 -0.03136867
0.0037780483 -0.020587549 -0.061043326 -0.12302684 0.013131025 0.009343131 -0.06038071 0.032294016
-0.052663933 -0.03605234 -0.036831032 0.12203303 -0.1391705 0.03805639 -3.329202e-05 -0.030532695
0.13645627 -0.042946756 0.111152865 -0.09937614 0.138289 0.09827038 0.08882129 -0.09106766
-0.0079153 0.047507677 -0.019454947 -0.04215373 0.019638645 -0.028291631 0.112558305 -0.04867622
0.022955976 0.025144635 0.09955659 0.0288913 0.015183074 -0.05084102 -0.0031889318 0.004764973
0.04575341 0.13258731 0.09651358 -0.124955095 0.048300225 -0.09881252 -0.060515404 0.0789479
0.12834299 -0.023648854 0.018033834 -0.0060216836 -0.035666484 0.12568937 0.082251735 0.15490486
-0.061907697 0.02164578 0.04170204 0.038167905 0.032304026 -0.11037216 -0.12014831 -0.07131791
0.006530866 -0.06750946 -0.043585923 -0.009656113 -0.15978527 0.061959304 -0.049168117 -0.12864661
0.114780456 0.006896651 -0.024482472 0.020424012 -0.00074420264 0.09244279 -0.06336161 0.13501838
0.015759988 0.0057239286 0.046126127 -0.035788313 -0.1624283 -0.04157978 -0.043649837 0.10053797
0.05044755 -0.06381056 -0.006730619 -0.07543817 0.026328199 0.016074235 -0.1051344 0.049139068
0.13130993 0.14101356 0.030049397 -0.05147628 0.041968286 0.029555717 -0.041897625 0.016480261
0.04433613 -0.045688953 0.15939716 0.07519891 -0.05880557 -0.04898834 -0.031964246 0.15871152
00000000: 2c9a 133e 948d b63d 60b5 5cbd 48e9 c83b
00000010: d803 873d 4014 8d3c 8fb8 28bd 61a9 d73d
00000020: b5f3 50bd af57 1dbd e6f7 013e ce0c ee3c
00000030: 27e5 7c3d 0a93 e63d cd13 8dbc 6f7c 00bd
00000040: 2299 773b 38a7 a8bc 9108 7abd 7ff5 fbbd
00000050: 8323 573c ef13 193c c351 77bd bb46 043d
00000060: 23b6 57bd 9eab 13bd 23dc 16bd 74ec f93d
00000070: b682 0ebe 04e1 1b3d 09a3 0bb8 b41f fabc
00000080: 31bb 0b3e f0e8 2fbd 1da4 e33d b885 cbbd
00000090: a29b 0d3e fb41 c93d f0e7 b53d ae81 babd
000000a0: 2daf 01bc 6997 423d fb5f 9fbc 64a9 2cbd
000000b0: 39e1 a03c dac3 e7bc f884 e63d b760 47bd
000000c0: 2c0e bc3c 1ffc cd3c 53e4 cb3d 73ad ec3c
000000d0: 6ec2 783c ac3e 50bd 66fd 50bb 7e23 9c3b
000000e0: ed67 3b3d f8c4 073e e9a8 c53d 75e8 ffbd
000000f0: 75d6 453d 385e cabd 00df 77bd 70af a13d
00000100: 586c 033e 3ebb c1bc b1bb 933c 8b51 c5bb
00000110: 0517 12bd b7b4 003e 9973 a83d 619f 1e3e
00000120: ed92 7dbd 7e52 b13c c2cf 2a3d f355 1c3d
00000130: 3a51 043d cd0a e2bd 5110 f6bd 200f 92bd
00000140: e000 d63b 6642 8abd 2787 32bd ac34 1ebc
00000150: c09e 23be 0ac9 7d3d 8264 49bd f0bb 03be
00000160: 0412 eb3d 4dfd e13b 778f c8bc 4250 a73c
00000170: 9816 43ba a552 bd3d bbc3 81bd 4242 0a3e
00000180: 171b 813c cb8f bb3b c0ee 3c3d c496 12bd
00000190: 9b53 26be 8f4f 2abd 2cca 32bd dae6 cd3d
000001a0: 17a2 4e3d 1caf 82bd 868c dcbb 547f 9abd
000001b0: 3cae d73c 1dae 833c b450 d7bd 0c46 493d
000001c0: 1c76 063e dc65 103e 272a f63c cbd8 52bd
000001d0: f0e6 2b3d d51e f23c d89c 2bbd 9d01 873c
000001e0: cd99 353d 5724 3bbd 0239 233e e301 9a3d
000001f0: 1cde 70bd ffa7 48bd f1ec 02bd 4685 223e

weight f4 [5, 128]
-0.5074092 0.0724071 0.24484886 0.37074178 -0.099295326 -0.4607501 -0.29669535 0.08503443
-0.0021018821 -0.034659833 -0.21160313 -0.49355263 0.09427865 0.13751599 0.1239689 -0.09120201
-0.0037185438 -0.20568562 0.6338573 0.24272461 0.12506565 -0.17746337 0.4003712 0.40688336
0.062014423 0.0642964 -0.20931052 0.33792126 0.1687651 0.29961127 0.31378135 -0.046683155
0.099888414 0.52612996 -0.15481503 0.035654757 0.2415207 -0.12258147 0.3203762 -0.36065683
0.19252026 -0.04455566 -0.6823945 -0.19512683 -0.25284672 0.07398795 -0.15384741 0.037445042
0.45414037 0.27435887 -0.027719947 -0.72353184 0.029629802 -0.10071029 -0.06974192 0.47219044
0.16917564 0.4251126 0.5275652 0.22896634 -0.28747395 -0.004148652 0.44356668 0.46283364
0.43215868 -0.11204363 -0.89264005 0.43042934 -0.043276776 0.15490656 -0.2435248 0.35979384
-0.58618915 0.3979162 -0.33439043 -0.34182164 0.2060522 -0.09323368 -0.61402345 -0.50915205
0.17322117 -0.097374104 0.1519572 -0.010067035 0.056453235 0.14410448 0.017490022 0.18389243
-0.18655501 0.16389789 -0.14313789 -0.3987221 -0.325435 -0.43298152 -0.61258847 0.3858204
0.10089878 -0.21645555 0.0116224205 0.4214671 -0.28629816 -0.615874 -0.29345977 -0.2591245
0.6822994 -0.017005391 -0.34375796 -0.27534026 -0.028522497 -0.43415087 0.038688228 0.060206477
-0.5172092 -0.16839734 0.10022024 0.03596775 0.38334116 0.06948426 0.032527152 -0.6402334
0.62022185 0.270353 -0.46476695 0.35097435 -0.03452127 0.29666707 0.22304219 -0.22541504
-0.5800034 -0.5843461 0.39648792 0.21344812 -0.27531332 0.6281194 -0.12986562 -0.036710992
0.11002721 0.07626766 0.08210324 -0.28252092 -0.47582763 0.082227364 -0.29002476 0.26958576
0.072119914 0.16010839 0.08236559 0.6457183 0.10081169 -0.9173222 -0.19521792 0.21751265
0.015999587 0.012561364 -0.2790316 0.43588844 -0.0048054084 0.3767753 0.016515665 -0.43728375
-0.1572555 0.082782045 0.014930772 0.4710386 -0.11831261 0.010529239 -0.48555943 -0.6359027
0.36443293 -0.0075356355 -0.13237421 0.119730994 -0.12734993 0.013724052 0.4271623 0.044063576
0.17609127 0.46786636 -0.25554115 0.27671474 -0.47692704 0.40782768 0.38647544 -0.42511535
-0.21437536 -0.24154906 -0.1810969 0.21041895 0.22762404 -0.5318476 0.35778144 -0.088328496
0.17348585 0.060631398 0.42315978 0.0028291852 -0.021894028 -0.1911654 -0.5363967 -0.18438649
0.19914784 0.4032567 -0.2706034 -0.021893075 -0.043675628 0.42127022 0.17786002 0.18941468
-0.14675695 0.08834913 0.2572914 0.044441216 0.3512682 0.2766438 0.07479996 0.6069928
-0.38370487 -0.125145 -0.21577124 -0.46701112 -0.18366207 -0.5899528 0.44204262 0.24322799
0.33927503 0.871643 -0.43611857 0.116224825 0.24644756 0.4924627 0.3417402 -0.3638005
0.67154104 0.04418781 0.540655 -0.17369312 -0.028652765 -0.46439174 0.21375217 0.06869635
-0.52635384 -0.18754902 0.3400953 0.05476467 -0.28165835 0.028570205 0.0007209499 0.3690467
0.029916542 -0.06788737 0.021557879 0.040587407 -0.30553603 0.462288 0.28036895 0.38135272
00000000: 92e5 01bf 2c4a 943d a9b9 7a3e ded1 bd3e
00000010: 595b cbbd 70e7 ebbe 74e8 97be 8826 ae3d
00000020: bbbf 09bb 78f7 0dbd 7eae 58be eeb2 fcbe
00000030: 2a15 c13d fed0 0c3e 68e3 fd3d 1fc8 babd
00000040: d0b2 73bb 409f 52be 7944 223f cd8c 783e
00000050: 3611 003e f5b8 35be 74fd cc3e 0453 d03e
00000060: d602 7e3d d5ad 833d 7f55 56be 0404 ad3e
00000070: c2d0 2c3e a666 993e f3a7 a03e d636 3fbd
00000080: 4c92 cc3d 74b0 063f d587 1ebe b90a 123d
00000090: 3451 773e fe0b fbbd 5908 a43e 03a8 b8be
000000a0: 0824 453e ff7f 36bd 68b1 2ebf 54cf 47be
000000b0: 2075 81be ff86 973d 2d8a 1dbe f95f 193d
000000c0: 1685 e83e c478 8c3e f114 e3bc 6239 39bf
000000d0: 33ba f23c 3241 cebd dad4 8ebd f2c2 f13e
000000e0: 613c 2d3e 5ca8 d93e 830e 073f 2776 6a3e
000000f0: c92f 93be 6af1 87bb 2c1b e33e 88f8 ec3e
00000100: e743 dd3e 2177 e5bd 0f84 64bf 3c61 dc3e
00000110: fd42 31bd d39f 1e3e 915e 79be e636 b83e
00000120: 7e10 16bf acbb cb3e 3935 abbe 3f03 afbe
00000130: 59ff 523e 4df1 bebd a430 1dbf ca57 02bf
00000140: e460 313e 136c c7bd ab9a 1b3e 35f0 24bc
00000150: 823b 673d 2090 133e 3c47 8f3c 4c4e 3c3e
00000160: 4708 3fbe d9d4 273e bd92 12be 4e25 ccbe
00000170: 6b9f a6be c1af ddbe 99d2 1cbf 408a c53e
00000180: 05a4 ce3d 86a6 5dbe f76b 3e3c 89ca d73e
00000190: ac95 92be eba9 1dbf 5c40 96be f7ab 84be
000001a0: 2cab 2e3f e44e 8bbc 0b01 b0be 66f9 8cbe
000001b0: 03a8 e9bc 0649 debe 8c77 1e3d 119b 763d
000001c0: d267 04bf 5a70 2cbe 4540 cd3d eb52 133d
000001d0: 4b45 c43e c44d 8e3d 313b 053d 56e6 23bf
000001e0: dcc6 1e3f b56b 8a3e eff5 edbe e9b2 b33e
000001f0: 2d66 0dbd bfe4 973e 2c65 643e 33d3 66be
00000200: 1a7b 14bf b597 15bf 7700 cb3e 2592 5a3e
00000210: def5 8cbe 6fcc 203f 7efb 04be 445e 16bd
00000220: f255 e13d 3832 9c3d be25 a83d 95a6 90be
00000230: ae9f f3be d266 a83d 207e 94be 2507 8a3e
00000240: 9bb3 933d 74f3 233e 4aaf a83d cb4d 253f
00000250: 5c76 ce3d a1d5 6abf 35e7 47be a3bb 5e3e
00000260: 9111 833c 2ece 4d3c 3bdd 8ebe c52c df3e
00000270: b076 9dbb b1e8 c03e dc4b 873c a8e3 dfbe
00000280: 9607 21be a289 a93d 32a0 743c f92b f13e
00000290: e24d f2bd d482 2c3c 3f9b f8be 85ca 22bf
000002a0: f496 ba3e 7eed f6bb 1b8d 07be 8635 f53d
000002b0: 0568 02be d9da 603c 04b5 da3e 027c 343d
000002c0: 4551 343e 2e8c ef3e 4ad6 82be 8ead 8d3e
000002d0: c82f f4be cace d03e 1ce0 c53e b8a8 d9be
000002e0: 3785 5bbe a358 77be 7771 39be 1178 573e
000002f0: 4716 693e 2a27 08bf 212f b73e 92e5 b4bd
00000300: 46a6 313e a158 783d 66a8 d83e da69 393b
00000310: 1b5b b3bc ddc0 43be 4b51 09bf d0cf 3cbe
00000320: 69ed 4b3e aa77 ce3e 878c 8abe 1b59 b3bc
00000330: 37e5 32bd bbb0 d73e f020 363e ecf5 413e
00000340: 7447 16be 63f0 b43d b3bb 833e fe07 363d
00000350: 6dd9 b33e 42a4 8d3e b930 993d e163 1b3f
00000360: f774 c4be 0326 00be 23f3 5cbe 151c efbe
00000370: e911 3cbe 2607 17bf 6953 e23e c210 793e
00000380: 75b5 ad3e ff23 5f3f ef4a dfbe 4807 ee3d
00000390: c05c 7c3e 1224 fc3e 92f8 ae3e 0f44 babe
000003a0: 1dea 2b3f 47fe 343d 5e68 0a3f 9cdc 31be
000003b0: 34b9 eabc c1c4 edbe d9e1 5a3e acb0 8c3d
000003c0: 20bf 06bf da0c 40be f920 ae3e eb50 603d
000003d0: 8635 90be 100c ea3c 21fe 3c3a b0f3 bc3e
000003e0: 8913 f53c 8908 8bbd 269a b03c fb3e 263d
000003f0: 386f 9cbe 03b1 ec3e 858c 8f3e aa40 c33e

bias f4 [5]
0.032110684 -0.06142533 -0.08759898 0.11159449 0.007703411
00000000: 7e86 033d 2099 7bbd 1867 b3bd a78b e43d
00000010: e56c fc3b
