trained/exp_train_3_3_1111_0.0001_0.001_32_0.95/model/ctrl_actor_1.pth (torch, 311295 bytes, 6 tensors)

weight f4 [512, 20]
00000000: 763d 33b9 cfc5 9e3e 5001 6cbe 136f a43e
00000010: 121d 63be ac71 3cbe a56b e23d ceea a3be
00000020: 673d 9d3e 0cd4 1d3e 5b78 333e 3e37 10bd
00000030: 50b4 793d 0a1d 843e eb31 7a3c 6343 b4bd
00000040: c0fc 54bc 22de 603c 1015 57bd 4c81 c83e
00000050: 6368 26be 4654 19be 15ff 863e 963f a23d
00000060: b4a3 5b3e b98a 5bbe 4d89 61be d010 babd
00000070: 99d9 a13e baa4 ce3e 48c7 c7bd 7601 afbd
00000080: 6dcd 70bc d122 75bc b835 77bd b436 283e
00000090: 316c f03e ade3 22be 4ec4 9d3c 7cb5 d6bd
000000a0: e2a6 7e3e 74bd 453d df5b 7e3e 14d7 bcbd
000000b0: 284c 8b3e 9d46 fa3e 06eb e0bd d14e 16bd
000000c0: b53a 67be 1f35 dc3d 8c38 0e3e 36af 27bd
000000d0: 5c0b 4abe c997 49be e0e2 8c3e 45c2 cebd
000000e0: a518 a53e 0fc3 cd3d 17b5 b3bd b541 063d
000000f0: 65fc 1d3d 4a6a 4fbe 1512 513e f117 dcbd
00000100: 67f3 c23e 3aac 553e e6d0 81be 5a05 d93d
00000110: 9210 57be e386 973e 9251 e53d feed 00be
00000120: 858e 08be b814 1d3e 8f2a 0e3d 4061 5abe
00000130: c881 94bd 7288 703e 6b17 b73e dbab 35be
00000140: 2778 1f3e 99c0 1fbe a327 f6bd 7815 bebc
00000150: 84a9 0ebf e1c9 b13d 62de 023e faa9 513e
00000160: 8946 723e b868 25bd c4d4 28bd 3d26 393e
00000170: ea60 673e fc5a 8c3e 3cae 813d 9ea7 05be
00000180: 3567 a43e 0718 42be 0473 4abe ea2d 753e
00000190: 3fc4 413e fecb d1bd 8c5f 493e 8323 3a3c
000001a0: 1c6e 983e a8a1 b33e 31ce d23e 87b0 13be
000001b0: b21d 9abe 015d 673d 07a3 28be e864 5bbd
000001c0: 464c 05be 45bc 52be 3d86 afbe 081c 013d
000001d0: cc4a 8bbe a677 dc3b 21f7 383e b549 b53e
000001e0: 01dc 46bc f9bb 453e 3892 18be 2876 183e
000001f0: 9a99 c9bc 682a e83d fbdd 80be 2748 1fbd
00000200: 90b1 293d 478b fb3c 66cc 69be 7cc5 4abe
00000210: 70b8 c83e 53b7 cfbe dbaf debb 9aa6 cb3e
00000220: b831 4bbe 9e35 e83d d0c0 1b3e a95f 953c
00000230: e512 3c3e 0ad7 8b3e b3b9 1cbe cb25 b83e
00000240: 7d03 18be e7be 85be 0fe7 01be 0e06 5b3b
00000250: 3eed 49bb b26f bf3d 0455 b73e 05bc 903e
00000260: 27ad 793e e2d4 30be 0ecd 813d b31b 9abd
00000270: 2ebf ddbd 82d7 873e 3d32 99be 337c 28bd
00000280: 7b9b b73d 052d 78bd c43b d53d aca0 43bd
00000290: bb05 57bd 750e 6fbe b94d b33e aea0 8fbc
000002a0: 1315 2d3e 3907 233e 7530 3bbe 6e97 9cbe
000002b0: 3ac7 ad3b 4bc6 d13e edcd 81bd 636d c53d
000002c0: 2fc6 92be 3234 3f3e afa5 943d 8f81 1bbe
000002d0: 6522 32be f7b1 a3be 6ca3 db3d ce32 95be
000002e0: 0678 f0bc 7652 9abe b15c 02bf ef29 f6bd
000002f0: 5b0b 33bd 1729 7dbe 9323 a23e 5a78 0f3e
00000300: 20c1 dfbc ded3 373e 80cf d63e 153c 2cbe
00000310: 9660 6fbe 2ccd fdbc a508 493e 1913 90bd
00000320: e245 2f3e 87a5 a73c 9541 813e b667 c13c
00000330: 4a8a 51bd 1f4d 6a3b dd74 073e cf4c 08be
00000340: f442 b1be 343c 853c 5d17 483e 9d72 88be
00000350: 91a4 8c3d c8f4 bc3e ab81 693d 252b 9e3d
00000360: 8f90 763e 49ed 79bc e1c8 59be 9430 c03d
00000370: 8833 1e3e 5e41 573e 414c 643e 6af4 2ebe
00000380: 694f b2be 340d 0cbe 5f20 633c 5f2c 9c3d
00000390: 4955 15be 47b3 663e 3f36 ccbe 7402 07bf
000003a0: 7a63 b73e e41a a83e 061a a93e 3c79 4ebe
000003b0: 7087 683d f0ed 223e 2a70 cc3d 3dbe 293e
000003c0: 7ff8 b23c da25 513e 4b61 0b3e fdba 153e
000003d0: 5382 18be 6cda 4abd c442 eb3e 41e5 3bbd
000003e0: 8f74 b1bd fa1a e73e bbe6 b43e 836c 3ebe
000003f0: 4b9c 31bd b5a2 4a3c 540b 10be 6e7a 13be
-0.00017093666 0.3101029 -0.23047376 0.32115993 -0.22179058 -0.18402737 0.11055688 -0.3201508
0.3071091 0.1541292 0.1752638 -0.035208933 0.060962975 0.25803405 0.01527069 -0.088019155
-0.012999713 0.013724836 -0.05251032 0.39161146 -0.16250758 -0.14973554 0.26366487 0.07922284
0.21449167 -0.21439637 -0.22025032 -0.09085238 0.31611326 0.4036005 -0.09754807 -0.085452005
-0.014697415 -0.014961914 -0.060353965 0.16427118 0.46957543 -0.15907164 0.019258644 -0.10483834
0.24868348 0.04827638 0.24839734 -0.092207104 0.2720654 0.48882 -0.10982327 -0.03669626
-0.22580989 0.107523195 0.13888758 -0.04093858 -0.19730896 -0.19686808 0.27516842 -0.10095648
0.32245365 0.1004697 -0.087747745 0.032777507 0.03857078 -0.2025539 0.20417054 -0.10746754
0.38076326 0.2086648 -0.2535469 0.10596724 -0.21002415 0.29595098 0.11197199 -0.12590787
-0.13335617 0.15339935 0.034708556 -0.2132616 -0.07251316 0.2348955 0.35760054 -0.17741339
0.15573178 -0.15600814 -0.12019279 -0.023203596 -0.5572741 0.086810835 0.12780145 0.20474997
0.2365972 -0.04038307 -0.041218534 0.18080993 0.22595564 0.27413166 0.06332061 -0.13052222
0.3210999 -0.18954478 -0.19770437 0.23943296 0.18922518 -0.102439865 0.19665354 0.011361006
0.29771507 0.3508427 0.41172937 -0.14422809 -0.3010078 0.05648518 -0.1646844 -0.05356303
-0.13017377 -0.20579632 -0.34282103 0.031520873 -0.27205503 0.0067281304 0.18063022 0.35407797
-0.012137414 0.19309987 -0.14899528 0.14888823 -0.024609376 0.11336213 -0.25169358 -0.03888717
0.041429102 0.030706061 -0.22831878 -0.19801897 0.39203215 -0.40569553 -0.006795866 0.39775544
-0.19843185 0.11338352 0.15210271 0.01823409 0.18366583 0.273125 -0.15305214 0.35966334
-0.1484508 -0.2612221 -0.12685798 0.0033420357 -0.0030811573 0.09347476 0.3580705 0.28268448
0.24382459 -0.17268708 0.06337939 -0.075248145 -0.1082748 0.26531607 -0.2992114 -0.04113407
0.089652024 -0.06058981 0.1041179 -0.04776065 -0.0524957 -0.23345359 0.35020235 -0.017532673
0.1690257 0.15920724 -0.18280204 -0.30584282 0.0053032907 0.40971598 -0.06338105 0.096400045
-0.28666827 0.18672255 0.07258164 -0.15186141 -0.17395933 -0.31971714 0.107245296 -0.29140323
-0.029354107 -0.30141038 -0.50922686 -0.12019717 -0.043712 -0.24722706 0.31667766 0.14010754
-0.027313769 0.17951915 0.41955185 -0.16819794 -0.23376688 -0.030981623 0.19632204 -0.070348926
0.17116502 0.020464672 0.25245348 0.023609024 -0.051157273 0.0035751534 0.13228174 -0.1331055
-0.34621394 0.016264059 0.19540162 -0.26649943 0.06867326 0.36905503 0.057008427 0.07723073
0.24078582 -0.015254327 -0.21268035 0.093842655 0.15449345 0.2102103 0.22294714 -0.17085424
-0.3482621 -0.13676912 0.013862698 0.076256506 -0.14583315 0.22529326 -0.39885136 -0.5273812
0.35818082 0.32833016 0.33027667 -0.20163435 0.05676979 0.15911078 0.09982331 0.16576476
0.021847008 0.20424595 0.13611333 0.14622112 -0.14893465 -0.04952471 0.45949376 -0.04587293
-0.0866481 0.4513777 0.35332283 -0.18596081 -0.043361943 0.012367894 -0.14066821 -0.14402172

bias f4 [512]
00000000: ea49 4ebd 2c4e 863d b4f0 a13d a3a6 28be
00000010: 3097 52be b4c2 33be d176 27bc cbd3 4cbd
00000020: 0916 51be 255f 96be e71c b93d 62f6 913e
00000030: 98aa 01bd 4be8 11bf ed62 7f3d 0a62 9fbd
00000040: 25d0 2bbe f0df d6bc 55a1 1dbe c268 04be
00000050: 9a47 f53d e408 eebe ed79 bf3d 55ce 57be
00000060: e1ca 2abe 68ff 97be 9b30 d63d de5b f1bd
00000070: a9a0 463d ae2c c9bd 3aef 27be c20e 573d
00000080: 9ca9 10be 6a9a 46bd c28e a3bd 49a5 8ebe
00000090: 5136 223d f03e 0dbe f5d6 b0bd a669 adbd
000000a0: 08bd 4ab9 3328 3cbf f5bf 143e 8229 99be
000000b0: 2a8d a1bd 71f9 75be 0a46 053d 1155 493e
000000c0: fb86 aabe 35fe 35be aa87 e2be e896 973e
000000d0: b01c f4bd 42e1 dbbe 79a0 d13e 9302 113d
000000e0: cad8 3fbe 60b0 6dbe 36d9 a3be 3246 27bc
000000f0: 66d3 98be c031 c63c 43df e0be 6e87 ef3e
00000100: 6eb5 a43c e442 46be 4345 47be c21c 2fbe
00000110: 16d3 d63c e827 3b3d 8d2c 503d 458a adbe
00000120: 01f4 c1be 1618 ddbd 25ae 703d a046 4bbe
00000130: 95aa 9cbc 9e8f 073d 6149 293e 606b 47be
00000140: c58f 053d 04d8 c8be a51f 5cbd c62c 91bd
00000150: 5b6b 17be 812e 21be f28b 47be fa7b 57be
00000160: 87a6 613d e131 23be b029 133e 822f 103e
00000170: 8f56 bdbe f7f7 0fbe 45dd b7be a719 38bd
00000180: f35f c53d 0093 e8be 2c79 0abe 2326 7ebe
00000190: ffff 39be e073 3a3e df86 98be 64ef 84be
000001a0: 0d27 703d 5640 fbbd 9b04 adbe 037f 033d
000001b0: 2e56 823d 105a 03be bca3 bf3d beef 22be
000001c0: 5158 41be 0c11 b0be 96a0 8dbd ef3b 08bf
000001d0: 9daa 5b3d 890c 5ebe 0c1f 953d 589c bcbe
000001e0: 7ffb 0dbe 6c07 85bd ac5f df3d f62c a83c
000001f0: 2a7d 8dbe 9f3a 73be cf34 91bd 4c2e 2a3e
00000200: a9cc 7ebe 27c7 763e 79db 76bd 4eda bfbe
00000210: 44e0 b5b9 cd3f 09bc ff46 24be fe31 fabd
00000220: bec1 79be 38b0 f2bd 2d21 17bf 8303 16be
00000230: 3f6a 93be 5617 fabd 7116 7cbe 2fe9 f93c
00000240: fc9e 78be 96fd c93d 67af a8be 5bda 33be
00000250: 706e 8d3a 1553 e43e 33c5 8e3c 4a28 213e
00000260: 6136 83bc 495f 5bbd 7d1e d7be 3f79 05bc
00000270: eaa4 17bf 228e c63a 3624 9dbe bdcd f9bd
00000280: 7238 95be 87d8 abbd 6d7d 8fbd 8b71 52be
00000290: a683 59be 4d71 e3be 9260 2ebe 4a1e 9b3d
000002a0: 780a 2bbe 1b8e fdbd dcc1 413e d817 623e
000002b0: 2e3f 11be 6e7e a7bd 03f9 083d fbff 5ebd
000002c0: deab b63c 4c56 d3be 8b22 a1be 8c8f f0be
000002d0: 3143 c33c 4108 d2be f884 4dbe 95cf 203e
000002e0: 3e4d 0f3e cc06 ba3d b2ef 7dbe bb5e 713d
000002f0: d080 7b3e 281c 77be 770a adbe 2558 cbbd
00000300: c5cb e7bd b585 6abe d11a 43be 4880 8bbe
00000310: c6fa 3c3c 6f2d a1bd c05c 2ebe 9165 3ab9
00000320: 32b2 88bd 172f c2be aa80 0dbe 7cba 81bd
00000330: bd1b b4bd 0887 323e fe05 35bd be6f 383e
00000340: 7f07 41be c65a d63c 3e48 00be 7734 3cbe
00000350: 6263 d3be 7602 80be bee8 45be 320e 2cbd
00000360: 3d45 eebe 318a d83d 092b d4be cd32 06be
00000370: 4ab2 853d b4f3 fabd 0051 ecbc f440 ba3e
00000380: 08fa 9cbd c503 10be 8d0f ee3c 38d0 a03e
00000390: 311a 403d 2a93 553e 8990 ed3d d36d 8dbe
000003a0: 3cda 1d3d 8b70 543d a293 9bbe c728 c2bd
000003b0: acb5 1fbe 8ba5 08bd 9212 793e 4bf8 83be
000003c0: baab 833d 5694 22bd 0eaf c93d 3c65 323d
000003d0: eb5c cd3d b490 5fbe 88b4 c4bd 53da 31be
000003e0: a473 ce3c 4b3a 453e d1aa 5abe 8d54 02bf
000003f0: 5338 19bf 7eb3 f63d 6091 42be d172 80be
-0.05036346 0.06557879 0.079072386 -0.16469817 -0.20565486 -0.17554742 -0.010221199 -0.05000667
-0.20418562 -0.29369465 0.09038716 0.28508288 -0.03165683 -0.56995076 0.062350202 -0.07782371
-0.1677862 -0.026229829 -0.15393575 -0.12930587 0.119765475 -0.46491158 0.09349427 -0.21074803
-0.16678955 -0.29687047 0.104584895 -0.117851004 0.04849306 -0.09822975 -0.16399851 0.05250431
-0.14127201 -0.048487104 -0.07986213 -0.27860478 0.03960258 -0.1379354 -0.0863475 -0.084674165
-0.00019334641 -0.7349884 0.14526351 -0.2991448 -0.07888253 -0.24020936 0.032537498 0.19661357
-0.33306107 -0.17772754 -0.44244128 0.2960732 -0.11919534 -0.42945296 0.40942743 0.035402846
-0.18735042 -0.23211813 -0.32001656 -0.010209607 -0.29848784 0.024193645 -0.43920335 0.46783012
0.020106044 -0.19361454 -0.19460015 -0.17100814 0.0262237 0.045692354 0.050823737 -0.33894554
-0.37881473 -0.1079561 0.058759827 -0.1985116 -0.019124309 0.03309595 0.16531898 -0.19474554
0.032607812 -0.39227307 -0.053741116 -0.07088618 -0.14787047 -0.15740396 -0.19486979 -0.21043387
0.055090453 -0.15936996 0.14371371 0.14080623 -0.369801 -0.14059435 -0.35911003 -0.04494634
0.096374415 -0.45424652 -0.13522786 -0.24819236 -0.18164061 0.18208265 -0.29790398 -0.2596389
0.05863099 -0.122681305 -0.33792576 0.03210355 0.06364094 -0.12827325 0.09357402 -0.15911767
-0.18881346 -0.34388006 -0.06915395 -0.5321645 0.053629506 -0.2168447 0.07281312 -0.3683803
-0.1386547 -0.06495556 0.1090692 0.020529252 -0.27634555 -0.23752831 -0.070901506 0.16619223
-0.24882759 0.24099408 -0.0602679 -0.3747124 -0.000346901 -0.008377028 -0.16042708 -0.122165665
-0.24390313 -0.11850017 -0.59035 -0.14649777 -0.28791997 -0.12211482 -0.24617936 0.030506698
-0.24279398 0.09862821 -0.3294632 -0.17563765 0.0010790359 0.44594637 0.017428016 0.15738025
-0.01601714 -0.053557668 -0.42015448 -0.008146583 -0.59236014 0.001514856 -0.3069169 -0.121974446
-0.29144627 -0.08390909 -0.07006345 -0.20551126 -0.21241626 -0.4442238 -0.17029026 0.075741366
-0.16703212 -0.1238062 0.18921608 0.22079408 -0.14184257 -0.081784114 0.0334406 -0.05444334
0.02229875 -0.41276777 -0.31471667 -0.46984518 0.02383575 -0.41021922 -0.20070255 0.15704186
0.1399431 0.09083328 -0.24798468 0.058928233 0.24560857 -0.24131835 -0.33797047 -0.099289216
-0.11318163 -0.22902568 -0.19053198 -0.27246308 0.011534398 -0.07869994 -0.17027569 -0.00017776179
-0.06674613 -0.37926552 -0.13818613 -0.06334397 -0.08794353 0.17434323 -0.044195168 0.18011376
-0.18850516 0.026166331 -0.12527558 -0.18379389 -0.4128676 -0.25001878 -0.19327065 -0.042005725
-0.465372 0.10573233 -0.41439083 -0.13105316 0.065281466 -0.12253514 -0.028847218 0.3637768
-0.07664877 -0.14063938 0.02906015 0.31408858 0.046899978 0.2085692 0.115998335 -0.27622852
0.038538203 0.05186514 -0.30386072 -0.09480434 -0.15596646 -0.033361 0.2432349 -0.2577537
0.064292386 -0.039692245 0.09847842 0.043553576 0.10027488 -0.21832544 -0.09604746 -0.1736844
0.025201626 0.19260518 -0.21354224 -0.50910264 -0.5985157 0.12045954 -0.19000769 -0.25087598

weight f4 [128, 512]
00000000: 03a6 b03d 921e cd3c c152 9dba 65a1 c13c
00000010: a018 e8bc dfd4 c13d 6fa6 88bd 4d32 e1bd
00000020: 2be1 db3d 0e25 4a3e 46c7 83be 187f 653d
00000030: 8c21 b6bd 75d1 d5bc 2a27 5dbd 2b9b 25bc
00000040: 62bb 34be f838 efbd 97b6 063e 60cd 953d
00000050: bed1 08bd 3c23 1d3e 6938 ea3c d2eb 913e
00000060: 48db 463e a7ae 7e3c 05cc a6bc 6974 fb3d
00000070: a4fe d7bc 30b9 91bc 7fff eabc 4b21 45be
00000080: e7e3 0c3e b1f4 36bc dcab 2f3e 25d6 213e
00000090: 51f8 53bd 33dd c13d ddd2 8bbd eb51 a9bc
000000a0: 99e5 0a3e 7610 2b3c 9323 6bbd 094d 4c3d
000000b0: 59ef 153d 214c dc3d 45d7 0c3d fa28 86be
000000c0: 7cf7 763d ce2a a73c 99d8 6b3d 6f6f 953d
000000d0: afd9 4a3e 730b bf3d 800a aebd d079 29bc
000000e0: bc25 713d 1cdc 59be 9ce5 b0bc 8590 9d3d
000000f0: f5be 8cbd ebfb 6d3d bdde 04bd a4db 393b
00000100: 3535 a73d f41d 303e 5200 8bbd 768b 0b3d
00000110: 4405 af3d a42f b13d bc9e 14be 73bb 9cbc
00000120: 10ef 54be 307e 303e 0593 36be ec7b be3d
00000130: 49fe 243e c67c df3d 9713 a73d 57ab 54bd
00000140: f439 1f3e 926e 56bd 66fc e4bd 155e 663d
00000150: 8b84 d6bd f65f 6e3d 3eb1 2fbd 5db5 53bd
00000160: dd5a e8bc d86d 9bbd 4ca0 433d 3757 f93c
00000170: 4b26 3fbe 93a6 91bc 2c96 793c 5a9a 17be
00000180: 4b67 853d 92d5 a63c dcc4 0fbe 929b 1cbd
00000190: 0ee0 1c3e 1d7e afba bea8 cabd baa8 213e
000001a0: ea12 4abd 680c 23be 199b c5bd af6a ca3d
000001b0: 5676 b93d 94ff 1439 3c69 1a3e dbcc f43c
000001c0: 56b1 07be b058 8dbe 423e ce3c 787d 5b3e
000001d0: 244a 14bc aeea 243e b6b2 14bd 372c 813e
000001e0: 9a55 893d 6de7 45be 9fa1 9c3d 563c b3bd
000001f0: 75b1 5e3b f1a2 993b a726 1dbe 790c 79bd
00000200: 74ff fdbd 58cb 893d 3814 21bd 3988 59bd
00000210: a183 3d3d cd6e 49be 327a 813d 4b52 d93d
00000220: 1179 e23c 41fa 733d 5f6f 093e f445 9e3d
00000230: 5efa ed3d 7bb6 50be 3292 57bd 0444 3cbe
00000240: 8761 8f3d 2c0e 46be 7659 523d e470 e53c
00000250: c7cd 23bd bf90 263d f214 7ebd b87d 873d
00000260: 0879 bcbd 8b8e afbd c050 d83d 63a0 f83d
00000270: b8c9 0d3c 07f6 453d cc03 d8bd bc3a d9be
00000280: dd5e 163d 2775 433e a535 49bd f8a6 aebd
00000290: 2b54 603e c7b3 f53d 0fa5 2d3d b96a 133e
000002a0: 71ef 3c3e 32fc 66be 0491 a63d 8b3b aabd
000002b0: 41f5 eabd de9e 383e 38cc 883e 40d7 9e3d
000002c0: 2eb1 1cbd 0eee a7bd f96a 373e 0835 70bc
000002d0: eb2f 4cbe 03c5 7ebc a06b 3d3c 4458 983e
000002e0: 640f 79bd a8cd ad3d 89ab ff3c 5bac 8ebc
000002f0: 81ed 8b3d 195c 9abc 3e84 01bd 0c78 dc3b
00000300: 2a76 e03d c61e ca3b 8570 a83d 6264 443d
00000310: 2fa8 80be 2498 e33b 30ba 9fbd 5517 1ebd
00000320: 334b 3fbc a35e 303d d863 4a3e b596 183e
00000330: 2396 2cbe 996c eb3d acf2 13be 9274 8b3d
00000340: 9f07 723d 6f14 083e c2a2 e33d 3783 09be
00000350: 39a2 49bd 16cc 4a3c dc44 0d3e c139 5fbe
00000360: 021d d13d fe14 053b cca8 523d 4139 e4bc
00000370: 53eb d7bc d903 e23c 34f0 82bd 5c6e 763d
00000380: e2f3 033a 7e60 bd3d 3912 183e b559 5bbb
00000390: b715 e33d e8cd 4ebc 123e 63ba 7fab fb3b
000003a0: 6a1d 243e 7049 f0bd e7f7 083e 4c63 e23c
000003b0: b309 43bd 84c8 ba3c 8d12 b0bd d764 323d
000003c0: 1649 86bd 53d3 4cbe 6f97 64be 6ff1 f73c
000003d0: 6929 e03d 86a3 1c3e f545 c13b da94 adbc
000003e0: bec3 b9bd e930 1d3d c7c8 463d c6c3 6dbb
000003f0: c6e4 1a3e c052 af3d 1157 033e a066 21bc
0.08625414 0.025038991 -0.0012002812 0.02363653 -0.028332055 0.0946443 -0.0667237 -0.10995922
0.10736307 0.19740698 -0.2573797 0.05602941 -0.08893117 -0.026100853 -0.053992428 -0.010107796
-0.17649606 -0.11680788 0.1315559 0.07314563 -0.03340315 0.15345472 0.028591352 0.2850023
0.19419587 0.01554457 -0.020360956 0.12278063 -0.02636654 -0.0177885 -0.028686283 -0.19250982
0.13758813 -0.011166737 0.17155403 0.15804346 -0.051750485 0.094660185 -0.06827328 -0.020668944
0.13564147 0.010440936 -0.057406973 0.049878154 0.036605213 0.10756708 0.034384985 -0.26203138
0.060294613 0.020406153 0.05757961 0.07296645 0.19809602 0.09328356 -0.084980965 -0.010343984
0.058873877 -0.21275371 -0.021593861 0.076935805 -0.0687236 0.058101576 -0.032438982 0.0028359676
0.08164445 0.17198926 -0.067871705 0.034068547 0.08545926 0.08651665 -0.14513677 -0.019132352
-0.2079432 0.17235637 -0.17829521 0.0930098 0.16112627 0.109124705 0.08158033 -0.051921215
0.15549451 -0.05235154 -0.11180954 0.056242067 -0.10474499 0.058196984 -0.04289364 -0.051686633
-0.02836364 -0.075893104 0.047760293 0.030437095 -0.18666951 -0.017779624 0.015233558 -0.14804974
0.06513842 0.02036551 -0.1403994 -0.0382343 0.15319845 -0.0013389025 -0.09895466 0.1578702
-0.049334444 -0.15922701 -0.09648723 0.098836295 0.09055774 0.0001420959 0.15079206 0.029882839
-0.13251242 -0.27606726 0.025176171 0.21434581 -0.00905088 0.16105148 -0.036303245 0.25229046
0.0670578 -0.19326563 0.07648014 -0.087517425 0.0033980284 0.0046886136 -0.15346776 -0.06080291
-0.124022394 0.06728238 -0.039325923 -0.053108428 0.04626811 -0.19671173 0.06322135 0.10611399
0.02764562 0.059564833 0.13421391 0.07728186 0.116200194 -0.20382111 -0.052629657 -0.18385321
0.07001024 -0.19341344 0.051354848 0.028007932 -0.039991166 0.040665384 -0.062031694 0.06615776
-0.092027724 -0.0857211 0.10562277 0.12139966 0.0086540505 0.048330333 -0.10547599 -0.42427623
0.036711562 0.19087659 -0.049123425 -0.085279405 0.21907108 0.119971804 0.04239374 0.1439618
0.18450715 -0.22557142 0.08133128 -0.08312138 -0.1147256 0.18029353 0.26718307 0.077558994
-0.03825491 -0.08199702 0.179119 -0.014661081 -0.19940154 -0.015549901 0.011561304 0.2975484
-0.060805693 0.084864914 0.031209724 -0.01741617 0.0683241 -0.018842744 -0.031620257 0.006728178
0.10960038 0.0061682193 0.082245864 0.047947295 -0.25128314 0.006945627 -0.07799184 -0.03859647
-0.011675644 0.043059003 0.1976465 0.1490124 -0.16854148 0.11495323 -0.1444804 0.068093434
0.0590893 0.13289045 0.11115028 -0.1342896 -0.049226973 0.012377759 0.13795799 -0.21799375
0.10210611 0.0020306702 0.05143051 -0.027859332 -0.026357329 0.027589725 -0.06393471 0.06016384
0.0005033595 0.0924692 0.14850701 -0.0033470218 0.11088126 -0.012622334 -0.0008668612 0.007680356
0.16026846 -0.11732757 0.13375817 0.027635239 -0.04761667 0.022800691 -0.08597288 0.0435532
-0.06556909 -0.20002489 -0.22323392 0.030266492 0.10945398 0.15296754 0.005898232 -0.021189142
-0.09070538 0.038376722 0.04853132 -0.003628002 0.15126333 0.08560705 0.12826182 -0.009851128

bias f4 [128]
00000000: 2138 60bd 7305 35bd 9eb6 e33c 3ec1 bcbd
00000010: ce69 41be 227b 24be fc14 da3d f401 0c3d
00000020: 03a2 cf3d 0d4d b63c 3d1b de3d ddd5 1dbe
00000030: b86f 92bd 5fab 023d 7cf6 b0bc 3d7a 5c3d
00000040: e307 b7bc 8216 d8bc 9116 f73d aeaf 3c3e
00000050: f68a 96bd b29f a23b ff63 803d f09b 523d
00000060: ffa6 d33d d44d 653e a163 353a 75c4 81bd
00000070: 4ffe cf3b e33b 183e d235 163d 1a96 4a3d
00000080: 2f51 c03c f165 0f3d 1cce 043d 2af4 f1bc
00000090: ae90 c63d c652 863d 6384 b33d 7a2e a0bd
000000a0: 05ba 253e 4779 24bd 7b45 16be b38c 193e
000000b0: 4bd3 e1bd 0822 e2bd 8a65 b23d 3970 c8bd
000000c0: f881 4abd 4a00 953e c575 30bc 6ff8 133e
000000d0: 3335 aa3d 3c26 4dbb fe59 bebd da27 d2bd
000000e0: dd7f f53d 10bb 653e 2a7e 9cbd 8039 a83d
000000f0: 84b2 d33b b3a4 cebd 5a66 813d a7e7 abbd
00000100: dd58 39bd 80b0 17bc 550e ba3c 8fad bfbd
00000110: 7386 d13c 2a81 86bb 69ab 053b 6be5 d93d
00000120: 6e34 f3bc 7797 71bd abab 8bbd 9214 083e
00000130: 706f d13d cf0d 4b3e 78cb 943a 00cc e2bd
00000140: 2ecd 003d 5701 35be ed8d e93d 48ac 413d
00000150: f767 9d3d 90d6 0c3c 4d81 183e 30cd c3bd
00000160: ac55 ab3d 36ec 513d 87de 9fbd fdee 503e
00000170: c544 f63d be5f 8dbd b2ba e4ba 9046 113e
00000180: ca16 173e d3f4 aabd e765 f0bd 7acc 3e3e
00000190: cf62 133d 49ad c73d 3fbd 2d3d 126b ec3d
000001a0: 1d0e 43be 970c 53be 976a 503d 4cda 203d
000001b0: 8faf 173d 9799 17bd f034 be3d 15d4 933b
000001c0: 77ed 783c 36e0 363d b4f2 a9bc 1514 f03c
000001d0: cdfc 09bd 8b59 d53d 2666 303b b512 7dbd
000001e0: 5370 193e 6ed1 823a ade9 953d 24f5 833c
000001f0: fd9b 723d 22d0 53be dde0 0dbd 80fb 8a3c
-0.05474103 -0.04419465 0.02779704 -0.092165455 -0.18888018 -0.16062596 0.10648534 0.03418155
0.10138323 0.022253538 0.10845039 -0.15413614 -0.07150215 0.031901713 -0.021601908 0.053827513
-0.022342628 -0.02637792 0.12064851 0.18426391 -0.073507234 0.004962885 0.06269073 0.051418245
0.10334586 0.2239297 0.0006919448 -0.06336299 0.0063474546 0.14866595 0.03667242 0.049459554
0.023476211 0.03500933 0.032423124 -0.029535372 0.09695564 0.065587565 0.08765485 -0.07821365
0.16184242 -0.04015472 -0.14674942 0.14995079 -0.11026629 -0.11041647 0.08710773 -0.0978703
-0.049440354 0.29101783 -0.010770266 0.14450239 0.08310928 -0.0031303307 -0.092945084 -0.10261507
0.119872786 0.2243464 -0.076412514 0.08214092 0.0064604897 -0.10090008 0.0631835 -0.083937936
-0.045250762 -0.0092583895 0.022711912 -0.093592755 0.025576806 -0.004104753 0.0020396358 0.10639461
-0.029688086 -0.05898234 -0.068198524 0.13289097 0.10226333 0.19829486 0.0011352142 -0.11074066
0.031445675 -0.17676292 0.11404023 0.04728344 0.07685845 0.008596078 0.14893074 -0.09560621
0.0836595 0.05125066 -0.078061156 0.20403667 0.120248355 -0.06903027 -0.0017450659 0.14187074
0.14754787 -0.08347478 -0.11738186 0.18632689 0.035982903 0.097498484 0.042416807 0.115438595
-0.19048353 -0.20610271 0.050882902 0.039270684 0.03703266 -0.03701171 0.09287441 0.004511366
0.015193335 0.044647418 -0.020745613 0.02930645 -0.033688355 0.104174696 0.0026916354 -0.06178542
0.14984255 0.0009980628 0.07319961 0.016108103 0.059230793 -0.20684865 -0.034638274 0.016965628

weight f4 [5, 128]
00000000: e44f a9be a8df 423d 85f6 22be ecb8 953e
00000010: e35f a13e c594 473e 5980 89be b999 093e
00000020: 3cbb e23d 4647 d33b b051 a63d d1de bd3e
00000030: 1a4c e83e f67e a4bd aa80 8cbd 31d2 babe
00000040: 15d6 823e a30f 2b3e e98f cfbe 376c 00be
00000050: 47e3 aa3d 3ab3 1e3e 96fe 85be bf40 c5be
00000060: 92b4 46be a730 3ebe f033 aebe d8ac b73e
00000070: f785 203e 1e11 acbe ce99 f0be c923 0d3f
00000080: 2d0e 2b3d 760f 05bd d303 913e a0ce e3be
00000090: e42b 18bd 9cd3 3a3d 136a 81bd 7af2 183e
000000a0: 98e3 02bf 205a 47be 71cb 22be 5c3a 96be
000000b0: d0b7 c63e ebd9 c63e 9f2d 733e 6bec 29be
000000c0: 54ad 10bd b26c 76bf 32d1 90be 4fda e5be
000000d0: 4c0d 8dba 83ac 093e c7f6 debd a2b8 ad3e
000000e0: 85ef debd 81d1 e4be 18fa 113f b7d9 85be
000000f0: dfa6 193f ee60 243f 818d 52be 546f 72be
00000100: 5ca1 a1bd cee7 92be 9f63 d03d acd3 9c3e
00000110: 7e91 1a3e 9262 77be 1f56 2d3e 4747 193f
00000120: 76c9 013f 1ce1 ef3e 7008 80be 3b10 083e
00000130: ad6f b4be 787a ddbe a06d 2bbe 85e0 693e
00000140: 0b6a b5be 04d0 5cbb 2cc2 d1be 84b9 173f
00000150: bbd5 cd3d dc9e c43e 7b8d 1ebe f2c2 95bd
00000160: f136 dfbe dbd0 e13e 694b 053e f084 113e
00000170: c225 d9bc 8a80 1f3d 79df 043f ddeb 1abf
00000180: f9fe 633d 071a b93e e99a de3e b84b 9ebe
00000190: 4a79 c6bd d20a cfbe b27d 04be 555f 6f3e
000001a0: 11e6 d2be 2687 1abc 99c8 2a3e 38a9 f5be
000001b0: 92d2 c83e 62b7 4bbc 5363 abbe 6a00 bd3c
000001c0: 03ce dabe 8ea9 423e e796 b93e 952b d33e
000001d0: a58e ec3c 5eef 43bd fca1 703e 677a 023f
000001e0: ecc6 d13e 4180 d03d 3a66 19bf b946 243e
000001f0: 635a 48bf facb c63e da58 aebe 7637 0ebe
00000200: 612b 833e 5ff4 ff3d 0d51 e33d cbbd 0f3d
00000210: e9bf 133f 57b3 b13e e2a6 f53d 4389 99bd
00000220: 23fe 21bf 7d34 e5bc 6d95 8abe db30 ec3d
00000230: 4f8d 9ebd f89c 983d 1ba2 5abd a579 443b
00000240: 3138 17be f75f a23e 71bc 6fbe cab8 56bf
00000250: fe42 01be 2c10 2bbc f249 c8bd c480 a33e
00000260: 37c9 0ebf 1c22 15bf 7d69 fbbd 776f 613e
00000270: 8335 22bf 738f a0be 031c 2bbe 90db 99be
00000280: 07c1 293d 5ab5 9bbd 19f0 78be e2dd 123e
00000290: ff54 c63c 90ac 00bb 4dfe 5dbd 6d20 d0bd
000002a0: df84 c13e fe76 9c3e 3f1d ca3e 99fc 66be
000002b0: eb87 cd3d 1f38 71bd 3034 d5bd 461a 3a3f
000002c0: 27b0 223c 7458 4fbe 171b fa3e 5626 0cbf
000002d0: b0e0 22be d823 ae3e 8ffb 753c 489b 0a3f
000002e0: b37a 98be e76f 92be 6f04 a23e 675f 92be
000002f0: 7913 fb3e ffd7 14be 3f36 b0be 3f88 133f
00000300: eed5 4fbc f01d 2fbc 69fb c03e 79cd 0c3f
00000310: 1f75 db3e 2f18 813d 9992 09bf a8fc 2abe
00000320: 396d 5bbd 427a c03d f7e5 b13e 15d8 1ebe
00000330: 4d07 08be 513a bebe 23ab 3dbd 0195 e23e
00000340: 2f8e 2ebe 4538 0d3f 208e 3fbe 00bc 81be
00000350: 9391 97be e307 0fbf c250 9bbe 16a9 3f3f
00000360: b29d 7e3d 292b a1be 6e8b 69bd bf7f 09bf
00000370: 23e7 20bf f105 0e3e 161d 783e f28c e53b
00000380: a653 843d 3139 a33e 8188 203e cab0 fd3a
00000390: a5eb a03d 39b6 80be 81b5 273e 8a25 c5bd
000003a0: 808e 2d3f b05b 243f 7c15 1bbe 306a d73e
000003b0: 86cb d13d 3948 e53e ae34 b83e 4abd 923e
000003c0: f4f0 23bd e090 1abe 4937 29bd 2bca eebc
000003d0: 2f0b 41bb 3c55 85be 4c71 4d3c 3c3b 9abe
000003e0: 4167 34bf 9b3f 103d 23ac b23e 4494 d4bd
000003f0: d97e bfbe 1e85 913e f7d2 4f3e a27e 20bf
-0.33068764 0.047576576 -0.15914352 0.29242647 0.31518468 0.19490345 -0.26855734 0.13437547
0.110708684 0.0064477054 0.081210494 0.37084058 0.4537056 -0.080320284 -0.06860478 -0.36488488
0.25553957 0.16705184 -0.40539482 -0.1254128 0.08344131 0.15498057 -0.26170796 -0.3852596
-0.1940482 -0.18573247 -0.34024 0.35874057 0.15676104 -0.3360681 -0.46992344 0.5513273
0.041761566 -0.032485448 0.2832323 -0.4449358 -0.037151232 0.045611963 -0.0631906 0.14936247
-0.5112853 -0.19467974 -0.15897919 -0.293414 0.38812113 0.38838133 0.23747872 -0.16594093
-0.03532155 -0.96259606 -0.28284603 -0.4489312 -0.0010761409 0.13444714 -0.10886913 0.33929926
-0.108855285 -0.4469109 0.5702224 -0.26142666 0.6002025 0.642104 -0.20561792 -0.23675281
-0.07892105 -0.28692478 0.10175251 0.30630243 0.15094563 -0.24158695 0.16927384 0.59874386
0.5069803 0.46851432 -0.25006437 0.13287441 -0.35241452 -0.432575 -0.16741037 0.22839554
-0.35432467 -0.0033693323 -0.40968454 0.5926745 0.100505315 0.3840245 -0.15483658 -0.073125735
-0.43596604 0.44104657 0.13017048 0.14210868 -0.026507262 0.038940944 0.5190349 -0.6051615
0.055663083 0.3615267 0.43477562 -0.30917144 -0.09691103 -0.40437943 -0.12938574 0.2337621
-0.41191152 -0.009431636 0.16678084 -0.47980666 0.39223152 -0.012433859 -0.33474216 0.023071487
-0.427353 0.19009992 0.36247942 0.41244188 0.028876612 -0.0478357 0.23499292 0.5096802
0.40972078 0.101807125 -0.5992161 0.16042604 -0.7826292 0.38827497 -0.34052163 -0.13888344
0.25619033 0.12497782 0.110994436 0.03509311 0.57714707 0.34707138 0.11994721 -0.07496884
-0.63278407 -0.02797913 -0.27067128 0.11532756 -0.07741796 0.074518144 -0.053377252 0.0029979732
-0.14767529 0.3171384 -0.23411728 -0.83875716 -0.12623212 -0.010440867 -0.09779729 0.31934178
-0.5577578 -0.5825517 -0.1227598 0.22015177 -0.633629 -0.31359443 -0.16709904 -0.30050325
0.04144385 -0.076029494 -0.2431034 0.14342454 0.024210451 -0.0019634105 -0.0541976 -0.10162435
0.37796685 0.30559534 0.39475438 -0.22557296 0.1003569 -0.058891412 -0.104103446 0.7269634
0.009929693 -0.20248586 0.48848793 -0.54745996 -0.15906024 0.34011722 0.0150135895 0.5414319
-0.29781112 -0.28601 0.31644008 -0.2858841 0.49038294 -0.14535521 -0.34416386 0.5762977
-0.012685282 -0.01068829 0.3769181 0.55001026 0.42862794 0.06303441 -0.53739315 -0.16697943
-0.05357096 0.09398319 0.34745762 -0.15512116 -0.13284035 -0.37153867 -0.046305787 0.44254306
-0.17046426 0.55163985 -0.1870656 -0.25338745 -0.29603252 -0.5587141 -0.3033505 0.7486738
0.06216211 -0.3147824 -0.057017736 -0.5371055 -0.62852687 0.13869454 0.24229845 0.0070053274
0.06461267 0.3187957 0.15677072 0.0019355055 0.078574456 -0.25139025 0.16377832 -0.09626301
0.6779556 0.64202404 -0.15144914 0.42073202 0.10243897 0.44781664 0.3597769 0.2866004
-0.040024713 -0.15094328 -0.04131249 -0.029149136 -0.0029456129 -0.2604159 0.012539219 -0.30123317
-0.7047005 0.03521691 0.34896955 -0.10379842 -0.37401465 0.28421873 0.2029532 -0.62693226

bias f4 [5]
00000000: e73f bebd 4a48 05be 93e5 07bc 66ac 223d
00000010: fea8 e2bd
-0.09289532 -0.13015857 -0.008294481 0.039715193 -0.11067389
