trained/exp_train_3_3_1111_0.0001_0.001_32_0.95/model/ctrl_critic_0.pth (torch, 556171 bytes, 7 tensors)

weight f4 [128, 20]
0.17013189 -0.47737685 1.0199076 -0.13282155 0.93448704 -1.2798703 0.08401358 1.1160496
0.70916414 0.9320046 -0.24640174 -0.7383426 0.9102176 0.24976055 -1.2229654 -0.1636011
-0.012520314 0.22423111 0.054805607 0.44334668 0.29101655 -0.10918471 -0.49144605 -0.20085293
1.1660944 0.86506575 -0.39274287 -0.13869444 -0.27327445 -0.096603535 0.029312434 0.16558948
0.73057115 -0.6471434 -0.37533367 0.47247553 0.049986206 -0.44893613 0.10784414 0.23365122
-0.17454857 0.7479504 1.0248523 -0.25120506 -0.46079224 0.6924337 0.85336536 -0.39290133
-0.14957486 -0.609618 1.2140455 0.22476645 0.08030948 -1.5975441 -0.3401235 1.0791097
0.052124117 -0.31850615 -0.377826 0.31266895 0.24276468 0.22125603 0.62691134 1.28118
-0.6887566 0.48637223 0.6117332 -0.45936504 -0.24741536 -0.76065993 -0.55283815 -0.016507994
0.7598981 0.27734208 -0.8187405 0.14385025 -0.21123345 0.036967978 0.37780973 0.7671586
0.32726845 0.025002677 -0.242511 0.06224079 0.4627735 -0.0808694 -0.26500914 -0.11796486
-0.37528178 1.8574022 0.3966769 -1.7441573 -0.03404023 0.7735675 -0.4979842 -0.20043503
0.08517266 -0.0677642 0.0825051 -0.24512109 -0.4788696 0.22019523 1.0661242 -0.9011731
0.7270671 -0.3455577 -1.3236362 -0.5010496 -0.80133116 0.07093777 1.1770697 -0.12235208
1.3279275 0.31248048 0.9615805 -0.7319999 -0.22053392 0.57008386 -0.031787556 0.106416725
0.20852183 0.041338593 -0.8741172 0.6411006 0.45861924 -0.486595 -1.0027006 -0.15071478
-0.15133072 0.77603686 -0.6430384 -0.2767926 -0.2141597 1.8536174 0.6774863 -1.6094021
-0.33854482 0.092099786 0.14205053 0.7124898 0.29067358 -1.5010026 -0.0010888652 -1.0447303
0.42072833 0.88534933 1.4353819 0.37050083 -0.90784585 0.2043128 -0.24648362 -0.89270455
-0.17870948 -0.19612867 -0.006995815 -1.0749778 -0.22228748 0.057892118 0.105598904 0.2182676
-0.4080447 0.3695704 0.46137255 -0.64866775 0.53400934 0.5171688 0.63516366 -0.746359
1.7389034 0.733317 -0.68387544 -0.33850062 -0.25597414 0.039230306 0.45887092 -0.13860574
-0.50296694 -0.19527557 -0.1457832 -0.007698788 0.32627392 -0.0067861564 0.07923617 0.5147257
-0.6745544 1.2212348 -1.3564309 -0.48972407 0.53492427 -0.2684246 -0.33478442 0.8732982
1.6262574 -1.4585141 -0.44162527 0.6558371 -0.3532394 0.15277769 0.019712418 -0.08324898
0.685306 0.12419015 -0.19513637 0.01765906 1.0575544 0.5939672 -0.7840182 -0.9534354
-0.5853329 -0.5629689 0.49907997 -0.09636832 -1.147206 0.9842501 0.6845641 0.67594606
0.420377 -0.32833916 0.17951979 -0.27002752 0.082689874 0.46382037 1.0809001 -0.33475494
0.2506829 -0.8592314 0.7401032 -1.3601167 -0.8985037 0.76999307 -0.29443768 -0.8231877
-0.30946806 0.74746436 0.97370386 0.3587033 0.47885644 0.75015783 -0.061722096 0.03482249
0.22168249 0.6439065 1.1965513 0.90754026 0.5282 1.157019 0.85171413 -0.25980705
-0.29974928 0.7103691 0.367369 0.06983737 -0.023003161 0.32013485 1.033633 0.22220348
00000000: 0e37 2e3e bd6a f4be 558c 823f 5f02 08be
00000010: 8b3a 6f3f cad2 a3bf 500f ac3d b7da 8e3f
00000020: c88b 353f da97 6e3f bd50 7cbe 0504 3dbf
00000030: 0504 693f 3bc1 7f3e 218a 9cbf 0c87 27be
00000040: 0122 4dbc d79c 653e d87b 603d 56fe e23e
00000050: 1f00 953e 3c9c dfbd d19e fbbe 64ac 4dbe
00000060: 9542 953f f374 5d3f 9815 c9be ea05 0ebe
00000070: a1ea 8bbe 13d8 c5bd a120 f03c 4a90 293e
00000080: b606 3b3f 31ab 25bf bc2b c0be 50e8 f13e
00000090: 56be 4c3d f5da e5be 63dd dc3d 4442 6f3e
000000a0: dcbc 32be ad79 3f3f 5c2e 833f f39d 80be
000000b0: f6ec ebbe 5643 313f 2776 5a3f 5d2a c9be
000000c0: 272a 19be ed0f 1cbf d865 9b3f 2d29 663e
000000d0: 4c79 a43d 537c ccbf ab24 aebe 4420 8a3f
000000e0: 1980 553d 3d13 a3be 6972 c1be 2516 a03e
000000f0: 4e97 783e f190 623e 437d 203f b5fd a33f
00000100: 5a52 30bf c805 f93e 8c9a 1c3f e531 ebbe
00000110: 745a 7dbe 9cba 42bf cd86 0dbf c63b 87bc
00000120: af88 423f c8ff 8d3e fa98 51bf 7b4d 133e
00000130: 954d 58be bc6b 173d 4770 c13e 8264 443f
00000140: bb8f a73e 6ad2 cc3c ce54 78be 33f0 7e3d
00000150: a6f0 ec3e db9e a5bd 47af 87be 8f97 f1bd
00000160: ef24 c0be 5bbf ed3f 3c19 cb3e 8c40 dfbf
00000170: c56d 0bbd 8508 463f c9f7 febe d73e 4dbe
00000180: 016f ae3d f5c7 8abd 6ff8 a83d 0601 7bbe
00000190: 652e f5be dc7a 613e c276 883f 48b3 66bf
000001a0: 1221 3a3f f0ec b0be e96c a9bf c944 00bf
000001b0: 0a24 4dbf d247 913d 38aa 963f ba93 fabd
000001c0: 87f9 a93f 71fd 9f3e 242a 763f 5864 3bbf
000001d0: a5d3 61be 04f1 113f ab33 02bd 03f1 d93d
000001e0: bf86 553e a852 293d 25c6 5fbf 2b1f 243f
000001f0: 24d0 ea3e fb22 f9be 7e58 80bf fa54 1abe
00000200: 71f6 1abe 5aaa 463f 2a9e 24bf c2b7 8dbe
00000210: ae4c 5bbe 5643 ed3f be6f 2d3f e300 cebf
00000220: bf55 adbe d09e bc3d b275 113e bb65 363f
00000230: 2bd3 943e da20 c0bf 41b8 8eba b9b9 85bf
00000240: b469 d73e 41a6 623f 98ba b73f 49b2 bd3e
00000250: 9668 68bf 6037 513e 3466 7cbe 4988 64bf
00000260: 9eff 36be f4d5 48be 263d e5bb df98 89bf
00000270: 549f 63be 4920 6d3d 3d44 d83d 8b81 5f3e
00000280: 3ceb d0be 5538 bd3e 0639 ec3e 170f 26bf
00000290: d6b4 083f 2d65 043f 169a 223f 6211 3fbf
000002a0: 6394 de3f aaba 3b3f 7612 2fbf f44f adbe
000002b0: 0b0f 83be f5af 203d 21f1 ea3e aaee 0dbe
000002c0: 71c2 00bf 52f6 47be 3148 15be 1d46 fcbb
000002d0: 600d a73e 685e debb 9346 a23d 10c5 033f
000002e0: 99af 2cbf 6c51 9c3f 879f adbf 1dbd fabe
000002f0: ccf0 083f f36e 89be dd68 abbe 7990 5f3f
00000300: 3429 d03f 97b0 babf b51c e2be f1e4 273f
00000310: cbdb b4be c171 1c3e f07b a13c 717e aabd
00000320: 3770 2f3f 6857 fe3d d4d1 47be bca9 903c
00000330: f15d 873f 3c0e 183f 6bb5 48bf 5814 74bf
00000340: 60d8 15bf bb1e 10bf 6987 ff3e c15c c5bd
00000350: a5d7 92bf d1f7 7b3f 983f 2f3f cd0a 2d3f
00000360: a73b d73e 121c a8be 09d4 373e 0c41 8abe
00000370: 4f59 a93d dd79 ed3e ef5a 8a3f 0065 abbe
00000380: 8259 803e 97f6 5bbf 6777 3d3f 4e18 aebf
00000390: 5704 66bf 441e 453f 89c0 96be 6ebc 52bf
000003a0: 9972 9ebe d359 3f3f a844 793f f5a7 b73e
000003b0: ac2c f53e 580a 403f 4fd0 7cbd 07a2 0e3d
000003c0: bc00 633e 0ed7 243f 9828 993f 8f54 683f
000003d0: 1d38 073f 3319 943f f009 5a3f 6e05 85be
000003e0: bd78 99be c0da 353f ca17 bc3e e506 8f3d
000003f0: 2071 bcbc b7e8 a33e 164e 843f 4f89 633e

bias f4 [128]
-3.2094162 -0.88588583 -1.6238776 -1.5467374 -1.3457897 -1.2898648 -2.454266 -4.4519057
-0.63956803 -3.1287308 -1.1057992 -3.759544 -3.9117181 -1.3491417 -1.2565054 -0.7392599
-1.1846611 -3.320238 -2.3731554 -2.4563148 -2.0067067 -2.057865 -1.1192389 -3.601864
-0.9795487 -1.015274 -1.4206171 -2.5113208 -2.1322582 -4.808229 -0.17856212 -1.7902724
-0.5909271 -2.5852501 -2.6188755 -3.3045113 0.5604619 -4.9992676 -0.9510435 -2.8982272
-2.1018395 -2.4888382 -1.640773 0.06306461 -2.886327 -3.4693313 -0.84271383 -3.224776
-2.6284487 -0.98023736 -2.4790792 -3.2750747 -1.2735356 -0.28413472 -1.9551823 -1.1206983
-1.8325993 -2.7594478 -2.9460804 -0.48744464 -3.177391 -3.5628042 -0.29969034 -1.5513464
-0.8337803 -1.6726818 -0.9180574 -1.5181422 -1.5488917 -1.8293508 -2.2133949 -0.31841946
-1.583068 -3.457572 -0.9849174 -2.6410108 -2.4293733 -1.6189594 -1.8905816 -2.057108
-1.9927636 -4.402314 -2.6850183 -0.9211719 -2.0588872 -1.3041705 -1.0365247 -3.3160224
-3.315057 -3.5077431 -1.3944609 -2.742628 -0.5311056 -3.5632288 -2.9441571 -0.38589615
-2.9284117 -1.3961014 -1.9868137 -1.2717285 -2.6092792 -1.78579 -1.2071834 -1.4162794
-1.4064068 -1.1450982 -1.7228551 -1.3476177 -4.166445 -2.818088 -1.0337185 -0.71964353
-2.0871763 -0.6523207 -2.0653858 -1.658394 -1.8368876 0.6138431 -1.6513654 -1.7613461
-1.8663162 -1.2475485 -0.86107117 -2.8427188 -3.9151478 -0.5216666 -0.69909394 -0.4963116
00000000: 1367 4dc0 6ac9 62bf 39db cfbf 7efb c5bf
00000010: d642 acbf 4a1a a5bf b212 1dc0 0376 8ec0
00000020: bbba 23bf 203d 48c0 d48a 8dbf 5e9c 70c0
00000030: 9759 7ac0 adb0 acbf 2bd5 a0bf 2340 3dbf
00000040: faa2 97bf c87e 54c0 c7e1 17c0 4334 1dc0
00000050: e26d 00c0 0fb4 03c0 3843 8fbf f184 66c0
00000060: b4c3 7abf 80f4 81bf c8d6 b5bf 7bb9 20c0
00000070: eb76 08c0 03dd 99c0 fdd8 36be a527 e5bf
00000080: 0047 17bf bd74 25c0 a89b 27c0 1d7d 53c0
00000090: 6e7a 0f3f 00fa 9fc0 9677 73bf 8e7c 39c0
000000a0: 8a84 06c0 2049 1fc0 da04 d2bf 0528 813d
000000b0: 95b9 38c0 8609 5ec0 18bc 57bf bb62 4ec0
000000c0: 8138 28c0 d6f0 7abf 3ca9 1ec0 d39a 51c0
000000d0: 3703 a3bf 1b7a 91be 6a43 fabf 0b73 8fbf
000000e0: 9d92 eabf cb9a 30c0 958c 3cc0 5892 f9be
000000f0: 605a 4bc0 fc04 64c0 0371 99be 8592 c6bf
00000100: a072 55bf 701a d6bf cf05 6bbf 7c52 c2bf
00000110: 1542 c6bf 2b28 eabf 43a8 0dc0 e007 a3be
00000120: f9a1 cabf dc48 5dc0 8c23 7cbf 5206 29c0
00000130: da7a 1bc0 103a cfbf 94fe f1bf a8a7 03c0
00000140: e112 ffbf c2df 8cc0 57d7 2bc0 ecd1 6bbf
00000150: cfc4 03c0 0fef a6bf d7ac 84bf b639 54c0
00000160: e529 54c0 dd7e 60c0 b27d b2bf 3887 2fc0
00000170: 89f6 07bf f10b 64c0 126d 3cc0 2e94 c5be
00000180: 196b 3bc0 73b3 b2bf e94f febf 00c8 a2bf
00000190: 6efe 26c0 c494 e4bf fc84 9abf a548 b5bf
000001a0: 2305 b4bf 9492 92bf 8486 dcbf bd7e acbf
000001b0: 8453 85c0 8e5b 34c0 e350 84bf 8f3a 38bf
000001c0: 4c94 05c0 7dfe 26bf 482f 04c0 4146 d4bf
000001d0: 221f ebbf d224 1d3f f15f d3bf ca73 e1bf
000001e0: 73e3 eebf abaf 9fbf 296f 5cbf 1bef 35c0
000001f0: c891 7ac0 f18b 05bf d2f7 32bf 8e1c febe

weight f4 [256, 399]
0.36561617 0.3787285 0.40667197 -3.418143 -0.08921541 0.63713396 0.8451949 1.5804132
-0.57365924 -2.0106978 -0.12503125 -0.09187892 -0.19084683 -2.5065134 0.37011394 -0.5776607
0.50014335 -2.1025383 0.027232224 1.1338317 0.24985147 -2.2316275 -0.11302136 0.66988343
0.34792697 -0.869546 -0.44141197 -0.61204576 -0.97878313 0.28363782 0.5036731 -0.99333006
-0.3145378 0.14775118 -0.55028725 -0.7488514 0.08275923 -0.6742444 -0.100811996 -0.27886495
0.4956892 0.039502077 0.5420576 -0.5301759 0.14157437 -0.19120774 -2.1206934 -0.4036864
-0.35284036 -0.26194304 -1.0774581 0.48375955 0.42963153 0.09399548 0.08430047 -0.16799499
0.03305063 -0.61047363 -0.9275539 -0.5922067 0.26892167 0.02247656 0.54944426 -0.025564771
0.19171843 -1.1269141 0.02789208 0.17335422 0.4003397 -0.19352289 -0.115918495 1.0522009
0.5484203 -0.10667968 0.06861758 -0.11397334 -1.2884307 -0.06987651 -1.4829698 0.518539
-1.3830712 -1.7294494 0.43475667 -0.62802315 -0.1510391 -1.6350926 0.48331842 0.27005818
-0.038916394 0.5060252 0.4261138 -0.25125837 -2.3337667 0.6768455 -1.2215515 -0.30247316
-1.0092762 -0.52709705 0.3256199 -0.3730092 -0.29548272 0.5533302 0.114812694 -1.910817
-1.0945792 0.17133263 0.30557007 -0.3782337 0.32742587 1.5691046 -2.5717895 -1.2640085
0.61123484 0.32057682 -1.0890801 -0.08235968 0.56180656 0.3232165 0.78453535 0.05215214
-0.16000937 -0.5522193 0.3129697 -0.14695737 0.32131594 0.24054544 -0.9098184 0.67843485
0.23229262 -2.180693 -1.0479993 0.69031864 3.7138937 -0.13953598 -0.47822428 -0.35618573
-0.6260726 -0.19866157 -1.0681262 0.024168374 -0.060626794 -0.14966506 -0.9353505 0.13444231
-0.2684341 -1.170458 -0.14634748 0.26859912 -0.8728084 0.6205468 -0.8779578 0.0070689865
0.16814148 -0.7588877 1.0496181 -0.54054755 0.34631732 0.056665234 0.49083373 0.3674002
1.0065136 -0.34106877 0.76680243 -0.08205224 -0.7649265 1.0107852 -0.22363257 -1.4588362
-0.29920208 0.046018902 -0.31011412 -0.23905435 -0.29640862 -3.18479 -0.15085611 1.4562211
-0.071780026 0.5138549 -0.5955774 -0.20947765 0.60139257 0.3241736 -0.110810935 -0.4021396
-1.453424 0.64231825 -0.4958819 0.9821 -0.11462557 -0.07432441 0.9676719 0.37783715
-2.416501 0.09782932 0.3622532 0.58165807 0.9116412 0.33073464 -1.2477945 -0.12380721
0.13528644 -0.97796637 -0.2192085 -0.6844235 0.38507682 -1.4649699 -0.025842486 -0.023281476
0.18516009 -1.4353391 -0.83004004 -0.8241507 -0.038482945 -0.044768315 2.1189091 -0.33118784
-3.1707296 0.17608702 -0.3024997 -0.6176442 0.6829463 -0.7990342 -0.07792589 0.13128944
0.66174704 -2.7883384 0.19529681 -0.50689316 0.09433483 0.5914644 -0.30530062 0.335378
-0.6029404 -0.21984974 0.27331877 -0.58242667 -0.36087486 -0.5410899 0.5997851 0.040029496
-0.30969423 0.8813829 -1.7462758 -0.42778578 -0.42803252 -0.48098847 0.06909622 0.16581057
-0.4053397 0.33651602 0.23613349 0.21082765 -1.0264682 -0.14605322 0.8310393 0.55030066
00000000: 0b32 bb3e b4e8 c13e 4f37 d03e dbc2 5ac0
00000010: 92b6 b6bd 361b 233f b15e 583f fb4a ca3f
00000020: 55db 12bf 46af 00c0 3108 00be 042b bcbd
00000030: 5a6d 43be b76a 20c0 937f bd3e 92e1 13bf
00000040: 6509 003f fd8f 06c0 1d16 df3c 6621 913f
00000050: 10d9 7f3e fcd2 0ec0 be77 e7bd 7b7d 2b3f
00000060: 7c23 b23e 919a 5ebf c000 e2be 08af 1cbf
00000070: 8891 7abf fa38 913e b8f0 003f e14a 7ebf
00000080: 190b a1be 164c 173e a0df 0cbf bab4 3fbf
00000090: ac7d a93d 489b 2cbf 8576 cebd 63c7 8ebe
000000a0: faca fd3e eecc 213d 49c4 0a3f 9cb9 07bf
000000b0: dff8 103e f6cb 43be 71b9 07c0 fcaf cebe
000000c0: 7ea7 b4be 661d 86be 26ea 89bf 55af f73e
000000d0: aaf8 db3e b480 c03d baa5 ac3d e106 2cbe
000000e0: 1960 073d 0048 1cbf 2c74 6dbf dc9a 17bf
000000f0: 1ab0 893e c320 b83c 61a8 0c3f 366d d1bc
00000100: d651 443e b93e 90bf ee7d e43c c583 313e
00000110: 53f9 cc3e dd2a 46be ad66 edbd 85ae 863f
00000120: 4665 0c3f e07a dabd 6087 8c3d db6a e9bd
00000130: 4ceb a4bf 6a1b 8fbd f4d1 bdbf f9be 043f
00000140: 7a08 b1bf 995e ddbf 6d98 de3e 20c6 20bf
00000150: fea9 1abe b74a d1bf 8375 f73e 1145 8a3e
00000160: cc66 1fbd de8a 013f 972b da3e f0a4 80be
00000170: 6f5c 15c0 bf45 2d3f cd5b 9cbf c3dd 9abe
00000180: f62f 81bf d5ef 06bf a7b7 a63e 10fb bebe
00000190: 8349 97be 0ca7 0d3f eb22 eb3d a795 f4bf
000001a0: 2c1b 8cbf d271 2f3e ae73 9c3e d9a7 c1be
000001b0: 5da4 a73e 6bd8 c83f 3398 24c0 08cb a1bf
000001c0: e379 1c3f a522 a43e fa66 8bbf 31ac a8bd
000001d0: 8ed2 0f3f a27c a53e 4fd7 483f 7b9d 553d
000001e0: 7fd9 23be 3e5e 0dbf 913d a03e fe7b 16be
000001f0: 8683 a43e 8b51 763e dce9 68bf e8ad 2d3f
00000200: 1ede 6d3e 7990 0bc0 d724 86bf b9b8 303f
00000210: 6fb0 6d40 85e2 0ebe d0d9 f4be fa5d b6be
00000220: 4b46 20bf f06d 4bbe 5cb8 88bf c1fc c53c
00000230: cd53 78bd cc41 19be 2173 6fbf 3fab 093e
00000240: 3270 89be 91d1 95bf 1ddc 15be d385 893e
00000250: 5f70 5fbf 28dc 1e3f d8c1 60bf f5a2 e73b
00000260: 482d 2c3e 7746 42bf e359 863f 5361 0abf
00000270: 8150 b13e ce19 683d 8f4e fb3e e11b bc3e
00000280: 70d5 803f 91a0 aebe 2a4d 443f 010b a8bd
00000290: 39d2 43bf 6961 813f f0ff 64be 25bb babf
000002a0: 0431 99be 517e 3c3d 47c7 9ebe aaca 74be
000002b0: dfc2 97be 99d3 4bc0 067a 1abe 7465 ba3f
000002c0: 6801 93bd ff8b 033f c377 18bf 4f81 56be
000002d0: ddf4 193f 15fa a53e d8f0 e2bd 3ee5 cdbe
000002e0: cc09 babf f86e 243f 3be4 fdbe e86a 7b3f
000002f0: d0c0 eabd 6537 98bd 58b9 773f df73 c13e
00000300: f4a7 1ac0 bd5a c83d 4079 b93e 8be7 143f
00000310: 5161 693f 0d56 a93e bbb7 9fbf a28e fdbd
00000320: 8788 0a3e 015c 7abf 3178 60be 6136 2fbf
00000330: ca28 c53e 2284 bbbf 9fb3 d3bc cbb8 bebc
00000340: 9b9a 3d3e 31b9 b7bf 817d 54bf 8afb 52bf
00000350: 4ba0 1dbd fb5e 37bd 359c 0740 7491 a9be
00000360: 3ced 4ac0 2850 343e 3ee1 9abe ee1d 1ebf
00000370: 92d5 2e3f 818d 4cbf 9c97 9fbd bd70 063e
00000380: 4168 293f 2374 32c0 e3fb 473e c0c3 01bf
00000390: 9f32 c13d 366a 173f 5d50 9cbe aab6 ab3e
000003a0: 4d5a 1abf 4a20 61be 70f0 8b3e ea19 15bf
000003b0: 97c4 b8be de84 0abf 848b 193f f8f5 233d
000003c0: 3e90 9ebe 4fa2 613f f785 dfbf bd06 dbbe
000003d0: 1427 dbbe 1f44 f6be 5282 8d3d 3fca 293e
000003e0: af88 cfbe d44b ac3e facc 713e 34e3 573e
000003f0: 4f63 83bf fa8e 15be febe 543f 81e0 0c3f

bias f4 [256]
-0.121217355 0.37019652 -0.2039357 1.1169261 0.21558446 -1.2989955 -1.6763039 -0.0083665
-0.015305691 0.477069 0.18973228 -2.4901214 -0.041594032 1.0462966 -1.0465349 -0.013439861
0.4353997 -0.04178701 -0.080102645 -0.04224197 0.3230503 -0.046222333 -0.012378365 -0.04913695
0.35965806 0.8208413 0.03080919 -0.03045229 1.2051147 0.92344207 -0.028083643 -0.024467383
-0.04881546 -0.5869396 0.02592741 -0.04392979 1.2006059 0.055659782 0.026873536 0.026558459
0.031446546 0.04539328 0.026142716 1.6703159 0.12718302 0.14706159 -0.051820666 1.4456614
-0.063282676 0.042288255 -1.1943108 -0.112821385 -0.01749137 -0.16415659 -0.049315058 -3.1704485
-0.034459084 2.8507464 -0.3598457 -0.015987497 0.6077985 0.49937907 -0.52807313 0.018020762
-0.021471161 0.4910407 0.0018197715 1.0761175 0.02693283 1.9485643 0.013252711 -0.06871236
0.11918508 -0.08334207 0.9720035 -0.2869323 -0.004219121 -0.017935937 -0.024185857 -0.030001445
0.031268116 -0.03602225 0.15596318 0.028270038 0.8513684 -0.027774297 0.025564224 -0.052796103
-0.15303333 0.005647655 -0.038206875 -0.04662183 -0.10111749 0.03381837 -0.03676673 0.7562626
-0.8855104 0.027191855 -0.5362999 -0.28169674 0.1437758 -0.03661408 -0.09385375 -1.0608966
0.0032151358 -0.009575693 2.9892938 0.15587428 -0.2200649 0.0297999 -0.0786606 0.70413154
-0.5723882 -0.07513294 0.074005365 0.9999198 -0.46414903 0.5869465 0.08580984 -0.035238586
0.038742483 0.027610095 -0.050873563 -0.057526346 -0.0015256876 -0.019873476 0.34722042 -0.118202955
0.48526317 -1.3430508 0.80605185 -0.33307993 -0.04756934 -0.055148315 -0.39075723 -0.052832413
-1.1183764 0.7049036 0.0069063045 0.0066269175 -0.035863828 0.020209724 0.40846345 0.94109845
-0.037468173 -0.027211951 -0.029448722 -0.073509745 -0.023440748 -0.05993786 1.032364 0.028687203
0.06341493 -0.065510765 0.0009374113 -0.04393476 0.8525484 -0.051442463 -0.03358563 0.022151541
-0.05303418 0.120658055 -0.004764558 -0.07801276 -0.046110876 -0.17040856 0.51275206 -0.9597673
-0.014794516 -0.12382829 -0.0016746359 0.57701916 0.78359413 0.006011867 -0.030932928 0.03801542
-0.95143074 -0.021881018 -0.058706697 -0.1507144 0.016890867 -0.045074604 1.1477189 0.052372467
-0.078194395 0.22987182 -0.028654592 0.7787039 -0.26557562 0.060077712 -0.12940878 0.0018961615
0.83045715 -0.05025807 0.11785042 -0.040138755 0.0177994 -0.24838014 0.17299682 0.0019072398
-0.07643875 -0.2523929 0.005122904 -0.029785575 -0.06798318 -0.5278451 -0.025329059 -0.018877262
-0.045881726 0.023098812 -0.07347765 1.0261295 0.43295825 0.20718142 -0.102123804 -0.031174123
-0.020046161 -0.37417758 0.26484314 -0.027040565 -0.042550445 -0.14562932 0.0029327376 0.051856883
1.7689368 0.009704957 0.7127286 0.0001832002 0.33936495 0.004057905 0.35127345 -0.06859687
-0.7874484 -0.0018692162 -0.6128444 0.018331008 1.0135213 0.17823452 -0.011647437 0.010517798
-0.26157388 -0.016489824 0.36642027 -0.010649579 1.7730939 0.3968917 -0.066409744 -0.046745963
-0.0036560071 -0.0003014487 0.68795377 -0.007941602 -0.16821156 0.042382665 0.69005525 -0.006348628
00000000: ce40 f8bd 668a bd3e 85d4 50be 6ff7 8e3f
00000010: 2cc2 5c3e 7c45 a6bf 2091 d6bf a513 09bc
00000020: b9c4 7abc 6342 f43e 2e49 423e 265e 1fc0
00000030: 815e 2abd 0ced 853f dbf4 85bf dd32 5cbc
00000040: b6ec de3e db28 2bbd db0c a4bd ea05 2dbd
00000050: d966 a53e a153 3dbd a0ce 4abc d443 49bd
00000060: 1a25 b83e a822 523f 8e63 fc3c 1577 f9bc
00000070: 3341 9a3f b366 6c3f ab0f e6bc d26f c8bc
00000080: b8f2 47bd ac41 16bf b865 d43c b9ef 33bd
00000090: 74ad 993f 83fb 633d e425 dc3c 2091 d93c
000000a0: 18ce 003d 4eee 393d 4029 d63c e9cc d53f
000000b0: 443c 023e 5097 163e e841 54bd 6f0b b93f
000000c0: 599a 81bd 7336 2d3d 2ddf 98bf e60e e7bd
000000d0: 104a 8fbc aa18 28be 96fe 49bd a1e8 4ac0
000000e0: f824 0dbd a172 3640 b23d b8be 36f8 82bc
000000f0: af98 1b3f 9dae ff3e cd2f 07bf 47a0 933c
00000100: 4ae4 afbc b069 fb3e 6685 ee3a 38be 893f
00000110: 3da2 dc3c 8e6a f93f e621 593c 11b9 8cbd
00000120: 4f17 f43d 3faf aabd 39d5 783f cae8 92be
00000130: 8d40 8abb 63ee 92bc 6b21 c6bc 97c5 f5bc
00000140: ff12 003d 118c 13bd d0b4 1f3e 9196 e73c
00000150: 48f3 593f ec86 e3bc 106c d13c ba40 58bd
00000160: c5b4 1cbe f70f b93b d07e 1cbd 88f6 3ebd
00000170: b016 cfbd 2285 0a3d b698 16bd 6d9a 413f
00000180: cfb0 62bf 74c1 de3c f34a 09bf 8e3a 90be
00000190: f739 133e a5f8 15bd 6536 c0bd 76cb 87bf
000001a0: 07b5 523b 5ee3 1cbc 9750 3f40 829d 1f3e
000001b0: b158 61be eb1e f43c cf18 a1bd f741 343f
000001c0: 0888 12bf 4ddf 99bd 2090 973d befa 7f3f
000001d0: f1a4 edbe 2042 163f 12bd af3d 5656 10bd
000001e0: 70b0 1e3d 912e e23c cc60 50bd bfa0 6bbd
000001f0: 95f9 c7ba b3cd a2bc e0c6 b13e 6414 f2bd
00000200: 6a74 f83e 17e9 abbf 6a59 4e3f 7489 aabe
00000210: 11d8 42bd 33e3 61bd 5511 c8be cd66 58bd
00000220: f526 8fbf 9074 343f 484e e23b 9d26 d93b
00000230: f3e5 12bd dd8e a53c 1f22 d13e d4eb 703f
00000240: 3a78 19bd 99eb debc 723e f1bc 478c 96bd
00000250: d006 c0bc 6781 75bd 8124 843f 6d01 eb3c
00000260: b0df 813d 822a 86bd 9cbc 753a eff4 33bd
00000270: 9d40 5a3f 55b5 52bd 1691 09bd 2677 b53c
00000280: 5e3a 59bd 921b f73d 0220 9cbb 27c5 9fbd
00000290: c2de 3cbd 957f 2ebe b843 033f 4fb3 75bf
000002a0: b364 72bc b099 fdbd 757f dbba 87b7 133f
000002b0: a099 483f 32ff c43b 0d67 fdbc 0fb6 1b3d
000002c0: f790 73bf d23f b3bc 6f76 70bd e054 1abe
000002d0: b75e 8a3c 26a0 38bd 74e8 923f 8384 563d
000002e0: 6224 a0bd 8563 6b3e 09bd eabc 2459 473f
000002f0: 87f9 87be 0c14 763d bc83 04be 9f88 f83a
00000300: d798 543f 68db 4dbd 905b f13d 8968 24bd
00000310: 0cd0 913c 5d57 7ebe 1426 313e 59fc f93a
00000320: eb8b 9cbd a439 81be 09de a73b e100 f4bc
00000330: c43a 8bbd db20 07bf e37e cfbc 7da4 9abc
00000340: 7aee 3bbd b839 bd3c 737b 96bd 3658 833f
00000350: b4ac dd3e 5e27 543e 4926 d1bd e060 ffbc
00000360: d937 a4bc 3494 bfbe 8599 873e 2d84 ddbc
00000370: 6049 2ebd da1f 15be 2c33 403b e267 543d
00000380: 856c e23f 8a01 1f3c 6275 363f 6e19 4039
00000390: 3ec1 ad3e 2df8 843b 1dda b33e 847c 8cbd
000003a0: 3896 49bf 7d00 f5ba 5fe3 1cbf e92a 963c
000003b0: 11bb 813f 1c83 363e e4d4 3ebc d852 2c3c
000003c0: 03ed 85be ab15 87bc 709b bb3e 927b 2ebc
000003d0: bef4 e23f 6435 cb3e d501 88bd b278 3fbd
000003e0: 9f99 6fbb c20b 9eb9 bd1d 303f 7e1d 02bc
000003f0: a73f 2cbe 7299 2d3d 76a7 303f 2708 d0bb

weight f4 [128, 256]
0.3640165 0.76798713 1.2591788 0.1535975 -1.869829 0.5710047 0.19442171 -0.021054313
0.07093991 0.63206774 0.95146257 0.28001907 0.012209671 0.74612576 -0.9611518 -0.5390031
0.12258007 0.050651718 0.059118934 -0.03625208 0.27878714 0.01767127 -0.038053356 0.6673318
-1.8386545 0.5183444 -0.00774528 -1.8747196 0.5562604 0.14868295 -0.014669108 -0.04727387
0.0013380632 0.14936602 0.0003234134 0.028512323 0.30113024 0.0011313456 0.011592963 0.0025526963
-0.037355494 -0.038620077 -0.03545026 -0.17829123 0.0318192 0.05789498 0.018727425 0.5018961
-0.10334968 -0.0030810172 0.95440745 -0.107096896 -0.052739304 -2.2437043 0.02834397 0.65131676
-0.051604748 -0.030289318 -0.48960117 0.11201802 0.58840805 -1.3262788 0.5676521 0.03273287
0.0051708436 -0.14118047 0.0005122878 -0.11886469 -0.032670036 -1.0152828 0.021260485 -0.019568812
0.57616925 -0.032969367 0.52804023 -2.8547187 -0.023154078 0.033180386 -0.050596092 0.008162826
-0.029343149 0.027146697 -1.409715 0.7213959 -0.5465428 0.007827496 -0.063044146 -0.011826734
0.29920098 -0.046365675 -0.03318133 -0.06491517 0.0480967 -0.046207566 0.04382798 0.41625646
-1.1091112 -0.0069386684 0.20746878 -0.7341432 1.0086774 -0.042308517 -0.5808553 -1.9955289
-0.032682247 0.03470617 -0.5700413 0.8964895 -0.2807007 -0.050445054 -0.012153498 -0.71221584
0.95427483 0.041861445 0.015187334 0.3840247 1.0620978 0.8402396 -0.04330039 0.04616367
-0.067007735 -0.04058351 0.001278098 0.05232962 -0.0028601289 -1.5250802 0.49607 0.34266746
-0.92048407 -0.46486118 -0.035475887 0.38524377 -0.0064462773 -0.023143586 -0.64367634 -0.03017933
-0.0006102921 0.9871792 0.007665665 -0.037294205 0.028781237 0.044857055 0.41588083 0.37990022
0.0056925053 0.06017697 -0.05028479 1.0522921 0.3371357 -0.05112356 0.5960294 -0.04371991
0.22305804 -0.030937308 -0.034134954 0.05104794 0.1485343 0.017376225 0.010047039 -0.032906894
0.05453709 0.017867837 -0.048629105 -0.06324585 0.05154419 -0.05095837 1.4291421 0.9333744
-0.11070324 -0.06672757 0.04319725 -0.3134656 0.41626424 -0.07616756 0.06032915 -0.044318333
0.2651376 -0.04326913 -0.019819347 -0.006951559 -0.037237085 0.028204702 -0.10095589 1.3223072
-0.030227207 0.5450833 0.030226916 1.2859217 -2.0981996 0.046942536 -0.2785375 -0.0016552659
0.09832697 -0.039801918 -0.88183343 -0.050161112 -0.08198131 0.7945825 0.9863197 0.03722015
-0.067467734 -0.41820675 -0.02140719 0.034019183 0.06640167 0.6741312 -0.025317347 -0.004237111
1.0310463 0.0073887957 -0.058039892 0.392874 0.44340113 -1.0587516 -0.68391407 0.017148208
-0.022766544 -0.6506097 0.46334404 -0.029064827 0.0011334842 -0.48856717 0.055180162 0.03012496
0.15586148 0.02624738 -0.5845266 0.06596581 0.89004356 -0.033512875 1.2565895 -0.038477886
-0.6167374 -0.065840386 -1.2069011 0.02909 -0.035088632 1.5061853 0.018995803 -0.02588041
0.41710845 0.03572195 1.0549828 0.038381655 0.7500026 0.6260015 0.0384814 0.021921054
0.05352223 0.053095855 -0.6513755 0.016821245 0.31121033 -0.02708918 0.44253796 0.027838597
00000000: 5f60 ba3e ce9a 443f c52c a13f aa48 1d3e
00000010: 8f56 efbf 5d2d 123f 7c16 473e 187a acbc
00000020: f248 913d 31cf 213f 0d93 733f a95e 8f3e
00000030: 120b 483c 1902 3f3f 0b0e 76bf 1bfc 09bf
00000040: 420b fb3d 2d78 4f3d b226 723d 107d 14bd
00000050: 30bd 8e3e 57c3 903c d6dd 1bbd 42d6 2a3f
00000060: 0859 ebbf 38b2 043f 1ecc fdbb d0f6 efbf
00000070: 1567 0e3f 5840 183e b356 70bc 3fa2 41bd
00000080: f361 af3a 68f3 183e d08f a939 ad92 e93c
00000090: be2d 9a3e a949 943a 69f0 3d3c 234b 273b
000000a0: 1302 19bd 1630 1ebd 4b34 11bd fa91 36be
000000b0: d954 023d 4923 6d3d 426a 993c 437c 003f
000000c0: ffa8 d3bd e4ea 49bb 0c54 743f 9e55 dbbd
000000d0: 2b05 58bd da98 0fc0 9d31 e83c b2bc 263f
000000e0: 805f 53bd 4e21 f8bc 01ad fabe b469 e53d
000000f0: e9a1 163f 81c3 a9bf a651 113f e712 063d
00000100: 2e70 a93b 9d91 10be 0d4b 063a 556f f3bd
00000110: 04d1 05bd c9f4 81bf 782a ae3c c64e a0bc
00000120: d47f 133f e30a 07bd a52d 073f b6b3 36c0
00000130: 9fad bdbc 28e8 073d d93d 4fbd 60bd 053c
00000140: 0b61 f0bc c062 de3c 8b71 b4bf 67ad 383f
00000150: 3bea 0bbf e63e 003c 4a1d 81bd ebc4 41bc
00000160: df30 993e efe9 3dbd 25e9 07bd 3ff2 84bd
00000170: 0c01 453d 2544 3dbd f884 333d 911f d53e
00000180: 5bf7 8dbf c55d e3bb b272 543e cff0 3bbf
00000190: 571c 813f b24b 2dbd efb2 14bf 7e6d ffbf
000001a0: d2dd 05bd 0f28 0e3d 3aee 11bf 5680 653f
000001b0: 01b8 8fbe 799f 4ebd 771f 47bc c753 36bf
000001c0: 5b4b 743f e876 2b3d 4cd4 783c e39e c43e
000001d0: d2f2 873f f119 573f c05b 31bd 1e16 3d3d
000001e0: 5a3b 89bd e53a 26bd da85 a73a 9557 563d
000001f0: 0071 3bbb d435 c3bf e3fc fd3e 1c72 af3e
00000200: d8a4 6bbf 4902 eebe 2a4f 11bd ac3e c53e
00000210: 4b3b d3bb 9e97 bdbc f9c7 24bf a43a f7bc
00000220: 02fc 1fba c7b7 7c3f 4230 fb3b cfc1 18bd
00000230: a1c6 eb3c 08bc 373d 55ee d43e 4882 c23e
00000240: 3288 ba3b 207c 763d 6df7 4dbd 82b1 863f
00000250: 0d9d ac3e f066 51bd 6295 183f a613 33bd
00000260: 5469 643e 3d70 fdbc 18d1 0bbd a517 513d
00000270: 6019 183e 9658 8e3c 569c 243c 61c9 06bd
00000280: 4962 5f3d 925f 923c 502f 47bd 0a87 81bd
00000290: 0020 533d b9b9 50bd 21ee b63f a0f1 6e3f
000002a0: 61b8 e2bd 77a8 88bd 9aef 303d 907e a0be
000002b0: 9620 d53e bdfd 9bbd b31b 773d 2487 35bd
000002c0: 1ec0 873e f93a 31bd 2f5c a2bc e7c9 e3bb
000002d0: ea85 18bd 8c0d e73c f6c1 cebd 5d41 a93f
000002e0: 0c9f f7bc 948a 0b3f 709e f73c 1599 a43f
000002f0: e748 06c0 d146 403d 789c 8ebe 82f5 d8ba
00000300: a75f c93d 5607 23bd d6bf 61bf bd75 4dbd
00000310: d1e5 a7bd c269 4b3f 737f 7c3f 2874 183d
00000320: 862c 8abd 321f d6be 225e afbc b357 0b3d
00000330: 99fd 873d dd93 2c3f 5366 cfbc 77d7 8abb
00000340: 53f9 833f b61d f23b 3dbb 6dbd c826 c93e
00000350: 7905 e33e 2c85 87bf fe14 2fbf 667a 8c3c
00000360: e780 babc 5b8e 26bf 6e3b ed3e 5c19 eebc
00000370: 6b91 943a 7a25 fabe 9804 623d 9fc8 f63c
00000380: 279a 1f3e bf04 d73c 89a3 15bf 1519 873d
00000390: e5d9 633f cc44 09bd edd7 a03f fd9a 1dbd
000003a0: 81e2 1dbf 53d7 86bd bc7b 9abf 274e ee3c
000003b0: 19b9 0fbd aeca c03f 169d 9b3c 2703 d4bc
000003c0: 3d8f d53e 2e51 123d ad09 873f 1536 1d3d
000003d0: 2c00 403f a241 203f ac9e 1d3d c893 b33c
000003e0: 203a 5b3d 0a7b 593d 8bc0 26bf b5cc 893c
000003f0: f656 9f3e 21ea ddbc 5694 e23e c50d e43c

bias f4 [128]
-4.1340175 -0.12399614 0.4077596 -0.019470947 -0.026541889 -0.055910613 -0.049968075 0.017843043
-0.014760251 -0.021319358 -0.027054472 -0.042346757 -0.09205875 -0.09324057 -0.093687914 -0.076441295
-0.10006329 -0.2033288 -0.120787084 -0.09987427 -0.088946246 0.038869012 0.5420086 -0.08683421
-0.09376765 -0.07223047 -0.027378794 -0.029531304 -0.12470995 -1.3177184 -0.005984958 -0.12909068
-0.17133383 -0.0027342779 -0.15057093 -0.15325548 -0.010299222 -0.021280032 -0.13072214 -0.19129732
-0.039376367 0.037501983 -0.12804578 -0.423376 1.2343565 0.0305176 0.012885549 -0.071032666
-0.0152472835 -0.15468058 0.017917821 -0.06919202 -0.041946232 -0.02326583 -0.14026336 -0.084200494
4.139119 -0.03474723 4.092215 -0.01741431 0.058839153 -0.01731805 -0.041671697 -0.021500783
-0.04193707 -0.084745765 -0.03627894 -0.063718215 0.19995986 -0.052834418 -0.10502177 -0.011554616
-0.07236843 0.020588629 -0.028636772 -0.093292944 3.3504689 0.005940674 -0.1045166 0.5092037
-0.061344393 -0.04480461 -0.082840934 -0.0051761833 -0.14241135 -0.13777491 -0.101591386 -0.03972122
-0.05997933 3.4950037 -0.1561535 -0.03375559 -0.083414376 -0.025689393 -0.04190656 -3.733141
3.1503444 -0.0068261935 3.4861062 -0.073379025 0.21779235 -0.08110051 0.021060864 -0.09167711
-0.081080936 -0.04046854 -0.013950573 -0.4673196 0.16021293 0.014941638 -0.018177137 -0.75770116
-0.093895696 -0.07420495 -0.04234329 -0.0022827727 2.2241101 -0.05835054 -0.050009277 -0.13969131
0.022309888 0.0051426697 0.020519733 -0.006962592 -0.015512827 0.004515962 -0.1267717 0.1645915
00000000: df49 84c0 b0f1 fdbd dec5 d03e 8981 9fbc
00000010: 606e d9bc 8702 65bd 53ab 4cbd 932b 923c
00000020: fbd4 71bc efa5 aebc 57a1 ddbc cb73 2dbd
00000030: 4c89 bcbd e9f4 bebd 73df bfbd 418d 9cbd
00000040: fbed ccbd 6d35 50be 385f f7bd e28a ccbd
00000050: 7329 b6bd 1d35 1f3d 13c1 0a3f 22d6 b1bd
00000060: 4109 c0bd 92ed 93bd 7e49 e0bc a2eb f1bc
00000070: ee67 ffbd ffaa a8bf 771d c4bb 5930 04be
00000080: 2372 2fbe 9231 33bb 442f 1abe 01ef 1cbe
00000090: 11be 28bc 7653 aebc 06dc 05be 72e3 43be
000000a0: 1d49 21bd ae9b 193d 6f1e 03be bdc4 d8be
000000b0: 65ff 9d3f 0c00 fa3c e91d 533c 9379 91bd
000000c0: becf 79bc 9664 1ebe 65c8 923c 8cb4 8dbd
000000d0: d0cf 2bbd fb97 bebc 33a1 0fbe 4f71 acbd
000000e0: aa73 8440 1d53 0ebd 6df3 8240 74a8 8ebc
000000f0: 5301 713d 95de 8dbc f1af 2abd 6922 b0bc
00000100: 35c6 2bbd 308f adbd 3a99 14bd b27e 82bd
00000110: 47c2 4c3e e768 58bd a715 d7bd 924f 3dbc
00000120: e635 94bd 7ca9 a83c aa97 eabc 5f10 bfbd
00000130: 156e 5640 fca9 c23b cd0c d6bd 2c5b 023f
00000140: 4244 7bbd 0a85 37bd 82a8 a9bd f99c a9bb
00000150: 48d4 11be de14 0dbe 250f d0bd b8b2 22bd
00000160: e3ac 75bd 24ae 5f40 b4e6 1fbe 4d43 0abd
00000170: 28d5 aabd 9072 d2bc 37a6 2bbd c8eb 6ec0
00000180: 3e9f 4940 43ae dfbb 5d1c 5f40 be47 96bd
00000190: f504 5f3e 0618 a6bd d587 ac3c 35c1 bbbd
000001a0: c30d a6bd 57c2 25bd f290 64bc 8444 efbe
000001b0: dc0e 243e c6cd 743c 38e8 94bc b4f8 41bf
000001c0: 634c c0bd c4f8 97bd 2870 2dbd 929a 15bb
000001d0: d257 0e40 fa00 6fbd 87d6 4cbd 3d0b 0fbe
000001e0: 3ac3 b63c d783 a83b 0019 a83c 7426 e4bb
000001f0: 8329 7ebc a3fa 933b 71d0 01be ad8a 283e

weight f4 [1, 128]
0.07145194 -0.00664845 0.4776653 0.029206965 0.01802556 -0.0044237557 0.003034193 0.029038722
0.007058457 0.008512355 0.0039289943 0.022518208 0.030593708 0.01780964 -0.004335189 -0.014351397
-0.0010467868 -0.039847776 0.001616514 0.01405091 -0.017267529 0.021747401 -0.029310504 0.013803801
0.023575116 -0.013077834 0.029364992 0.006174958 -0.008452312 0.78088105 0.020454654 -0.008974778
-0.041934483 -0.04243455 0.023053043 0.00086355815 0.028419653 -0.030329235 -0.01949434 0.0027004725
0.0064809253 0.023718277 -0.107184276 0.069627844 -0.09351627 -3.467347e-05 -0.028749086 -0.02057078
0.051594786 -0.022991031 0.0022705111 -0.02982289 0.007255057 -0.014447369 0.017924573 0.009971496
-0.13726194 -0.008018181 -0.05290764 -0.015451111 -0.0112552205 -0.0053567686 0.009951591 0.028181951
-0.026005086 0.00016655996 -0.021465024 0.008747018 0.020819293 -0.038615275 0.004467444 -0.009646474
-0.009466933 -0.014587549 -0.0070854006 0.0046424707 -0.2678899 -0.020725483 0.016515244 -0.11245025
0.017762532 -0.009803842 -0.021719627 -0.0074050915 0.05703233 0.2186776 -0.014153694 0.014050046
-0.022030393 -0.5198341 -0.009713171 0.027787939 -0.0073077576 0.008451008 0.0137918275 0.062121943
-0.09619632 -0.018336454 -0.26864052 0.0011046982 -0.052185364 -0.011216483 -0.011679356 -0.025805576
-0.0032575333 0.023525013 0.005648288 0.04136508 -0.083642356 -0.004058016 -0.02539256 0.05971533
-0.02023364 -0.025929935 0.00061386364 0.0063776625 -0.10979296 -0.022257462 0.022748824 0.51416737
-0.024234073 0.007885479 0.03996074 0.03770223 0.022062106 0.01142776 -0.029764729 -0.08566358
00000000: 6555 923d 3edb d9bb 8c90 f43e 7243 ef3c
00000010: 57aa 933c 27f5 90bb 50d9 463b 9de2 ed3c
00000020: a14a e73b 6877 0b3c cbbe 803b 1b78 b83c
00000030: a89f fa3c 86e5 913c 330e 8ebb 1f22 6bbc
00000040: 5634 89ba 6c37 23bd 36e1 d33a ca35 663c
00000050: a274 8dbc 9b27 b23c 951c f0bc 5629 623c
00000060: 9a20 c13c 6944 56bc da8e f03c 4d57 ca3b
00000070: 917b 0abc d2e7 473f 8590 a73c f20a 13bc
00000080: 7ec3 2bbd dacf 2dbd bcd9 bc3c 6860 623a
00000090: 55d0 e83c 0475 f8bc 98b2 9fbc 69fa 303b
000000a0: f15d d43b d54c c23c 6e83 dbbd 0b99 8e3d
000000b0: 7585 bfbd 5b6e 11b8 3483 ebbc 0d84 a8bc
000000c0: 0e55 533d b057 bcbc dbcc 143b 224f f4bc
000000d0: d4bb ed3b a8b4 6cbc 8ed6 923c 7c5f 233c
000000e0: 658e 0cbe b05e 03bc aeb5 58bd a826 7dbc
000000f0: d167 38bc d587 afbb ff0b 233c d6dd e63c
00000100: 9e08 d5bc 99a6 2e39 6bd7 afbc a74f 0f3c
00000110: 398d aa3c 0d2b 1ebd a363 923b 3f0c 1ebc
00000120: 321b 1bbc 9d00 6fbc a62c e8bb de1f 983b
00000130: dd28 89be 7dc8 a9bc fa4a 873c 514c e6bd
00000140: bb82 913c 4ba0 20bc 5ced b1bc 69a6 f2bb
00000150: bc9a 693d 05ed 5f3e e5e4 67bc 2a32 663c
00000160: 1579 b4bc d913 05bf fe23 1fbc 88a3 e33c
00000170: ea75 efbb 1976 0a3c 1ef7 613c 9473 7e3d
00000180: 9402 c5bd 5536 96bc 408b 89be 85cb 903a
00000190: 52c0 55bd 57c5 37bc c55a 3fbc 3766 d3bc
000001a0: 577c 55bb 87b7 c03c 4615 b93b 6e6e 293d
000001b0: af4c abbd 1bf9 84bb 0f04 d0bc 1098 743d
000001c0: 05c1 a5bc 046b d4bc b1eb 203a b6fb d03b
000001d0: 22db e0bd 4855 b6bc be5b ba3c 79a0 033f
000001e0: 8986 c6bc 1932 013c dfad 233d a76d 1a3d
000001f0: 97bb b43c 803b 3b3c 29d5 f3bc 6370 afbd
