trained/exp_train_3_3_1111_0.0001_0.001_32_0.95/model/meta_critic_0.pth (torch, 547979 bytes, 7 tensors)

weight f4 [128, 16]
00000000: 3f4c 6e3e b34b 46bd 93a5 dabd fec1 59bd
00000010: db64 d03e 8546 aa3d 6036 b63e 91fc 783d
00000020: 5e79 933e 98ec 443e bf1a 8f3e dbb7 84be
00000030: 3fc5 063e 04ee d7bd 6382 9c3d 7180 573e
00000040: 8a65 973e 98a9 f8bd 6fde 06be ea41 fdbd
00000050: e4a8 583d 2b96 1e3e 5bd4 51bd af5e 3b3e
00000060: 2175 a43c 31cc d43c 4a6e fabe 3390 83be
00000070: d1c8 663e b5bc 7b3e af2d 89be 2b45 2e3e
00000080: 2910 91be 6d72 91be d709 84be 1927 82be
00000090: ae87 8dbe ee16 34be 108e ddbb 2d6f a4bd
000000a0: f8c0 f4bd fd37 4cbe 3a45 22be 4f98 0fbe
000000b0: d1af 2b3e 3bd2 273e a4b5 03be a2f5 49be
000000c0: c657 f23e cde8 513d 096e 113e 8974 80be
000000d0: 8b3e 89bd 425c 58be a797 ccbe 51f0 8cbe
000000e0: b47b 1c3e 1e4a e4bd 19b7 fc3d 1b6f 93bd
000000f0: 69cc 4c3d 4a51 ac3d 0256 2bbe 0c30 563d
00000100: 4ef0 cf3e be3d cdbe 13df a53e d660 9abe
00000110: 4673 8c3e ee7b 5ebd 669e e5bd 6087 4fbe
00000120: 9efb 663e e591 00be 7c18 7c3e f3cf 7bbb
00000130: d649 f4bd 68a4 f73c a9b9 80be 0222 1c3e
00000140: 3f16 c0be 2a22 82be 4b88 bd3e d1fd 5cbe
00000150: 6c6f f4bd 6899 4a3e cf28 6c3c 895b 263e
00000160: 945b d4be 426f 50be f772 84be 318f 74bb
00000170: 2aae 8abd 0152 b73e 55a6 8f3e 6fed d5bd
00000180: 33cb a1be 3d05 6abc 653d ce3c 15b6 21be
00000190: 7066 b8be b860 cebb 03cc 2d3e 895b 87bd
000001a0: a70b 71be 1676 3cbb 12ef 573e 1241 d53d
000001b0: 21cb a93b 47d0 19be 1be4 f63d add8 2a3e
000001c0: a89d 9c3e 1e9f e7bb 8a01 00be 0286 72be
000001d0: cb94 843d e2df 59be d0bc 82be f0da 1d3e
000001e0: a1a9 913e 5cc2 663d 4376 8dbe dec8 6abe
000001f0: 3fc3 0a3e 99aa bdbd bd65 513e 9938 2cbe
00000200: bf56 5abe 5974 d33e 7186 033f 7f1a b5bd
00000210: d349 cebd c9a2 4a3e efaf 6cbc 6612 9fbe
00000220: f1d6 4cbe f447 413e 1ca9 ff3d 34f4 89bd
00000230: 614b aabe 171b d83d cc48 9d3e aac0 3dbe
00000240: 9471 70bc aa07 30be 5a42 393d ab3c d13d
00000250: dfde 983e 1455 0dbe 446c a83e 61a8 87bd
00000260: 1e1b 79be 3572 be3c ddf1 5abe e682 80be
00000270: 40fa dbbc 5061 1fbd c99e 92be 2b57 0dbe
00000280: 0983 b6be 8239 0ebe ddcc 4bbe 088e 1bbe
00000290: 2b35 48be 5d55 3b3e 80eb ec3d 3892 f03c
000002a0: 82c4 06be c678 5f3e fb2c 4f3d ba05 353e
000002b0: 4673 773d 02c8 eb3d bdbd f43d 03e6 fd3d
000002c0: 6b25 663e 41b9 893e 890d d8bd fb9f 003e
000002d0: fd5f 513e aaa8 733e dc2a 973e fc54 aa3e
000002e0: 1065 33bd 55e5 1dbe 5ce7 bdbe 7f27 33be
000002f0: 8714 643e cdf7 653d 056c 6e3d 5638 8d3d
00000300: 884e a3be 805a 88be 5d06 c0be 0ba2 103e
00000310: 9f6d f13d 82fd 203e eef2 3c3e 999a 29bd
00000320: 6e16 40be 1cf8 5abe 676e 9abd 539d 9c3e
00000330: b517 0abe d55f 07be ead9 2bbe 3a77 4abd
00000340: 6422 5b3e d4e6 c23d 0d16 66be 38cf f13d
00000350: a314 6f3e b251 903d 157b 26be fabd 5dbe
00000360: 156b ad3e c080 823e fc11 36be 0645 90be
00000370: 151b 30bd f921 1b3e 5949 dfbd dcf1 51be
00000380: 6c20 273e 8ee1 54be 23a4 1a3d c6dd d3be
00000390: ad9b 31bc 441e c73e 83a5 cebd e87c 833e
000003a0: f929 09be 67bf 02be 5974 763e d865 a83d
000003b0: 63d7 b33d d1a2 a33e e945 443e 0901 6abe
000003c0: f3b0 cdbe 5300 f8bd ed8c 9cbe c18f acbe
000003d0: 1a9b a13e 5b38 6dbd d045 a7bd 443d 30bd
000003e0: 0c66 8fbd 4731 1a3e 0ace 923d e808 38bc
000003f0: fa7c 00bd 5149 6b3d f106 7f3c f0e4 97bd
0.23271273 -0.048412036 -0.10676112 -0.05316352 0.40701947 0.08314232 0.3558836 0.06078774
0.28803533 0.19230878 0.27950093 -0.2592152 0.13161181 -0.10543445 0.07642057 0.2104509
0.29569656 -0.121417224 -0.13170789 -0.12366088 0.05289544 0.15486972 -0.05122791 0.18297838
0.020075383 0.025976272 -0.4891227 -0.25695953 0.22537543 0.24583705 -0.26792666 0.17018573
-0.28332642 -0.28407612 -0.25788757 -0.25420454 -0.27642578 -0.17586872 -0.00676132 -0.080290176
-0.11950868 -0.19943233 -0.1584672 -0.14022945 0.16766287 0.1638879 -0.12862259 -0.19722608
0.4733259 0.051247407 0.14202131 -0.2508891 -0.06701382 -0.21128944 -0.39959452 -0.27527097
0.15281564 -0.11146949 0.123396106 -0.07198926 0.04999963 0.08413942 -0.16732028 0.052291915
0.40613025 -0.40086168 0.32396755 -0.30152005 0.27431697 -0.054317407 -0.11211853 -0.20266485
0.22556922 -0.12555654 0.24618715 -0.0038423508 -0.119281456 0.030229762 -0.25141647 0.15247348
-0.37516972 -0.2541669 0.37018046 -0.21581198 -0.119353145 0.19785082 0.014414026 0.16245855
-0.4147612 -0.20354941 -0.2586896 -0.0037316794 -0.067715004 0.35804752 0.2805659 -0.104456775
-0.3160034 -0.0142834755 0.02517576 -0.15792115 -0.36015654 -0.006298151 0.16972356 -0.06609256
-0.23539601 -0.0028756908 0.21087292 0.10412802 0.0051816856 -0.15020858 0.120552264 0.16684218
0.30589032 -0.007068529 -0.12500587 -0.23683932 0.064736925 -0.21276811 -0.25534678 0.1541555
0.2844973 0.0563377 -0.2762929 -0.22928187 0.13551043 -0.092610545 0.20448966 -0.16818465
-0.21322154 0.41299704 0.51377016 -0.08842944 -0.100726746 0.1978866 -0.014446243 -0.31068724
-0.20003869 0.18875104 0.12483427 -0.06736031 -0.33260635 0.10552042 0.30719602 -0.18530527
-0.014675517 -0.17190424 0.045229293 0.102166496 0.29857537 -0.13801986 0.328951 -0.066239126
-0.2432675 0.023247818 -0.21381326 -0.25099868 -0.026852727 -0.038911164 -0.28636768 -0.13802783
-0.35646847 -0.13889125 -0.19902368 -0.151909 -0.19551532 0.18294282 0.115683556 0.029366598
-0.131609 0.21823415 0.050580006 0.17677966 0.060412668 0.11512758 0.11950252 0.12397387
0.22475211 0.2689915 -0.105494566 0.12561028 0.20446773 0.23794809 0.29524887 0.33267963
-0.043797553 -0.15419514 -0.37090576 -0.17495535 0.22273456 0.056144524 0.058208484 0.06895511
-0.31895852 -0.26631546 -0.37504855 0.14124314 0.11788487 0.15721706 0.18452045 -0.0414072
-0.18758556 -0.21383709 -0.07540589 0.3058878 -0.13485606 -0.13220151 -0.16782346 -0.04943011
0.21399838 0.09516683 -0.22469349 0.11807102 0.23347716 0.07046832 -0.1625789 -0.21654502
0.3387076 0.25488853 -0.17780298 -0.2817766 -0.042994577 0.15149678 -0.10902662 -0.20502418
0.16320962 -0.20789167 0.03775419 -0.41380137 -0.010840339 0.38890278 -0.100901626 0.25681233
-0.13394918 -0.12768327 0.2406782 0.0822255 0.08781316 0.31960157 0.19167294 -0.22851957
-0.40174064 -0.12109437 -0.30576268 -0.33703426 0.31563646 -0.057915073 -0.081676126 -0.043027177
-0.07001886 0.1505786 0.07168205 -0.011232592 -0.031369187 0.057442967 0.01556562 -0.07416713

bias f4 [128]
00000000: 7c57 7a3e 9897 043e 0b11 403f 9347 413c
00000010: 5917 ab3d ad9f 55bd 6575 a53e b2c4 273e
00000020: 646a 03bc 18e4 27be bd98 123d 6baf 043f
00000030: 68fb 333f 8134 3d3d ccac e93a b77f ca3e
00000040: b821 e13e 5fcc 51bb 57b4 653e 7143 2b3e
00000050: 46b2 f83e 25c2 053f 7ad0 753e 8a76 9bbe
00000060: dd48 ff3e 9ceb 2d3b ae35 b83d 8759 1d3d
00000070: f77b 213e 38aa a23e 4e52 a43e 17c0 173f
00000080: 937a cd3e d8be 8bbe ae20 1c3f 0b9f 293f
00000090: 46eb 85be 6040 d23e e5a2 2f3f f193 02be
000000a0: 432c 923e 1eab 0a3f cb1d 053f 32b2 8e3c
000000b0: faaa 7b3e e6d3 34bd f13f b03e 5713 033e
000000c0: 7667 e13e cd33 b43e 0402 0c3f d7e3 d5be
000000d0: 8166 ac3e 5c67 973e 0924 b33e de2c 1f3e
000000e0: aa3c 493e 970a c3be 27dd 9c3d ed08 63bd
000000f0: 0fea 143f 600f c4bd 1179 a43a da9b a33d
00000100: 0283 85bc 0dd1 f8bb c8c1 af3e 2fea 3cbe
00000110: ac10 c53e 80f4 023f c365 8b3e 5599 ec3c
00000120: 2425 323e cfd4 0fbe 6535 d9bc 2622 d23e
00000130: 211b f2bd 09f0 e4bd 44ff 203f e803 1d3f
00000140: c08c fb3e 4d34 d63c b608 b33e 0364 4d3e
00000150: ee11 e0bd ce21 14be 5245 ea3e 569d b2be
00000160: 74b9 69be ab7d ec3d adfd 1b3f 4cdd e73e
00000170: 8abb 5d3e 8eed 823e d9e3 273d 5269 873d
00000180: 1260 60be f96b d43e 7160 a2be 3b6e 8c3e
00000190: 3751 17be 2bb9 4b3e 7bc7 113f 179e 5b3c
000001a0: 1409 c03e fc37 133f 9844 203e 77ba a13e
000001b0: 7c13 fbbe 6834 9abc b88a c23e 3cb1 77be
000001c0: 201e 883e 16f4 d73d e3a4 073e 2a26 93bc
000001d0: bdda 07bd 25cd 903e eb58 303f 2184 cb3d
000001e0: 8e60 2ebe 7e28 6bbe 6e63 b03e a9eb 1abd
000001f0: 319d cf3c 23ac ebbe e594 9a3e 0c2e 093f
0.24447435 0.12948453 0.75026006 0.01179685 0.083540626 -0.05215423 0.32316127 0.16383627
-0.008020971 -0.16395605 0.035790194 0.51830167 0.7030549 0.04619265 0.0017827987 0.39550564
0.43971038 -0.0032012684 0.22432075 0.16724946 0.48573512 0.52249366 0.24005309 -0.30363876
0.49860278 0.002653814 0.089946136 0.038415458 0.15769945 0.31770492 0.32094043 0.5927748
0.4013258 -0.2729404 0.60987365 0.66258305 -0.26156062 0.4106474 0.6860793 -0.12751748
0.28549394 0.54167354 0.51998585 0.017418955 0.24576941 -0.044147395 0.34423783 0.12800346
0.44024247 0.3519577 0.54690576 -0.4177539 0.33671954 0.29571044 0.3498843 0.15544459
0.19652048 -0.38094017 0.07659369 -0.055428434 0.58169645 -0.09573245 0.0012548288 0.07988711
-0.016297821 -0.00759328 0.3432753 -0.18448709 0.38489282 0.5115433 0.27226076 0.028881708
0.1739698 -0.14046024 -0.026514718 0.41041678 -0.11821581 -0.111785956 0.62889504 0.61334085
0.4913082 0.026147986 0.34967583 0.20057683 -0.1094092 -0.1446602 0.45756012 -0.34885663
-0.22824651 0.11547407 0.60933954 0.45286024 0.21653572 0.25571865 0.040988777 0.06611885
-0.21911648 0.41488627 -0.31714204 0.2742785 -0.14777075 0.19894855 0.5694501 0.013404391
0.37506926 0.575073 0.15651166 0.31587574 -0.49038303 -0.018823817 0.3799646 -0.24188703
0.26585484 0.105446026 0.13246493 -0.017962534 -0.03316759 0.28281513 0.6888568 0.09937311
-0.1702902 -0.22964665 0.3445086 -0.0378224 0.02534351 -0.46029767 0.30191723 0.53585887

weight f4 [256, 393]
00000000: c21d fc3c e47e 1e3e 2d42 1a3d 15fa 86bd
00000010: 8c42 14bd 874a 15be b873 9e3c 9b87 edbd
00000020: 251b e73d 8c1e aebb e900 083d 3b59 563d
00000030: 2398 c6b9 c7a0 a13d 89a2 efba 8b07 5f3d
00000040: 45d7 d03d 99ce c23c ad95 d5bd 547f 51bd
00000050: b012 1f3d 0d4d 003e 0fb7 303d 472a 1bbc
00000060: 97f0 613b c4ad bf3d 3b5e 423d f0f3 1f3e
00000070: 88bd 38bb 6931 173e 5b2e 123d df88 ca3d
00000080: a717 4abc 6e3b d53c fd67 27be ee9c 8b3d
00000090: 8b58 533d 3359 63bd d94c 8a3d 4be6 eebd
000000a0: 0df1 0f3e 5d4f c43c 6322 93bd 9654 ab3d
000000b0: 8556 973d c0b2 0abc f587 e4bc 4237 ca3c
000000c0: ec3d ac3d b132 5c3d 0ace c03d b80a 30bb
000000d0: aa8d 5d3c 0817 c43c da76 893d eccd 643c
000000e0: d927 82bd 7197 3bbd 7904 013d 4f5d 88bc
000000f0: 5009 363d a740 f6bc f627 e63d 7d5d 453d
00000100: 5417 a7bd d76d 143d 5f2f 263c 7da7 1b3d
00000110: 8981 553d 5e54 223d 699e a0bd 5e3e d73c
00000120: 1a9b 963d cd63 00be ec95 153d 86f1 023e
00000130: 74a5 923d 2dae 1f3d e033 783d 1108 b23d
00000140: 5698 a53d d133 f53c ea6b cd3d f891 853d
00000150: 70f3 edbc b4cb bfbd 1958 e83d 53c4 d2bd
00000160: 724d 303c f1c5 543d 5c35 e13a 057e a7bd
00000170: 0242 2dbc 3a8b ce3d 4187 163e 314f 20be
00000180: ee2d 893d 8ac3 213e 765a 1fbb 54b9 623d
00000190: b034 c6bd 676a eebd ee9c 7bb9 183f 93bd
000001a0: c4b0 6f3d a67c b83d 2794 e03c c07c 133c
000001b0: 0931 34bd 1e4b aabc d4a4 393d eba8 f1bd
000001c0: dba1 f83c a89f 823d c08a 2c3d 067c a13d
000001d0: 0c6a 33bd 84fb 1abd 5f6b 063e 9fc9 df3d
000001e0: 33b9 633c ef88 05bd e6e2 063e ff1b 743c
000001f0: 6fd1 44bd e49c 33be 9f85 163e 7bc9 c4bb
00000200: 975c 54be 637b 2abe 5227 793e 2c49 79bc
00000210: 0222 f63b b69f 51bc 9fb3 8bbd 7ad1 72bc
00000220: a54d 113d de7a d13d 4369 d73d 9f0d b1bc
00000230: 0843 b93d e51d 28bd 1138 793d cf79 d8bc
00000240: 7bdb 173d ea5d c33d 531a 913d 3cfc 4ebd
00000250: 0afa 333d 5638 97bd bcda 3f3c 571f 333d
00000260: 83ef 7e3d de8d 963c 0aae 4abd bbbe f33d
00000270: 547a 923d dd42 373d 491e 6a3d 8dc2 5e3d
00000280: 2e78 be3d 4ccb 403d a077 9b3d 7935 943d
00000290: 86c6 193e 1058 1e3d 812a c93d 46f6 f9bd
000002a0: 3c37 443c a6bc 273d 3f48 cdbc 045a 163d
000002b0: c684 de3d 1e80 9c3c 282f d13c 38d0 2c3d
000002c0: d76e 93bc 4603 8a3d e6d5 9a3d a283 383d
000002d0: 643f 023e ed94 003e 49c5 08be 1f3d c33d
000002e0: 0471 303c f413 88bd 6c1c a53d b37b c1bc
000002f0: 8b01 40be 54db 0c3c 6927 a43c bbf5 263d
00000300: bfe1 583d 68b0 47bc 3019 83bc d4fe dc3c
00000310: a517 a5bd 6252 9a3c 8225 b3bd aee0 163d
00000320: 87d1 be3d aff0 10bd f114 3ebd 57dc 4b3d
00000330: 6427 093d 6469 36bc 1063 a83d b4de 853d
00000340: fd66 9e3d c0f6 733d 4002 273d 2e49 333d
00000350: 038c 8b3d 4e86 49bc 737a e13d 3f30 d93c
00000360: d3d5 3ebd af53 bb3d 347a 083d bf31 11be
00000370: e58c 833d e025 953d a244 443d 6309 d53c
00000380: dca6 fe3d 5a7e b93d 76e9 8e3d 3840 19be
00000390: a34e 153e 3fdd 2abc 3af1 383d d646 ba3d
000003a0: 36d8 11bc 28b9 8fbd 07bf 96bd ba6d 7e3d
000003b0: c9f2 a33d 378e adbd aee3 213e a4ab a2bd
000003c0: f3c7 0ebd 8427 76bd d687 503d 76c7 f0bd
000003d0: eeff 853c 7f10 0e3c d423 923d 7116 f83d
000003e0: 69e4 803d 8cf2 083e 9ecc 9bbc 8d3c 2abb
000003f0: 9447 ba3c 5ded d73d 5fff f7bc f88e c1bd
0.030775908 0.15478092 0.037660766 -0.06590668 -0.036196277 -0.14579211 0.019342288 -0.1159813
0.11284474 -0.0053137 0.033203993 0.05233119 -0.00037878854 0.07891994 -0.0018282692 0.054450553
0.101973094 0.023780154 -0.10428939 -0.05114682 0.03883618 0.12529393 0.04314333 -0.009470529
0.0034475678 0.09359315 0.047453146 0.15620399 -0.0028189141 0.14764942 0.03568874 0.09889387
-0.012334741 0.026029315 -0.16348262 0.06817041 0.051598113 -0.05550499 0.06752939 -0.11665019
0.14056797 0.023963625 -0.07184293 0.08365743 0.07389549 -0.008465469 -0.02789686 0.024684552
0.08410248 0.05375928 0.09414299 -0.0026861858 0.013522545 0.023936763 0.06712122 0.013965111
-0.063552566 -0.045798723 0.031498406 -0.016646056 0.044442475 -0.030060126 0.11238091 0.04818486
-0.08158746 0.036237564 0.01014313 0.038001526 0.052125487 0.03963124 -0.07842714 0.026274856
0.07353802 -0.12538071 0.03651993 0.12787446 0.07160464 0.038984466 0.060596347 0.08692945
0.080856964 0.029931935 0.100303486 0.06521982 -0.029046744 -0.09365025 0.11344928 -0.10291352
0.010760652 0.051946584 0.001718204 -0.08178333 -0.0105748195 0.10085149 0.14700033 -0.15655209
0.066982135 0.15797248 -0.0024315394 0.055352524 -0.09678018 -0.116413884 -0.00023995686 -0.071897686
0.058518186 0.0900815 0.027414395 0.009001911 -0.043992076 -0.020787772 0.045323208 -0.11799797
0.030350616 0.06378108 0.04212451 0.07884984 -0.043802306 -0.03783752 0.13126896 0.10927128
0.013899135 -0.032601293 0.13172492 0.014899253 -0.048051294 -0.17540318 0.1469941 -0.0060054637
-0.20738445 -0.16648631 0.24331406 -0.015215199 0.0075113783 -0.012794426 -0.068213694 -0.014820451
0.03547444 0.10228513 0.10518124 -0.02161294 0.09045988 -0.041044135 0.060844485 -0.02642527
0.037074547 0.09539397 0.07085099 -0.05053352 0.043939628 -0.07383792 0.011709865 0.04373106
0.062240135 0.018378194 -0.049482383 0.11901613 0.071522385 0.0447415 0.05715779 0.054384757
0.09300266 0.04706888 0.07591176 0.072367616 0.15017137 0.0386582 0.0982256 -0.12205176
0.0119760595 0.040951394 -0.025058864 0.03670694 0.10865168 0.01910406 0.025535181 0.04219076
-0.017997188 0.067389056 0.07560329 0.04504741 0.12719494 0.1255681 -0.13356508 0.09533142
0.0107691325 -0.06644431 0.08062062 -0.023618555 -0.18750589 0.008597214 0.020038323 0.04076169
0.052949663 -0.012188055 -0.016003221 0.02697698 -0.080611505 0.018838111 -0.087473884 0.036835365
0.09317308 -0.035385784 -0.04640669 0.04977068 0.03348483 -0.0111335255 0.0822202 0.06536618
0.07734487 0.05956149 0.04077363 0.04377096 0.068138145 -0.012300087 0.110096835 0.026512263
-0.046590637 0.09146821 0.033319667 -0.14179133 0.06423358 0.07282615 0.047917016 0.026005452
0.1243417 0.09057303 0.06978123 -0.14965904 0.14580779 -0.010428726 0.045151927 0.09095542
-0.008901646 -0.070177376 -0.07360654 0.062116362 0.08005292 -0.08474391 0.15809509 -0.07942894
-0.034858655 -0.06009628 0.050910793 -0.11756794 0.016357388 0.008670925 0.0713574 0.12113655
0.06293566 0.13373774 -0.019018468 -0.0025976032 0.02273921 0.1054332 -0.030273138 -0.09451097

bias f4 [256]
00000000: 3100 cc3e 2b74 bf3c 1303 c73e 4328 983e
00000010: dc50 d13e 7b0e b23e 244e d63e 964a 2aba
00000020: d7cb a73e a048 cf3e 0e97 bf3e 84ff af3e
00000030: 6fcf dc3e 5568 aa3e a137 d93e 58ce 9b3e
00000040: 9544 ab3e 0a3a e8bc 204e d03e 33ba cb3e
00000050: 6683 b03e d602 ca3e ae6f d33e 2e8d a83e
00000060: 4a14 d03e b688 bd3e d236 c03e 8129 c93e
00000070: e58a d23e addf b33e c39a a33e 2916 b23e
00000080: fcc9 be3e 9849 2fbd 5812 a63e eaaf d63e
00000090: a86a cb3e 41fb d13e 06ad ad3e 6201 d53e
000000a0: bdbc b03e 4d7d d33e 353a 903e d308 d13e
000000b0: 1edc 9fbc 6a76 d63e 652d ab3e c862 c43e
000000c0: 63b4 ae3e 277d b03e 90d5 ab3e d275 b23e
000000d0: ac7f ce3e 432f d03e 231d bf3e b3cc a93e
000000e0: 31ff df3e 7cd7 b43e 923c 6dbd ea78 b63e
000000f0: 5385 a53e 23ff c63e 4724 b03e 440d ab3e
00000100: 846e 063f 59a7 b03e 3752 a03e 8346 103d
00000110: 8cc3 043d 4b18 c93e c4d4 ec3c 661b c33e
00000120: 57bb b63e e0f2 b13e b2be c23e 61f5 ab3e
00000130: dd80 a23e 4f3a a93e 5cf1 d03e f903 c23e
00000140: 7074 c93e 4282 a93e c706 c93e 4a68 d93e
00000150: 33b6 b43e cbbe bc3e 1cb2 c63e 449c b43e
00000160: 2128 973e 63fa a33e bcca cb3e 4fd1 c13e
00000170: d24b d63e 6ae4 b83e cb49 c53e 8d4a b03e
00000180: 8069 c03e c7aa 993e 5ae7 e43c 85ee a83e
00000190: b776 b93e e706 d13e 397d 173d 8ab6 ce3e
000001a0: 1903 b03e 9bc7 973e 8854 c33e 127a dd3e
000001b0: 8cdd cd3e 0552 bb3e 1a91 63bc 3597 ab3e
000001c0: 36f8 bd3e 956a c83e ba45 af3e acf3 b03e
000001d0: bccd 973e 4683 e6bc 5941 a73e ce20 b33e
000001e0: 3fad 253d e148 b03e d2ae 843e dd21 d13e
000001f0: bdf6 ac3e 6886 b53e 924a 6cbd daf4 d03e
00000200: 411e ce3e 8e2e 07bc 7363 a03e ca23 7bbc
00000210: 67c6 c23e 1bc2 d13e b04b a23e 0274 d13e
00000220: 171f d83e 129d d33e 0ce5 d13e 07b8 b53e
00000230: 1d9a d03e a7bc 8b3e 2388 cf3e 854d 3bbd
00000240: 1622 ba3e 27cd cd3e b012 ca3e 277f c03e
00000250: e696 b53e 6766 953e 83ec a53e d7db aa3e
00000260: 0b53 4dbd cd0d d53e 5db8 033d ad23 ecbc
00000270: e2ec 69bc 53fe bf3e afe1 c93e dfda b3bc
00000280: 35a2 983e 0028 d53e 1d26 bf3e c9a9 89bc
00000290: 2d0e 163d 9bf2 be3e 571a ba3e 4632 c8bc
000002a0: 5481 993e 951b d53e e7b8 31bd 7b6e d33e
000002b0: 1f24 b23e 128f b23e b70c cd3e c875 15bd
000002c0: 0fde e1bc fd17 853e 48e3 a23e 4341 b73e
000002d0: 4cd3 c93e 36fa 41bd 461d 26bc c7f1 773c
000002e0: 0ae5 b43e fff8 ca3e 9a0f b93a 81ee 893e
000002f0: c492 bc3e 9190 b73e bdda be3e 5861 b13e
00000300: f19e b63e 4f2e a83e 9320 63bd c7dc 5c3e
00000310: 27e4 bb3e 6a27 9b3e 44fe 7a3e 86c6 40bb
00000320: f903 c23e 0042 c53e c94a ae3e 6ce5 ab3e
00000330: 91d0 bd3b 14c0 a33e 859b cb3e 7e53 c43e
00000340: 503b c63e bc35 c63e 76cb 69bd 8e9d cf3e
00000350: aa30 53bc 1ab4 a13e 8c03 9d3e 8775 b83e
00000360: ec4e 47bd c4eb 003c ba58 ae3e daf6 a43e
00000370: 41f4 b53e a7dc a33e 0a19 ecbc 1fe7 b13e
00000380: b4cf 5c3b 7c05 dcbc 9b34 a73e 7e03 9c3e
00000390: 7602 e7bc 98b6 a23e 9f28 193d 68a1 c13e
000003a0: 0767 b23e 6d6e 02bc 28da a23e 0c39 4fbd
000003b0: 88af b53e 2b61 a83e 98d7 a63e c379 2cbd
000003c0: 4df6 c43e 4da6 cb3e 0952 40bd 56ec ad3e
000003d0: a9c4 baba 8280 37bd e914 88bc 82a2 d33e
000003e0: 5ecd c83e 92de c13e e614 d13e 1161 b73e
000003f0: 18a4 50bd 4cf6 a13e 9e95 823e 4a3e ad3e
0.39843896 0.023370823 0.38869533 0.29718217 0.40882003 0.34776673 0.41856492 -0.00064960995
0.32772705 0.40485096 0.37419933 0.3437463 0.4312701 0.33282724 0.42425254 0.30430865
0.3345076 -0.028347988 0.40684605 0.39790496 0.3447525 0.3945529 0.41296142 0.32920212
0.4064048 0.37018365 0.37541825 0.39289477 0.41121593 0.3513159 0.3195401 0.34782532
0.37263477 -0.042794794 0.3243587 0.41931087 0.3972981 0.41012004 0.3392107 0.41602618
0.34518996 0.41306534 0.28169408 0.40827045 -0.01951414 0.41887218 0.3343307 0.38356614
0.34122 0.34470484 0.33561373 0.34855515 0.4033178 0.40661058 0.37326917 0.33163986
0.43749383 0.35320652 -0.057919092 0.35639125 0.3232828 0.3886653 0.34402677 0.33408558
0.52512383 0.34502676 0.31312725 0.035223495 0.03241305 0.39276347 0.028910048 0.3810684
0.35689804 0.3475561 0.38036114 0.33585647 0.3173894 0.33052298 0.40809143 0.37893656
0.39346647 0.3310719 0.39262983 0.4246238 0.35295257 0.36864313 0.38807762 0.3527547
0.29522803 0.32026967 0.39803112 0.37855002 0.4185472 0.36111766 0.38532862 0.34431878
0.3758049 0.30013105 0.027942348 0.32994476 0.36223385 0.4082558 0.036984656 0.4037364
0.34377363 0.29644474 0.3815043 0.43257195 0.4020809 0.36586013 -0.013889575 0.335138
0.37103432 0.39143816 0.34232885 0.34560907 0.2964915 -0.028138768 0.32667044 0.34985965
0.040448423 0.34430602 0.25914627 0.40846148 0.33781996 0.35454106 -0.057688303 0.40811807
0.40257457 -0.008250846 0.31325874 -0.015328357 0.38041994 0.40968403 0.3169837 0.4090882
0.4221122 0.41330773 0.4099506 0.35491964 0.4074258 0.27292368 0.40533552 -0.045728225
0.3635413 0.4019558 0.39467382 0.3759701 0.3546669 0.2917969 0.32407007 0.3337085
-0.050128024 0.41612092 0.032158244 -0.028825605 -0.014277669 0.3749872 0.39429995 -0.021954952
0.29811254 0.4163208 0.37333766 -0.016804593 0.036634613 0.37294468 0.3634822 -0.024438035
0.29981482 0.41622606 -0.043389227 0.41295227 0.34793183 0.3487478 0.40048763 -0.036489278
-0.027571706 0.25994864 0.31814027 0.35791978 0.3941902 -0.04735776 -0.010138815 0.015133328
0.35330993 0.39643094 0.001411903 0.26939777 0.36830723 0.35852483 0.3727626 0.3464458
0.35668138 0.3284783 -0.055450987 0.21568595 0.36697504 0.30303508 0.24511057 -0.0029415204
0.37893656 0.38526917 0.34041432 0.33573472 0.0057926853 0.3198248 0.3976709 0.3834495
0.38717127 0.3871287 -0.0570788 0.40549892 -0.01289002 0.3158272 0.3066677 0.36027166
-0.04865925 0.007868711 0.34052068 0.32219583 0.35537913 0.32004282 -0.028820533 0.34746644
0.0033693137 -0.026858084 0.32657322 0.30471414 -0.028199416 0.31779933 0.037392255 0.37818456
0.3484423 -0.007960898 0.31807065 -0.050591514 0.35485482 0.32886633 0.3258636 -0.04210831
0.38469163 0.39775315 -0.046953235 0.33969373 -0.0014249283 -0.04480029 -0.016611533 0.4133492
0.39219183 0.3786512 0.40836257 0.35816243 -0.050937742 0.31633222 0.25504774 0.33836585

weight f4 [128, 256]
00000000: d118 04bb da30 0abd 236f f13c ecfb 91bd
00000010: e30a 88bd 1a6f d53c ce4d 4dbc aea8 8fbd
00000020: 1218 84bd 71cb 5abd c363 193d 08f3 153d
00000030: e60f f9bc d5fb 1b3d dbde 14bd 3370 30bd
00000040: 0607 113d da23 3c3d 20ef 17bd ecfe 3ebd
00000050: e4b3 be3c e4d9 423d 44b0 eabc eea1 fd3c
00000060: ab84 95bd 458c 173d 48f8 8fbb b79d 1b3d
00000070: 392a edbc 72d9 dd3c 4c31 64bd b705 8f3c
00000080: 2c26 a73c cf64 9b3b 01ca 62bc 907c 1d3d
00000090: 78ce 7cbd e5df c73c 8566 c9bc 7fda 33bd
000000a0: ec2a 4fbc efc0 993c f0c3 a9bc 84cf 80bd
000000b0: 0078 27bd b015 44bc 4f26 77bc ff55 1f3d
000000c0: 8368 31bd 39c6 5ebc b167 b33c ffce 193d
000000d0: 455c 3fbd cd25 263d 6bec f33c 7e4b e73c
000000e0: b26e 3ebc d62b 8bbc 8466 c53c 4f30 09bd
000000f0: 0124 7fbd d901 9abc 5646 cc3c 2d8b 3b3d
00000100: 8cb0 60bd 54fd 6a3c 62d7 293d fb9e a7bc
00000110: f225 1e3d ca8a 66bc ef6c f13c e86c 8e3a
00000120: abaa ce3c 8a3d 6d3c 0e0d 9bbd 04f9 e63b
00000130: 0661 013d 0dad c2bc 2447 c3bc bf77 fc3c
00000140: 26c1 a53b 382d 303d 8845 f63c be8d 793c
00000150: e00a 9d3b c9e8 0fbd 4abd e33c 1a53 20bd
00000160: bc26 c43b e194 c7bc 5022 85bd eb18 3e3d
00000170: e668 c93c fcba c1ba a60b d7bc c4d0 f1bc
00000180: ce51 15bc 4f7d 223b f557 103d 16a4 0c3d
00000190: 1340 b23c 8e34 74bd b0bc 4bbd df48 7dbd
000001a0: 928a 94bd 04d6 42bc dcb3 51bd 69e5 333d
000001b0: 908a 803c 4cfd 8bbd 40ba 4bbb d42a 0e3d
000001c0: c5c5 e5bc 6b27 7abc 239d 14bc 22d4 30bd
000001d0: 7e3f 4cbd 1746 76bd cd93 91bc a533 5abd
000001e0: 11f8 55bd a286 b63c 4f5b a03b 9c4b 87bd
000001f0: c191 aeb8 83b2 65bd e604 34bd bb35 a4bc
00000200: 0b14 bdbc a8ee 92bd a541 88bc fd64 47bd
00000210: a6fe e13b 188c 203c 1ab9 f6bc cfca 5abd
00000220: b9f4 ac3c ab0d 7bbd ebd4 243d c4bf 85bd
00000230: 206a 8dbd 43d9 6ebd 9346 89bc 2428 213d
00000240: 7e3b 053d 5c86 3dbd f885 69bb b2bb 4cbd
00000250: 1898 8fbc e1b9 77bd 0f67 303d 2de6 76bd
00000260: 4c51 c1ba e6c2 e8bb 2375 a63c c5ef 1e3c
00000270: 4e2e 17bd 3b9e 48bd 5656 f13c b4d6 783d
00000280: 4516 7a3b 127f 1bbd a7db dbbc 4502 483d
00000290: 59b8 0ebd d59b 11bb be00 e33c a0c5 ae3c
000002a0: dff3 513d 2669 e1bc 23c2 ae3c f087 90bd
000002b0: 9950 d2bc a2c2 85bd c353 3d3d c82e 413c
000002c0: b945 27bd 86b8 80bd 970e 413d 408c 8ebd
000002d0: d4fe 4abd 9962 473d cf78 023d 3a63 ff3b
000002e0: bd39 18bd 9e2b fabc bbce fdbc e7b9 67bd
000002f0: 870d ccbb 089c 1ebd 26af 2a3d 2b4e 8fbc
00000300: b3e7 353d b4e9 7ebd 97ef 6bbd ef03 1d3d
00000310: 4d82 f63c 46dc c8bc 15bb 81bd c860 86bd
00000320: 90f3 0c3d 7bc0 02bd 1981 53bd f01b 20bd
00000330: 855c 8fbd d961 10bd e220 443d 61fe 24ba
00000340: 2720 a93b 909d d33c c642 44bc 3e62 2cbd
00000350: aee2 8539 707d 8fbd a477 37bd 8aac 80bd
00000360: e871 23bc eb3f d53b 0834 8cbd 1c08 fe3c
00000370: fe96 1cbc f48b d93b 9ecc dabc b050 053d
00000380: ebfa fa3c 9c23 ffbc 00a4 88bc 6b33 d13c
00000390: 8e50 1f3d 8613 893c db78 b23c f02d 96bd
000003a0: 0806 2c3c fdbc 23bb f951 733c fd1e 013b
000003b0: f6a2 8ebd 0a33 04bd 1a5b 35bd 123c ee3b
000003c0: 85b6 323d e732 f3bb f9a2 2fbd 7335 25bd
000003d0: 59b6 08ba 32d4 fe3b f47d 11bd 91bd 5bbd
000003e0: 2edb 91bb 0aed 033d 3272 313b a550 e8bc
000003f0: d535 503d 9375 99bd 093f 113b a6bd f2bc
-0.0020156393 -0.033737995 0.02947194 -0.071281284 -0.066427015 0.026053954 -0.012530757 -0.07014595
-0.064499035 -0.053416673 0.037448656 0.036608726 -0.030403089 0.038081963 -0.036345344 -0.04307575
0.03540709 0.04593263 -0.03709328 -0.04662983 0.023279138 0.047571078 -0.028648503 0.030961003
-0.07300695 0.036999006 -0.004393611 0.037992205 -0.028950797 0.027081225 -0.055711076 0.01745878
0.020403944 0.004742242 -0.013842107 0.03844887 -0.06172034 0.024398753 -0.024585018 -0.043909546
-0.012644511 0.018768756 -0.020723313 -0.062895805 -0.040885925 -0.011968061 -0.015084817 0.03890037
-0.04331256 -0.013597065 0.02190003 0.037550922 -0.046718854 0.040563393 0.029775819 0.02823424
-0.0116230715 -0.016988676 0.024096735 -0.033493336 -0.062290195 -0.01879971 0.024935883 0.045787025
-0.05485587 0.014342625 0.04146517 -0.02046155 0.038610406 -0.014071176 0.029470889 0.0010866197
0.025227865 0.014480004 -0.07570849 0.007048728 0.03158667 -0.023764158 -0.023837633 0.030818818
0.0050584255 0.043011874 0.030062452 0.015231548 0.004792556 -0.03513411 0.027800221 -0.03914175
0.005986063 -0.024362983 -0.06500685 0.046410482 0.024586152 -0.0014780457 -0.026250672 -0.029518493
-0.009113742 0.0024793928 0.035240132 0.034336172 0.021759069 -0.059620433 -0.049740493 -0.061837073
-0.07252993 -0.011891846 -0.051196918 0.043919954 0.015691072 -0.06835422 -0.0031086355 0.034708813
-0.028048405 -0.015268187 -0.009070667 -0.043171056 -0.04986524 -0.060125437 -0.017770672 -0.05327191
-0.052238528 0.022280995 0.0048936973 -0.06606218 -8.324115e-05 -0.056078445 -0.043949984 -0.020045152
-0.023080846 -0.07174426 -0.016632864 -0.048680294 0.0068968115 0.009799026 -0.03011756 -0.05341607
0.021112787 -0.06129233 0.040242117 -0.06530717 -0.06905007 -0.058312666 -0.016757285 0.03934492
0.03252744 -0.046270713 -0.003563283 -0.049983688 -0.017528579 -0.060480002 0.043067034 -0.060278106
-0.001474896 -0.007103312 0.020319527 0.00970072 -0.036909394 -0.048979025 0.029460113 0.06075163
0.0038160246 -0.03796298 -0.026838137 0.04883029 -0.034843776 -0.0022218127 0.027710315 0.02133447
0.051257964 -0.027515959 0.021332806 -0.07057178 -0.025673198 -0.06531264 0.04622246 0.011790939
-0.040837977 -0.06285195 0.047133055 -0.06960344 -0.04955943 0.048678014 0.031853493 0.007793811
-0.03716444 -0.030538376 -0.030982366 -0.056573775 -0.0062271985 -0.03872302 0.04167094 -0.017493328
0.04441042 -0.062234595 -0.057601538 0.03833383 0.03009143 -0.024519097 -0.06334511 -0.06561428
0.034411967 -0.031921845 -0.05163679 -0.039089143 -0.070000686 -0.035249565 0.047882922 -0.0006294009
0.0051613036 0.025831968 -0.011978811 -0.04208588 0.00025536626 -0.07006347 -0.044791833 -0.06282909
-0.009975888 0.0065078638 -0.06845862 0.031009726 -0.009557484 0.006638998 -0.026708897 0.032547653
0.030637225 -0.03114491 -0.016679764 0.025537213 0.038895182 0.016732942 0.021786144 -0.07332981
0.010499485 -0.0024984472 0.014851087 0.0019702308 -0.06964676 -0.032275237 -0.044276334 0.0072703445
0.043631095 -0.0074218395 -0.042880032 -0.040334176 -0.000521516 0.0077767605 -0.03552051 -0.05364758
-0.004451177 0.03220848 0.0027076122 -0.028358767 0.05083259 -0.07493129 0.0022162816 -0.029631447

bias f4 [128]
00000000: 5666 51bd 210b d13e 38e1 b53e bfb7 a83e
00000010: 013b d43e ce65 eb3e b82a ebbc 96db bc3e
00000020: 84a6 ac3e cb66 d93e c06c 823b a787 c43e
00000030: 7196 f3bc b1b6 4d3d ff4c bc3e 3c9c a63e
00000040: 534d 89bd a7b8 b33e 8d21 903c bad2 aa3e
00000050: b9f6 b03e 9e65 cb3e 831f 0dbd 93c0 c13e
00000060: c068 403d 7b43 c93e 1f3e e33e 79e1 ea3e
00000070: c47e c73e 0ef3 c73e 9787 7ebd 2acc b13e
00000080: 092c dc3e 1680 de3e c4fa 22bd 78a6 c63e
00000090: 8948 b23e bd19 cf39 691a c13e bc94 553c
000000a0: 6f11 c63b 68c9 c53c 309e ef3e 0127 d63b
000000b0: ca7b dc3e 76c9 da3e 1f98 a7bd fc74 b23e
000000c0: 9714 db3e 3fe3 4a3d cafa c13c 7b95 463d
000000d0: 36da dd3e 82dd 79bd 54c5 53bd ada9 29bc
000000e0: abc4 ad3e 861e d23e da70 48bd 5bb0 d93e
000000f0: a6a3 ce3e 18bf 8ebd dc9e 2bbd 8f14 babc
00000100: 221c bb3e be1a b93e 0d5b aa3e e27c c83c
00000110: adab d83e ce3f 6c3c e928 8abd 16ed d93e
00000120: 933b 39bd 25e9 7cbd 84c7 d13e a21e 50bd
00000130: 9242 e23e db18 e73e 4f8f ae3e 0de4 183d
00000140: 2857 ca3e e8af d33c 3276 c23c 4c61 dc3e
00000150: 1b54 ae3e f310 db3e 8c78 c83e 5474 31bc
00000160: 4bb8 ac3e 4561 f5bb 0fda 9d3e 1245 be3e
00000170: 2b28 dd3e 8212 18bd 2771 c23e a590 a73e
00000180: 9ca1 ccbc 5237 c8bc 1dcb de3e 340b 0b3d
00000190: 5c70 353d 18b9 d43e 3526 46bd 2703 d13e
000001a0: 0644 b03e 2fb8 db3e 4e41 d33e 29d7 a03e
000001b0: ef66 c03b 4daa 11bd 4174 68bd 7184 823c
000001c0: e158 d73e de3a 19bd 8063 9ebc 1ded c3bc
000001d0: f7fb ad3e 95b2 b33e 76b0 68bd a36f c83e
000001e0: a7ea ae3e 7a33 eb3e ccc9 b23e 99d1 a93e
000001f0: 7e4e 53bd c737 e23e c0d8 033c 2da0 8b3c
-0.051122986 0.40828803 0.3552339 0.32952687 0.41451266 0.45976108 -0.028706893 0.3688628
0.3372079 0.42461237 0.003980249 0.38384745 -0.029734822 0.050223056 0.36777493 0.32541072
-0.067042015 0.35101816 0.017594123 0.33363897 0.34563234 0.39725965 -0.03445388 0.37842235
0.046974897 0.39309296 0.44383332 0.45875147 0.38963902 0.39052624 -0.062141027 0.34726077
0.43002346 0.43457097 -0.03978993 0.3879888 0.34820965 0.00039501293 0.37715462 0.013035949
0.0060445587 0.02414389 0.46800375 0.0065354113 0.43063194 0.42731827 -0.08183312 0.34854877
0.42789146 0.049533125 0.023679156 0.0484824 0.43330544 -0.061002262 -0.05170186 -0.010355395
0.33939108 0.41038913 -0.04893575 0.4251736 0.4035923 -0.06970042 -0.041899547 -0.022714881
0.365449 0.36153215 0.3327259 0.024473611 0.42318478 0.014419509 -0.06746084 0.42563695
-0.04522283 -0.06174578 0.4097253 -0.050810464 0.44191414 0.4513615 0.3409371 0.03732686
0.3951962 0.025840715 0.023738 0.43042982 0.34048542 0.4278637 0.3915447 -0.010830957
0.33734354 -0.007488402 0.30830428 0.3716207 0.43194708 -0.037127025 0.37976953 0.32727543
-0.024979405 -0.024440441 0.43514338 0.03394623 0.044296607 0.41547465 -0.04837628 0.40822718
0.34426898 0.42913958 0.4126076 0.31414154 0.0058716456 -0.035562802 -0.056751493 0.015932294
0.42059997 -0.037409656 -0.019334555 -0.023916775 0.33981296 0.35097185 -0.05680891 0.39147672
0.341634 0.4593771 0.34919584 0.33167723 -0.051588528 0.4418318 0.008047283 0.017044151

weight f4 [1, 128]
00000000: 2d5d b03b 6506 fcbd 6f17 a4bd 0a49 1abe
00000010: 5652 efbd 5eb8 bfbd 2d9a a73c 742e 02be
00000020: 98c9 17be 25e2 a2bd 4177 98bd e0fc 22be
00000030: d261 a83d eedb d23c 4996 b0bd fb53 1dbe
00000040: 74c2 9a3d 48fd a8bd 64c7 0b3d c016 e3bd
00000050: 7571 ddbd 2e3d adbd 27a4 a63c 39c3 18be
00000060: d02a 2f3c 4e8b c1bd 479f 9fbd 3358 aebd
00000070: fa32 9cbd e843 fbbd da42 823c 6b61 d4bd
00000080: a4d5 d8bd 6263 e8bd d567 703d fc53 f7bd
00000090: 509e aebd 9862 543d a78f dfbd 017a c43c
000000a0: f855 383d f4fd 473d beee 97bd 1d12 95bb
000000b0: baa4 cdbd 4181 bdbd a5bd 7fbc c75a e0bd
000000c0: 9837 ddbd 171d 9e3c 5b0e fa3b aee8 ef3c
000000d0: 2d8d cbbd 74d2 153d 5b01 27ba 7bb0 8c3d
000000e0: 54f5 0fbe cdaf ecbd c204 6e3c 76db a8bd
000000f0: fb68 0abe 158f d93c 9880 963c b11f 623d
00000100: a77d a1bd 756a e2bd 685a 0bbe 2d0e 153d
00000110: 4626 1bbe fdb7 a03d 6ee7 0c3d 7369 1bbe
00000120: b032 923d de8d 1f3b ce30 14be f748 a23d
00000130: 7181 d8bd 2a55 ddbd 0728 ecbd 1634 4b3d
00000140: decc 03be 5eae 2e3c 41d3 a23d acfd bdbd
00000150: b8ae ecbd b35d 9bbd 8556 03be 245d 8f3d
00000160: 78cd 22be 7309 863d be65 12be 9687 b7bd
00000170: 5bd3 e7bd 7071 a43d 6898 b0bd 5814 eebd
00000180: 3bc7 f93c 7169 1b3d 7c28 edbd ea6e 783c
00000190: 23fa d339 79f7 1dbe 0584 223c 4d62 05be
000001a0: 65ea d6bd 4730 b4bd 738c a4bd 4cd8 03be
000001b0: 2078 363c 860c 0abc 745d 8a3d 5807 cc3c
000001c0: 1fca a1bd 077d 623d 4330 243d e4d0 9f3d
000001d0: aa34 0abe 3cb8 0bbe ee6b 453d fe1a 1bbe
000001e0: e307 05be 9ae9 aabd 0473 a6bd 4a8b fabd
000001f0: 76b1 913d 614c eabd 7ade 883d 739c 353b
0.005382201 -0.12305907 -0.08012282 -0.15066925 -0.11685626 -0.09361337 0.020459259 -0.12713033
-0.14822996 -0.0795329 -0.07444621 -0.15916777 0.08221783 0.025739636 -0.086224146 -0.15364067
0.0755662 -0.082514346 0.0341257 -0.110883236 -0.10812656 -0.08458935 0.020341946 -0.14918222
0.01069136 -0.094503984 -0.077940516 -0.085129164 -0.076269105 -0.122688115 0.015901018 -0.103701435
-0.10587624 -0.11347081 0.058692772 -0.120765656 -0.085262895 0.05185184 -0.109160714 0.023983957
0.04500386 0.048826173 -0.07418583 -0.0045492784 -0.10041185 -0.09253169 -0.01560918 -0.109548144
-0.10801619 0.01930098 0.007631106 0.029285755 -0.099390365 0.036577657 -0.00063707464 0.068695985
-0.14058429 -0.11556969 0.014527502 -0.08244984 -0.1351661 0.026557485 0.018371865 0.055206005
-0.078852944 -0.11055461 -0.13608706 0.036390472 -0.15151319 0.07847593 0.034400396 -0.15176944
0.07138574 0.0024346034 -0.14471743 0.07924073 -0.10571564 -0.108072594 -0.11531072 0.04961022
-0.1287112 0.01066169 0.0795045 -0.092769 -0.115567625 -0.07586231 -0.12825973 0.07000187
-0.15898693 0.06544771 -0.14296624 -0.08961408 -0.1131961 0.08029449 -0.08622819 -0.11624974
0.030490508 0.037942354 -0.115799874 0.015163163 0.00040431423 -0.15426435 0.009919171 -0.1302578
-0.10493926 -0.08798271 -0.08034601 -0.1287548 0.0111370385 -0.008425837 0.06756106 0.024905846
-0.0789988 0.055295017 0.04008509 0.078035146 -0.13496652 -0.13644499 0.048198633 -0.15147015
-0.1299129 -0.08345337 -0.08127406 -0.122335985 0.07113926 -0.11440349 0.06683059 0.002771166
