trained/exp_train_3_3_1111_0.0001_0.001_32_0.95/model/meta_actor_2.pth (torch, 302079 bytes, 6 tensors)

weight f4 [512, 16]
-0.07421162 0.19431216 -0.18766145 0.15443467 -0.14496103 0.018467145 -0.117387146 -0.25055945
-0.21619791 0.097543426 -0.21094748 0.016928095 0.17485416 0.054905083 0.21023053 -0.077338256
-0.010496847 -0.1275736 0.0031157543 0.032964908 0.0070830896 0.14037542 -0.19663794 -0.19580373
0.09352546 0.18020877 0.050713982 0.034982413 -0.18289381 0.015772274 0.106339805 0.21442235
0.15182912 0.031296622 -0.18844905 -0.047879346 -0.045730088 0.11347796 -0.24966702 -0.0033171268
0.22641997 -0.03162597 -0.23602031 0.0042196526 0.008108539 -0.104329556 -0.097029336 0.2341075
-0.117967136 0.1105254 0.029865013 0.1261509 0.08098742 0.018687138 -0.17173435 0.08499861
0.060910475 -0.04664924 0.15016249 0.16866684 -0.043458056 0.25480735 -0.14846972 -0.1520955
0.12665842 -0.14091201 0.15127677 0.23109609 -0.21736541 0.08417369 -0.13217577 0.0053321207
-0.25170547 0.025751326 0.119765274 -0.019060398 -0.15918364 0.10717742 0.25072408 -0.08794264
0.19143687 0.025073092 -0.18044142 -0.14547372 0.060869366 0.1222472 -0.24727799 0.03229434
-0.04702616 0.01861756 -0.20208392 -0.00843624 -0.20972963 -0.23421426 -0.25797972 -0.27461562
-0.15770952 0.13928118 0.092559785 -0.1712918 -0.104269646 -0.0038559062 0.032257307 -0.092913754
-0.17407094 -0.09270362 -0.22190416 -0.022918977 0.07508883 -0.009358032 0.058944732 -0.024113879
0.018732252 -0.12897208 -0.099278 -0.040199216 0.14930683 -0.090289496 0.152178 -0.24557495
0.20101362 -0.033369217 -0.16045897 -0.1676367 -0.17460717 -0.055604465 0.10392899 -0.07240344
0.122565106 0.09728232 0.2204597 0.14536507 -0.07701897 0.18732171 -0.13570331 0.04020378
-0.087868765 0.13772729 -0.24424191 0.09159186 0.026078286 0.14131297 0.0062617417 -0.16744177
-0.09274595 0.15934366 -0.07770212 0.20091316 0.23487836 -0.23686087 0.006707324 -0.119918875
-0.19491307 0.10845061 -0.009915224 -0.018424796 -0.1091464 -0.098662645 -0.19664969 0.13477331
-0.18151578 0.022304421 0.016530909 0.12436403 -0.20150873 -0.19085026 -0.018022098 0.15515506
-0.028247565 -0.08667721 0.17613289 -0.006544666 -0.15774797 -0.118364066 0.20641683 -0.11529185
0.08156585 -0.202471 0.18747519 -0.08285683 0.22794205 0.16975717 0.11922099 0.206233
-0.12795939 0.055498317 0.15967795 -0.022212239 0.10421274 0.16839981 -0.15165602 -0.009482612
0.022607064 0.21585365 0.027906047 -0.23218527 -0.07271784 -0.023428509 -0.055460837 0.25324625
-0.017486146 -0.22109187 0.18546572 0.09408789 -0.13499756 0.03424516 -0.20581692 -0.021181406
0.23436971 -0.10894678 0.16900979 -0.21652414 -0.12650424 0.123248495 -0.009880616 -0.045020945
-0.018684817 0.16310592 -0.06844072 0.08226139 -0.08352863 0.16251913 -0.15251939 0.2329761
-0.023730205 -0.023893386 -0.078890905 0.12550682 -0.13536842 -0.09689599 -0.19241627 -0.14307612
-0.20860356 -0.039876394 -0.2172304 -0.13435513 -0.21239598 -0.04776325 -0.09673844 -0.02847645
-0.1700013 -0.14597444 0.017754378 -0.041680798 0.19224003 0.06477933 0.020479364 0.037519082
0.21109268 -0.14158058 -0.25570574 0.023695929 0.2409028 -0.01370325 0.1654108 0.063453585
00000000: 43fc 97bd c4f9 463e 532a 40be 1f24 1e3e
00000010: aa70 14be 6948 973c ac68 f0bd 5449 80be
00000020: fc62 5dbe d9c4 c73d 9e02 58be caac 8a3c
00000030: f80c 333e 27e4 603d ac46 573e 8563 9ebd
00000040: f8fa 2bbc a7a2 02be af31 4c3b 3606 073d
00000050: 4319 e83b 93be 0f3e 755b 49be c680 48be
00000060: 478a bf3d a688 383e 77b9 4f3d b849 0f3d
00000070: 8448 3bbe db34 813c afc8 d93d 8891 5b3e
00000080: 1879 1b3e e330 003d caf8 40be 221d 44bd
00000090: 794f 3bbd 2267 e83d b6a8 7fbe 2764 59bb
000000a0: a3da 673e 3c8a 01bd 4faf 71be 0345 8a3b
000000b0: add9 043c bcaa d5bd 51b7 c6bd e0b9 6f3e
000000c0: c198 f1bd 245b e23d 79a7 f43c b42d 013e
000000d0: bcdc a53d c515 993c 21db 2fbe c013 ae3d
000000e0: 437d 793d 4613 3fbd 32c4 193e 00b7 2c3e
000000f0: 1301 32bd 1c76 823e 7208 18be ecbe 1bbe
00000100: bfb2 013e 3d4b 10be 4ce8 1a3e 74a4 6c3e
00000110: 0a95 5ebe 4163 ac3d 1659 07be 12b9 ae3b
00000120: 8adf 80be 72f4 d23c 7f47 f53d 8d24 9cbc
00000130: 0901 23be d67f db3d e85e 803e 451b b4bd
00000140: 0708 443e 1666 cd3c a3c5 38be 10f7 14be
00000150: 2852 793d bd5c fa3d 7136 7dbe 1247 043d
00000160: 819e 40bd da83 983c 16ef 4ebe 2838 0abc
00000170: 5dc3 56be ddd5 6fbe eb15 84be 6b9a 8cbe
00000180: 9b7e 21be ba9f 0e3e fc8f bd3d 1e67 2fbe
00000190: 538b d5bd 5fb3 7cbb 3d20 043d 9149 bebd
000001a0: a73f 32be 65db bdbd d83a 63be 94c0 bbbc
000001b0: 2cc8 993d 6e52 19bc 0870 713d 788a c5bc
000001c0: 6174 993c 4211 04be 4452 cbbd efa7 24bd
000001d0: e4e3 183e b3e9 b8bd 8dd4 1b3e 0078 7bbe
000001e0: 84d6 4d3e 29ae 08bd 5b4f 24be f5a8 2bbe
000001f0: 39cc 32be 82c1 63bd b9d8 d43d 4148 94bd
00000200: 6a03 fb3d f43b c73d 30c0 613e 95da 143e
00000210: 1fbc 9dbd 43d1 3f3e cff5 0abe b8ac 243d
00000220: 8af4 b3bd 6208 0d3e 8d1a 7abe 8394 bb3d
00000230: 21a2 d53c 59b4 103e 4c2f cd3b db75 2bbe
00000240: 97f1 bdbd fc2a 233e 4a22 9fbd 2ebc 4d3e
00000250: f483 703e a88b 72be 1dc9 db3b 0798 f5bd
00000260: 4b97 47be 5a1b de3d 7773 22bc 99ef 96bc
00000270: 2688 dfbd a40f cabd 895e 49be 0402 0a3e
00000280: 46df 39be c3b7 b63c d46b 873c 92b2 fe3d
00000290: 4e58 4ebe 406e 43be 14a3 93bc f8e0 1e3e
000002a0: 7067 e7bc d283 b1bd 2e5c 343e a374 d6bb
000002b0: af88 21be dc68 f2bd ef5e 533e 221e ecbd
000002c0: ff0b a73d 8f54 4fbe 7ff9 3f3e d7b0 a9bd
000002d0: a469 693e d3d4 2d3e 222a f43d be2e 533e
000002e0: c907 03be 3452 633d 9e82 233e 71f6 b5bc
000002f0: 7d6d d53d 0071 2c3e b74b 1bbe f55c 1bbc
00000300: 7332 b93c bd08 5d3e 399b e43c fac1 6dbe
00000310: 17ed 94bd 25ed bfbc e72a 63bd 7ea9 813e
00000320: 1b3f 8fbc e865 62be baea 3d3e 27b1 c03d
00000330: cd3c 0abe a744 0c3d acc1 52be a184 adbc
00000340: 9dfe 6f3e 7d1f dfbd e710 2d3e 81b8 5dbe
00000350: 548a 01be b569 fc3d 4fe2 21bc e267 38bd
00000360: e710 99bc 3d05 273e a62a 8cbd a978 a83d
00000370: 0f11 abbd 6a6b 263e 0b2e 1cbe 4991 6e3e
00000380: d965 c2bc 10bc c3bc 8e91 a1bd dc84 003e
00000390: 059e 0abe 6871 c6bd c508 45be 8c82 12be
000003a0: 2c9c 55be 6e55 23bd a571 5ebe 6494 09be
000003b0: 557e 59be 66a3 43bd ce1e c6bd 7247 e9bc
000003c0: d214 2ebe 537a 15be a171 913c 7cb9 2abd
000003d0: 92da 443e 06ab 843d 57c4 a73c 9cad 193d
000003e0: ae28 583e 80fa 10be ddeb 82be f71d c23c
000003f0: 39af 763e 9983 60bc 7361 293e f4f3 813d

bias f4 [512]
0.04159191 0.03567939 0.08718381 0.22355354 -0.12853113 0.17390819 -0.16422148 0.21135281
-0.14996877 -0.074285425 0.02166434 -0.09008769 0.022148257 0.025293576 -0.1764332 -0.19117983
-0.10837814 0.1766247 0.18432812 -0.08086659 0.08158161 -0.09406968 -0.19964981 0.20622103
0.15509567 0.09666622 0.16659792 -0.14404835 0.16061196 0.26104644 0.24502663 -0.15160802
0.25243527 -0.17850162 -0.1991142 -0.22336183 -0.0807275 0.24805805 0.14481223 -0.15748961
0.23812105 -0.18343017 -0.13312526 -0.029392505 0.0636279 0.042578958 -0.0702948 0.011913095
0.17943159 -0.13222912 0.17157167 0.17960174 0.11465525 0.1540348 0.07504593 0.042875517
0.2060946 0.021523714 0.04130568 0.04032252 0.21175808 0.1706772 0.17601416 -0.12805715
-0.06709142 -0.060578927 0.11553077 0.032158658 0.03253102 0.26774225 -0.046072125 0.0863193
0.22093208 0.015527178 0.104169905 0.1566199 0.24536198 0.0026582906 0.22638644 0.10788737
0.08618835 0.22011845 -0.17927346 -0.026411455 0.15699129 0.036598008 0.22418389 0.09019368
-0.1277276 0.24386224 -0.011860809 -0.11930735 -0.16158925 0.06312245 -0.033009272 -0.112845846
0.19926976 0.08715822 0.08719647 0.084861256 -0.100944795 0.09269354 0.133044 0.16669874
0.112807706 0.17030369 0.0152397 0.02538926 -0.047155418 0.24994516 0.1789424 -0.033915173
-0.1684816 -0.08388198 0.23657298 0.1398172 -0.11286659 0.031933896 -0.13182476 0.15632278
-0.015053559 0.01738696 0.06464104 0.18635888 -0.17214589 -0.04160161 0.15325029 -0.19435246
0.22963594 0.1252295 0.019582033 0.024285533 -0.14289562 0.103427336 0.07596761 0.09908123
-0.21683083 0.0557504 -0.08658649 -0.104882106 0.14722279 0.10315613 0.07142618 0.056480076
-0.20406978 -0.19584139 -0.19519903 0.07149738 0.057482805 -0.12482442 -0.051658254 -0.07648239
0.07028848 0.16822398 -0.17178759 0.10004637 -0.113904454 0.009517541 -0.23483978 0.25072613
-0.122322746 -0.12088805 -0.16585058 0.14291677 0.015908869 0.11069206 0.18100868 -0.1292075
0.123021394 -0.23312399 -0.21124825 -0.23191822 -0.03321076 -0.21516624 -0.051774617 -0.061960805
0.20412102 -0.010978199 0.16118869 0.14390847 -0.18205883 0.007539895 0.08710947 0.112072095
0.08230761 0.20592362 0.27215135 -0.14194664 -0.13335575 0.063641705 0.119991735 0.2310714
0.25054342 -0.16596772 0.005228719 -0.031445503 0.07518257 -0.16875695 -0.18622373 -0.002619432
-0.17678282 -0.14335698 0.07183063 0.13838008 0.20485462 -0.03836896 -0.041450035 0.018680155
0.23814046 -0.16446224 -0.058394335 0.15194643 0.008863079 -0.004371808 0.17593168 -0.080586344
0.23880605 -0.1824279 0.11253262 0.14994013 0.20142867 0.1393911 0.00025992654 0.1280851
-0.01844857 -0.22029428 -0.20623034 -0.20581311 0.23161934 -0.061746206 -0.10615892 0.014002969
0.017376287 0.0034614163 -0.17179362 -0.08644591 0.028114887 -0.12793776 0.20686527 0.10134618
-0.12560345 0.044386595 -0.0030374501 0.15401103 0.07500398 0.06579275 0.1597218 0.20477915
-0.13533925 0.1770139 0.15736404 -0.19701093 0.16941307 -0.030254243 0.2409433 -0.0057785315
00000000: 475c 2a3d 8d24 123d 6d8d b23d 38eb 643e
00000010: aa9d 03be fd14 323e ad29 28be df6c 583e
00000020: 6a91 19be f522 98bd 6a79 b13c e57f b8bd
00000030: 4370 b53c 7934 cf3c e8aa 34be a5c4 43be
00000040: 5cf5 ddbd 1bdd 343e 83c0 3c3e 629d a5bd
00000050: 4214 a73d 9ba7 c0bd 0071 4cbe 9b2b 533e
00000060: 66d1 1e3e f0f8 c53d a598 2a3e 6981 13be
00000070: 7677 243e e1a7 853e 43e8 7a3e 223f 1bbe
00000080: 323f 813e 21c9 36be 98e4 4bbe f7b8 64be
00000090: 7654 a5bd ee02 7e3e a849 143e f544 21be
000000a0: 01d6 733e 1ed5 3bbe fd51 08be 8dc8 f0bc
000000b0: 584f 823d 4667 2e3d b8f6 8fbd 242f 433c
000000c0: eabc 373e 1267 07be 7cb0 2f3e 85e9 373e
000000d0: 5fd0 ea3d 4cbb 1d3e aeb1 993d 3d9e 2f3d
000000e0: 760a 533e 8052 b03c 2530 293d 3a29 253d
000000f0: 1cd7 583e 01c6 2e3e 0e3d 343e 6a21 03be
00000100: 3a67 89bd 9c21 78bd 659b ec3d ccb8 033d
00000110: 3f3f 053d 8315 893e 20b6 3cbd 2cc8 b03d
00000120: 053c 623e b465 7e3c 0857 d53d f860 203e
00000130: 2c40 7b3e b736 2e3b d9d1 673e 0ef4 dc3d
00000140: 8583 b03d bb66 613e 7693 37be d65c d8bc
00000150: 53c2 203e cbe7 153d 7690 653e 77b7 b83d
00000160: 06cb 02be 06b7 793e d753 42bc 6957 f4bd
00000170: a777 25be 5846 813d bb34 07bd b91b e7bd
00000180: 5f0d 4c3e 0280 b23d 1094 b23d bdcb ad3d
00000190: 25bc cebd 1cd6 bd3d b03c 083e 13b3 2a3e
000001a0: ba07 e73d 1764 2e3e efaf 793c 23fd cf3c
000001b0: 0a26 41bd a0f1 7f3e ad3c 373e a3ea 0abd
000001c0: 7186 2cbe 51ca abbd 3040 723e 3d2c 0f3e
000001d0: 9926 e7bd 1ecd 023d 12fd 06be 1413 203e
000001e0: 34a3 76bc 196f 8e3c 8662 843d ddd4 3e3e
000001f0: 0347 30be 7366 2abd a5ed 1c3e 5504 47be
00000200: af25 6b3e 293c 003e 806a a03c 74f2 c63c
00000210: 3b53 12be b6d1 d33d e894 9b3d 1aeb ca3d
00000220: e708 5ebe 885a 643d 4254 b1bd 6ecc d6bd
00000230: 92c1 163e 8543 d33d e447 923d a757 673d
00000240: abf7 50be a58a 48be 41e2 47be 386d 923d
00000250: 1773 6b3d f2a3 ffbd 9b97 53bd cda2 9cbd
00000260: 68f3 8f3d e842 2c3e 16e9 2fbe 1ce5 cc3d
00000270: bd46 e9bd 76ef 1b3c d779 70be 2d5f 803e
00000280: 5984 fabd 2794 f7bd bcd4 29be c658 123e
00000290: 5153 823c 85b2 e23d 575a 393e f94e 04be
000002a0: a4f2 fb3d 0eb8 6ebe 7651 58be f87b 6dbe
000002b0: 0208 08bd 8a54 5cbe 9f11 54bd 9dca 7dbd
000002c0: 1a05 513e e7dd 33bc a60e 253e be5c 133e
000002d0: a16d 3abe 3911 f73b 7366 b23d 0e86 e53d
000002e0: e490 a83d a4dd 523e 6c57 8b3e 765a 11be
000002f0: 698e 08be 9556 823d 3abe f53d fb9d 6c3e
00000300: 3a47 803e 71f3 29be ad55 ab3b 00cd 00bd
00000310: 52f9 993d 9fce 2cbe 6fb1 3ebe c7aa 2bbb
00000320: 8e06 35be 2ccc 12be f01b 933d 82b3 0d3e
00000330: 69c5 513e c528 1dbd 83c7 29bd 2007 993c
00000340: 18db 733e ca68 28be e62e 6fbd d897 1b3e
00000350: 7336 113c 6241 8fbb 6f27 343e 740a a5bd
00000360: 9389 743e 61ce 3abe 8177 e63d e889 193e
00000370: 5143 4e3e 8abc 0e3e c046 8839 be28 033e
00000380: 7521 97bc d394 61be 0c2e 53be acc0 52be
00000390: 9f2d 6d3e 97e9 7cbd d969 d9bd b56c 653c
000003a0: b758 8e3c eed8 623b abea 2fbe 8e0a b1bd
000003b0: 3151 e63c 1e02 03be 7dd4 533e 968e cf3d
000003c0: 319e 00be b8ce 353d f50f 47bb 11b5 1d3e
000003d0: b09b 993d 59be 863d 1d8e 233e a0b1 513e
000003e0: 5f96 0abe 2243 353e 0a24 213e 3cbd 49be
000003f0: 9f7a 2d3e bfd7 f7bc d7b9 763e d659 bdbb

weight f4 [128, 512]
-0.0059693237 0.041787483 0.037998114 0.042414963 -0.0035779343 0.013325935 -0.027958997 0.025300093
0.011084492 0.020701386 -0.0035754384 0.03894758 -0.02594776 -0.0031637654 0.000465356 -0.003915063
-0.020508083 -0.003618023 -0.021137025 -0.0067743855 -0.033226453 -0.024790062 -0.004473806 0.012457825
0.050230578 0.027564766 0.04417906 0.05100736 -0.007181501 0.0050417087 0.012400098 0.024744017
0.04423194 -0.025076441 0.007600589 0.018601302 0.03716865 -0.012425762 -0.030872399 0.04462534
0.0052155103 0.020885544 0.0220679 0.03867571 -0.002189198 -0.008850114 -0.025738435 -0.018686352
0.012819497 0.044572044 0.024321573 -0.0041391035 -0.025172414 0.04226562 0.024493275 0.04854053
0.04170131 -0.0019024253 -0.03295521 0.028258717 0.0043511186 0.04555103 -0.014425719 -0.009570762
0.00029723172 -0.011017148 -0.01759673 0.0023628615 0.025654214 0.0405829 -0.016638367 0.010430522
-0.0070118285 -0.029879894 -0.030073069 0.0425132 0.049932737 0.016121889 0.021555945 -0.030209888
0.051999465 0.024731303 -0.008584835 0.021420222 -0.012761877 -0.0019697596 0.0260839 0.0048606326
-0.010974235 0.008997649 0.0048933905 0.023527907 -0.032248456 -0.028405633 0.02584232 0.027949704
-0.008724637 0.045574624 0.0015206726 0.023435818 0.030229047 0.027015207 0.044501517 -0.01683558
-0.03134316 0.0036416815 0.013429962 0.040513717 0.0065293703 -0.010685542 0.04560532 -0.020612407
-0.03264228 0.028360955 -0.02206075 -0.021167204 0.0036394584 0.008451212 0.0026502642 -0.019757375
0.050323717 -0.024159899 0.0029377493 -0.0036106803 -0.008867631 0.009861563 0.022977877 -0.010925743
0.033131104 0.008820706 -0.01834231 0.026674576 -0.0343514 0.017768871 0.0037211515 -0.0115944585
0.017210258 0.03520211 -0.022773476 -0.014849468 0.046952855 0.00460898 -0.022658542 0.047646582
-2.5086872e-05 -0.021570459 -0.014864394 0.032754593 -0.016470198 0.03544139 0.0056789885 0.043586757
-0.004648072 0.007194389 -0.01125805 -0.028027494 0.037209477 0.049895823 0.026482666 0.0056440234
0.0043054493 0.018422248 -0.007433921 0.007035466 0.017663268 -0.015711868 -0.015232445 0.02211006
-0.026907846 0.014903195 -0.0036394717 0.022851167 0.04371992 0.049958084 -0.014814205 -0.021751853
-0.028723476 0.045704823 0.048665196 0.015539505 -0.0065823374 0.011160705 0.044154547 0.045745976
0.039209496 0.01604863 0.038420808 -0.019503774 -0.007014741 -0.024947612 -0.010559563 -0.023063188
0.012528656 -0.0051636803 0.035918944 0.04697409 0.009581132 -0.010931118 -0.03013863 0.02996988
0.016860634 0.031558268 -0.034231655 0.030351708 -0.008800496 -0.0024534967 -0.027777746 0.015727675
-0.029579114 0.018061502 -0.0008766513 0.050335057 -0.024411025 0.03506567 0.0013406366 -0.02124057
-0.014137293 -0.03404947 0.050046895 0.048824538 0.018563434 0.011946982 -0.010968235 0.013469652
0.0017438005 0.024895044 0.019777838 -0.026709022 0.018119566 0.04567996 -0.034151018 0.01082562
-0.022438781 -0.010974753 0.051632203 0.012759103 -0.026134156 0.038916413 -0.00035013567 -0.026998943
0.027879655 0.05224675 0.03487223 0.016424479 0.03302217 0.030394517 0.046387535 0.046928134
-0.03519571 -0.021601057 -0.015703922 -0.027831089 -0.027290093 0.008363173 -0.01844621 0.0019022898
00000000: 519a c3bb 5a29 2b3d e9a3 1b3d 50bb 2d3d
00000010: c77b 6abb 0655 5a3c 440a e5bc 2442 cf3c
00000020: bb9b 353c f495 a93c e751 6abb 7f87 1f3d
00000030: 6690 d4bc 2d57 4fbb 06fb f339 ee49 80bb
00000040: 9100 a8bc 5a1c 6dbb 8e27 adbc aafb ddbb
00000050: 7618 08bd 8714 cbbc 0199 92bb e81b 4c3c
00000060: 94be 4d3d 81cf e13c 1af5 343d 18ed 503d
00000070: cc52 ebbb eb34 a53b c829 4b3c f7b3 ca3c
00000080: 8d2c 353d 1c6d cdbc 5d0e f93b c261 983c
00000090: 283e 183d 6c95 4bbc 1de8 fcbc 0fc9 363d
000000a0: dfe6 aa3b 2918 ab3c bec7 b43c 6c6a 1e3d
000000b0: a678 0fbb 1200 11bc 69d9 d2bc 1f14 99bc
000000c0: de08 523c 2d91 363d 093e c73c 51a1 87bb
000000d0: 6136 cebc b71e 2d3d 1fa6 c83c 6fd2 463d
000000e0: fece 2a3d cd5a f9ba 0bfc 06bd d37e e73c
000000f0: d493 8e3b b893 3a3d da59 6cbc afce 1cbc
00000100: c4d5 9b39 4581 34bc 0427 90bc 3dda 1a3b
00000110: c928 d23c 413a 263d 2f4d 88bc c8e4 2a3c
00000120: 7bc3 e5bb aec6 f4bc cc5b f6bc 5222 2e3d
00000130: 4586 4c3d 0d12 843c 1896 b03c ba7a f7bc
00000140: 64fd 543d 4d99 ca3c 68a7 0cbc 7679 af3c
00000150: 3117 51bc 1517 01bb e7ad d53c f145 9f3b
00000160: 47cd 33bc e06a 133c bc58 a03b 99bd c03c
00000170: f516 04bd eeb2 e8bc 46b3 d33c c7f6 e43c
00000180: c8f1 0ebc 75ac 3a3d 4e51 c73a 79fc bf3c
00000190: e8a2 f73c ff4e dd3c 3947 363d c5ea 89bc
000001a0: af61 00bd 47a9 6e3b 5809 5c3c b6f1 253d
000001b0: 54f4 d53b 6912 2fbc a5cc 3a3d 5adb a8bc
000001c0: e9b3 05bd 3c55 e83c bfb8 b4bc d866 adbc
000001d0: fb83 6e3b f476 0a3c 0eb0 2d3b 38da a1bc
000001e0: 3e20 4e3d fbea c5bc 4187 403b 2aa1 6cbb
000001f0: 8a49 11bc 6592 213c 1a3c bc3c e301 33bc
00000200: 7bb4 073d b984 103c 9d42 96bc a484 da3c
00000210: 0eb4 0cbd 0690 913c 90de 733b aff6 3dbc
00000220: 87fc 8c3c 1630 103d 718f babc 2f4b 73bc
00000230: a351 403d ed06 973b 689e b9bc 1029 433d
00000240: a671 d2b7 88b4 b0bc ca89 73bc ae29 063d
00000250: 82ec 86bc fe2a 113d cf16 ba3b 0788 323d
00000260: db4e 98bb e9be eb3b af73 38bc ea99 e5bc
00000270: f768 183d 905f 4c3d 2df2 d83c 80f1 b83b
00000280: ba14 8d3b 41ea 963c 4098 f3bb c489 e63b
00000290: 8fb2 903c 2db6 80bc 8191 79bc 2820 b53c
000002a0: d86d dcbc 882c 743c 3484 6ebb 5f32 bb3c
000002b0: a913 333d d9a0 4c3d 47b7 72bc f130 b2bc
000002c0: 7f4d ebbc fb34 3b3d 2855 473d 6899 7e3c
000002d0: a6b0 d7bb 64db 363c 66db 343d 2260 3b3d
000002e0: 239a 203d 6b78 833c 235f 1d3d 61c6 9fbc
000002f0: eadb e5bb ef5e ccbc 0402 2dbc 03ef bcbc
00000300: fe44 4d3c 1734 a9bb be1f 133d e767 403d
00000310: 2efa 1c3c 6f18 33bc 4ae5 f6bc 6583 f53c
00000320: 501f 8a3c 3e43 013d 7e36 0cbd 25a4 f83c
00000330: f52f 10bc d8ca 20bb 288e e3bc 53d7 803c
00000340: e64f f2bc b7f5 933c 13cf 65ba 222c 4e3d
00000350: a1f9 c7bc 05a1 0f3d 4db8 af3a b400 aebc
00000360: 1ba0 67bc 7577 0bbd f9fd 4c3d 3dfc 473d
00000370: 5812 983c 46bd 433c 1db4 33bc d1af 5c3c
00000380: 3c90 e43a b1f0 cb3c 2205 a23c e1cc dabc
00000390: 7c6f 943c e91a 3b3d f0e1 0bbd f15d 313c
000003a0: 89d1 b7bc 73cf 33bc 4a7c 533d 8f0b 513c
000003b0: 4c17 d6bc d166 1f3d 6a92 b7b9 e32c ddbc
000003c0: e063 e43c b000 563d 2fd6 0e3d a18c 863c
000003d0: 4142 073d ecfd f83c db00 3e3d b737 403d
000003e0: 6029 10bd b3f4 b0bc 83a5 80bc 06fe e3bc
000003f0: 798f dfbc b105 093c 821c 97bc 4156 f93a

bias f4 [128]
0.030899392 -0.0021658754 -0.004107432 0.011939075 0.008167569 -0.015855554 0.019131614 -0.00925876
-0.02231745 0.033094294 -0.010662804 -0.045868956 0.019260058 -0.010262287 -0.0045435256 -0.013727741
0.057228107 0.025711954 0.021609664 -0.00028862193 -0.026840217 0.036814228 0.033700008 0.037909135
0.033155225 -0.0063178046 -0.03425685 -0.022655552 0.004069028 0.035792377 0.0063610882 0.028331984
-0.03110697 0.018414639 -0.00021055854 -0.04413791 -0.023338392 -0.038116697 -0.0249236 -0.011154132
-0.02485122 0.028047921 0.04311912 0.023611534 0.040057175 -0.01731101 -0.017479565 -0.031599052
-0.0004181864 0.03673682 0.008533689 -0.015882686 0.05034654 -0.010440753 0.047180686 -0.0051143295
0.028339613 0.021138404 -0.027853895 -0.018725406 -0.048020504 0.04698733 -0.019012788 -0.0076277214
-0.013994523 0.031922262 0.04156702 -0.016707927 -0.0046281954 -0.043322306 0.03629855 0.022230018
0.0074119526 -0.03562713 0.00777091 0.020856205 0.01397859 -0.028018892 0.0075978427 -0.02519641
-0.0022447216 -0.013628959 -0.03549827 -0.0035724952 -0.011822549 0.0033892468 -0.0138542075 -0.042633243
0.026743889 -0.023203073 -0.027447177 -0.045679495 -0.037032872 0.0315783 -0.0416953 -0.031556554
-0.004814866 0.0038242186 0.035341114 0.019221038 0.015188343 0.03615096 -0.00758814 -0.042732116
0.0061501693 -0.038874198 -0.010744402 0.015853358 -0.012497145 0.007018204 0.026354514 -0.04672382
0.01801987 0.013157114 0.13177381 0.051358897 -0.03033803 -0.023237633 -0.009640992 0.0014720694
-0.015560379 -0.026583243 0.028269254 0.057818584 0.007409443 0.036837954 -0.014916508 0.03141476
00000000: b920 fd3c 5cf1 0dbb a397 86bb 1c9c 433c
00000010: 44d1 053c 82e3 81bc e7b9 9c3c 0eb2 17bc
00000020: 16d3 b6bc e28d 073d 0bb3 2ebc 16e1 3bbd
00000030: 45c7 9d3c 2723 28bc dbe1 94bb 52ea 60bc
00000040: 0568 6a3d e0a1 d23c c006 b13c 2e52 97b9
00000050: 04e0 dbbc 84ca 163d 0509 0a3d 9c46 1b3d
00000060: c6cd 073d 9605 cfbb e950 0cbd 2398 b9bc
00000070: 7b55 853b 079b 123d ad70 d03b 7a18 e83c
00000080: 0bd4 febc 4cda 963c 61c9 5cb9 f4c9 34bd
00000090: 2830 bfbc 4120 1cbd 942c ccbc d2bf 36bc
000000a0: c994 cbbc c1c4 e53c ad9d 303d fa6c c13c
000000b0: fe12 243d d2cf 8dbc 4e31 8fbc 026e 01bd
000000c0: 0740 dbb9 5979 163d e3d0 0b3c 681c 82bc
000000d0: 2c38 4e3d b10f 2bbc 8940 413d 1b96 a7bb
000000e0: 7a28 e83c 722a ad3c da2d e4bc 0666 99bc
000000f0: 26b1 44bd c975 403d b5c0 9bbc f7f1 f9bb
00000100: 4949 65bc ebc0 023d 2e42 2a3d 10df 88bc
00000110: 1ea8 97bb bb72 31bd caad 143d ba1b b63c
00000120: f7df f23b c1ed 11bd 1ea3 fe3b a2da aa3c
00000130: 7506 653c e087 e5bc 53f7 f83b b468 cebc
00000140: 2e1c 13bb ff4b 5fbc a266 11bd 8620 6abb
00000150: 5db3 41bc 201e 5e3b c2fc 62bc 32a0 2ebd
00000160: 0016 db3c 5f14 bebc e7d8 e0bc 6c1a 3bbd
00000170: c8af 17bd 3f58 013d b1c8 2abd 7241 01bd
00000180: 06c6 9dbb be9f 7a3b d8c1 103d 7075 9d3c
00000190: 87d8 783c 0713 143d efa5 f8bb df07 2fbd
000001a0: 5c87 c93b 8d3a 1fbd 4a09 30bc e7de 813c
000001b0: d3c0 4cbc f6f8 e53b 6ce5 d73c 7a61 3fbd
000001c0: 689e 933c f090 573c b7ef 063e b55d 523d
000001d0: 7687 f8bc d95c bebc 40f5 1dbc 74f2 c03a
000001e0: f6f0 7ebc 1ac5 d9bc ec94 e73c 2ed3 6c3d
000001f0: eaca f23b 65e3 163d 5f64 74bc c3ac 003d

weight f4 [3, 128]
-0.0703461 0.052456617 0.07617575 -0.031344816 -0.06704824 0.0025184627 0.077772856 0.020908615
-0.04481954 0.0020645396 0.06611051 -0.052880928 -0.009730059 -0.068377264 0.04115666 -0.06798767
-0.05934067 0.040168803 0.07421264 0.06362055 0.04203811 0.06832124 -0.06829942 0.059524227
-0.05042258 0.049271435 -0.028483422 -0.04452656 0.03658856 -0.036699727 0.061236586 0.062911056
-0.07854386 0.032104023 0.07654701 -0.03925785 0.07483071 0.022174707 -0.03060666 0.020013442
-0.07514866 0.045432344 0.017214544 -0.060766414 -0.06658242 -0.08273301 -0.022385895 0.013131874
-0.059142493 0.04096746 0.027829094 0.01420702 -0.019479455 0.035311755 0.030299537 -0.030083584
0.0678814 -0.08974887 -0.08214265 0.013098689 -0.057253897 -0.059306845 0.085171714 -0.058354497
-0.07550716 0.082903445 0.04993881 -0.0097015705 0.049450975 0.06563514 -0.0071729687 -0.061579622
0.018938363 -0.03472403 0.062249523 0.07059153 0.03558348 0.013675643 -0.06840251 0.05388234
-0.071146294 -0.08713986 -0.022991123 0.045416042 -0.011315818 -0.043775428 -0.059472922 0.013603894
0.027633635 -0.055112276 -0.08851861 0.020704832 0.029449545 0.043300964 0.071351334 0.017726665
0.072616376 0.03951278 0.028625773 -0.020466812 -0.06051512 0.071242586 -0.058581416 0.075955875
-0.022356644 0.079692125 0.030809866 0.007241627 -0.05055475 0.08232731 -0.08563366 0.038803473
0.001421981 -0.034283616 -0.3065331 -0.088555425 0.07244929 -0.087658316 0.057951324 0.043773167
-0.08280542 -0.011499222 -0.0770655 -0.14785065 -0.044291154 -0.042065863 -0.08186772 0.044099316
-0.016278028 -0.073985316 0.095912255 0.07142559 -0.053991817 0.1009225 -0.03312381 0.054122634
0.058264356 0.031420548 -0.0024922998 -0.03476027 0.120756574 0.061295435 -0.04233401 0.057533644
0.09001105 0.04823481 -0.08578745 -0.027231546 -0.04323267 0.045679003 -0.024655754 0.021628281
0.07121701 -0.019727735 -0.08411722 0.03360161 0.00019010909 0.074417576 0.06911693 -0.058369756
-0.039074957 -0.07278559 0.06962363 -0.0018366397 0.090013675 -0.05258241 0.10664891 0.032048382
0.07992712 -0.07290876 0.11211887 0.0017817542 0.046742283 0.10128164 0.013420562 0.017116494
-0.008754245 -0.011666387 0.05508081 0.11094533 0.07100206 -0.025706077 0.07616693 -0.07491132
-0.039588604 -0.0074228873 -0.001375589 -0.07625479 0.008399875 0.023561936 -0.034267943 -0.0371625
-0.056650005 -0.014637388 -0.009419776 -0.023911517 0.08895831 -0.0010818188 -0.05330737 0.09768951
-0.015622166 -0.02358558 0.01240198 0.042376217 -0.055549394 -0.07341196 -0.010401795 0.05608812
0.09401573 0.09710052 0.03693869 -0.043810286 0.086381346 -0.019899433 -0.00999436 -0.028150048
-0.01578099 0.11669701 0.099548176 0.069437936 -0.06876951 0.0006762582 -0.058364566 -0.03128627
-0.021181 0.023323322 -0.029766215 -0.021142798 0.01258201 -0.060485028 0.05183236 0.011313148
0.05321553 0.08163832 0.03369861 0.050893992 -0.016823523 0.069535464 -0.042756073 -0.045227688
0.03730668 -0.07554447 0.16134685 0.058223974 -0.054957315 -0.060302306 -0.07171871 0.002340202
-0.03921675 -0.042169385 0.10306309 -0.025558533 -0.026701821 -0.073020704 0.037138313 -0.08025761
00000000: 9e11 90bd c0dc 563d 0802 9c3d 6c63 00bd
00000010: 9650 89bd cb0c 253b 6047 9f3d 8b48 ab3c
00000020: b294 37bd 3a4d 073b f264 873d ac99 58bd
00000030: d36a 1fbc 6109 8cbd e393 283d 1f3d 8bbd
00000040: 340f 73bd 0b88 243d ccfc 973d 7e4b 823d
00000050: 2730 2c3d 02ec 8b3d 91e0 8bbd adcf 733d
00000060: e887 4ebd d8d0 493d 1156 e9bc 7b61 36bd
00000070: e3dd 153d 7452 16bd 37d3 7a3d 83d7 803d
00000080: 9adb a0bd 827f 033d aec4 9c3d d7cc 20bd
00000090: d840 993d bba7 b53c d1ba fabc 3bf3 a33c
000000a0: 8ae7 99bd 4417 3a3d 8405 8d3c 34e6 78bd
000000b0: 5d5c 88bd ed6f a9bd a062 b7bc 1227 573c
000000c0: 663f 72bd 7fcd 273d d7f9 e33c 90c4 683c
000000d0: 6193 9fbc 0fa3 103d bc36 f83c d971 f6bc
000000e0: 6705 8b3d 41ce b7bd 683a a8bd e29b 563c
000000f0: 1083 6abd bceb 72bd 826e ae3d 2005 6fbd
00000100: 7fa3 9abd 48c9 a93d a38c 4c3d 56f3 1ebc
00000110: 1b8d 4a3d b76b 863d 390b ebbb ea3a 7cbd
00000120: a024 9b3c c93a 0ebd 5bf9 7e3d 4b92 903d
00000130: fcbf 113d ce0f 603c 9d16 8cbd bbb3 5c3d
00000140: 26b5 91bd 6276 b2bd e157 bcbc 2c06 3a3d
00000150: fb65 39bc dd4d 33bd e199 73bd dee2 5e3c
00000160: ef5f e23c 69bd 61bd 3f49 b5bd 2e9d a93c
00000170: 2c40 f13c 5a5c 313d a620 923d 8337 913c
00000180: e5b7 943d 27d8 213d 9980 ea3c 04aa a7bc
00000190: b4de 77bd a2e7 913d 11f3 6fbd c18e 9b3d
000001a0: 4825 b7bc a035 a33d f964 fc3c 2c4b ed3b
000001b0: 7f12 4fbd 399b a83d b360 afbd 64f0 1e3d
000001c0: c461 ba3a fa6c 0cbd e8f1 9cbe 8c5c b5bd
000001d0: 4b60 943d 3486 b3bd 5e5e 6d3d 7e4b 333d
000001e0: e395 a9bd 3c67 3cbc 84d4 9dbd 2966 17be
000001f0: a46a 35bd 414d 2cbd 43aa a7bd 7ca1 343d
00000200: 8059 85bc 9d85 97bd a56d c43d 9447 923d
00000210: 8626 5dbd 75b0 ce3d d5ac 07bd b2af 5d3d
00000220: 9ba6 6e3d d5b2 003d da55 23bb c960 0ebd
00000230: 394f f73d ec10 7b3d 6d66 2dbd 66a8 6b3d
00000240: b757 b83d dd91 453d 55b1 afbd b114 dfbc
00000250: bd14 31bd e819 3b3d ddfa c9bc cb2d b13c
00000260: 39da 913d 0f9c a1bc a645 acbd d8a1 093d
00000270: 0558 4739 3e68 983d 2d8d 8d3d 2015 6fbd
00000280: 100d 20bd 9d10 95bd d596 8e3d 67bb f0ba
00000290: 1759 b83d a760 57bd be6a da3d 2a45 033d
000002a0: d4b0 a33d 3051 95bd 949e e53d c089 e93a
000002b0: d674 3f3d c06c cf3d ebe1 5b3c e437 8c3c
000002c0: f76d 0fbc 6024 3fbc 6a9c 613d 4e37 e33d
000002d0: 8769 913d 8d95 d2bc 68fd 9b3d 1b6b 99bd
000002e0: a927 22bd b13b f3bb 1c4d b4ba 792b 9cbd
000002f0: a19f 093c f604 c13c 8b5c 0cbd b537 18bd
00000300: d609 68bd a8d1 6fbc 6755 1abc 16e2 c3bc
00000310: c62f b63d d1cb 8dba d458 5abd 7011 c83d
00000320: 1df4 7fbc 8c36 c1bc ad31 4b3c af92 2d3d
00000330: c387 63bd 0259 96bd 4a6c 2abc a8bc 653d
00000340: 528b c03d a3dc c63d 064d 173d 6a72 33bd
00000350: b4e8 b03d 2304 a3bc 62bf 23bc ee9a e6bc
00000360: 2247 81bc d8fe ee3d eadf cb3d 7a35 8e3d
00000370: 07d7 8cbd eb46 313a af0f 6fbd 0826 00bd
00000380: c783 adbc 8d10 bf3c 47d8 f3bc a933 adbc
00000390: c624 4e3c 26bf 77bd 2b4e 543d c85a 393c
000003a0: 87f8 593d fe31 a73d 8e07 0a3d 3876 503d
000003b0: 7cd1 89bc 9c68 8e3d fe20 2fbd ab40 39bd
000003c0: e4ce 183d 0fb7 9abd 1c38 253e 437c 6e3d
000003d0: ec1a 61bd 8dff 76bd 42e1 92bd 135e 193b
000003e0: bea1 20bd ceb9 2cbd be12 d33d 2160 d1bc
000003f0: c7bd dabc e18b 95bd 581e 183d 1a5e a4bd

bias f4 [3]
-0.04561302 0.011831159 -0.010363348
00000000: b8d4 3abd 7ad7 413c 08cb 29bc
