trained/exp_train_3_3_1111_0.0001_0.001_32_0.95/model/meta_critic_1.pth (torch, 547979 bytes, 7 tensors)

weight f4 [128, 16]
00000000: 2d80 0c3e 02ce 5c3e a9fb 93bd 99e9 18bd
00000010: c07a e9ba 0052 f8bc c089 9d3d dc5e 573e
00000020: 2405 213e 4375 65bd eb17 7b3e 4850 97bd
00000030: 3550 583d 253d 933e 1137 8cbe 4f1d f33d
00000040: 0989 42be 6235 94be aaa1 8a3e a17a 5ebe
00000050: 0d3b 70bd 3187 38be ede4 fc3c 947c 50bd
00000060: f413 92be d2b6 6bbd d469 a5be b961 203e
00000070: 2c3a af3d 5a7d ab3e aae6 dfbd ae66 0abe
00000080: a842 b43e 79d0 c5bd 6db9 8cbe e933 2c3e
00000090: 1de7 4abd 19a9 96be c988 7fbe 25cc 1f3e
000000a0: 678f 883b deba e53d 7fb3 c3be f3ae 3bbc
000000b0: 0d0d f33d c71d d73c bbf7 15be 32c4 f9bd
000000c0: a223 a8be 2daa 983d 8296 2a3d 78e7 5fbe
000000d0: 9d5d cc3b 4014 543e 7149 393c 0e4c 593e
000000e0: 9358 a9be 6d48 f03d a09a c6bd 33da 1e3e
000000f0: b949 dabe 1d7d 21be d927 8e3c 99b3 27be
00000100: 3fec 133d 5f73 b73e 5c2d b6be 1d3f 943e
00000110: 90c1 963e 30c4 143e 44f9 ba3d dac0 14be
00000120: 126a f93d 1002 663c 2472 42bd 66eb 1abe
00000130: bfcf ac3e 4a65 05be 8ea6 a0be 900c 1dbd
00000140: 5b56 0bbe 9e58 90be 6ba3 12be fc6b 85be
00000150: 648c 9c3e 3ce1 dd3d e6d1 293e d25d 3ebd
00000160: 1803 583e 99d3 703d 9e56 87be a350 ef3a
00000170: 6af5 20be 8fb8 0abe d660 0bbe 29e6 16be
00000180: fba5 c33c 980d 2abc 2c5c ac3e 21b4 aabd
00000190: ce7a 24be 94c1 73be a2c5 4a3e 79c6 dfbe
000001a0: 8803 9e3e 53be 1dbd 50f2 5d3e 2486 883d
000001b0: 5960 d63d a379 11be 953f 673e 293a 213d
000001c0: 8286 7ebe bf53 423e d356 57bd 7d30 e33d
000001d0: 0ff7 8ebe 889c 193e bf94 6abc 50b5 143e
000001e0: b831 72be 04a1 c5bd f127 2b3c 7cf1 c63d
000001f0: 0129 c9bc f610 54bc 7793 323d c8a4 953d
00000200: 96f3 c4be 26ea e63e c771 10be e02b 9d3e
00000210: 455c 233e 100d 7a3d 61b3 a63d 3e36 f23d
00000220: e4cf c2bd 6398 bcbc 35a3 903d ff99 923d
00000230: 1385 99be b833 533e f1c8 da3d 8dc6 84bd
00000240: 4a3c 663b e8a6 593e 8783 54be 31b3 50be
00000250: be6f b53d f0db 293c c742 d43b 9258 6dbe
00000260: 2bb8 f9be dd47 13bd a928 80be d32e 963d
00000270: cdf0 93be 6e09 aabd 1130 afbd 2409 57be
00000280: a208 393e c30b a2be 324a c9be 334b 3eba
00000290: aeca a23e e268 f9bc 8450 8ebd b472 663e
000002a0: 9dc1 7a3e e66e f1bd dcc4 67be 2535 51ba
000002b0: 8a77 353e 2894 32be e3e3 66be 88f8 643e
000002c0: 987f 923d fb10 503e df29 443e 966f 91bd
000002d0: fee4 8fbe 32fa 46be 2dac 213d 35b8 033e
000002e0: 30e0 dabd 4739 943e 4759 a5bc b8cd 273e
000002f0: d549 113d cd0a c93e e8ac 873e 8e13 943e
00000300: 592b 95be 2ba7 0fbe ae04 54be 3535 f8bd
00000310: 069d c5bd 0d96 85be 9eef dfbc f4c6 b9bd
00000320: d30f 43be f9d9 ff3c 6c57 e0bc 87af 98be
00000330: 8ad0 5dbe 3610 7f3e efa2 a2be 2b2f d1bd
00000340: 51fc 4fbe 092d 2dbd ed8c 77be 8161 1bbe
00000350: f441 4c3e 4678 91be 6890 38bd f8c3 8ebe
00000360: fb36 a9be 97db 2bbe 1541 64bd 1243 bd3d
00000370: 6915 683d 8b32 7ebd f800 8d3c 9d13 f63e
00000380: bda4 b0be 8dae f0be 4a13 e5be 3f69 fe3d
00000390: 1afe 153e 293e c5be dfa1 99bc 6dc0 4cbd
000003a0: 24a6 393e 9e9b febd bd03 cf3d 11d3 bf3e
000003b0: bea1 2c3d 1e3e 29bd 3902 003e c875 4c3e
000003c0: 5475 39be 235c 81be ba14 02be d390 9a3d
000003d0: e65a 803e 4cc1 ddbd 8efb 4dbd 53f2 943e
000003e0: 84b3 eebd 2ac5 15be ecad a33e 5966 953c
000003f0: 0dea 3fbe 369d 163d c8d0 2fbd ffc8 943e
0.1372077 0.2156296 -0.07225735 -0.03733215 -0.0017813072 -0.030312538 0.07692289 0.2103228
0.15724617 -0.056020033 0.24520843 -0.07388359 0.052810866 0.28757587 -0.27385762 0.118708245
-0.18997587 -0.28946978 0.27076465 -0.21726467 -0.058650065 -0.18020321 0.03087088 -0.050900057
-0.28530848 -0.057547398 -0.32307303 0.15662278 0.08556017 0.33494073 -0.109326676 -0.13515732
0.35207105 -0.09658904 -0.2748522 0.16816677 -0.049536813 -0.29425886 -0.24954523 0.15605219
0.0041674855 0.11217283 -0.38222882 -0.011455285 0.118677236 0.026259316 -0.14645283 -0.121956244
-0.32839686 0.074543335 0.04164744 -0.21865642 0.0062367455 0.2071085 0.011309014 0.21220419
-0.3307539 0.11732564 -0.09697461 0.15512924 -0.4263437 -0.15770383 0.017352985 -0.16377105
0.036113974 0.3583021 -0.3558148 0.28954402 0.2944455 0.14527965 0.09129575 -0.14526692
0.121784344 0.014038578 -0.047472134 -0.1512886 0.33752248 -0.1302692 -0.3137707 -0.03834206
-0.13607161 -0.2819261 -0.14320152 -0.26058948 0.3057586 0.10833976 0.16583976 -0.046476193
0.2109493 0.058795545 -0.2643327 0.0018258285 -0.15718618 -0.13546966 -0.13611159 -0.14736237
0.023882857 -0.010379218 0.33664072 -0.08335138 -0.16062471 -0.23804313 0.19801953 -0.4370611
0.3086207 -0.038511585 0.21674466 0.0666621 0.104675956 -0.14206557 0.22582848 0.039362106
-0.24855998 0.18977259 -0.052573036 0.11093233 -0.27922866 0.15001118 -0.01431769 0.1452229
-0.23651779 -0.09649852 0.0104465345 0.09714028 -0.024555685 -0.012943497 0.043597665 0.0730682
-0.3846709 0.45100516 -0.14105903 0.30697536 0.15953167 0.061047614 0.081396826 0.11826752
-0.09512308 -0.023021882 0.07062379 0.07158279 -0.2998434 0.20625198 0.10682858 -0.06483183
0.003513115 0.21255076 -0.20753299 -0.20380856 0.08859204 0.010367379 0.006477687 -0.23178318
-0.48773322 -0.035957206 -0.2503102 0.0733315 -0.28894654 -0.0830258 -0.0855409 -0.2099958
0.180697 -0.31649598 -0.3931442 -0.00072591304 0.31795257 -0.03044552 -0.06948951 0.22504693
0.2448792 -0.1178873 -0.2263369 -0.00079806364 0.17721382 -0.1743933 -0.2254787 0.22360432
0.07153243 0.20318978 0.19156598 -0.071013615 -0.28104395 -0.1943138 0.03947084 0.12863238
-0.106872916 0.2894995 -0.020184172 0.16387069 0.035470802 0.39266053 0.26499104 0.2892117
-0.29134634 -0.14028613 -0.2070491 -0.121195234 -0.096490905 -0.26091042 -0.027335938 -0.090711504
-0.19049005 0.031231867 -0.027385436 -0.29821417 -0.21661583 0.24908528 -0.31764933 -0.10214075
-0.20311095 -0.042279277 -0.24174853 -0.15173914 0.19947034 -0.28412074 -0.04505959 -0.27883887
-0.3304976 -0.16782986 -0.05572613 0.09241308 0.056661043 -0.06205992 0.017212376 0.4806184
-0.34500685 -0.47008172 -0.4474128 0.12422418 0.14647713 -0.38523987 -0.018753944 -0.0499882
0.18129784 -0.124320254 0.10108135 0.37465718 0.042146437 -0.041319005 0.12500848 0.19966805
-0.18111163 -0.25265607 -0.12703219 0.07547154 0.2506935 -0.10827884 -0.05028873 0.2909113
-0.11655334 -0.14625993 0.3196863 0.01823728 -0.18741627 0.03677102 -0.04292372 0.29059598

bias f4 [128]
00000000: 679b ef3e a0aa 0e3f bf9a 57bc 570e c1bc
00000010: c606 f03e 7111 893e 1424 ddbe 0fff 943e
00000020: db49 813e 3545 cebe c8f4 6d3e 841e ee3e
00000030: 389f 0f3f bd0e a1be 211e 0c3d 4a73 fdbc
00000040: 0ab7 8ebc dceb 96bd bd29 ff3d 5296 3bbe
00000050: b28a ea3d 4c8d 0a3f a1ba e6bc 4bc6 503d
00000060: 64a0 f53d b3f8 4dbe 7a70 583d 3815 af3d
00000070: 772a 8f3e b0dd 013d d4d2 3f3e a7bb 1b3e
00000080: 1e6e 04bf 88d2 093e f6c4 b3be 29f3 2c3e
00000090: 67bb d83e 02af fe3c 0eeb 6ebe d00c 2c3e
000000a0: 7d9a fd3d 0bf8 343d cf2d e53e 7d7d e1bd
000000b0: 7657 3b3b 6f28 073f 1d63 afbe 537a a63e
000000c0: 9b46 a73e f629 34be 85db f63e b7cb 793e
000000d0: 65dc a43e 9619 533e 7045 233e 4fef c93e
000000e0: a48e 84be b5f3 9a3e 58df 913d 735a 7abd
000000f0: 8a30 b83d 70d5 78be 2ca0 a13d c442 f23e
00000100: d5f6 39be 6ce2 183e cb82 f63e 1913 b43e
00000110: fc77 273f f884 9a3e bcdd 863e a048 91bd
00000120: 81f9 d6be fec5 e63e bc68 b53e 55fc bb3e
00000130: fca9 9e3d fff2 16be 343f 063f 580f 82be
00000140: 4686 253c 2bdd e43e 9958 c53e 1f81 eb3d
00000150: dbc2 9b3e 4f75 483e 84ce 0fbe c99a 0b3f
00000160: 7bbf bd3c 0206 ad3e 4443 22be a742 8a3d
00000170: 8000 733e 8699 23bd 1ad3 d03e c0d0 5ebd
00000180: afcc ecbe 37c8 4dbe bfc4 05bd 9f50 a63e
00000190: 23eb 4d3e b888 143f 47b7 35bd 2e11 ee3d
000001a0: 7758 d83e b7c9 d33e 1ca7 103d 116a 673e
000001b0: aedb df3e 905b a03e 1123 d3bd b0ba 43be
000001c0: 9cc5 ef3e d5cd fa3e 5828 4ebb 084d 433e
000001d0: 1dc4 313e b4e3 cebe 526b 96be b4b0 bf3e
000001e0: 86e3 893e 1530 293f a158 c7be e5c7 a63e
000001f0: e606 213f 6ee9 ef3e 9876 203f 4e8c 063f
0.4679825 0.55729103 -0.013159453 -0.023566408 0.46880168 0.2677112 -0.43191588 0.29100844
0.2525166 -0.40287176 0.23237908 0.46507657 0.56102324 -0.31456557 0.03420842 -0.030938763
-0.017421264 -0.07369205 0.12459133 -0.18319061 0.11452235 0.5412185 -0.028165163 0.050970357
0.11993483 -0.20114402 0.05284164 0.08548969 0.27962086 0.03170556 0.18732768 0.15208302
-0.51730525 0.13459218 -0.35111207 0.16889633 0.42330477 0.03108931 -0.23331854 0.16801763
0.12382982 0.044181865 0.44761512 -0.11010263 0.0028586066 0.5279607 -0.34255305 0.325152
0.32671055 -0.17594132 0.48214355 0.24394117 0.32199398 0.20615229 0.15944457 0.3944039
-0.25890076 0.3026406 0.071226776 -0.061121415 0.08993633 -0.2430017 0.078918785 0.47316563
-0.18160565 0.14930123 0.48146662 0.3517082 0.65417457 0.30179572 0.26341045 -0.0709393
-0.4198723 0.4507293 0.35431468 0.36715952 0.07747266 -0.14741133 0.5244019 -0.2540233
0.010102814 0.44699988 0.38544157 0.11499237 0.304221 0.19576 -0.14043623 0.5453306
0.023162594 0.33793646 -0.15845972 0.06750994 0.2373066 -0.039941333 0.40786058 -0.0543983
-0.4624991 -0.20095907 -0.032658335 0.32483384 0.20109229 0.58021116 -0.04436424 0.116243705
0.42254993 0.41364834 0.035315618 0.22599055 0.4372229 0.31319857 -0.10309423 -0.19114184
0.4683045 0.48985162 -0.0031457152 0.19072354 0.17359968 -0.404081 -0.29378754 0.374395
0.269314 0.6608899 -0.38934806 0.32574382 0.6290115 0.4685778 0.6268096 0.5255784

weight f4 [256, 393]
00000000: 6221 50bd 2d92 93bc 6dff 983d f8ab 943b
00000010: 540c 8dbb 5169 b23c 7abd e5bd dc74 4cbc
00000020: 8c14 46bd 8fff f0bd 8c90 ca3d 3536 4dbd
00000030: 59d8 113d 0b9c 47be 6e67 5a3d 1505 4e3d
00000040: 4722 bb3d 7eb2 273d d7c6 b83c 2c0c c43c
00000050: ef05 90bd 5f4d 3d3e 409f 1d3d 1256 6c3d
00000060: ef78 26bc 9497 eebd a07b 82bd 87e3 82bd
00000070: 293e 68bd 4dd8 e9bc 64c7 733d 7fc6 54bd
00000080: 3500 1bbe 9ed5 053d acdb febd 70d8 a2bd
00000090: d7b5 f0bc 9c3f 933a 2437 f2bd 212b 03bd
000000a0: 8103 ec3b cbbc 9a3d 1124 5a3a 451d eeb9
000000b0: 873a bbbd 79a4 223e f7a8 ca3d 3d6a 90bc
000000c0: 7ff3 993c 428b c7bd 3e22 84bc c766 293b
000000d0: a12e 95bc 4df4 593d 92c0 e33b 52ef 993d
000000e0: 4e1e 4d3d a2b7 8fbd d6f2 823d 1ccd 1f3d
000000f0: 0f1a 2cbc ae9f 9abd b986 e13b 1a4a a83c
00000100: ce58 f9bc a02e f5bc 11d0 bc3d a91a d23b
00000110: 5630 be3d 882a 7b3c 54fd 9a3c 7913 dabd
00000120: 8e23 a6bd 1e94 d43b 7b73 d23d 2743 3dba
00000130: dea7 6bbd a2ea c9ba 804f e5bc 109a 8f3c
00000140: 8d2a 14be 1f40 57bd e79d 0f3e 1888 5cbd
00000150: 8241 dc3c cf9d db3c f7bf 0ebd f0ff 07bc
00000160: 74b9 4bbd 740f 563d 510d 00be 1ea7 a53d
00000170: f15b 9bba ebfa 9b3d 89fc 853d fada 1abc
00000180: aa7d a2bc bf25 063e bb07 3bbd f5ae 023d
00000190: 3d9d 9e3c 83c4 3b3d 2f42 303d cc89 403d
000001a0: 93e1 b0bc eec2 81bd e675 3ebd 4c83 d7bd
000001b0: 30ce 903d 7bb6 ccbc 38d6 bd3c 806b f8bd
000001c0: 7d77 39bd 1eaa 8b3d e8d2 893d 73e9 cd3c
000001d0: af63 a6bd 5ca0 babd ea9a aebd 33da 273d
000001e0: c979 3ebd 2049 7a3d ab0d 14be 1ac9 613d
000001f0: 254e 4e3d 2d43 6e3d a1d5 d33d 596b 953b
00000200: b0a1 06be 73d1 0bbe 615a 563e 61c6 9b3b
00000210: ac3e 8538 8d9f b9bc 195d 6abd 22a5 c0bb
00000220: 085d 16ba 685b dc3d f0bb 443d 40fb e63c
00000230: feae 97bd 8a1f a53d f987 85bd c4db 8f3d
00000240: 5c36 12bd 27a6 a239 9e4d 96bc 5125 d2bc
00000250: 1a38 af3d 9dc6 a63d 06e8 35be d472 8c3c
00000260: 13eb 70bc cc80 4dbd e389 6c3d b3c5 b53d
00000270: 1ed1 bdbd e432 a23c bff5 9b3d 3e3e 2b3d
00000280: da17 1f3d 4db4 2b3d 1b05 163e ba35 17bd
00000290: d492 193d 13bb bb3c 9000 24bd 7be0 023d
000002a0: 756e 5c3d c4d3 19be f893 543d 7339 11bc
000002b0: ef3b 73bd 9bcc 8f3c 23a5 73bd 1f58 cf3c
000002c0: 03cd 08ba 63bd 9ebd b6dc 923d f36c 773d
000002d0: fca3 dcbd d757 2a3d 5eee e7bc 654d f7bc
000002e0: 0725 a73d 415b 49bd 83d0 09b5 a61e 67bb
000002f0: bfe2 d8bc e9eb b8bb f549 db3d 1977 b43d
00000300: f79a 0dbc e2c2 1d3d 5fb6 1d3d 9f82 0dbd
00000310: dc59 debd dbf5 073d 4957 4cbd 2ea8 f13d
00000320: 65ea 0dbb 62ca 14bb c5a3 bd3b 25c2 2dbd
00000330: 113a 553d 2986 603c a503 52bd e713 07be
00000340: 2c7f 4abd 8c0d 023d fb43 983d 90b7 dc3d
00000350: bb00 353c 1c0b fe3d 841f 61bd e432 7e3d
00000360: 2485 79bd b06a 0b3c 7920 09bc 07b9 48bc
00000370: 1b78 f23b cd19 e53c ffe0 b5b9 aeb1 003e
00000380: 0af9 ddbb 405f cf3c be7e 37bd dc34 dabd
00000390: 19f9 c8bd 98c0 9abd 76df 213d ed51 eb3b
000003a0: b356 93bd d0d5 5cbd 3f91 6a3d 6699 bdbc
000003b0: cca6 293d 03d6 953d f87a 4f3c 3e26 4a3d
000003c0: 002a 0bbc b85e c23c 7a80 ae3c 3695 a5bd
000003d0: d701 cdbb e896 673d 8fc5 b33c 6efb 173e
000003e0: b1c4 77bd 697d 573c d07e 20bd 547d adbc
000003f0: d355 903d b277 47bc 4ede 04bd d778 113d
-0.050813086 -0.018014038 0.074705936 0.004537102 -0.004304448 0.021778734 -0.112177804 -0.012479033
-0.04835944 -0.11767494 0.098908514 -0.050100524 0.035606716 -0.1949312 0.053321294 0.050297815
0.09137397 0.040941708 0.022555752 0.023931585 -0.07032382 0.18486546 0.03848195 0.05769927
-0.010160669 -0.11650005 -0.06371236 -0.06391054 -0.056699906 -0.028545523 0.059516326 -0.051947113
-0.15136798 0.032674424 -0.12444243 -0.079514384 -0.029383583 0.0011234167 -0.118269235 -0.032023553
0.007202566 0.07555541 0.00083214144 -0.00045416705 -0.091420226 0.15883054 0.09895509 -0.017628783
0.018792866 -0.09743358 -0.01612961 0.0025848614 -0.018210711 0.0532115 0.0069504464 0.0751635
0.05007773 -0.07017447 0.063939735 0.039013967 -0.01050426 -0.07549988 0.0068825153 0.020543147
-0.030437853 -0.02992946 0.09219373 0.0064118695 0.09286563 0.015329964 0.018919624 -0.10648245
-0.0811225 0.0064873835 0.102759324 -0.00072197843 -0.057533138 -0.0015405009 -0.02799201 0.017529517
-0.14469357 -0.052551385 0.14025079 -0.053840727 0.026886705 0.026808647 -0.03485104 -0.008300766
-0.04973741 0.05226083 -0.1250508 0.08088516 -0.0011852962 0.07616218 0.06542308 -0.009451622
-0.019835312 0.13100336 -0.04566167 0.031905133 0.019362086 0.045841705 0.043031868 0.047006413
-0.021591937 -0.06336008 -0.046499155 -0.1052309 0.07070577 -0.024989357 0.023173437 -0.12129879
-0.04527997 0.06819557 0.0672968 0.025135731 -0.08124482 -0.091126174 -0.08525641 0.040979575
-0.046502862 0.061104894 -0.14458339 0.055123426 0.050367493 0.058169533 0.10343481 0.004559916
-0.13147616 -0.13654117 0.20932914 0.004753873 6.353608e-05 -0.022659088 -0.05721769 -0.0058790604
-0.00057359086 0.10759622 0.048030794 0.028195977 -0.07406424 0.08062656 -0.06520075 0.07024339
-0.035696372 0.0003102284 -0.018347558 -0.02565256 0.085556224 0.08143351 -0.17764291 0.017144598
-0.014704484 -0.05017166 0.057748687 0.08875599 -0.092684016 0.019799657 0.07615232 0.041807406
0.038841106 0.041919995 0.14650385 -0.036916472 0.03749354 0.022916352 -0.0400396 0.031952363
0.053816278 -0.15022188 0.051898926 -0.008863795 -0.05938333 0.017553618 -0.05948366 0.025310574
-0.00052185374 -0.077509664 0.071710035 0.060406636 -0.10773465 0.041587677 -0.028311905 -0.030188272
0.08161359 -0.049159292 -5.13399e-07 -0.003526607 -0.026475308 -0.005643357 0.107074656 0.088117786
-0.0086429035 0.038515933 0.038504 -0.034548398 -0.10856983 0.03319345 -0.04988793 0.11799656
-0.0021654603 -0.0022703637 0.005787345 -0.04242148 0.05205733 0.013703861 -0.051273007 -0.13191186
-0.049437687 0.0317512 0.07434841 0.10777199 0.011047537 0.12404463 -0.054961696 0.06206025
-0.06091799 0.008509323 -0.0083695585 -0.012251145 0.0073995716 0.027966404 -0.00034690645 0.1256778
-0.0067740725 0.025313973 -0.044798605 -0.106546134 -0.098131366 -0.075562656 0.03951975 0.007181397
-0.07194271 -0.053914845 0.057267424 -0.023144435 0.041418836 0.0731621 0.012663595 0.049352877
-0.0084939 0.023726806 0.021301497 -0.080851 -0.006256323 0.0565404 0.02194479 0.14842007
-0.060490314 0.013152459 -0.039183438 -0.021177925 0.0704762 -0.012174534 -0.03243857 0.035515632

bias f4 [256]
00000000: 2518 953e 9878 a93e 237f c23e a1f3 c13e
00000010: 254a d73e f054 5439 141d ad3e 50cd bc3e
00000020: 7e57 ce3e 6565 c13e d2b3 8c3e e7ec d03e
00000030: debb 1abd 71e4 b63e afa4 c63e 86f2 c43e
00000040: 85c7 b83e 6ed8 d23e 9da2 de3c b296 db3e
00000050: 9a92 aa3c 0170 d63e 41e3 c73e 84b6 ba3e
00000060: b466 093c 45e5 cf3e 08a3 233d 5da4 d03e
00000070: aa34 58bd a3d2 bb3e 5051 c83e 1caa a1bd
00000080: b50e ab3e f197 da3e 6ccb 22bd 94f0 443c
00000090: 1a62 bd3e 47d1 cd3e a638 b53e 1de4 ad3e
000000a0: 32f6 1ebd a524 3ebd 35f6 c83e 6824 d53e
000000b0: fe5e aabc 5634 d23e 972d 9e3e e98a ad3e
000000c0: 18f3 d03e 74f1 3cbc afc9 a73e 505b bc3e
000000d0: 8901 e03e 66c1 c0bc cb3d c93e 4cff b73e
000000e0: 790a bcbb 4b31 db3e e497 c43e ec04 8e3e
000000f0: 9dd0 aa3e ca52 b63e a878 b33e 0085 04bd
00000100: 0abd b63e 6e85 d23e 959d b93e a434 ce3e
00000110: 7570 de3e 9b7f b83e e746 683c b8e0 ab3e
00000120: 2d58 1e3d e08d 9a3e 934b c33e 0761 6bbd
00000130: 5eec 933e 3942 d13e d456 80ba 0c9a d53e
00000140: 3e4b a23e 91e6 a93e d959 d33e c7f9 a53e
00000150: 9b4a cd3e 2dee b13e 68d0 b73e dd96 393a
00000160: 61bc b13e 5aa0 b33e 91b0 d53e 2ee8 c83c
00000170: 6070 da3e 663e b63e f42a d43e 8d2b 863e
00000180: 9df6 9a3e 3583 16bd 7123 b63e 2496 b83e
00000190: fbfc cd3e 8bcf c33e 9ca8 c33e 5261 35bd
000001a0: 3303 973e 1e16 c13e deb2 d83e 054f df3e
000001b0: a6fa b13e 682d 3dbd 3ed6 ac3e 33a2 ad3e
000001c0: 31f4 bc3e f6ae b93e 275d d73e f976 dd3e
000001d0: 5e8f d73e 5161 af3e bfd1 c63e 6c97 c03e
000001e0: f3b5 b43e f9c3 903e 69ad b03e f899 b53e
000001f0: b692 bb3e f3e7 b13e b031 ba3e 4ea2 be3e
00000200: 1498 cebc 597e db3e 9451 a03e ae9d c13e
00000210: 92af 883e 4336 b83e 8a01 c33e c9f2 af3e
00000220: 977f b53e ba56 babb bad1 8dbc d833 d83e
00000230: 81c3 8f3e a52b 203d ed41 e13e 8c26 01bb
00000240: c1d9 163d 2f41 793c 9650 93bb 4d54 ad3e
00000250: 18d5 cb3e a3c1 99bc d3a4 d93e 725d b83e
00000260: 1999 dd3e 1ba4 c33e 87a5 c53e f67f 2cbd
00000270: fcd7 473e 22ec ba3e 68ad 5bbc 5c6a af3e
00000280: f07a c13e 8167 c13e 3b10 d93e ce4d 7f3e
00000290: fdf5 ac3e 4fd7 d53e a510 033d af5b c83e
000002a0: 0753 9c3e bedf b33e 22c2 a43e 65b3 de3e
000002b0: b758 b4bb 5717 07bd 3a97 aa3e f5fa d13e
000002c0: 386f 973c 6f0c 843e 6bdb eaba 343d 9f3e
000002d0: 7c54 0bbc 851e b33e dd83 ac3e b674 1b3d
000002e0: a6f1 b23e e772 913e 31d4 c33e 14f3 893e
000002f0: 6279 e83e 5755 0b3f 30a8 d23e 51cc bf3e
00000300: 17b4 c63e bc44 c23e e4da bf3e ebb5 113f
00000310: b18b 973c dd8e b73e 474a b13e d44d a23e
00000320: 9f7d b83a b6bd e4bc ce7f b33e 3317 cd3e
00000330: fc99 b63e adf2 df3e f047 a23e 8e58 c03e
00000340: e927 b43c 19a7 b13e 9240 d33e 1566 a63e
00000350: 10e4 e63e 28e4 af3e e20b bb3e d48c d03e
00000360: ad28 c03e c0cf a43e 8229 c13e b775 09bd
00000370: 7e81 d03e 1f22 b93e a0ae d93e 80be c33e
00000380: a125 ca3e 9401 ad3e 3ce2 b53e 5008 ca3e
00000390: 0e16 a73e 14a4 403a a87e d23e 7a2d a73e
000003a0: e070 003c bb41 ba3e d461 9c3e 5938 833e
000003b0: be3c dd3e 610c a43e 4828 9a3e 13a1 853e
000003c0: 7b78 af3e 1f0a bf3e 3123 cc3e b0a6 d73e
000003d0: 4d9b d03e 1814 d53e ba0a 223d 1c2b c5bc
000003e0: 2aec ad3e 43b4 a83e 52b0 de3e a7d5 cd3e
000003f0: 59f9 d13c 4317 bc3e 21bd b53e cc74 d33e
0.29119983 0.33099818 0.37987623 0.37881187 0.42048755 0.00020249537 0.33811247 0.3687539
0.40301126 0.3777267 0.27480942 0.40805742 -0.03777682 0.35721162 0.3879752 0.3846628
0.3608972 0.41180748 0.02717715 0.4288841 0.020821858 0.41882327 0.39040568 0.36467373
0.008386303 0.40604606 0.0399504 0.407504 -0.0527846 0.3668414 0.39124537 -0.07893774
0.33409658 0.42694047 -0.03974478 0.012020249 0.36988908 0.40198728 0.35394782 0.339631
-0.03880901 -0.046421666 0.3925034 0.41629338 -0.020797249 0.41055554 0.30894157 0.33895043
0.40810466 -0.011532176 0.3277106 0.36788416 0.4375117 -0.02352972 0.39304957 0.35936964
-0.005738553 0.42811045 0.38397133 0.2773813 0.33362284 0.35610038 0.3505299 -0.0323534
0.356911 0.41117424 0.36253038 0.40274537 0.43445173 0.36034855 0.014177061 0.33569884
0.03865831 0.30186367 0.38143596 -0.05746558 0.2889127 0.40870836 -0.0009791502 0.4171909
0.3169803 0.3318372 0.41279486 0.32417127 0.40095982 0.34752026 0.3590119 0.00070796703
0.34714034 0.35083276 0.41736272 0.024524774 0.4266386 0.3559448 0.4143902 0.26205102
0.30266276 -0.036746223 0.35573915 0.36052048 0.4023207 0.3824428 0.38214576 -0.044282265
0.29494628 0.37712187 0.42323965 0.43614975 0.34761542 -0.04618588 0.33757204 0.3391281
0.36905053 0.36266297 0.42063257 0.4325483 0.42101568 0.34253934 0.388319 0.37615526
0.35295066 0.28274515 0.345073 0.3546903 0.3663537 0.34747276 0.36366034 0.37233204
-0.025219 0.42869833 0.3131224 0.37815613 0.2669645 0.35978898 0.38087112 0.34364918
0.35448906 -0.005686608 -0.01731192 0.42227054 0.28078845 0.039104123 0.4399561 -0.0019706814
0.03682876 0.015213295 -0.0044956906 0.3385338 0.39811015 -0.018769091 0.42508563 0.36008793
0.43280867 0.3821114 0.3860285 -0.04211422 0.19515985 0.3650828 -0.0134080425 0.34260833
0.37789106 0.3777428 0.42395195 0.24932024 0.33781424 0.4176583 0.031998295 0.3913245
0.30532095 0.3513164 0.32179362 0.43496242 -0.0055037397 -0.032981243 0.33318502 0.41011778
0.01848565 0.25790736 -0.0017918175 0.31101382 -0.008504029 0.34984222 0.33694354 0.0379531
0.34949988 0.28407976 0.38247827 0.26943266 0.45405108 0.54427093 0.41143942 0.3746057
0.38809273 0.37943065 0.37471688 0.5691821 0.018499227 0.35851184 0.34626982 0.31700003
0.0014075524 -0.027922492 0.35058445 0.40056762 0.35664356 0.43739834 0.3169551 0.37567562
0.021991687 0.34697798 0.412602 0.32499757 0.45095873 0.34353757 0.36532503 0.40732443
0.37531033 0.3218975 0.3772698 -0.033559527 0.40723795 0.36158845 0.4251604 0.38231277
0.39481834 0.33790267 0.35524166 0.39459467 0.32634014 0.00073486683 0.41112256 0.32651883
0.0078394115 0.36378273 0.30543387 0.25628927 0.43210405 0.32040694 0.30108857 0.26099452
0.34271607 0.3731241 0.398706 0.4211936 0.40743485 0.41616893 0.03956101 -0.024068408
0.3396924 0.3295003 0.43493897 0.40202066 0.025631594 0.36736497 0.35495856 0.41300046

weight f4 [128, 256]
00000000: f1ed 253d b6d2 c53c 310f 883d 09a4 ab3d
00000010: 9a67 6b3d f238 493c f31c 29bc 5695 863b
00000020: 9b3e 373b 60b1 863d c4e4 38bd 69df 09bd
00000030: d77e f8bc eb51 68bd f266 a8bc 2db1 953d
00000040: b295 13bd 7a47 e93c 12fa a139 be17 80bb
00000050: 62ee fcbc b456 3a3f 4ab5 403d c449 c0bb
00000060: cfb4 c0bc 3519 28bd c0e3 2bbd bc7c 6c3d
00000070: 1e72 153d 52b8 fdbc f8df 8ebc 9cee b93c
00000080: e559 0cbd cb7c 463d 3707 393d 66c4 113d
00000090: d56e 063d fc0e 113f 37b4 8c3d f0de 7cbc
000000a0: e9c4 313d f14f d2bc 8d23 f23c ec08 403d
000000b0: c789 523d 739f 843b ecc3 06bd 435e a3bc
000000c0: fd33 a33d 13f5 51bd 0df3 1c3d 59bd e93c
000000d0: 600b 9d3d 81b5 a73c 2412 0ebc d9cd 1d3f
000000e0: 1f65 b73c b2a5 c43b 127e 4e3b 0afd 2e3d
000000f0: 9b6a 3bbc fca8 4b3e c76f 92bd ec78 5a3d
00000100: 58de e73e ceb4 5f3d add8 973b 5d50 b9bc
00000110: 27e2 463d b182 853d 73c2 b53c a758 5bbb
00000120: f89f 2cbb 378d 9e3b eae8 823d 59d0 433d
00000130: e728 983e 12d5 603d 8854 a4bc a58d 47bc
00000140: 920e db3c c1c2 50bc aaee b2bc 2bc6 42bd
00000150: 1da1 7d3d 21cf 2cbd e253 963d ffad 0bbd
00000160: c78e a639 4a16 5b3d 1e8c 3f3f b6d3 6c3d
00000170: 1bc0 3dbc a17b 7cbd 46c7 33bd 9515 32bd
00000180: 25be 38bd 9191 cbbc e0b6 353d 3fe7 403d
00000190: e163 393d eb45 1d3c b0f5 2e3c 1f44 09bd
000001a0: e045 14bd 3ddd 0dbd 939f 913d d405 4b3d
000001b0: ce8c e8bc 1504 14bd 6f64 703d 1352 803d
000001c0: 80aa 32bd 274d ab3d 7d22 e93c c2b2 633b
000001d0: 3551 823d b2ce 83bc 4f9c 123c e9f6 8b3d
000001e0: 5cd1 25bd d0aa 833c 863b 593d cec2 523c
000001f0: daa1 8a3d e8bc 36bd 38f1 c63c e732 a83d
00000200: b728 72bd 28c3 573b 5c74 9f3e ca8f 6e3d
00000210: 5767 53b8 2e1a 1fbd 4aa7 303c 7104 c4bb
00000220: 99e7 bc3c 432f 3bbb 4c0e cf3b ccc0 243d
00000230: 2cb5 523d ee0f bebc 7c74 573d 8abd d13c
00000240: 0863 763d db5f 8d3c b8e3 f93c 523b 63bd
00000250: 3dfc 0abd b472 4fbd 97a9 973c 329b 1f3d
00000260: 1631 a23d be72 cc3c cd3a 12bd 64b8 6ebd
00000270: 74c2 413d e2c3 98ba dd42 9f3c 5b58 0c3f
00000280: ee46 6b3c 5bfe 203d 591c 0f3d 0e94 d1bb
00000290: 343a 563d d3f3 883c 9278 49bd 977f 69bb
000002a0: ff3a 80bc 7012 0d3c 5346 df3c 22d1 c7bc
000002b0: 5b26 733d a971 573d cab2 953c a9aa 153d
000002c0: 3ef3 2f3d 1ab5 903c 69e0 153d 25f0 58bd
000002d0: 95fe 0c3d 2e7f 133d c6f4 98bb dbe7 133d
000002e0: 6050 113d a738 463d c8c7 02bc cfae 8f3b
000002f0: a2c6 253f 93f2 513f c3da 0d3f c84f 57bd
00000300: 0c70 2cbd f8b9 343d e8b0 ad3b 955e 573f
00000310: 514c f3bc b6d3 d3bb cd69 34bc b1d5 23bc
00000320: 366b 74bd b2cb 813d 6d1a 8c3c afba a3bc
00000330: c089 a43c c7e7 0c3d c870 aabc 0ab6 893d
00000340: 0871 113d a522 833d 5a7d 0a3d f05e b43c
00000350: 450b 5f3f ea14 c43c d0e9 0a3b 7115 28bd
00000360: 4a87 783c cdee 61bd 7abe 9d3d 1dc8 45bb
00000370: f5df 323d 3b40 8ebb e110 f13c 63fe 173d
00000380: 41dc 963d 269e ca3c 69a9 033f 0ab2 203d
00000390: 0230 ce3c e6f4 c73c ee71 2f3d b7b5 013d
000003a0: 41f2 0cbd 4b11 583d d488 263d 747c 50bd
000003b0: fac3 413f edc0 563d ea88 2fbd 8689 71bd
000003c0: 4f74 943d ed32 d3bc ccc8 4d3d 7eed 74bc
000003d0: f162 0e3d 6f91 a33b 6071 86b9 87d9 2a3d
000003e0: 7eda 5c3d 23ff b9bc 9e6e ac3d 95fd dfbc
000003f0: 1280 0ebd 145b 233b 9b44 21bd 931a 1bbd
0.04051012 0.024148326 0.066435225 0.083808966 0.05747185 0.012281643 -0.010321843 0.0041071577
0.00279609 0.065768 -0.045140043 -0.033660326 -0.03033392 -0.056718748 -0.0205569 0.07309184
-0.036031432 0.028476465 0.0003089463 -0.0039090803 -0.030875389 0.7278855 0.04704789 -0.0058681685
-0.023523716 -0.041039664 -0.041965246 0.057736143 0.036485784 -0.03097168 -0.017440781 0.022696786
-0.034265418 0.048458856 0.045172896 0.03558769 0.03282054 0.5666349 0.06870311 -0.015434012
0.04340068 -0.025672885 0.029557968 0.04688351 0.051400926 0.004047328 -0.03290169 -0.019942408
0.079689 -0.05125911 0.03831773 0.02853267 0.07668185 0.02047229 -0.008671317 0.61642224
0.022387085 0.0060011977 0.003150825 0.042721786 -0.011438991 0.19888681 -0.07150226 0.053337976
0.45286822 0.05461579 0.004633984 -0.022621328 0.04855552 0.06519068 0.022187447 -0.003346959
-0.0026340466 0.0048386115 0.06392081 0.047806118 0.29718706 0.0548907 -0.020059839 -0.012179767
0.026740346 -0.012741745 -0.02184232 -0.04755227 0.061921228 -0.04218972 0.07340218 -0.034101482
0.00031768365 0.053488053 0.74823177 0.05781909 -0.011581446 -0.06164134 -0.043891214 -0.043477613
-0.04510321 -0.024849685 0.044363856 0.047095533 0.045261268 0.009599189 0.010678694 -0.03351223
-0.03619945 -0.034634817 0.071105145 0.049566105 -0.028387453 -0.036136705 0.05868953 0.062656544
-0.043619633 0.08364325 0.028458828 0.0034744 0.06363145 -0.016089771 0.0089484 0.06834204
-0.040482864 0.01607266 0.05303528 0.012863828 0.06769152 -0.04461375 0.024284944 0.08212834
-0.05912086 0.0032922719 0.31143463 0.058242597 -5.0402563e-05 -0.038843326 0.010782072 -0.005981975
0.023059653 -0.0028562106 0.006318843 0.040222928 0.05144231 -0.023200955 0.052601323 0.025603075
0.060153037 0.017257622 0.030504093 -0.055476494 -0.03393196 -0.0506465 0.018513484 0.038966365
0.07919519 0.024957057 -0.035700608 -0.058281317 0.047304586 -0.0011655057 0.019441063 0.5482232
0.014360173 0.039305072 0.034939144 -0.0063958233 0.0523016 0.016717827 -0.04918725 -0.0035629028
-0.015653132 0.008610353 0.027255213 -0.024391714 0.05936275 0.05259863 0.01827373 0.036539707
0.042956583 0.017664481 0.036590967 -0.052963395 0.034422476 0.03600996 -0.004667851 0.036109786
0.035477042 0.04839387 -0.007982202 0.0043848525 0.64756215 0.82010764 0.5541193 -0.05256632
-0.042099044 0.044122666 0.00530063 0.84128696 -0.029699476 -0.006464447 -0.011011553 -0.0099996785
-0.059672557 0.0633768 0.017102445 -0.019986479 0.020085216 0.034400728 -0.020805731 0.06724174
0.035508186 0.06403092 0.03381095 0.022017926 0.8712657 0.023935754 0.0021196492 -0.041036073
0.015168974 -0.05515938 0.07702346 -0.0030179091 0.043670613 -0.004341153 0.029426994 0.037107836
0.07366229 0.024733614 0.51430374 0.03923229 0.025169376 0.024408769 0.04283326 0.031667437
-0.03441072 0.052750867 0.040657833 -0.050899938 0.7568966 0.052430082 -0.04285518 -0.058969043
0.072487466 -0.02578112 0.050240323 -0.014949201 0.034762327 0.0049917023 -0.00025642943 0.041711356
0.053919308 -0.022704666 0.08419536 -0.027342597 -0.034790106 0.0024926113 -0.039372068 -0.03786714

bias f4 [128]
00000000: 473f e63e cf93 c73e eb7f 5e3b 6217 df3e
00000010: f622 153d 0bcd 67bd 6056 5abd d275 be3e
00000020: db6b d53e 198a b93e 0b93 b73e 8f6e d73e
00000030: 88ad 4b3d 3d45 da3e 998c d33c 011a 463d
00000040: ebc3 c23e 55f0 d83e 20fb 59bd 17e9 ac3e
00000050: 35d0 d13e 5a42 4c3d 6147 d23e b588 cb3e
00000060: 3e6c d53e d758 703c e759 de3e a49f 193d
00000070: f80f 5ebb 39d2 063c ac3b f9bb a9e7 dcba
00000080: 646e 98bb 3fc4 87bd 2f19 b53e 84bf 503d
00000090: 2558 1ebd 28c5 bc3e 4f04 d53e 4924 dfbc
000000a0: 7d09 b63e 5277 e33e 075a d83e 6cd2 383d
000000b0: 3f9c d73e 8a59 df3e a032 d63e ae82 833c
000000c0: 82df d63e 75bb 03bd 6faa e93e d90f 3fbd
000000d0: adf6 ba3e 61b6 e33e b247 60bd 4643 30bc
000000e0: 8481 ad3e bcf1 6cbd 9517 fb3e 17f9 ad3e
000000f0: 4be9 a73c a6b8 af3e 4998 343d fcad d33e
00000100: a8f2 513d 0bf5 8cbd bce4 ca3e 9fd9 c93e
00000110: c728 b83e 5d1f e93e 68d5 96bc e4cf d33e
00000120: 30fd d13e 8c48 2ebd da8c 9dbb ef2e 93bd
00000130: acdf e4bc 989c fc3e 0932 c23e 4dfc d23c
00000140: 030a 4c3d bc39 62bd 1387 e8bb d1f7 033d
00000150: e7a1 103d a976 bd3e 0f27 d73e da07 b33e
00000160: 33ac e5bc b854 c53e 0a1d bb3e e2cd d83e
00000170: dbb5 d33e 23cb 183d ea4a da3e eba5 873c
00000180: 379a c43e 0786 0dbd 25e7 eb3e 335b 88bd
00000190: 5218 233d 7449 693a 16e3 233d 62bc e73e
000001a0: 56f5 c33e 31cc ae3e bb1e e33e d7a4 da3e
000001b0: 7955 d33e ebe8 343d aa1e 443d 988b 93bb
000001c0: a77a d53e 108b bc3e a269 f63e c58d c23e
000001d0: 1df8 d2bc 6b57 473d 6dcb 22bb 5497 153d
000001e0: 2e69 333d 90f4 1e3c ba21 36bd 6f14 d53e
000001f0: 289f ebb9 1b71 c33e 8e30 7dbd 4aae d43e
0.44970152 0.38979957 0.0033950757 0.43572527 0.036410294 -0.05659203 -0.05330503 0.37199265
0.4168385 0.36238173 0.35854372 0.42076537 0.04972604 0.4263095 0.025823878 0.048364643
0.380401 0.4237086 -0.053218007 0.33771583 0.40979162 0.049867965 0.41070083 0.39752737
0.41684145 0.014669619 0.43427965 0.03750576 -0.003388403 0.008228832 -0.0076059904 -0.0016853708
-0.0046518315 -0.06629228 0.35370776 0.050963894 -0.03865828 0.36869168 0.4160485 -0.027238982
0.35554114 0.44426972 0.42256185 0.04512255 0.42111394 0.43623 0.418355 0.016053524
0.41967398 -0.032161195 0.45637843 -0.046645973 0.36516324 0.44475082 -0.054755874 -0.010758227
0.33887875 -0.057847723 0.4904143 0.33979103 0.020496985 0.34320563 0.044090543 0.41343677
0.051256806 -0.06882676 0.39627635 0.39423844 0.3596861 0.4553174 -0.018412307 0.41369545
0.4101348 -0.042549655 -0.0048080506 -0.07186686 -0.027938686 0.49338222 0.379288 0.025755072
0.049814235 -0.05523084 -0.00709618 0.032218758 0.035310652 0.37004593 0.42021987 0.34966928
-0.028036213 0.38541198 0.36545593 0.42344576 0.41349682 0.0373031 0.4263528 0.016558608
0.38398907 -0.034551647 0.46074787 -0.0665802 0.039818116 0.000889919 0.040011488 0.45260912
0.38273114 0.3414016 0.44359383 0.42703888 0.41276148 0.04416744 0.047880806 -0.004502725
0.4169514 0.36824846 0.48127466 0.37998787 -0.025753075 0.048667353 -0.002484049 0.03652127
0.04380148 0.009701863 -0.044465758 0.41617152 -0.00044941274 0.3817223 -0.061813883 0.41539222

weight f4 [1, 128]
00000000: a28e b9bd fc0a eebd d99e 4a3d 6318 fabd
00000010: 2a5b a33d 24ab ee3a 0820 8c3d d65b efbd
00000020: 43f2 26be 26b3 0fbe b2fb 10be db55 e4bd
00000030: d45b 463d 325d d8bd f1c8 6fb9 8d45 723d
00000040: 6db0 f6bd 936f 2fbe eca3 043d 7625 15be
00000050: 3e6c bebd 2345 783d b05b 21be 3479 05be
00000060: 971f 15be 1cc8 613d 244c bbbd d06c 813c
00000070: 3590 9b3c 95c1 883d fac3 4c3d 3f96 c1bb
00000080: a322 4e3d 3049 3f3d ef42 04be ef91 7e3d
00000090: 04f8 c23c 0d09 d2bd 27ad bfbd 1dbd 533d
000000a0: 98e9 21be 2285 cebd 5c00 c3bd abd1 8e3d
000000b0: 6548 fcbd dea5 dcbd ebed 19be c887 1d3d
000000c0: 4154 1abe 3f3e 853d 9b54 e9bd d501 903d
000000d0: b9e5 efbd 25f1 11be c3c9 903b 0a1f f63a
000000e0: 09c3 2abe e6d4 9e3c 4711 c5bd 7271 0ebe
000000f0: 1080 5f3d 932b 1ebe 33fd 1a3c a4c2 29be
00000100: 0a37 463d 2f0a 683c 5614 b4bd 4b53 11be
00000110: e8c6 efbd b3a5 08be 4545 1f3d f1a0 01be
00000120: d336 afbd 6273 173d 0437 553d d730 6c3c
00000130: 844b a3bc dc50 bbbd cd60 0dbe 0b81 de3c
00000140: fe97 003d b52c f93c b4f6 713d 775b 543d
00000150: 1406 0cbb 2d2f edbd ae61 ffbd fc9d 0dbe
00000160: 69ed 223c d192 2abe 612f 17be b52f eebd
00000170: 2ae9 c0bd 2ff7 503c 79a4 c3bd 4e0d 84ba
00000180: 687c 1dbe ebab 7d3d 1539 dbbd adf1 8f3d
00000190: bf56 a13d 7979 913c 8123 013c 51fc 1bbe
000001a0: 7c0d 0fbe c409 11be 2011 fcbd d2ec 1fbe
000001b0: 425e febd 481a 1a3d fc61 3f3d acbf 923d
000001c0: 8883 d6bd 97ff 07be cbea b3bd 8913 28be
000001d0: fe3a 8c3c d8fc 333d 0ba0 c23c bdaa b13c
000001e0: 3706 933d c0d9 9c3d a9ec 983d 2618 16be
000001f0: b9f4 603d e88d 06be b605 783d ea21 14be
-0.09060408 -0.11623189 0.049467895 -0.12211683 0.079763725 0.0018208963 0.06842047 -0.11687438
-0.16303353 -0.14033183 -0.14158514 -0.11149188 0.048427418 -0.105646506 -0.00022867673 0.05914836
-0.12045369 -0.17132406 0.03238289 -0.14565071 -0.09297989 0.06061281 -0.15757632 -0.13034517
-0.14562832 0.05512248 -0.09145382 0.015798956 0.018989662 0.06677548 0.049991585 -0.0059078033
0.050326 0.046700656 -0.12916158 0.062150892 0.023799904 -0.102556325 -0.09359198 0.051694024
-0.15811765 -0.10083987 -0.09521553 0.06973585 -0.12318496 -0.10773824 -0.15032165 0.03845957
-0.15071203 0.06506013 -0.1139309 0.070315994 -0.11713738 -0.14252146 0.004418583 0.0018777561
-0.16675963 0.019388627 -0.09622436 -0.13910463 0.05456549 -0.1544631 0.009459781 -0.16578156
0.048392333 0.014162584 -0.08792941 -0.1419193 -0.1170786 -0.13344459 0.03888442 -0.1265905
-0.08555379 0.036975272 0.05205442 0.014415941 -0.01993347 -0.09146282 -0.13806458 0.027161142
0.03139495 0.030416826 0.059073165 0.05184504 -0.0021365928 -0.11581264 -0.12469803 -0.13829798
0.009944298 -0.16657569 -0.14764167 -0.11630193 -0.094194725 0.012754246 -0.09552855 -0.0010074766
-0.15379488 0.061931532 -0.10704247 0.07028518 0.07877874 0.017758118 0.007882 -0.1523297
-0.13969988 -0.14163882 -0.12307954 -0.15617684 -0.12420322 0.03762272 0.046724305 0.07165465
-0.10474306 -0.13281094 -0.087850176 -0.16413702 0.017117973 0.043942302 0.023757955 0.02168786
0.0717892 0.0765872 0.07467014 -0.1465765 0.054920886 -0.1314007 0.06055232 -0.14466062
