trained/exp_train_3_3_1111_0.0001_0.001_32_0.95/model/meta_actor_0.pth (torch, 302079 bytes, 6 tensors)

weight f4 [512, 16]
0	0xbe7c53ed	-0.2464139
1	0xbe5e0b44	-0.21683985
2	0xbdc0bc79	-0.09410948
3	0x3d81cfd9	0.06338472
4	0xbdec38c5	-0.115342654
5	0xbdde22c4	-0.10846475
6	0xbd89a316	-0.06720559
7	0xbce4df2c	-0.027938448
8	0xbdd80536	-0.10547869
9	0xbdd0e8b0	-0.102006316
10	0x3e22faa8	0.1591593
11	0x3e709f49	0.23498262
12	0xbe3e92fd	-0.18610759
13	0x3db58f51	0.08865226
14	0x3e05f6c7	0.1308242
15	0xbdb5f44e	-0.08884488
16	0xbd25fa97	-0.040522184
17	0xbe2ce200	-0.16883087
18	0x3dcbadfa	0.09945293
19	0xbe7fc174	-0.2497614
20	0x3e22f518	0.15913808
21	0xbe4a7c57	-0.19773994
22	0x3df3a2e4	0.11896303
23	0xbc1ebfb3	-0.009689259
24	0xbd85ede0	-0.06539512
25	0xbd8632f9	-0.06552691
26	0xbd9a48da	-0.075334266
27	0x3d2fef93	0.042953085
28	0xbb81afd3	-0.0039577275
29	0xbe3d648e	-0.1849539
30	0x3e6042c9	0.21900477
31	0xbd4a791d	-0.04943191
32	0x3d47b87f	0.048759934
33	0x3e1f8cd2	0.15581062
34	0x3c735b63	0.014853331
35	0x3e02baf8	0.12766635
36	0xbdd90799	-0.10597152
37	0x3e19d315	0.15021928
38	0xbe56bae8	-0.20969737
39	0x3e0c0acf	0.13675998
40	0xbe4b3522	-0.19844487
41	0xbe68698f	-0.22696517
42	0x3e650fb0	0.22369266
43	0xbe47cb7c	-0.19511217
44	0xbdcecbbd	-0.10097454
45	0x3d9f158f	0.07767784
46	0xbc06e774	-0.008233894
47	0x3e6f006d	0.23340006
48	0x3e61c608	0.22048199
49	0x3e5a50fa	0.21319953
50	0xbe7126b3	-0.23549919
51	0xbe5ac6d6	-0.21364912
52	0x3e54ec88	0.20793355
53	0xbe1ad027	-0.15118466
54	0x3e05df2b	0.13073413
55	0xbdb7ebce	-0.08980523
56	0x3e426591	0.18984057
57	0xbe536db0	-0.20647311
58	0xbdd77a03	-0.10521319
59	0xbe427923	-0.18991522
60	0x3e38412b	0.1799361
61	0x3db2d26e	0.087315425
62	0x3e711b83	0.23545651
63	0x3ddbcc51	0.1073233
64	0xbdd4eff8	-0.10397333
65	0x3e45bf15	0.19311173
66	0xbc81759d	-0.015803153
67	0x3e8003f1	0.25003007
68	0x3e12660c	0.1429674
69	0x3d8097f9	0.062789865
70	0x3d3caff1	0.04606623
71	0x3e428ee9	0.18999828
72	0xbe13993f	-0.14413927
73	0xbe2e5c6f	-0.17027448
74	0xbe6e5ea8	-0.23278296
75	0xbe5bdde3	-0.21471362
76	0x3d117514	0.035512045
77	0xbe7becfc	-0.24602121
78	0xbe065228	-0.13117278
79	0x3df85f4b	0.12127551
80	0xbd881e57	-0.06646412
81	0x3e207c8a	0.15672508
82	0xbe1ac2f4	-0.15113431
83	0x3e3fc2cf	0.18726657
84	0x3e4e1087	0.20123492
85	0x3e15c5f2	0.14626291
86	0xbe4e8f3b	-0.20171826
87	0x3e14393c	0.14474958
88	0xbc3fa13c	-0.011696156
89	0xbe0d3457	-0.13789497
90	0x3e306ba3	0.1722856
91	0x3e41ae95	0.18914254
92	0x3e3c9adc	0.18418449
93	0x3e5998c8	0.21249688
94	0xbdba0a2f	-0.090839736
95	0xbe3340e8	-0.17505229
96	0x3e6302ec	0.22169083
97	0x3ddef3c4	0.10886338
98	0xbe59407c	-0.21216005
99	0x3e27c11a	0.16382256
100	0x3e268056	0.16259894
101	0xbe237827	-0.15963803
102	0xbdd6189b	-0.10453912
103	0xbe2797fd	-0.16366573
104	0xbe3ff3e7	-0.18745385
105	0x3e664f9b	0.22491305
106	0xbe8303d2	-0.25588852
107	0xbe66da09	-0.22544111
108	0x3e518686	0.20461473
109	0x3e036fcd	0.12835617
110	0x3e67ddf5	0.22643264
111	0x3e4d9ef1	0.20080163
112	0xbc85af4c	-0.01631894
113	0xbdc81eed	-0.097715236
114	0x3db1731c	0.086645335
115	0x3d3c1a96	0.04592379
116	0x3d19e820	0.037574887
117	0x3e028452	0.12745789
118	0xbdc15366	-0.09439735
119	0x3da4478f	0.08021461
120	0x3b8f8590	0.0043799356
121	0xbe82e237	-0.25563213
122	0x3c1fb42e	0.009747548
123	0xbe0bbbdb	-0.1364588
124	0x3d9ec39d	0.07752154
125	0x3d279109	0.0409098
126	0x3e33eb03	0.17570119
127	0x3e39fa78	0.18161952
128	0x3e5e6dd6	0.21721587
129	0x3e5fc1a2	0.21851209
130	0xbd16a728	-0.036780506
131	0xbe05f57c	-0.13081926
132	0x3e45dff0	0.19323707
133	0xbdf89a29	-0.12138779
134	0x3b16ead7	0.002302816
135	0x3e5e26c5	0.21694477
136	0xbe2f49f8	-0.1711806
137	0x3e11cd9c	0.1423859
138	0xbe1a5494	-0.15071326
139	0x3c055627	0.008138216
140	0xbdc5f3ce	-0.09665643
141	0x3e522d36	0.20525059
142	0xbccfd75c	-0.025371246
143	0xbe6f10de	-0.23346278
144	0xbc944789	-0.018100517
145	0x3da4345a	0.08017798
146	0x3b6d6ea9	0.0036229289
147	0x3e10e670	0.14150405
148	0xbd50afc7	-0.050948884
149	0xbe346725	-0.17617472
150	0x3e646603	0.2230454
151	0x3db39e48	0.08770424
152	0xbd7fd3dc	-0.062457904
153	0x3c0a6953	0.008447963
154	0xbe38458c	-0.1799528
155	0x3e698a7d	0.22806735
156	0x3de5287e	0.11189364
157	0xbd2fdbf5	-0.042934377
158	0x3c4542ca	0.01203985
159	0xbe0e788a	-0.1391317
160	0xbda2ed39	-0.07955403
161	0x3e05326d	0.13007517
162	0xbe37193b	-0.17880718
163	0x3e6e2cb1	0.23259236
164	0xbd911b10	-0.0708524
165	0x3e48b371	0.19599701
166	0xbd057d99	-0.032590482
167	0xbe1406f4	-0.14455777
168	0xbe77ce22	-0.24199727
169	0xbe5db277	-0.2165011
170	0xbe4e90d0	-0.20172429
171	0xbcbd82e4	-0.023133703
172	0xbe72a252	-0.23694733
173	0x3de45b2b	0.111502014
174	0xbe4d9a9e	-0.20078513
175	0x3e0f0b81	0.13969232
176	0xbdbd310e	-0.09237872
177	0x3e02e3cc	0.1278221
178	0xbc215c45	-0.009848659
179	0x3e61add7	0.22038971
180	0x3e072f94	0.13201743
181	0xbe2aa716	-0.166653
182	0x3d27ead9	0.040995453
183	0xbe13bac3	-0.14426713
184	0xbe134aa4	-0.14383942
185	0xbe7ce2b2	-0.24695852
186	0xbc792633	-0.015206861
187	0xbe56ec22	-0.20988515
188	0x3e7e94dc	0.24861473
189	0xbc3a889c	-0.011385109
190	0x3e5ad7c9	0.21371378
191	0x3e8327f0	0.25616407
192	0x3e694301	0.22779466
193	0x3e497c8f	0.19676422
194	0xbe661757	-0.22469841
195	0x3b8e6e88	0.0043466724
196	0xbdc4c735	-0.09608308
197	0xbe14f630	-0.14547038
198	0xbdc65108	-0.09683424
199	0xbe00ba34	-0.12571031
200	0x3e634a6d	0.2219636
201	0x3df3ebd1	0.11910213
202	0xbc6e3a9f	-0.014540344
203	0x3dcd7493	0.100320004
204	0xbd8a4b98	-0.067526996
205	0x3e20d596	0.15706477
206	0x3e3ff30e	0.18745062
207	0x3e09013f	0.13379382
208	0xbe838512	-0.25687462
209	0x3c9a2b96	0.018819612
210	0x3e05e3de	0.13075206
211	0x3e5ad4af	0.21370195
212	0xbbc0e476	-0.0058866097
213	0x3e418cf1	0.18901421
214	0x3da7bf4a	0.08190782
215	0x3e462188	0.19348729
216	0x3e159a50	0.14609647
217	0xbe83b737	-0.2572572
218	0x3e0ac15a	0.1355032
219	0xbe2eaa91	-0.17057253
220	0xbda0cc72	-0.07851495
221	0x3dbb1292	0.091344014
222	0x3e3ff22d	0.18744726
223	0xbdab1fb5	-0.08355657
224	0x3df0cfb5	0.11758367
225	0x3cae8f56	0.021308582
226	0xbc97eb88	-0.018544927
227	0xbd363373	-0.04448266
228	0x3e206e2e	0.1566703
229	0xbd7619fe	-0.06008338
230	0x3e137300	0.14399338
231	0xbe163379	-0.14668073
232	0xbdf87bf6	-0.12133019
233	0xbe43b734	-0.19112855
234	0x3e11f532	0.14253691
235	0x3d123af7	0.035700765
236	0x3e302d16	0.17204699
237	0xbe68190a	-0.22665802
238	0x3d691775	0.056907136
239	0xbd3beb27	-0.045878556
240	0x3e0daff2	0.13836649
241	0x3e10c981	0.14139368
242	0xbd4928dd	-0.049111236
243	0x3c552aba	0.013010675
244	0xbdd06cad	-0.10176978
245	0x3e09edc9	0.13469614
246	0x3e15b73d	0.14620681
247	0x3e2630ae	0.16229507
248	0x3e1ac35c	0.15113586
249	0xbd91da5e	-0.07121728
250	0x3d4192d7	0.047259178
251	0xbe78502b	-0.24249332
252	0x3cda667e	0.0266602
253	0xbdb0123e	-0.085972294
254	0x3decc920	0.11561799
255	0xbb38f913	-0.0028224632

bias f4 [512]
0	0x3dfd530d	0.12369356
1	0xbdadc4dd	-0.08484814
2	0x3d36a7cb	0.044593614
3	0x3e73edf7	0.23821245
4	0xbe39e50f	-0.18153785
5	0x3dcc24c9	0.09967954
6	0x3cc061d4	0.023484148
7	0xbe392b48	-0.18082917
8	0x3d024898	0.031807512
9	0xbca3b0b3	-0.019981718
10	0x3e709ef8	0.23498142
11	0x3e0f0b3d	0.13969131
12	0xbdfbc6bc	-0.12293765
13	0xbe3316d6	-0.1748918
14	0x3cc3cf66	0.023902606
15	0x3daa11fa	0.0830421
16	0x3e083d16	0.13304552
17	0xbe056faf	-0.13030885
18	0xbda584b9	-0.080819555
19	0xbdaa61a8	-0.08319408
20	0x3e425fa4	0.18981797
21	0xbe2330be	-0.15936562
22	0xbdc6c523	-0.097055696
23	0xbd7a940e	-0.061176352
24	0xbda824f3	-0.082101725
25	0xbd36e19c	-0.04464875
26	0xbe485536	-0.19563755
27	0x3d35bec7	0.044371393
28	0xbe725bdd	-0.23667856
29	0x3e6a04ad	0.22853346
30	0x3e5d1c45	0.21592815
31	0x3dd907c6	0.10597186
32	0x3c970a21	0.018437447
33	0x3e5259be	0.20542046
34	0x3d33611e	0.04379379
35	0x3cb4487f	0.022007225
36	0x3cfd20ea	0.030899484
37	0xbe1e2763	-0.15444712
38	0x3e37c8ef	0.17947744
39	0x3c3cc2cd	0.0115210535
40	0xbb2d1e9f	-0.0026415957
41	0x3e0a860a	0.13527694
42	0x3ddb8175	0.10718051
43	0xbe559d99	-0.208609
44	0xbe24eb1d	-0.16105314
45	0xbdfc2a7b	-0.1231279
46	0xbe043e9c	-0.12914509
47	0x3d26e62d	0.040746856
48	0x3bc1669b	0.005902124
49	0x3e8104ff	0.25199124
50	0x3dec3d5b	0.1153514
51	0x3d809af0	0.06279552
52	0x3df263cc	0.11835441
53	0xbe64cfbd	-0.22344871
54	0x3e80699e	0.2508058
55	0xbe466194	-0.1937316
56	0x3df44f75	0.11929218
57	0x3e2dff8a	0.16992012
58	0x3db5ff64	0.088866025
59	0xbdcceb04	-0.10005763
60	0x3d70e842	0.05881525
61	0xbe5fb210	-0.21845269
62	0xbe6dcf84	-0.23223692
63	0x3e715316	0.23566851
64	0x3e772747	0.24136077
65	0xbb7fed19	-0.0039051233
66	0xbe0b7c6c	-0.13621682
67	0xbd9d8e36	-0.0769314
68	0x3b984b02	0.0046476135
69	0x3da69013	0.08132949
70	0x3de8ed10	0.11373341
71	0x3e7e054e	0.24806711
72	0xbd0027ea	-0.031288065
73	0xbe48c4c9	-0.19606318
74	0x3dc4b742	0.09605266
75	0x3c84a4f5	0.016191939
76	0xbcf380c7	-0.029724492
77	0x3e11190a	0.14169708
78	0x3e222ce1	0.15837432
79	0xbe511051	-0.2041638
80	0xbd128c9a	-0.03577862
81	0x3c0c79b3	0.008573937
82	0x3e1bde9d	0.15221639
83	0x3e7b7adf	0.2455859
84	0x3e23540a	0.15950027
85	0xbe41a52f	-0.18910669
86	0x3e7070da	0.2348055
87	0x3e0c7df4	0.13719922
88	0x3dc1ecdb	0.09469005
89	0x3e655ded	0.22399111
90	0x3e011e9c	0.12609333
91	0x3e1bc151	0.15210463
92	0x3d3b029b	0.04565678
93	0xbd70e0ea	-0.058808245
94	0x3e591689	0.21200003
95	0xbe5050c8	-0.20343316
96	0xbe228408	-0.15870678
97	0x3df48f10	0.119413495
98	0xbdcf5bbb	-0.10124918
99	0xbe6a1754	-0.22860461
100	0xbdc9ba9f	-0.09850048
101	0xbe1c092c	-0.15237874
102	0x3c56ccd7	0.013110361
103	0xbe3abf7c	-0.18237108
104	0xbd975677	-0.07389539
105	0x3e0e34f3	0.13887386
106	0x3c0da112	0.008644359
107	0xbe626f86	-0.22112855
108	0x3e0c4570	0.13698363
109	0xbe57e19a	-0.21082154
110	0x3c931c65	0.017957876
111	0x3e5ba5cd	0.21449967
112	0x3e8c0cff	0.27353665
113	0x3d2757ae	0.040855102
114	0xbe20f55b	-0.15718596
115	0xbd1a7f0b	-0.037718814
116	0x3d624ad4	0.055247143
117	0x3df1e9ff	0.11812209
118	0xbd65c4b1	-0.056095783
119	0x3e5950a0	0.21222162
120	0x3c5ca968	0.013468124
121	0xbe6593f8	-0.22419727
122	0x3e6cf090	0.23138642
123	0xbe039363	-0.12849192
124	0x3e2ec406	0.17066965
125	0xbe4dd894	-0.20102149
126	0xbe1eeb0b	-0.1551935
127	0xbcd65609	-0.026164072
128	0xbb22800c	-0.002479556
129	0x3e6cebd4	0.23136836
130	0xbd31e80d	-0.04343419
131	0x3b4b633c	0.003103449
132	0x3db0625e	0.08612512
133	0x3dbf8c5e	0.09352945
134	0x3e24da2a	0.16098848
135	0xbdd7b777	-0.1053304
136	0x3d34ba19	0.04412279
137	0xbb2f2d98	-0.0026730057
138	0xbe342305	-0.17591484
139	0xbdfa5853	-0.12223878
140	0x3d7340e1	0.059388045
141	0xbe53792c	-0.20651692
142	0xbe33d581	-0.17561914
143	0xbe2ccd8e	-0.16875288
144	0x3d7e5fd9	0.062103126
145	0xbd24a0a6	-0.04019227
146	0x3de7335f	0.11289095
147	0x3e1c0a72	0.1523836
148	0x3e636c02	0.2220917
149	0xbe3ebdbb	-0.18627064
150	0x3e8233ad	0.2543005
151	0x3db9fc22	0.09081294
152	0x3e814cc3	0.25253877
153	0x3db15fa9	0.08660824
154	0xbc9e9bf3	-0.019361472
155	0xbc8f1c9b	-0.017469695
156	0xbe2845d4	-0.16432887
157	0xbda1cac7	-0.07900005
158	0xbdcbfc57	-0.099602394
159	0xbe3ad014	-0.18243438
160	0x3cf99e63	0.030471032
161	0x3de4f39d	0.11179278
162	0x3c599e1c	0.013282325
163	0xbe24daa7	-0.16099034
164	0xbe17ee8e	-0.14837095
165	0xbe5ef88e	-0.21774504
166	0x3cf397e5	0.029735515
167	0xbe03de1c	-0.12877697
168	0x3d91937f	0.07108211
169	0x3e17084c	0.14749259
170	0x3de22afc	0.11043355
171	0xbdbed872	-0.093186274
172	0xbe27a738	-0.16372383
173	0x3e63485f	0.22195576
174	0xbe6d2db3	-0.23161964
175	0x3dff51c7	0.1246677
176	0x3e59e631	0.21279217
177	0xbc1aac2a	-0.009440461
178	0xbe2bfdc1	-0.16796018
179	0xbda26db9	-0.07931084
180	0x3dac90ff	0.08426093
181	0xbe1e536b	-0.15461509
182	0x3e3c6398	0.18397367
183	0x3d24535f	0.04011857
184	0xbe6c9b7a	-0.23106185
185	0xbe340655	-0.1758054
186	0xbdcfcbeb	-0.10146316
187	0x3c980f65	0.018562028
188	0x3dee5033	0.116363905
189	0x3e658f99	0.2241806
190	0x3e42afce	0.19012377
191	0xbcb44257	-0.02200429
192	0xbde50e73	-0.111843966
193	0x3de32e37	0.11092799
194	0xbe3fc470	-0.18727279
195	0xbe00eee2	-0.12591127
196	0x3e06d9fe	0.13169095
197	0x3e1a26e5	0.150539
198	0x3dd59ebb	0.10430666
199	0x3dc46711	0.09589971
200	0x3dbdda18	0.09270114
201	0x3e7907db	0.24319403
202	0x3e872e81	0.26402667
203	0xbe218665	-0.15773924
204	0xbd76b0c4	-0.06022717
205	0x3e7817ff	0.24227904
206	0xbe1d5bdd	-0.15367074
207	0xbddefd24	-0.108881265
208	0x3b5e0ecf	0.0033883338
209	0x3d9b0996	0.07570188
210	0x3e0d408b	0.13794152
211	0xbd9d5047	-0.07681327
212	0x3d3c2142	0.045930155
213	0x3e7eecc2	0.24895003
214	0x3da309d7	0.07960861
215	0xbde0c67b	-0.10975357
216	0xbc4138c3	-0.011793318
217	0xbddfa876	-0.10920803
218	0xbdbaedf8	-0.0912742
219	0x3cb08016	0.021545451
220	0xbdb93c07	-0.090446524
221	0x3e1e7d0d	0.1547739
222	0x3d3cb6ea	0.046072878
223	0x3dbe6704	0.092969924
224	0xbe0a6058	-0.13513315
225	0xbe3606d4	-0.17776042
226	0x3cffdcc5	0.0312332
227	0x3e698bc7	0.22807227
228	0xbd8665a5	-0.06562356
229	0xbe3058c5	-0.17221363
230	0xbe5d95ad	-0.21639128
231	0xbe1af207	-0.15131389
232	0x3db7beb8	0.089719236
233	0x3cdd983e	0.027050134
234	0xbcc9e2b6	-0.024644237
235	0xbce30398	-0.027711675
236	0x3d183f63	0.037169825
237	0x3e2dee02	0.16985324
238	0xbe2c1cca	-0.16807857
239	0xbdc3008a	-0.09521587
240	0x3d948443	0.072517894
241	0x3d8901fc	0.066898316
242	0xbe29e748	-0.16592133
243	0xbe51c324	-0.20484596
244	0xbe6beb61	-0.23039009
245	0x3dbc3a04	0.09190753
246	0x3c095858	0.008382879
247	0x3c6e29bc	0.014536317
248	0xbe063c7a	-0.13109007
249	0xbe3c6de0	-0.18401289
250	0xbe0219a2	-0.1270509
251	0xbd140b32	-0.03614349
252	0x3e527d93	0.20555715
253	0xbe48a67e	-0.19594762
254	0x3e6f8907	0.23392116
255	0x3a357d37	0.00069232605

weight f4 [128, 512]
0	0xbc924828	-0.017856672
1	0x3cae2eee	0.021262612
2	0x3ce930b9	0.028465616
3	0x3d1cc5e7	0.038274672
4	0x3cd0d021	0.025489869
5	0xbca3d236	-0.019997697
6	0x3d0af3e9	0.033924017
7	0xbd08187c	-0.033226475
8	0xbcfc6d13	-0.03081373
9	0x3d1b2f5c	0.037886962
10	0x3cfee92b	0.031117043
11	0xbc216a1d	-0.0098519595
12	0x3c06bd99	0.008223915
13	0xbc2f1cbc	-0.010688003
14	0x3d364114	0.044495657
15	0xbc8089a7	-0.015690638
16	0x3ce663da	0.028123785
17	0xbbd50b98	-0.006501626
18	0xbc287d7e	-0.010283826
19	0x3d19dcaa	0.037563957
20	0x3c9f398d	0.019436622
21	0x3c817822	0.015804354
22	0xbacc4b5d	-0.0015586425
23	0xbccc347e	-0.024927374
24	0x3b7b1e4b	0.0038317617
25	0xbcca2019	-0.024673508
26	0x3d4e46f4	0.050360635
27	0x3c4f33ae	0.012646599
28	0x3ba33a19	0.004981291
29	0x3b6c7482	0.0036080186
30	0x3c9b7e18	0.018981025
31	0x3d00299e	0.03128969
32	0xbba2a383	-0.00496334
33	0x3cc7f81b	0.024410298
34	0xbc93c9cb	-0.018040558
35	0xbcbce922	-0.023060385
36	0x3d1d9ab0	0.0384776
37	0x3d4c7f7f	0.049926277
38	0x3bf8239c	0.0075726043
39	0x3cd1dffa	0.025619496
40	0x3c09ada7	0.008403218
41	0xbd02ad21	-0.03190339
42	0xbb285dcd	-0.0025690675
43	0x3cd66155	0.026169458
44	0x3bc2d498	0.0059457533
45	0x3d346b93	0.044047903
46	0xbcb6b731	-0.02230415
47	0xbcff2f9c	-0.031150632
48	0x3c5e2151	0.013557748
49	0xbc025607	-0.007955081
50	0xbb5946f1	-0.0033153857
51	0xbd06cdad	-0.03291099
52	0xba738bdb	-0.00092905544
53	0xbcd13971	-0.025540086
54	0x3cf67844	0.030086644
55	0x3b5cedd5	0.0033711095
56	0xbcf35cc5	-0.029707322
57	0x3ca987f3	0.020694708
58	0xbc84a834	-0.016193487
59	0x3cc18dce	0.023627188
60	0x3cecb1fe	0.028893467
61	0x3c884d27	0.016638352
62	0xbcb7266b	-0.022357186
63	0x3b9d8327	0.0048068943
64	0xbc4877ba	-0.012235576
65	0xbc3b7ba3	-0.0114430515
66	0x3c8fe8ef	0.017567126
67	0x3d29ded2	0.041472264
68	0x3d4e901f	0.050430413
69	0x3bb26f08	0.005445365
70	0xbd0d5f1e	-0.03451454
71	0xbcdc3830	-0.026882261
72	0xbc86089c	-0.016361527
73	0x3c800680	0.0156281
74	0xbb90627b	-0.004406271
75	0x3d29ffe3	0.0415038
76	0x3cf1eb94	0.029531278
77	0x3d332017	0.043731775
78	0x3d194c92	0.03742654
79	0xbc95a468	-0.018266872
80	0x3d44cf7d	0.04804944
81	0x3d21ed0c	0.039532706
82	0x3a547673	0.00081048085
83	0x3c4e01a5	0.012573634
84	0xbcf79eba	-0.030227054
85	0x3d01c422	0.031681187
86	0xbc3e31c6	-0.011608547
87	0xbc39c912	-0.011339443
88	0x3c06a02c	0.008216899
89	0x3cb9f237	0.022698505
90	0xbaa14563	-0.0012304004
91	0xbb94a91f	-0.0045367624
92	0xbc514229	-0.0127721215
93	0xbc08cdf9	-0.008349889
94	0xbc3fffd2	-0.011718707
95	0x3cfb85bf	0.030703424
96	0x3cc983bd	0.02459895
97	0xbc158278	-0.009125344
98	0x3d53a0b1	0.05166692
99	0x3c9a95c7	0.018870248
100	0x3d33ad45	0.043866415
101	0x3d01fe55	0.03173669
102	0x3c4d142f	0.012517019
103	0x3d420444	0.04736735
104	0x3d1457ee	0.03621667
105	0xbb082113	-0.0020771667
106	0x3c52c5be	0.012864528
107	0xbb20679b	-0.0024475816
108	0x3c6da7fb	0.014505382
109	0x3ced3c5a	0.028959442
110	0x3b525dbb	0.0032099325
111	0x3d4628c9	0.04837874
112	0x3cebe74b	0.028796813
113	0x3d292115	0.041291315
114	0x3c28fb7d	0.010313866
115	0xbbb8baee	-0.005637518
116	0x3cbb5500	0.02286768
117	0xbcc40eeb	-0.023932895
118	0x3c9ceb7f	0.019155262
119	0xbcf3e728	-0.02977331
120	0x3d361906	0.044457458
121	0x3d32c913	0.04364879
122	0x3cc00a18	0.023442313
123	0xbaa926be	-0.0012905223
124	0x3d0f30aa	0.03495852
125	0xbcd5783f	-0.026058314
126	0xba238fb5	-0.00062393706
127	0xbc2cd5a7	-0.010548986
128	0xbc989a97	-0.018628402
129	0xbd0768f9	-0.033059094
130	0xbab617ae	-0.0013892555
131	0xbcd0249c	-0.025408082
132	0x3c2f6790	0.010705844
133	0xbbd0a86b	-0.0063677332
134	0x3d2aecc6	0.04172971
135	0xbd07b872	-0.033134885
136	0xba5dfaf5	-0.00084678765
137	0xbcf3c148	-0.02975525
138	0xbcd7a971	-0.026325913
139	0xbd03b951	-0.032159153
140	0xbc03defc	-0.008048769
141	0x3d44b9c6	0.04802873
142	0x3c2cdd4c	0.010550808
143	0x3cf730db	0.030174663
144	0xbd03bb9e	-0.032161348
145	0x396294e7	0.0002160851
146	0x3d1fe4c7	0.03903654
147	0xbc68f23f	-0.014217912
148	0x3c8c1976	0.017101984
149	0xbc5584ce	-0.013032151
150	0x3b84aa72	0.004048639
151	0xbcf2369c	-0.029567055
152	0xbc3649da	-0.011126006
153	0xbc573fa3	-0.013137731
154	0x3b2e5dff	0.002660632
155	0x3d2c0e35	0.042005736
156	0xbc34d640	-0.011037409
157	0xbcda884b	-0.026676318
158	0xbc0f5e3d	-0.0087504955
159	0xbcd51f4f	-0.026015906
160	0x3c3c1cf7	0.011481515
161	0xbc8d9d7e	-0.017287012
162	0xbc4caa18	-0.012491725
163	0xbcd9dab5	-0.026593545
164	0xbced9db2	-0.029005859
165	0xbc8f3fe3	-0.017486518
166	0x3ad5195d	0.0016258169
167	0x3c13514d	0.008991552
168	0x3d07e36b	0.033175867
169	0x3c8834f7	0.016626818
170	0xbc7851e3	-0.015156242
171	0x3d2eea76	0.042704068
172	0x3c612452	0.01374157
173	0xbc59c46c	-0.0132914595
174	0x3d39438f	0.045230445
175	0xbc00bbef	-0.007857307
176	0xbc9e8c20	-0.019353926
177	0x3d294b4a	0.041331567
178	0x3d0df7d1	0.034660164
179	0x3c856b79	0.016286599
180	0xbc600cec	-0.013674956
181	0xbcbdf2fe	-0.023187157
182	0x3d4842a0	0.048891664
183	0x3d0249d4	0.03180869
184	0xbcc45a4d	-0.02396884
185	0x3c87b44b	0.016565463
186	0x3ce10289	0.02746703
187	0x3cb67e49	0.022277014
188	0x3d3f9ae6	0.046778582
189	0x39aa1195	0.00032438026
190	0x3d113437	0.035450187
191	0xbb9e8b5c	-0.0048383903
192	0xbccdef3b	-0.025138488
193	0x3c462bd9	0.012095415
194	0x3cf60e1a	0.030036021
195	0xbc8e4e33	-0.017371273
196	0x3c1f97ed	0.009740812
197	0xbcf7c931	-0.030247303
198	0xbc95e472	-0.018297408
199	0xbcb0e87c	-0.021595232
200	0xbc889bfa	-0.016675938
201	0x3d22465d	0.039617885
202	0xbcd44f7d	-0.02591681
203	0x3d0e45bb	0.03473447
204	0xbc81a895	-0.015827456
205	0x3cb81ca9	0.022474604
206	0xbcfe928f	-0.031075744
207	0xbaa78e74	-0.0012783543
208	0xbcdb4e26	-0.026770663
209	0x3c5cc243	0.01347405
210	0xbcb97952	-0.022640858
211	0x3d167d82	0.036740787
212	0xbc7e4c57	-0.0155211305
213	0xbc835e97	-0.016036315
214	0x3b4d91a9	0.0031367338
215	0x3d3243d5	0.04352172
216	0x3d491386	0.049090885
217	0x3d4f9386	0.0506778
218	0x3d44ace2	0.048016436
219	0x3bc419de	0.005984529
220	0xb9fe9fee	-0.00048565812
221	0x3c9ed82a	0.019390184
222	0x3d094800	0.03351593
223	0xbc91fcdd	-0.01782077
224	0xbc8df9d9	-0.01733105
225	0x3b87fd7b	0.0041500903
226	0xbd0bebdc	-0.03416048
227	0x3d21ce61	0.03950346
228	0x3b315b2c	0.00270624
229	0xbcee5a2c	-0.029095732
230	0x3d48e501	0.04904652
231	0x3bc71a34	0.0060761217
232	0x3c59a4f3	0.013283956
233	0x3bc0b5de	0.0058810553
234	0x3d2a2f18	0.04154882
235	0xbb8b864d	-0.0042579533
236	0x3d32ccde	0.043652408
237	0x3d43ed5c	0.047833785
238	0x3d3848b7	0.04499122
239	0xbcdb2157	-0.026749296
240	0x3d291cdf	0.0412873
241	0xbb68c945	-0.0035520357
242	0x3d2cb214	0.042162016
243	0x3cdffd61	0.0273425
244	0xbceff9b1	-0.029293867
245	0x3d331510	0.04372126
246	0x3d486d3e	0.048932306
247	0x38a04c75	7.643636e-05
248	0x3c842965	0.01613302
249	0xbcf25c5c	-0.029585056
250	0xbcd06ea9	-0.025443392
251	0x3c4b8790	0.012422457
252	0x3d23608f	0.039887007
253	0xbcca2eb3	-0.024680471
254	0x3c243191	0.010021583
255	0x3cf3aa86	0.029744398

bias f4 [128]
0	0x3d0ab85e	0.033867233
1	0xbc8d805b	-0.017273119
2	0x3cced75f	0.025249181
3	0xbcd83a6e	-0.026395049
4	0x3cbba11a	0.022903968
5	0x3c0d2ab4	0.008616138
6	0xbbce8f56	-0.006303708
7	0xbd38e05b	-0.045135837
8	0xbcfe4f00	-0.03104353
9	0x3d5e2faa	0.054244675
10	0xbd31bcb8	-0.043392867
11	0x3b20973f	0.0024504212
12	0x3cb43cd1	0.022001656
13	0x3ca97884	0.02068735
14	0xbc8395b1	-0.01606259
15	0x3cd10f75	0.025520066
16	0x3c2e1eb6	0.010627439
17	0x3ccd1cc0	0.025038123
18	0xbcbb5cad	-0.02287134
19	0x3b96d3af	0.0046028714
20	0xbbfbefe6	-0.00768851
21	0xbd062324	-0.032748356
22	0xbce4a323	-0.02790982
23	0x3ce5c193	0.028046405
24	0xbc5ff43c	-0.01366907
25	0x3b714863	0.0036816827
26	0x3d10f912	0.035393782
27	0x3d0c4fe0	0.034255862
28	0x3d115741	0.035483602
29	0xbc54d303	-0.012989762
30	0x3cf8f957	0.030392332
31	0xbc92172d	-0.017833317
32	0x3d1fb2d9	0.03898892
33	0x3b8bdef1	0.00426852
34	0x3d125ab6	0.03573104
35	0x3d05cc84	0.032665744
36	0x3cb3b301	0.021935942
37	0xbc67df71	-0.014152394
38	0xbcbacd0a	-0.022802848
39	0x3d089ac6	0.03335073
40	0xbcdfcc8f	-0.02731922
41	0x3d1f7d70	0.038937986
42	0x3b11f78e	0.0022272798
43	0x3dae4a36	0.08510248
44	0xbd33d2f3	-0.04390235
45	0x3d0906f2	0.03345389
46	0x3c3d80ae	0.011566324
47	0x3c5bb316	0.013409397
48	0x3d075a6b	0.033045214
49	0x3cd9a6aa	0.02656873
50	0xbc4aa197	-0.012367628
51	0x3c3394b6	0.010960748
52	0xbd0ba109	-0.034089122
53	0x3b840e5d	0.0040300325
54	0xbc13926b	-0.009007077
55	0xbba3a336	-0.0049938215
56	0xbbcf984e	-0.006335295
57	0xb921ad2f	-0.00015418672
58	0xbd3de241	-0.04635835
59	0x3c7d208e	0.015449656
60	0xbc12fcc8	-0.008971401
61	0x3d0122b8	0.03152725
62	0xbcf1d8cb	-0.02952232
63	0x3bbaf36d	0.005705288
64	0xbc820d0f	-0.015875367
65	0xbbb3e9ca	-0.0054905163
66	0x3d42d3a6	0.047565125
67	0x3d375984	0.044763103
68	0xbca1f71a	-0.019771148
69	0xbbc786db	-0.006089074
70	0xbcf85e91	-0.03031853
71	0xbcd63eaa	-0.026152927
72	0x3d1c2bed	0.03812783
73	0x3c6bede5	0.01439998
74	0xbc072854	-0.008249361
75	0x3cae177c	0.021251433
76	0x3d913bbb	0.07091471
77	0x3d545794	0.051841334
78	0x3b10e02d	0.0022106275
79	0x3dc9cb27	0.09853201
80	0x3b11be8a	0.0022238814
81	0xbc8ee315	-0.017442266
82	0xbcd73d8b	-0.026274463
83	0x3d09b1d4	0.033616856
84	0x3ca4f543	0.020136481
85	0xbcf51f26	-0.02992208
86	0xbd2dc7b9	-0.0424268
87	0xbcfaab63	-0.030599302
88	0xbd4127d6	-0.04715713
89	0x3bd6add7	0.006551485
90	0xbcb0ffdd	-0.02160638
91	0xbc65de9d	-0.014030126
92	0xbd2b9116	-0.04188641
93	0x3d845bad	0.06462798
94	0xbcc64a4e	-0.024205353
95	0xbc92099c	-0.017826848
96	0x3d2a4c65	0.04157676
97	0xbc0c7d6d	-0.008574826
98	0xb9af7d12	-0.00033471786
99	0xbc7c1e10	-0.015388027
100	0xbcc079f6	-0.023495656
101	0x3cd86c0d	0.02641871
102	0x3cfc0073	0.030761933
103	0x3c97815c	0.0184943
104	0xbc077234	-0.008266974
105	0x3c268785	0.010164146
106	0x3c8cd403	0.017190939
107	0x3c65edb0	0.01403372
108	0xbc85d3ea	-0.0163364
109	0x3ccc64a5	0.024950335
110	0x3cb7283b	0.02235805
111	0x3ca23951	0.019802721
112	0xbb358d54	-0.0027702646
113	0x3d2d5afa	0.04232309
114	0xbc29377a	-0.010328168
115	0xbc6e0679	-0.01452791
116	0x3d10a848	0.035316736
117	0xbcaa864a	-0.020815987
118	0xba906c81	-0.0011018665
119	0x3d251b77	0.040309396
120	0x3cd3cc44	0.025854237
121	0x3cda3f0b	0.02664139
122	0xbc067851	-0.008207397
123	0xba8a2d31	-0.0010542033
124	0xbca5b51c	-0.020227961
125	0xbb1273a4	-0.002234676
126	0xbc9f50e9	-0.01944776
127	0x3d2337fa	0.039848305

weight f4 [3, 128]
0	0x3dcab1a1	0.09897161
1	0xbd169e1e	-0.036771886
2	0x3d979f35	0.07403413
3	0xbd153e13	-0.03643615
4	0x3d49a527	0.049229767
5	0xbd19416e	-0.037415914
6	0x3b582e08	0.003298642
7	0x3d8cb36a	0.06870158
8	0x3c166a50	0.00918062
9	0xbae0d7dd	-0.0017154176
10	0xbda49ca5	-0.0803769
11	0x3c814819	0.01578145
12	0x3d92f7bb	0.07176157
13	0xbd0ebf09	-0.034850154
14	0xbd263b5d	-0.040583957
15	0xbcee09ca	-0.029057402
16	0x3d56bdf6	0.052427255
17	0x3ce269db	0.027638366
18	0x3d696af2	0.056986757
19	0x3d60fd7f	0.054929253
20	0xbd3fabe7	-0.0467948
21	0x3c53e432	0.012932824
22	0x3d3bd91e	0.045861356
23	0x3dce4583	0.10071852
24	0x3bb5cbcb	0.0055479757
25	0xbd8c0ae4	-0.06838015
26	0x3d4f072b	0.050543945
27	0xbbf5e87d	-0.0075045214
28	0xbc1f61e6	-0.009727931
29	0x3d27c5f8	0.040960282
30	0x3d8f82e3	0.070073865
31	0xbda6b597	-0.08140104
32	0x3d9d348f	0.076760404
33	0x3cf6d7b1	0.030132147
34	0x3d44e9fb	0.048074704
35	0x3d9e6519	0.077341266
36	0xbba53bc9	-0.0050425273
37	0xbc7b8b83	-0.015353086
38	0x3cf092ac	0.029366814
39	0x3dab1c27	0.08354979
40	0xbcac5f0a	-0.021041412
41	0x3da94ea6	0.08266954
42	0x3dbd86d2	0.092542306
43	0x3e320b17	0.17387043
44	0xbd8ad8a1	-0.067796
45	0x3ba4aa3e	0.0050251773
46	0x3d4bdd02	0.049771316
47	0x3cc461ef	0.02397248
48	0x3cfadf94	0.030624188
49	0xbce36446	-0.027757775
50	0x3d90197c	0.07036111
51	0xbd770e45	-0.060316343
52	0xbd5778bb	-0.052605372
53	0xbd49738a	-0.049182452
54	0xbd8aeefd	-0.06783865
55	0x3d87375d	0.066023566
56	0x3d0b4b99	0.034007642
57	0xbd305117	-0.043046083
58	0xbd424a75	-0.04743429
59	0xbd8d3eb2	-0.06896724
60	0xbd5d0d72	-0.0539679
61	0xbc6f6fad	-0.014614028
62	0x3d8ae4e9	0.067819424
63	0xbca8ecbe	-0.0206207
64	0x3c24526c	0.0100294165
65	0x3ba0210c	0.004886752
66	0x3d5f51a9	0.054521237
67	0x3b69e428	0.003568897
68	0x3c808b03	0.015691286
69	0xbd95ce3a	-0.07314725
70	0xbda62de7	-0.08114224
71	0x3d9d3148	0.07675415
72	0xbbf3ac2d	-0.0074362964
73	0xbd49888f	-0.049202498
74	0xbd76957a	-0.060201146
75	0xbd64449e	-0.0557295
76	0x3d5d6a9f	0.05405676
77	0xbd5a542b	-0.053302925
78	0x3db08842	0.08619739
79	0x3dc0b5a0	0.09409642
80	0xbc6160c7	-0.013755984
81	0xbcfb0257	-0.030640764
82	0xbd1b6bd0	-0.037944615
83	0xbc9ffba8	-0.019529179
84	0x3daba666	0.08381347
85	0xbd52e041	-0.051483396
86	0xbc07d4ba	-0.008290464
87	0xbd1e5090	-0.03865105
88	0xbda55eaf	-0.080747
89	0xbd8bcc14	-0.06826034
90	0xbd843d6b	-0.06457027
91	0x3db8dd80	0.09026623
92	0x3c8db727	0.017299248
93	0x3d89ccda	0.067285255
94	0xbcbd2d63	-0.023092931
95	0x3dae4dff	0.0851097
96	0xbcc4d487	-0.024027122
97	0xbc854866	-0.016269874
98	0x3cc88d50	0.024481446
99	0x3be12f8f	0.0068721245
100	0x3cec7140	0.028862596
101	0x3d5785fc	0.05261801
102	0x3cbd37f8	0.023097977
103	0xbcbe353f	-0.02321875
104	0x3d8d19a0	0.06889653
105	0xbd476106	-0.048676513
106	0xbd5f085f	-0.054451343
107	0xbd8e323b	-0.069431745
108	0x3cc63741	0.024196269
109	0x3d9378af	0.07200753
110	0x3d1ea6b6	0.038733207
111	0x3da7c9c4	0.081927806
112	0x3c91be14	0.017790832
113	0x3db41fc2	0.0879512
114	0xbc0197d6	-0.007909736
115	0xbc067655	-0.0082069235
116	0xbc943e61	-0.01809615
117	0x3d1883dc	0.037235126
118	0xbd6218c5	-0.055199403
119	0x3d1c7af1	0.038203184
120	0xbd0d6b48	-0.03452614
121	0x3d88bdcf	0.06676828
122	0x3d80da38	0.06291622
123	0xbd015880	-0.03157854
124	0xbd5d2ba3	-0.053996693
125	0xbb4dd5f9	-0.0031408055
126	0xbd9f723a	-0.07785459
127	0x3daf0421	0.085457094
128	0x3c93fee0	0.01806587
129	0xbba7735b	-0.005110187
130	0x3dbe3b0d	0.09288607
131	0xbd25df32	-0.04049606
132	0xbd5c36e6	-0.053763293
133	0xbd4ab5e8	-0.049489886
134	0xbd1760a1	-0.036957387
135	0xbda7d433	-0.08194771
136	0xbd6dec0d	-0.058086444
137	0x3dc47f54	0.095945984
138	0xbd7a5ff7	-0.061126675
139	0xbd404ad6	-0.04694637
140	0xbce0b4bc	-0.02742993
141	0xbdac88fc	-0.08424565
142	0x3b85c95e	0.0040828427
143	0xbc8f3f70	-0.017486304
144	0x3d7dd743	0.061972868
145	0xbd7e50e6	-0.06208887
146	0x3d0c6bca	0.034282483
147	0x3da74605	0.08167652
148	0x3cec96f0	0.028880566
149	0x3d5741bc	0.052552924
150	0x3ce9b733	0.028529739
151	0x3d9be10c	0.07611284
152	0xbd64d8d2	-0.05587084
153	0x3d9e0a6b	0.07716831
154	0x3d852431	0.065010436
155	0xbc835829	-0.016033249
156	0x3d034d1f	0.03205597
157	0x3d30b729	0.043143425
158	0x3d6c2f65	0.057662386
159	0x3c00e781	0.007867695
160	0xbd844ad0	-0.06459582
161	0x3b66b65e	0.0035203914
162	0xbc89f43d	-0.016840095
163	0x3dd06460	0.10175395
164	0x3d1f3aff	0.038874622
165	0xbcbbee0e	-0.022940662
166	0xbd100d5e	-0.035168998
167	0x3d81b3d6	0.06333129
168	0x3dca725e	0.09885095
169	0x3c29e3ac	0.010369223
170	0x3cae5d90	0.021284848
171	0x3d9b67c1	0.07588149
172	0x3ca43bb1	0.020047994
173	0x3db03ae6	0.08604984
174	0x3db3ab64	0.087729245
175	0x3cd2db4a	0.02573933
176	0x3d4188e0	0.047249675
177	0xbcc26063	-0.023727601
178	0xbcbfecf3	-0.023428416
179	0xbc9d9d0d	-0.019239927
180	0x3d25fcd0	0.040524304
181	0xbd5a3ca5	-0.05328049
182	0xbc23e437	-0.010003141
183	0xbbb2c4b5	-0.005455578
184	0x3c476691	0.01217045
185	0xbd1d15d8	-0.03835091
186	0x3d9c5ccd	0.07634888
187	0x3c0c8c64	0.008578394
188	0xbd236336	-0.039889537
189	0x3d8efadc	0.069814414
190	0xbcca946c	-0.024728976
191	0xbc09a731	-0.008401678
192	0x3b7a7811	0.0038218538
193	0x3d974f41	0.07388163
194	0x3db77c8f	0.089593045
195	0x3d975c95	0.073907055
196	0xbd48aa25	-0.048990387
197	0xbc68b954	-0.014204342
198	0x3d9085aa	0.070567444
199	0x39a1dfc5	0.00030875034
200	0x3d8043c6	0.06262927
201	0x3bf04621	0.0073325788
202	0xbc09ae11	-0.008403317
203	0x3d4be484	0.049778476
204	0x3dd111f5	0.10208503
205	0x3d41b122	0.047288068
206	0x3d28ffb9	0.0412595
207	0x3de83316	0.11337869
208	0xbd840d89	-0.06447894
209	0x3d9a8734	0.07545319
210	0xbd5dc3ba	-0.054141738
211	0xbd1efcfa	-0.038815476
212	0xbd7019b0	-0.058618248
213	0x3b09bf14	0.0021018432
214	0xbd7b4355	-0.06134351
215	0x3d8a652a	0.06757577
216	0xbd8da179	-0.06915564
217	0xbd5207c8	-0.051276952
218	0xbd522cdb	-0.05131231
219	0xbcbd0d73	-0.023077702
220	0xbd56e76e	-0.052466802
221	0x3dddffd7	0.10839813
222	0x3b4676f9	0.0030283316
223	0x3d0a6787	0.033790138
224	0x3d873e21	0.06603647
225	0xbd792ae8	-0.060831934
226	0xbca1b310	-0.019738704
227	0xbd1e3405	-0.03862383
228	0xbd002fbf	-0.031295534
229	0xbd23bf70	-0.03997749
230	0x3d145689	0.03621534
231	0xbc364618	-0.01112511
232	0xbd84b6d6	-0.06480186
233	0xbd9a698e	-0.07539664
234	0x3d79b8b0	0.060967147
235	0xbce5aa65	-0.028035352
236	0x3d921bcf	0.0713421
237	0x3c751ac0	0.014959991
238	0xbd9d70a8	-0.07687503
239	0x3c396802	0.011316301
240	0x3d03126f	0.032
241	0xbc815823	-0.015789097
242	0xbbb7af6a	-0.005605628
243	0xbd9ba3b2	-0.07599582
244	0xbd959065	-0.07302932
245	0x3c08fa3c	0.008360442
246	0xbd2bc1ae	-0.041932754
247	0xbd7c8c4e	-0.061657242
248	0x3c4cc117	0.012497208
249	0x3d196466	0.037449263
250	0x3d1cd90f	0.03829294
251	0x3cacc270	0.021088809
252	0x3d05e6b6	0.032690726
253	0xbd91d06d	-0.07119832
254	0xbd08120f	-0.033220347
255	0x3da745a9	0.081675835

bias f4 [3]
0	0xbc788db9	-0.015170508
1	0x3d2c6e3a	0.042097308
2	0xbd5719ac	-0.052514717
