trained/exp_train_3_3_1111_0.0001_0.001_32_0.95/model/meta_critic_2.pth (torch, 547979 bytes, 7 tensors)

weight f4 [128, 16]
-0.06101916 -0.09428629 -0.028544974 -0.09288221 0.28549737 0.15774085 -0.2774339 -0.023224115
-0.17816131 0.04940101 -0.18264769 -0.0758371 0.24804612 0.36757946 -0.29170072 -0.07182858
-0.404663 0.31249267 0.013877678 0.34321713 -0.23246826 -0.05131073 -0.04165047 -0.11163301
-0.10843933 -0.1667765 0.20208922 -0.0712076 0.11847792 -0.21050842 -0.09503496 0.1737202
0.026700834 -0.30646858 0.009619421 0.0841613 0.022834623 -0.060972568 -0.06349949 0.39654416
0.08824921 -0.11050208 -0.26591268 -0.113510355 0.09974101 0.21662447 0.014227656 0.33064184
0.07464454 -0.13663796 -0.2259821 0.10848625 0.09043486 -0.18904197 -0.052917145 0.14708656
0.2532321 0.28302532 0.1332064 0.17307292 0.25774753 -0.31081125 -0.3195869 -0.028764797
0.28344753 -0.12648119 -0.101462394 0.3204784 0.11825878 -0.081991516 0.23296595 -0.088211626
0.18706255 0.21490872 0.24106999 0.25847906 -0.1582634 -0.046518136 -0.27213436 0.21849456
0.3983958 0.038672585 -0.2448344 0.072447635 0.31594145 -0.12699974 -0.2593238 0.1382809
0.24922083 -0.29058695 0.051728234 0.13232474 -0.11761278 -0.31701335 0.10699784 -0.2924004
0.29777583 -0.21698931 0.2527005 -0.37592334 -0.1527885 0.32633767 -0.12396838 -0.11753302
0.19296989 -0.045378055 0.09442712 -0.008950949 0.005026475 0.24872811 0.1670615 0.022280816
0.19419877 0.35721466 -0.23900494 0.16327396 0.18097952 0.06592414 0.17558742 -0.051477376
0.11492025 0.25528485 -0.07808732 0.10545112 -0.034346886 0.3518137 0.13185701 0.2066708
-0.1990045 -0.22018482 -0.3224964 -0.16905423 -0.10050364 -0.31913057 0.014979578 -0.1895207
-0.123766005 -0.10675181 -0.12889874 0.13687307 0.040062465 -0.18483077 0.14501859 0.39441735
0.38440293 -0.35806194 -0.1060989 0.07832076 -0.28551847 0.072672285 -0.26451093 0.16680023
0.087237775 -0.17204213 -0.3160023 0.27313328 -0.13874796 0.03320591 -0.30969352 0.159744
-0.12658536 0.3777109 0.13169958 0.3861896 0.09809758 -0.20751147 0.2892853 -0.09458032
-0.24351712 0.16265146 -0.048112385 0.019657638 0.014331015 0.30298197 -0.22485173 -0.05896473
0.21007529 0.0111946585 0.05404215 -0.026763821 0.21754491 -0.24721111 0.09635851 0.22283363
0.18179613 -0.11505435 -0.2578459 0.09611636 -0.1703137 -0.13110085 0.22251204 0.3159784
-0.29328898 0.43939447 -0.007332135 -0.1578886 -0.04463187 0.0015001702 0.31271 -0.2120038
0.10293206 -0.28621233 0.34715754 -0.20403942 -0.3047928 0.08892042 0.02399592 0.19121425
0.11686123 0.0002554398 -0.19949669 -0.34104484 -0.12664266 0.36207184 0.19199607 0.17979652
-0.0894387 0.16420977 -0.026958076 -0.22259878 -0.13820863 -0.07986147 -0.07251587 -0.009821625
-0.04757294 0.13803712 0.2625854 -0.1958915 -0.29994142 -0.059841722 0.036708623 -0.26028335
-0.19042508 0.34105787 0.14800498 0.21343198 -0.20540173 0.19671091 0.20726821 -0.008978885
-0.3372858 -0.009454779 0.012989318 -0.071247324 0.1635953 0.0860646 0.25882185 -0.19161323
-0.17044443 0.20043579 0.1828642 -0.2685933 -0.43377393 -0.102374285 -0.16885123 -0.24731544
00000000: 3aef 79bd 2c19 c1bd 26d7 e9bc 0739 bebd
00000010: b62c 923e d186 213e d10b 8ebe 8040 bebc
00000020: eb6f 36be b758 4a3d ff07 3bbe 7b50 9bbd
00000030: cdff 7d3e 6033 bc3e cc59 95be dd1a 93bd
00000040: fd2f cfbe 0aff 9f3e 335f 633c 28ba af3e
00000050: 290c 6ebe 332b 52bd af99 2abd d99f e4bd
00000060: 7015 debd 75c7 2abe 7af0 4e3e 4ad5 91bd
00000070: 8da4 f23d 858f 57be b0a1 c2bd b5e3 313e
00000080: b5bb da3c 73e9 9cbe c79a 1d3c c25c ac3d
00000090: ad0f bb3c 5fbe 79bd 050c 82bd d607 cb3e
000000a0: 00bc b43d ea4e e2bd b525 88be 1e78 e8bd
000000b0: 0445 cc3d ced2 5d3e 1d1b 693c e349 a93e
000000c0: 3ddf 983d d2ea 0bbe da67 67be 0a2e de3d
000000d0: e935 b93d 3894 41be a6bf 58bd dc9d 163e
000000e0: a3a7 813e b2e8 903e 4267 083e 073a 313e
000000f0: 7cf7 833e a722 9fbe e5a0 a3be 27a4 ebbc
00000100: 0920 913e 4984 01be 84cb cfbd bf15 a43e
00000110: a931 f23d 2beb a7bd a08e 6e3e 4ca8 b4bd
00000120: 538d 3f3e 0811 5c3e 0ddb 763e 5e57 843e
00000130: cd0f 22be cd89 3ebd 3255 8bbe 0abd 5f3e
00000140: 89fa cb3e 2567 1e3d deb5 7abe 6d5f 943d
00000150: 14c3 a13e 380c 02be 17c6 84be 8299 0d3e
00000160: bf33 7f3e d0c7 94be fce0 533d 2380 073e
00000170: f8de f0bd 934f a2be af21 db3d 81b5 95be
00000180: 1376 983e 7232 5ebe f661 813e 0679 c0be
00000190: 9774 1cbe bb15 a73e 22e3 fdbd 27b5 f0bd
000001a0: e699 453e 57de 39bd 0263 c13d 00a7 12bc
000001b0: 21b5 a43b 95b2 7e3e 2b12 2b3e 4286 b63c
000001c0: 0bdc 463e d7e4 b63e b6bd 74be 4a31 273e
000001d0: b252 393e 3c03 873d 30cd 333e f1d9 52bd
000001e0: 4f5b eb3d b2b4 823e 3fec 9fbd c2f6 d73d
000001f0: 52af 0cbd ed20 b43e 8605 073e 83a1 533e
00000200: d6c7 4bbe 2178 61be 401e a5be 8d1c 2dbe
00000210: dad4 cdbd 1565 a3be e76c 753c b711 42be
00000220: 0879 fdbd b1a0 dabd 08fe 03be 7428 0c3e
00000230: 8a18 243d 4744 3dbe c17f 143e 12f1 c93e
00000240: 76d0 c43e e553 b7be 614a d9bd a266 a03d
00000250: 7a2f 92be 35d5 943d fa6d 87be aecd 2a3e
00000260: b8a9 b23d d02b 30be 0ecb a1be 20d8 8b3e
00000270: f213 0ebe ec02 083d 2690 9ebe ee93 233e
00000280: 989f 01be 5363 c13e 41dc 063e a5ba c53e
00000290: 62e7 c83d e37d 54be 341d 943e 54b3 c1bd
000002a0: 8d5c 79be 1b8e 263e 7e11 45bd 0e09 a13c
000002b0: a2cc 6a3c 7420 9b3e 883f 66be 0085 71bd
000002c0: fa1d 573e cd69 373c 4d5b 5d3d cd3f dbbc
000002d0: 18c4 5e3e e924 7dbe 9c57 c53d 802e 643e
000002e0: c428 3a3e 9da1 ebbd 6104 84be a7d8 c43d
000002f0: b766 2ebe 4d3f 06be 32da 633e ecc7 a13e
00000300: f929 96be 50f8 e03e 6842 f0bb 8dad 21be
00000310: e8cf 36bd 5ca1 c43a 861b a03e 8617 59be
00000320: 0bce d23d 6c8a 92be a2be b13e b6ef 50be
00000330: cd0d 9cbe e91b b63d 1793 c43c abcd 433e
00000340: f154 ef3d 8dec 8539 dc48 4cbe 6e9d aebe
00000350: 9dae 01be 7b61 b93e 9e9a 443e 941c 383e
00000360: a32b b7bd 9b26 283e 2fd7 dcbc eff0 63be
00000370: 9086 0dbe 698e a3bd 3383 94bd e2ea 20bc
00000380: d8db 42bd 9a59 0d3e 9871 863e c897 48be
00000390: ec91 99be 981c 75bd c85b 163d dc43 85be
000003a0: cbfe 42be 239f ae3e 9e8e 173e ea8d 5a3e
000003b0: d554 52be 966e 493e 1e3e 543e 2c1c 13bc
000003c0: b9b0 acbe 38e8 1abc 26d1 543c 1eea 91bd
000003d0: 8785 273e a342 b03d 4c84 843e 4236 44be
000003e0: fc88 2ebe 0a3f 4d3e c140 3b3e 1085 89be
000003f0: 9e17 debe 9ca9 d1bd 56e7 2cbe 4240 7dbe

bias f4 [128]
0.01856797 0.32515776 0.20311248 0.37935042 -0.052454926 0.24511476 0.5739244 -0.050174974
-0.082641415 0.3834138 0.5046191 0.48032236 0.2189912 0.13392569 0.14650002 -0.3680168
-0.218205 -0.18727331 0.14614095 0.24180238 0.15963666 0.16825978 0.068603344 0.039130814
0.058955207 -0.1545496 0.35179338 0.7423242 -0.09088842 -0.14101149 0.2075651 0.4653191
0.59611225 0.57178575 -0.0673176 0.06358691 0.22553723 0.45736855 -0.00010186745 0.48297507
0.37636107 0.28907025 0.19857591 0.3021042 -0.02922605 -0.0866148 0.23011184 -0.07676881
0.39536017 -0.016407158 0.44848606 0.13552319 0.23871171 0.31118688 -0.08358573 0.488481
0.002534457 0.41315272 0.17609748 0.2204715 0.3175458 0.6632887 0.014346093 -0.33750227
0.7022132 0.54289436 0.43752992 -0.21018273 -0.41664338 0.21404041 0.10752681 0.23360698
-0.0245093 0.6447651 0.06939504 0.070183195 0.28670323 0.45967972 -0.20507956 0.097207434
0.07599826 0.3758694 0.37834784 0.19100155 0.27603805 0.46247986 -0.41857815 0.18748164
0.176711 0.28317866 0.25290564 0.03964766 0.5648027 0.34986958 -0.4700539 0.07601107
0.284575 0.32259172 0.074083336 0.35786444 0.11952546 0.2124254 0.4458977 0.4999057
0.75809133 0.3386397 -0.31744447 0.28018123 0.25834128 0.03238342 -0.04711585 -0.13761729
0.32832778 0.056014318 0.08300946 -0.23495714 0.4729984 -0.13469268 0.07536592 -0.40658584
0.19516386 0.010914243 0.13687275 0.3859341 -0.5697158 0.15009323 -0.52221227 -0.0702387
00000000: db1b 983c 147b a63e b8fc 4f3e 383a c23e
00000010: fada 56bd 5dff 7a3e b6ec 123f 4684 4dbd
00000020: e73f a9bd d04e c43e b82e 013f d0ec f53e
00000030: 3b3f 603e d123 093e 1a04 163e b36c bcbe
00000040: 2271 5fbe 93c4 3fbe f9a5 153e 0b9b 773e
00000050: cb77 233e 4b4c 2c3e e97f 8c3d a247 203d
00000060: 047b 713d 4042 1ebe 431e b43e f508 3e3f
00000070: b523 babd 5165 10be f28b 543e 4e3e ee3e
00000080: d09a 183f 8d60 123f cfdd 89bd db39 823d
00000090: 3bf3 663e 362c ea3e aca1 d5b8 8248 f73e
000000a0: 66b2 c03e 0401 943e 7c57 4b3e 67ad 9a3e
000000b0: 786b efbc 1a63 b1bd 70a2 6b3e f738 9dbd
000000c0: a66c ca3e 4e68 86bc f79f e53e 97c6 0a3e
000000d0: d870 743e e353 9f3e ff2e abbd 2e1a fa3e
000000e0: 2219 263b c188 d33e e652 343e 48c3 613e
000000f0: 5d95 a23e 4acd 293f e00b 6b3c 19cd acbe
00000100: 3fc4 333f 20fb 0a3f ec03 e03e 243a 57be
00000110: 4852 d5be 692d 5b3e 0437 dc3d ab36 6f3e
00000120: bac7 c8bc 530f 253f fd1e 8e3d 35bc 8f3d
00000130: c4ca 923e 245b eb3e 6000 52be b114 c73d
00000140: faa4 9b3d f471 c03e cfb6 c13e e995 433e
00000150: dc54 8d3e 29ca ec3e e04f d6be 30fb 3f3e
00000160: baf3 343e cbfc 903e d97c 813e 9665 223d
00000170: e996 103f 1b22 b33e e8aa f0be b1ab 9b3d
00000180: d0b3 913e be2a a53e 01b9 973d 023a b73e
00000190: c4c9 f43d 0b86 593e b44c e43e a4f3 ff3e
000001a0: 4612 423f 2f62 ad3e 1588 a2be ea73 8f3e
000001b0: 4f45 843e 7aa4 043d 8dfc 40bd 8ceb 0cbe
000001c0: 941a a83e 456f 653d dd00 aa3d 9b98 70be
000001d0: d92c f23e e1ec 09be 7359 9a3d 052c d0be
000001e0: 09d9 473e a7d1 323c 5f28 0c3e 2899 c53e
000001f0: e5d8 11bf 0ab2 193e b4af 05bf 4fd9 8fbd

weight f4 [256, 393]
0.059509516 0.04966606 0.05136772 0.08330729 -0.039806053 -0.07260348 -0.020403704 0.050811704
-0.050489787 -0.056061182 0.15989628 -0.019406442 0.19235472 0.08345922 -0.013751332 -0.042104788
-0.17229003 -0.05648815 -0.13241895 0.06564493 -0.054450504 0.027565708 -0.01802175 0.10079504
-0.016939187 -0.03029488 0.11731521 -0.0013771119 -0.046310797 0.06926128 -0.0010440566 0.074369155
0.107200556 -0.11196773 -0.019056832 0.0069769346 0.05471476 0.076345295 0.030321727 0.1383024
0.12538862 0.07196351 -0.16693896 -0.12503825 -0.051559474 0.056492686 0.073277734 -0.06093472
0.11920353 0.0350839 -0.0055525503 0.042968474 0.08760392 0.03377833 0.09126924 -0.017415011
0.13312979 0.121105336 -0.08071161 0.08909755 0.15151015 0.0052047446 -0.13177799 0.020932332
0.035699997 0.13510379 0.003984799 -0.023053437 0.02166064 -0.001282448 -0.08378052 0.06058152
0.008462544 0.02353049 0.0040353113 0.016362952 0.15660866 0.015213313 0.040139955 0.0673444
-0.018919067 0.02774188 0.10555931 -0.0719382 -0.0009429098 0.062229376 0.029248057 -0.035135042
0.0038623177 0.011738183 -0.052199624 -0.02478863 0.14056338 -0.036465388 0.012408231 0.15681055
-0.0774844 0.01920089 0.019373223 0.12394162 0.056144703 0.08896098 0.014714271 0.04275949
0.05315096 -0.0005398679 -0.13765743 -0.09224447 -0.043310232 0.03654855 -0.031134332 0.0882539
0.061320737 0.044678543 0.086951606 0.031225232 0.06428213 0.09981193 0.0049096285 -0.010580048
0.019502671 -0.049200464 0.017057545 -0.08054136 -0.107161164 0.050006736 -0.16841818 -0.1154152
-0.1914629 -0.16521712 0.20138922 0.027419174 0.12575965 -0.01837432 -0.040079955 0.016155573
0.026916793 -0.007377636 -0.07499423 0.10594528 -0.07774449 0.017064039 0.06838459 -0.03982993
0.104308106 -0.009524841 -0.0068185506 -0.05916582 -0.021627314 -0.027176837 0.09366172 0.10127673
0.044891756 -0.02254856 -0.06525647 -0.009744498 -0.10473615 0.13557678 -0.01533232 0.07472024
-0.17142111 -0.022564098 -0.008970814 0.042610623 0.04494044 0.029560788 -0.082946226 0.10077255
0.11328826 -0.021452975 0.058132615 0.0835651 0.01629815 0.063466735 0.071353525 0.10561474
-0.023460776 0.047358885 -0.022971397 0.10446753 0.045202177 0.07458411 0.14321749 0.091038726
-0.027323602 0.019839114 0.10561464 -0.024878653 0.07193776 0.063266054 0.014540358 0.09147379
0.15351719 0.0011921711 0.086594336 0.0034603241 -0.050281588 -0.0102711115 0.022937918 0.004443541
0.084789075 0.107791334 -0.055510525 -0.083615184 0.06187094 0.110647425 -0.01599069 0.055690248
-0.035009738 0.040022824 0.08372551 0.023044607 0.057313453 0.10428143 -0.040773124 0.024169419
0.055233635 0.06634845 0.01664308 0.029287485 0.12047861 0.05618635 -0.02920983 0.04059055
0.060926538 0.07122193 0.063770615 0.08486456 0.024205359 -0.0400365 0.088718444 -0.031129517
-0.05941581 0.02134663 0.024678525 0.06753147 0.06274875 0.037226666 0.06279408 -0.029854385
0.053439952 0.044064865 -0.0007827996 0.08325143 0.055179596 0.1634271 -0.05666132 0.058699034
-0.10004415 -0.0979452 -0.12154141 0.008805862 0.01672319 0.00023965807 0.03051098 0.0042039272
00000000: 40c0 733d a36e 4b3d f566 523d 039d aa3d
00000010: ac0b 23bd 22b1 94bd ab25 a7bc ef1f 503d
00000020: 61ce 4ebd 69a0 65bd dabb 233e 42fa 9ebc
00000030: a3f8 443e abec aa3d 444d 61bc 1276 2cbd
00000040: cc6c 30be 1e60 67bd d598 07be d970 863d
00000050: 7e07 5fbd 7bd1 e13c 59a2 93bc a16d ce3d
00000060: 0dc4 8abc f82c f8bc f542 f03d 3580 b4ba
00000070: 64b0 3dbd dcd8 8d3d bad8 88ba db4e 983d
00000080: f78b db3d 564f e5bd 131d 9cbc c59e e43b
00000090: 961c 603d ec5a 9c3d 4565 f83c 259f 0d3e
000000a0: e065 003e 9b61 933d 0cf2 2abe 070a 00be
000000b0: 0730 53bd e064 673d a312 963d af96 79bd
000000c0: fb20 f43d 23b4 0f3d 2bf2 b5bb b6ff 2f3d
000000d0: af69 b33d 255b 0a3d 5eeb ba3d eda9 8ebc
000000e0: 2d53 083e 1306 f83d 214c a5bd c778 b63d
000000f0: 7a25 1b3e 908c aa3b cff0 06be 487a ab3c
00000100: 293a 123d a658 0a3e eb92 823b 90da bcbc
00000110: a871 b13c d017 a8ba 1f95 abbd 5424 783d
00000120: 7ba6 0a3c 04c3 c03c a53a 843b 990b 863c
00000130: 055e 203e 4241 793c cb69 243d dceb 893d
00000140: 29fc 9abc f042 e33c 7b2f d83d 5654 93bd
00000150: 9b2d 77ba 3be4 7e3d 9f99 ef3c c3e9 0fbd
00000160: f01e 7d3b 8251 403c 46cf 55bd 8611 cbbc
00000170: d9ef 0f3e bb5c 15bd e54b 4b3c f292 203e
00000180: 24b0 9ebd 2f4b 9d3c 98b4 9e3c 1bd5 fd3d
00000190: fdf7 653d 2d31 b63d 2014 713c 9324 2f3d
000001a0: d2b4 593d ec85 0dba 12f6 0cbe abea bcbd
000001b0: 1266 31bd efb3 153d 6d0d ffbc 76be b43d
000001c0: 742b 7b3d d900 373d af13 b23d 0fcc ff3c
000001d0: 59a6 833d 326a cc3d f3e0 a03b f057 2dbc
000001e0: 11c4 9f3c 6d86 49bd 44bc 8b3c def2 a4bd
000001f0: 5077 dbbd ddd3 4c3d d175 2cbe ce5e ecbd
00000200: da0e 44be ad2e 29be fa38 4e3e 2d9e e03c
00000210: 23c7 003e be85 96bc e12a 24bd b158 843c
00000220: 9b80 dc3c 19c0 f1bb 9396 99bd d7f9 d83d
00000230: 8138 9fbd e2c9 8b3c 380d 8c3d b524 23bd
00000240: 7d9f d53d 140e 1cbc 266e dfbb dc57 72bd
00000250: c42b b1bc f5a1 debc b7d1 bf3d 2d6a cf3d
00000260: 6be0 373d c2b7 b8bc 2fa5 85bd 63a7 1fbc
00000270: e87f d6bd a4d4 0a3e 6934 7bbc ed06 993d
00000280: 0489 2fbe 58d8 b8bc 52fa 12bc 7a88 2e3d
00000290: 7813 383d 7729 f23c b6df a9bd d761 ce3d
000002a0: ad03 e83d 26be afbc 771c 6e3d 2e24 ab3d
000002b0: b383 853c d9fa 813d cc21 923d 8a4c d83d
000002c0: d030 c0bc 64fb 413d 832e bcbc 13f3 d53d
000002d0: eb25 393d 8ebf 983d 9ba7 123e 8372 ba3d
000002e0: bfd5 dfbc a385 a23c 7d4c d83d 51ce cbbc
000002f0: 1b54 933d a291 813d af3a 6e3c 9c56 bb3d
00000300: 9c33 1d3e a042 9c3a 5f58 b13d 9bc6 623b
00000310: 11f4 4dbd 2a48 28bc 4de8 bb3c 209b 913b
00000320: e5a5 ad3d b4c1 dc3d 015f 63bd 703e abbd
00000330: 626c 7d3d 1e9b e23d e8fe 82bc 751b 643d
00000340: 5f66 0fbd f9ee 233d 4878 ab3d 0bc8 bc3c
00000350: 83c1 6a3d 8191 d53d b801 27bd f2fe c53c
00000360: aa3c 623d b2e1 873d 1257 883c 4fec ef3c
00000370: 7dbd f63d a823 663d 7449 efbc 4742 263d
00000380: 1b8e 793d cedc 913d 2b9a 823d 78cd ad3d
00000390: 514a c63c 50fd 23bd 04b2 b53d 5403 ffbc
000003a0: fe5d 73bd 21df ae3c 9e2a ca3c f04d 8a3d
000003b0: 6b82 803d fd7a 183d 2f9a 803d 2f91 f4bc
000003c0: dae3 5a3d 5c7d 343d cb34 4dba ba7f aa3d
000003d0: 0004 623d 6f59 273e b315 68bd 666e 703d
000003e0: f3e3 ccbd 7e97 c8bd b4ea f8bd 7646 103c
000003f0: 12ff 883c b94c 7b39 2af2 f93c 19c1 893b

bias f4 [256]
0.3677675 0.39919618 0.3218206 0.36028194 0.33642903 0.006618172 0.3213017 0.2727699
0.37524277 0.29008648 0.3187731 0.37659967 -0.029739272 0.35351935 0.3677762 0.33533373
-0.032639243 0.33782706 0.37723657 0.39255306 0.3960037 0.3719704 0.40014213 0.27964386
0.3913694 0.31340095 0.31515822 -0.008211976 0.26027662 0.32420203 -0.021184435 0.03255243
0.33116412 -0.05885178 0.38670805 0.2430836 0.37001893 0.30535343 -0.0037018044 -0.039613962
0.3287804 0.329464 0.3842028 0.31721607 -0.0045534936 0.4019271 0.34638053 -0.015546908
0.39148828 0.37276775 0.22944182 0.33411962 0.41334975 0.4469474 0.330065 0.36356536
0.3510798 0.35003486 0.38622388 0.334086 0.41469857 0.30456555 0.010908971 0.3620809
0.014320429 -0.0065912683 0.35192332 0.34024513 0.4181925 0.3898952 0.03294064 0.18135518
0.35094336 -0.026252793 -0.05081319 0.27674976 0.03840333 -0.041569557 0.34795463 0.3691456
0.4063496 0.32917455 0.31274736 0.35403562 0.3405877 0.35911983 0.3553754 0.32470086
0.33847743 0.37154818 -0.07498761 0.303189 0.35816923 0.39521813 0.36192745 0.38469002
0.2464044 0.004130264 0.37568477 0.25474676 0.41862917 0.38963443 0.34227505 0.40246975
0.3439854 0.38790992 0.37190378 -0.057189338 -0.0408475 -0.015676184 -0.058671005 0.40717322
0.3172084 0.33048466 0.33047307 0.35344976 0.36664963 0.298948 0.25073066 0.003795656
-0.020849958 0.32144833 0.31794629 0.029783666 0.40576217 0.0053971577 0.009240839 0.35635945
0.31819847 0.027464591 0.3321873 0.011467728 0.41416413 -0.028543036 0.33162615 -0.025470207
0.32137412 0.35866442 0.31405637 0.4199566 0.020002132 0.3177939 0.3051451 0.38870755
0.34360874 0.33386278 -0.053311847 0.31756222 0.032627407 0.384037 0.3605433 0.4120323
-0.040114544 0.39906353 0.34611917 0.29266578 0.35949463 -0.039493237 -0.0036330777 0.39745766
0.4115622 0.3358074 0.31290334 -0.055793714 0.29988578 -0.043923516 0.33067948 -0.022916134
0.364474 -0.06477798 0.023658575 0.34593105 0.013271219 0.3139077 0.5777195 0.39597234
0.31177652 0.38589874 0.40340918 0.39853224 0.40975764 0.39107588 0.40006104 0.3424908
-0.018402442 0.39697397 -0.0044645886 0.03528688 -0.032748133 0.038296174 0.3261677 0.33060113
0.3705904 0.36942792 0.32994193 0.38324848 0.3615931 0.32331672 0.31562355 0.34493652
0.3625957 0.007829432 0.3174189 0.0022459559 0.42871436 0.34259924 0.37907803 0.39777398
0.3890585 0.3061028 0.30462927 0.025173651 0.41611055 0.22968599 0.31946984 0.343771
-0.023807097 0.3710347 0.29513562 0.3808874 0.38887835 0.33816352 0.01657022 0.35933456
0.3769827 0.4144281 0.40381142 0.33976787 0.28373614 0.34813032 0.41395524 0.017324734
0.39720193 0.39092463 0.36930546 0.3544096 0.3265795 0.41479886 0.0019135863 0.011565333
0.39144397 0.34987035 -0.025461273 -0.016735394 0.40211672 0.3189405 0.3872085 0.3738223
0.36597532 -0.017599272 0.3664407 0.40214887 0.34119087 -0.045252204 0.3934952 0.3996717
00000000: 064c bc3e 7163 cc3e abc5 a43e e076 b83e
00000010: 6d40 ac3e 40dd d83b a881 a43e 7fa8 8b3e
00000020: d21f c03e 3786 943e 3a36 a33e acd1 c03e
00000030: c69f f3bc 7d00 b53e 294d bc3e ddb0 ab3e
00000040: bab0 05bd abf7 ac3e 2725 c13e b7fc c83e
00000050: ffc0 ca3e e772 be3e 6edf cc3e 7b2d 8f3e
00000060: 9261 c83e 1776 a03e 6b5c a13e 868b 06bc
00000070: fa42 853e cffd a53e fb8a adbc b255 053d
00000080: 588e a93e 900e 71bd 99fe c53e e8ea 783e
00000090: 1f73 bd3e 4957 9c3e f999 72bb 4042 22bd
000000a0: e855 a83e 81af a83e 3bb6 c43e 256a a23e
000000b0: 7935 95bb 64c9 cd3e ca58 b13e 75b8 7ebc
000000c0: 2771 c83e 6adb be3e ccf2 6a3e ba11 ab3e
000000d0: 94a2 d33e 4ad6 e43e 48fe a83e 3d25 ba3e
000000e0: bbc0 b33e c537 b33e 23bf c53e 520d ab3e
000000f0: 5f53 d43e 04f0 9b3e 8abb 323c ab62 b93e
00000100: 3ca0 6a3c 91fb d7bb 4b2f b43e 9c34 ae3e
00000110: 541d d63e 58a0 c73e c4ec 063d 2cb5 393e
00000120: d9ae b33e 1910 d7bc 7e21 50bd 25b2 8d3e
00000130: cf4c 1d3d d744 2abd 1c27 b23e a700 bd3e
00000140: 0e0d d03e 9189 a83e 6c20 a03e 2844 b53e
00000150: 8361 ae3e 8ede b73e c4f3 b53e 313f a63e
00000160: ea4c ad3e 903b be3e 1b93 99bd 973b 9b3e
00000170: f561 b73e 085a ca3e 8e4e b93e 17f6 c43e
00000180: 6f51 7c3e 2a57 873b c159 c03e 2b6e 823e
00000190: 9056 d63e 2a7e c73e ad3e af3e 8410 ce3e
000001a0: db1e b03e 219c c63e 2c6a be3e 5e3f 6abd
000001b0: b54f 27bd 576b 80bc 0251 70bd 0279 d03e
000001c0: 2469 a23e 4935 a93e c433 a93e 5ef7 b43e
000001d0: 80b9 bb3e b60f 993e c55f 803e 8ac0 783b
000001e0: 88cd aabc e094 a43e dbc9 a23e e0fc f33c
000001f0: 0fc0 cf3e a4da b03b e366 173c bf74 b63e
00000200: e9ea a23e 6cfd e03c 7414 aa3e 23e3 3b3c
00000210: 520d d43e 16d3 e9bc e7ca a93e e5a6 d0bc
00000220: 268b a43e dda2 b73e ffcb a03e 8d04 d73e
00000230: 83db a33c e2b5 a23e fb3b 9c3e ad04 c73e
00000240: 7ced af3e 10f0 aa3e 865d 5abd 8497 a23e
00000250: 51a4 053d 7fa0 c43e 2299 b83e e6f5 d23e
00000260: 264f 24bd 0e52 cc3e 8836 b13e 4ad8 953e
00000270: ae0f b83e a9c3 21bd ee18 6ebb 927f cb3e
00000280: 48b8 d23e f3ee ab3e de34 a03e f387 64bd
00000290: a18a 993e 25e9 33bd d24e a93e 9eba bbbc
000002a0: 569c ba3e 51aa 84bd a1cf c13c e01d b13e
000002b0: 876f 593c 83b8 a03e 6de5 133f e3bc ca3e
000002c0: 2ca1 9f3e 8594 c53e a68b ce3e 6b0c cc3e
000002d0: c1cb d13e 193b c83e cdd4 cc3e f45a af3e
000002e0: b8c0 96bc 2c40 cb3e af4b 92bb fa88 103d
000002f0: e822 06bd 73dc 1c3d 74ff a63e 8d44 a93e
00000300: 06be bd3e a825 bd3e 26ee a83e 2539 c43e
00000310: bb22 b93e c589 a53e 6999 a13e 859b b03e
00000320: 25a6 b93e 0547 003c bb84 a23e e330 133b
00000330: 7380 db3e 2b69 af3e 8416 c23e 08a9 cb3e
00000340: ad32 c73e 82b9 9c3e 5ef8 9b3e f938 ce3c
00000350: 710c d53e ce32 6b3e 8d91 a33e c102 b03e
00000360: 1a07 c3bc 43f8 bd3e 041c 973e ac03 c33e
00000370: 101b c73e c523 ad3e 45be 873c b3fa b73e
00000380: e003 c13e ec2f d43e 5fc0 ce3e 0ef6 ad3e
00000390: dd45 913e 233e b23e f1f1 d33e 9aec 8d3c
000003a0: 0d5e cb3e 4627 c83e 9b15 bd3e 2d75 b53e
000003b0: 6e35 a73e 8460 d43e 4dd1 fa3a 867c 3d3c
000003c0: 586b c83e 3522 b33e 2994 d0bc aa18 89bc
000003d0: 3ee2 cd3e 2b4c a33e 3140 c63e a365 bf3e
000003e0: 1e61 bb3e 592c 90bc 1e9e bb3e 75e6 cd3e
000003f0: 92b0 ae3e 605a 39bd 3478 c93e c5a1 cc3e

weight f4 [128, 256]
0.051958688 -0.05871304 0.012864946 -0.029271225 0.035915073 0.04570701 0.040948495 0.036036648
0.030816533 0.042531848 0.04721968 -0.058911454 -0.038900916 0.047804147 0.009929444 -0.020485992
0.039776318 -0.036709152 0.0079297 -0.005319927 0.018138371 0.02317566 0.018931989 -0.046820242
-0.028213406 -0.0013017053 -0.027578168 -0.0516546 0.007857153 -0.02671501 -0.0021250397 -0.05102916
-0.024992505 0.032851458 -0.064826384 0.023384199 -0.029974759 -0.0111757275 -0.015449643 -0.018304257
0.022470592 -0.022362951 -0.019707128 0.019475957 -0.050961226 -0.030843498 -0.01037914 0.041912124
0.0068272646 0.05053394 -0.015443088 -0.067436405 -0.040624067 0.016500173 -0.047053713 0.048222348
0.05312089 -0.06812815 -0.04207908 0.022179024 0.02807612 0.044276655 -0.050513912 0.022349104
-0.0075841667 -0.054140035 -0.050615203 -0.025327358 -0.00072340155 0.022806978 0.027837941 -0.00038499394
0.016752036 -0.019772567 -0.058451816 0.018416023 -0.055534177 -0.04251337 0.02853706 -0.017743424
-0.013807575 0.03845413 0.036675427 -0.0010684193 -0.056030273 0.026783621 0.020023054 0.008252066
0.01310503 0.026715301 -0.0031442866 -0.0091605205 0.015156866 -0.067744866 0.0038820533 -0.022891115
0.0044888067 0.018107196 -0.041809123 0.03214378 -0.069330625 0.045549948 -0.038014993 -0.070462584
-0.008034325 0.027236756 -0.022771934 -0.027322173 -0.050533712 -0.041735493 -0.027648525 -0.02865461
0.052606214 0.026242068 0.002384712 -0.0019410247 0.0028399276 -0.02111937 0.04538984 -0.010707665
0.035845604 -0.041488864 0.0153914085 0.01450914 -0.014425964 -0.06236035 -0.05305048 0.02964649
0.0030107636 0.051963557 0.045314264 -0.03366892 0.051301338 0.004014205 -0.019040998 0.01685207
0.0050127767 0.049751464 0.009148985 0.053917248 -0.02270339 -0.048797168 -0.009800627 -0.06730035
-0.050573356 0.036244474 -0.05793069 0.00073545147 0.001626864 0.016196067 0.0090416465 -0.011653777
0.035649523 -0.05898498 -0.010167532 -0.06634614 0.0358425 -0.06906012 0.0037111223 -0.012158608
-0.00013986925 -0.051579054 0.012910521 0.0069899336 -0.03086491 -0.018473946 -0.0029048012 0.0053571663
-0.060763042 -0.06637557 -0.009676843 -0.015071899 0.0071521997 -0.0683066 -0.06844434 0.024402382
-0.0072868294 -0.06350457 0.02439709 0.0026470039 0.01614417 -0.058813557 0.011315062 -0.06492949
0.002714364 -0.050791427 0.03959468 -0.056477897 -0.06848055 0.018944291 -0.06133942 0.048615314
-0.061242737 0.013481655 0.007647939 0.048150204 0.021921044 0.035614215 0.026018698 -0.063849606
0.027312776 0.038287833 -0.007235196 -0.020615274 -0.047535833 -0.056547154 -0.031939268 -0.011261854
-0.044578373 -0.037941318 -0.045980595 0.05486451 0.037169132 0.04824233 -0.0011951759 -0.012245776
-0.0024348467 -0.04288222 -0.05971694 -0.061793394 0.009906858 -0.01931177 -0.04678919 0.041396428
-0.06878167 -0.016024796 -0.05454085 -0.006969903 -0.03254697 -0.06700824 -0.05156845 0.054436248
0.005776678 0.062281318 -0.051556107 -0.055899393 -0.018951917 0.037372366 -0.055040587 0.037552796
-0.068069376 -0.06980754 0.048692577 0.01375779 -0.036537737 -0.01915052 -0.05295056 -0.06688445
0.028378602 0.04150127 0.053229377 -0.048550993 0.041236307 0.031643156 -0.047987137 -0.06501543
00000000: a2d2 543d 167d 70bd 7fc7 523c 35ca efbc
00000010: af1b 133d 4637 3b3d 9cb9 273d 2a9b 133d
00000020: f472 fc3c e035 2e3d 6c69 413d 234d 71bd
00000030: 9156 1fbd 48ce 433d 1baf 223c 3dd2 a7bc
00000040: 7eec 223d 565c 16bd 93eb 013c c852 aebb
00000050: ec96 943c e2da bd3c 4217 9b3c 95c6 3fbd
00000060: cd1f e7bc fb9d aaba 9ceb e1bc c693 53bd
00000070: 4abb 003c 70d9 dabc 4044 0bbb f403 51bd
00000080: 15bd ccbc 408f 063d b2c3 84bd 3890 bf3c
00000090: a08d f5bc 661a 37bc 8020 7dbc cff2 95bc
000000a0: 3f14 b83c 8232 b7bc d870 a1bc 0b8c 9f3c
000000b0: b8bc 50bd 81ab fcbc 450d 2abc 0cac 2b3d
000000c0: 3fb7 df3b adfc 4e3d 0105 7dbc 191c 8abd
000000d0: 6c65 26bd 5f2b 873c 65bb 40bd cc84 453d
000000e0: 4a95 593d c686 8bbd 1d5b 2cbd c9b0 b53c
000000f0: e4ff e53c 705b 353d ade7 4ebd 7815 b73c
00000100: 9a84 f8bb f1c1 5dbd e351 4fbd 527b cfbc
00000110: a8a2 3dba b3d5 ba3c 650c e43c 03d9 c9b9
00000120: 913b 893c 14fa a1bc 2c6b 6fbd 33dd 963c
00000130: ce77 63bd 8022 2ebd 8dc6 e93c a85a 91bc
00000140: 2b39 62bc 1482 1d3d f938 163d 340a 8cba
00000150: 0080 65bd 5369 db3c 6307 a43c ac33 073c
00000160: 7bb6 563c 0cda da3c 6010 4ebb 0216 16bc
00000170: 8154 783c d2bd 8abd 0c6a 7e3b 2686 bbbc
00000180: d716 933b 8b55 943c 0b40 2bbd 32a9 033d
00000190: 37fd 8dbd 9592 3a3d 9cb5 1bbd b04e 90bd
000001a0: 67a2 03bc 9e1f df3c 358c babc c0d2 dfbc
000001b0: 70fc 4ebd d6f2 2abd 297f e2bc 13bd eabc
000001c0: 9d79 573d 9bf9 d63c d448 1c3b fb69 feba
000001d0: 141e 3a3b 8702 adbc b2ea 393d 346f 2fbc
000001e0: d7d2 123d 3af0 29bd 3f2c 7c3c beb7 6d3c
000001f0: e15a 6cbc 916d 7fbd 764b 59bd 32dd f23c
00000200: 3b50 453b bdd7 543d 739b 393d 6ce8 09bd
00000210: 5a21 523d 9889 833b defb 9bbc 5a0d 8a3c
00000220: 3842 a43b 31c8 4b3d a0e5 153c 55d8 5c3d
00000230: 76fc b9bc 8adf 47bd cf92 20bc c4d4 89bd
00000240: 0226 4fbd 1675 143d bb48 6dbd 50cb 403a
00000250: 7f3c d53a 9dad 843c 6a23 143c 7cef 3ebc
00000260: 3c05 123d 3c9a 71bd b895 26bc 7ce0 87bd
00000270: 96cf 123d 646f 8dbd 4d36 733b e634 47bc
00000280: dea9 12b9 8f44 53bd a686 533c d00b e53b
00000290: 68d8 fcbc ac56 97bc 7a5e 3ebb 2b8b af3b
000002a0: abe2 78bd eaef 87bd 9f8b 1ebc 20f0 76bc
000002b0: 005d ea3b 55e4 8bbd 8c2c 8cbd 81e7 c73c
000002c0: 5bc6 eebb af0e 82bd 68dc c73c 5b79 2d3b
000002d0: c740 843c 7ce6 70bd cf62 393c c1f9 84bd
000002e0: 79e3 313b ac0a 50bd 082e 223d 5e55 67bd
000002f0: 883f 8cbd 0f31 9b3c 0b3f 7bbd da20 473d
00000300: aad9 7abd 29e2 5c3c 909b fa3b 2639 453d
00000310: c393 b33c 36e0 113d 2a25 d53c 95c3 82bd
00000320: 0bbf df3c b4d3 1c3d 3915 edbb 5de1 a8bc
00000330: efb4 42bd fd9d 67bd c0d2 02bd a483 38bc
00000340: d097 36bd 5b68 1bbd 2656 3cbd 9cb9 603d
00000350: a93e 183d c099 453d 73a7 9cba 82a2 48bc
00000360: f391 1fbb 44a5 2fbd c099 74bd 121b 7dbd
00000370: 6050 223c b833 9ebc 06a6 3fbd 4d8f 293d
00000380: 67dd 8cbd 6f46 83bc 3a66 5fbd c963 e4bb
00000390: f94f 05bd 9e3b 89bd 7039 53bd 8bf8 5e3d
000003a0: 4a4a bd3b b21a 7f3d 7f2c 53bd c3f6 64bd
000003b0: 0d41 9bbc c413 193d 3d72 61bd f6d0 193d
000003c0: f567 8bbd 41f7 8ebd de71 473d 5b68 613c
000003d0: 98a8 15bd 8de1 9cbc b0e2 58bd b7fa 88bd
000003e0: 3e7a e83c 3cfd 293d 0c07 5a3d 68dd 46bd
000003f0: 67e7 283d 419c 013d 298e 44bd cf26 85bd

bias f4 [128]
-0.04281078 -0.016856162 0.35907674 0.37528774 -0.055584736 0.39703685 0.011301852 0.45458442
0.35747433 0.39555416 -0.062495455 0.3410173 0.39913738 0.42328468 -0.06669867 0.3241522
0.36823848 -0.07052432 0.32170588 0.34295288 0.42730933 0.34037766 -0.050619327 -0.053358298
0.36077452 -0.06979747 0.3941155 -0.06369589 -0.029176557 -0.0068037137 -0.03373829 0.03394598
0.027808975 -0.04326072 0.31333035 0.36594355 0.4513468 0.31272268 0.047030035 0.36007586
-0.019142091 0.35702404 0.35690075 -0.03520946 0.32239294 0.3423953 0.36374894 -0.07002584
-0.011707654 0.0046555637 0.35543302 0.03257788 0.041792247 -0.029288072 0.32669133 0.3652337
-0.06897262 0.04924403 0.00064376317 0.35638675 -0.054514386 0.32925457 0.30776122 -0.060832262
0.32025272 0.39190063 0.39599183 -0.038192622 -0.07013451 0.4182737 0.05073378 0.016293347
0.4357713 0.41506585 0.33318794 0.028163 0.32970685 0.38916415 0.030289829 0.34199455
0.341214 0.39686874 0.32669887 0.33506784 -0.06751732 0.04888509 0.44565156 0.3581827
-0.027531205 0.04516589 -0.025095508 0.35331836 -0.051720675 -0.05513336 0.33851594 0.34903982
-0.032436945 0.05199284 0.3554545 0.38940033 -0.048054505 -0.016700692 0.36072296 0.3314641
0.35474825 -0.061439894 0.0148414 -0.04387486 -0.0625599 0.3155515 0.43584862 0.43678194
0.39990187 0.3540733 0.05867044 0.4145293 -0.011316909 0.015381347 0.39547852 -0.020949485
0.32890168 0.03528642 0.41553342 0.41443762 -0.003404682 -0.020404808 -0.017134601 -0.036857225
00000000: 5b5a 2fbd ef15 8abc e8d8 b73e b725 c03e
00000010: d2ac 63bd 6a48 cb3e 672b 393c 4abf e83e
00000020: e006 b73e 1386 ca3e 3cfb 7fbd d299 ae3e
00000030: bc5b cc3e c5b8 d83e 5099 88bd 47f7 a53e
00000040: c189 bc3e 0e6f 90bd a2b6 a43e 8597 af3e
00000050: 4ac8 da3e fb45 ae3e 3656 4fbd 3b8e 5abd
00000060: 70b7 b83e faf1 8ebd 82c9 c93e fe72 82bd
00000070: ad03 efbc b0f1 debb 2931 0abd f10a 0b3d
00000080: a6cf e33c 2732 31bd d66c a03e f45c bb3e
00000090: ee16 e73e 301d a03e 91a2 403d dd5b b83e
000000a0: e0cf 9cbc dbcb b63e b2bb b63e cb37 10bd
000000b0: b010 a53e 704e af3e 4d3d ba3e b569 8fbd
000000c0: 76d1 3fbc b38d 983b 51fb b53e 6270 053d
000000d0: 592e 2b3d 8aed efbc 1644 a73e e9ff ba3e
000000e0: 8441 8dbd 1cb4 493d 37c2 283a 5378 b63e
000000f0: 7a4a 5fbd 0e94 a83e e192 9d3e 402b 79bd
00000100: 2af8 a33e 33a7 c83e 71bf ca3e de6f 1cbd
00000110: afa2 8fbd f827 d63e 39ce 4f3d a079 853c
00000120: 6a1d df3e 8383 d43e 9c97 aa3e 17b6 e63c
00000130: 56cf a83e 8640 c73e 6022 f83c e919 af3e
00000140: 9ab3 ae3e 6132 cb3e 1345 a73e 038e ab3e
00000150: 8546 8abd bb3b 483d 712c e43e b963 b73e
00000160: 1f89 e1bc deff 383d 1895 cdbc 25e6 b43e
00000170: 0fd9 53bd 85d3 61bd f651 ad3e 59b5 b23e
00000180: 9adc 04bd 72f6 543d 22fe b53e 7b5f c73e
00000190: cdd4 44bd e4cf 88bc aeb0 b83e aab5 a93e
000001a0: 90a1 b53e 66a8 7bbd 5829 733c 20b6 33bd
000001b0: 681f 80bd f78f a13e 8d27 df3e e2a1 df3e
000001c0: f0bf cc3e 1849 b53e 6a50 703d 2f3d d43e
000001d0: 8f6a 39bc 0c02 7c3c 297c ca3e 419e abbc
000001e0: cd65 a83e 7e88 103d ccc0 d43e 2b31 d43e
000001f0: 1621 5fbb fc27 a7bc dd5d 8cbc 9af7 16bd

weight f4 [1, 128]
0.07425796 0.078231305 -0.11822648 -0.1096289 0.054808747 -0.13076341 0.009644635 -0.07707742
-0.106787965 -0.08355419 0.0017993227 -0.09873077 -0.15185356 -0.107710354 -0.00952116 -0.12825674
-0.1615008 0.076221235 -0.12636521 -0.09395954 -0.12832333 -0.13098024 0.045395836 0.0041545373
-0.095578924 0.052339166 -0.14266366 0.0016774187 0.060919628 0.043287404 0.010509009 0.017610924
0.00536361 0.069906294 -0.14627193 -0.13328904 -0.08109947 -0.15219021 0.012671359 -0.1464099
0.053660657 -0.14946195 -0.15337256 0.019623805 -0.101638496 -0.16340071 -0.12325257 0.0030642156
0.010737787 0.029707521 -0.0972883 0.01782187 0.07472612 0.023920637 -0.12593403 -0.13791867
0.0027085235 0.031776745 0.017439961 -0.14593083 0.030520981 -0.12759171 -0.13828877 0.0062981285
-0.11869442 -0.13045385 -0.12996994 0.0805213 0.053527582 -0.15884797 0.025831548 0.0048963786
-0.08245247 -0.1181313 -0.12393121 0.03389123 -0.09779556 -0.086282365 0.019636393 -0.10719405
-0.08771321 -0.1312884 -0.10453347 -0.1544678 0.07213789 0.05441828 -0.09529829 -0.13222858
0.0031579356 0.039406814 -0.004102815 -0.13594373 0.009995677 0.06737058 -0.15069361 -0.08257629
0.028853992 0.037383758 -0.1565695 -0.07975582 0.026157338 0.02825355 -0.128894 -0.13063462
-0.10127319 0.07883556 -0.08433329 0.016293405 0.045426864 -0.15047055 -0.10274609 -0.096302845
-0.1469641 -0.07810597 -0.05476375 -0.098262824 0.011181321 0.03495235 -0.10972365 0.048231427
-0.12985761 0.06670995 -0.12554449 -0.082762614 0.07449298 0.0692879 0.021401258 0.030654766
00000000: 8f14 983d bc37 a03d ba20 f2bd 1e85 e0bd
00000010: 237f 603d d8e6 05be 8804 1e3c c4da 9dbd
00000020: a6b3 dabd 761e abbd 40d7 eb3a 5c33 cabd
00000030: 807f 1bbe 3f97 dcbd a4fe 1bbc bc55 03be
00000040: 7760 25be e119 9c3d e265 01be dc6d c0bd
00000050: 3167 03be af1f 06be fcf0 393d c922 883b
00000060: e2be c3bd 9861 563d 6c16 12be d5dc db3a
00000070: dc86 793d 224e 313d fa2d 2c3c c944 903c
00000080: 39c1 af3b 082b 8f3d 4fc8 15be ec7c 08be
00000090: 7b17 a6bd c0d7 1bbe 889b 4f3c 7aec 15be
000000a0: 47cb 5b3d 8e0c 19be b20d 1dbe 1ac2 a03c
000000b0: d827 d0bd 8452 27be d86b fcbd 02d1 483b
000000c0: 8bed 2f3c 305d f33c 173f c7bd 2cff 913c
000000d0: 020a 993d 36f5 c33c daf4 00be 8d3a 0dbe
000000e0: 7c81 313b 5528 023d 40de 8e3c e46e 15be
000000f0: 2307 fa3c 67a7 02be 929b 0dbe 8860 ce3b
00000100: 0f16 f3bd b295 05be d716 05be 5ae8 a43d
00000110: bd3f 5b3d 0ba9 22be af9c d33c cd71 a03b
00000120: d7dc a8bd d3ee f1bd a5cf fdbd 88d1 0a3d
00000130: 0a49 c8bd cfb4 b0bd 80dc a03c 8e88 dbbd
00000140: fca2 b3bd 7770 06be a515 d6bd cf2c 1ebe
00000150: 08bd 933d b4e5 5e3d c02b c3bd ee66 07be
00000160: 5ef5 4e3b 0a69 213d e870 86bb d534 0bbe
00000170: e8c4 233c 96f9 893d 6d4f 1abe c21d a9bd
00000180: 355f ec3c b61f 193d c153 20be 0557 a3bd
00000190: ea47 d63c fd73 e73c cafc 03be 15c5 05be
000001a0: 5168 cfbd 8a74 a13d efb6 acbd bf79 853c
000001b0: 8511 3a3d f414 1abe 8b6c d2bd 6d3a c5bd
000001c0: c27d 16be 06f6 9fbd f44f 60bd 053e c9bd
000001d0: dc31 373c 322a 0f3d cbb6 e0bd 518e 453d
000001e0: 65f9 04be 3a9f 883d bc8e 00be 727f a9bd
000001f0: c78f 983d d1e6 8d3d b151 af3c b41f fb3c
