trained/exp_train_3_3_1111_0.0001_0.001_32_0.95/model/meta_actor_1.pth (torch, 302079 bytes, 6 tensors)

weight f4 [512, 16]
00000000: 1f06 87bd 9982 9cbd 9bcb ec3d 3273 8bbd
00000010: 8fa7 a8bc 09c4 c7bd 4b7c 5bbe 03ad dc3d
00000020: bb72 7abe 8b92 6dbe 1100 c8bd 59bc 72be
00000030: c7de b73d 23ab 7f3e 5da6 553e 2f10 17be
00000040: b400 50be 8c37 3ebd b5c9 6bbc 1a4b 93bd
00000050: 3133 483e 58f1 bfbd fb81 9e3d 8228 17be
00000060: 2112 b13c 7cca 95bd 7dbd 06be e52a 3b3e
00000070: 4fd5 053e e4df 4a3e 3a11 84be a2a4 013e
00000080: acde dfbb 9d80 6fbe fb88 fbbd 901c 3cbd
00000090: a74c 35be eea9 4b3e 94d1 e8bd 6d46 7c3d
000000a0: 3eaa ca3d 9e9e d8bd 7d4e 323e c5c4 ffbd
000000b0: e285 1cbe 1cd7 bb3d 8c60 413d c313 493e
000000c0: f8c2 fbbc 17d9 13be dd91 a73d 6f1e dd3d
000000d0: c21b 76be 271e eb3d 6269 743e 6631 823e
000000e0: 747e 0bbe e5fc 583e aa9c f0bc 6623 0abe
000000f0: fdbe 54bd 25c8 25be cd17 d63c a1ae 2bbe
00000100: ef12 c93d 8547 26be 57c1 7ebe 8fdc 363d
00000110: f969 7f3e 73d7 cbbd f58c 2c3e 4ab6 a43c
00000120: b0ad 293e 237f 1ebe 02a7 14be b9fb d6bc
00000130: aabf f13c 3b08 f63b 1a88 6f3e 49f0 3abe
00000140: f5e0 153d c6cf e6ba 12c0 5fbe 73de 263e
00000150: a003 64be 5c65 97bc 40a5 ec3d 75c2 73be
00000160: fba2 183e e8d7 a43d f51e 6f3d 8d5a de3d
00000170: dfc0 023e e100 273e d25d 4ebe 0310 05be
00000180: d354 143d 119f 563e 7b36 68be ec63 70bd
00000190: de69 33bc 33a9 2ebe ea96 363e f057 523e
000001a0: 0ffa 11be bd9b 79bd f885 71be 9523 1dbe
000001b0: 06fa 88bc afea 2bbe 174b 1cbe 9d01 4d3e
000001c0: 4a49 7a3e 993b 9f3d 7a70 f3bd 6ed8 47bd
000001d0: 924a 2fbe bc27 2e3e bb91 443e 21dc c6bd
000001e0: 2b8d fe3d 4336 d93b 0043 f83d 9e87 22bd
000001f0: df84 16bd e07c 68bd e027 253e bf8f 76bc
00000200: bab0 1b3e 3b61 1d3e 9191 d03d 334a 81be
00000210: 6905 393e dcf7 0fbd a92b 47be 452c 8b3d
00000220: 8ee6 7e3e aaef 013e 4500 71be 4ec4 43be
00000230: 0bac 83be 577e d83d c142 81be d0a3 38be
00000240: d1a3 aabc 41d2 ddbd e8d0 85bd dd75 6a3d
00000250: ec38 5e3e 9805 ca3d ecc7 c13d bb30 7bbe
00000260: 9b3f 03bd f44a 1fbb ce74 5e3e 746e 4c3d
00000270: d98b bc3d 4903 6f3e 56d8 353e 3822 5bbe
00000280: cd43 0fbe e46a 80be 348c 3d3d b187 5d3e
00000290: 1620 443e daf7 5f3d 8ff1 2a3e 75ae 3b3e
000002a0: 2d79 f2bd 4cfc 6cbe 3ef7 74bd 28bb 303e
000002b0: 53b7 26be 39a9 52be b4e0 493c ab8e a7bd
000002c0: f902 113e 209e 77be f7e2 a1bd c66d aebd
000002d0: 87da 453e d35b 793e e626 93bb 33f5 393e
000002e0: fb6a 32bd 664b 183e 1be0 87bc 768c 543d
000002f0: 94c0 6f3e 76a1 12be 6507 063e d033 863d
00000300: 282a 1f3e 5bc7 63be 62c2 4bbd 99f8 93bd
00000310: cd4e 383e f245 f6bd 3fe1 71be 13b8 1c3a
00000320: 89e1 083e 7afa 373e 789b 33be e7f3 e33d
00000330: 228c a7bd 6cf5 b93d 5057 41be b152 88bd
00000340: 4119 1cbe 6678 5c3e fb32 6cbd 066b e5bd
00000350: 92f2 d3bd e8ba 27bd 39fd e6bc 0a0b 16be
00000360: 175a 1f3d d258 77be e292 ea3d c8b0 38bd
00000370: de5b 2dbe 8575 6ebe 4597 5cbe 6b8b b8bc
00000380: 165e 41be c33b 5abd dab7 1e3e 8abb 033e
00000390: 4a58 8a3d fde9 6dbe 6f0e 753e 49ee afbd
000003a0: 4f23 cfbb 0334 543d 9a4f 643e efaf 07bc
000003b0: 2cce 963d d27a 06be 4300 7a3e 3d5f d2bd
000003c0: 3220 45bd b762 55be b9c2 093e edd9 1ebd
000003d0: a927 10be 15b4 493d 6aeb 173d fe75 0e3e
000003e0: 7417 2f3d 2486 693e 41a2 89bd 64ab 9b3d
000003f0: 02da 5dbd 1093 543e d855 4f3e 855a 5b3e
-0.065929644 -0.07642097 0.11562272 -0.06809081 -0.02058771 -0.097541876 -0.21434133 0.10775187
-0.24457829 -0.23200433 -0.09765638 -0.23704661 0.08978038 0.24967627 0.20864244 -0.14752267
-0.20312768 -0.046439692 -0.014391352 -0.07192059 0.19550778 -0.093722045 0.077396356 -0.14761546
0.02161509 -0.073140115 -0.13158222 0.18278082 0.13069652 0.1981197 -0.25794393 0.12660459
-0.0068319645 -0.23388906 -0.12281986 -0.045925677 -0.17705022 0.19889042 -0.11368099 0.0615906
0.09895752 -0.10577129 0.17412753 -0.12488703 -0.15285447 0.09171888 0.047211215 0.19636445
-0.030732617 -0.14438282 0.08182118 0.1079682 -0.24034026 0.114803605 0.23868325 0.25428313
-0.13622457 0.21190222 -0.029371578 -0.13490066 -0.051939953 -0.1618963 0.026134396 -0.16765834
0.098180644 -0.1623822 -0.24878441 0.044643935 0.24942769 -0.09953203 0.16850646 0.020106453
0.16570163 -0.15478186 -0.14516833 -0.026243078 0.029510338 0.0075083054 0.23391762 -0.18255724
0.03659149 -0.0017609529 -0.21850613 0.16295795 -0.22267008 -0.01848095 0.115549564 -0.23804648
0.14905922 0.08048993 0.058379132 0.10857115 0.12768887 0.16308929 -0.20152977 -0.12994389
0.036213707 0.20959117 -0.22677033 -0.058689043 -0.010950534 -0.17056732 0.17831007 0.20541358
-0.14255546 -0.06093954 -0.23586261 -0.15345605 -0.016720783 -0.16788743 -0.1526302 0.20020147
0.2444202 0.07775039 -0.118866876 -0.048790388 -0.1711829 0.17007345 0.19196217 -0.09709955
0.124292694 0.006628783 0.12122154 -0.039680116 -0.03674781 -0.056759715 0.16128492 -0.01504892
0.15204135 0.15369122 0.101840146 -0.25251922 0.1806847 -0.035148486 -0.19450249 0.06795553
0.24892637 0.12689081 -0.23535259 -0.19117853 -0.25717196 0.105709724 -0.25246242 -0.1803124
-0.020830067 -0.108311184 -0.06533986 0.05724131 0.21701401 0.09864348 0.0946196 -0.24530308
-0.03204308 -0.002430615 0.21724245 0.049910024 0.09206361 0.23341097 0.17758307 -0.21399772
-0.13990708 -0.2508155 0.046276286 0.21633793 0.19152865 0.05467973 0.1669371 0.18328269
-0.11839519 -0.23143119 -0.0598061 0.17258894 -0.1628087 -0.20572366 0.01232164 -0.08181509
0.1416129 -0.24181414 -0.07904618 -0.08517031 0.19321643 0.24351434 -0.004490721 0.18159942
-0.043559056 0.14872512 -0.016586354 0.051891766 0.23413306 -0.14319405 0.13088758 0.06552851
0.15543425 -0.22244017 -0.049745925 -0.072251506 0.1799881 -0.1202506 -0.23621081 0.0005978357
0.13367285 0.17966643 -0.17539775 0.11130505 -0.08181025 0.09080014 -0.18880963 -0.06656397
-0.15244009 0.21530303 -0.057665806 -0.11202054 -0.10349001 -0.040949732 -0.028196918 -0.14652649
0.038904276 -0.24154976 0.11453797 -0.045090467 -0.16929576 -0.23287018 -0.2154208 -0.022527417
-0.18883547 -0.05327965 0.15499821 0.12864509 0.06755121 -0.2323379 0.23931287 -0.08590371
-0.006321348 0.051807415 0.2229599 -0.008281692 0.07363543 -0.1313279 0.24414162 -0.102720715
-0.048126407 -0.20838438 0.13453187 -0.03878205 -0.14077629 0.049244005 0.037089743 0.13912198
0.042746976 0.22805077 -0.067204006 0.076010495 -0.054162987 0.20759225 0.2024759 0.21421249

bias f4 [512]
00000000: d62b 4e3d 56e1 933d 9d46 a53c 7e0f 073e
00000010: 41c1 553e c3e9 56be f7c3 34be 6c4c 403e
00000020: fbf4 8cbd 1b05 45be 21b2 67bd 0c87 72bd
00000030: c4b0 ac3d 76a2 743d 152b eebc 4788 db3d
00000040: a655 35be 07c4 2d3e 1274 55bd 6c75 41be
00000050: aeeb aa3d 5bbc fc3d ca9b 413e b5b7 803e
00000060: eb1d 43be c450 193e b9af 033d 248e c73d
00000070: e665 dcbd 8adf 823e 3075 eebc 877b 063e
00000080: a477 a93d 13f4 82bc ed8d 823e e61c 2ebe
00000090: 8b17 4cbe 7027 43be 547c 993d 1b6e 363e
000000a0: 4f1f 85bd 8228 623d 5576 883d 967b 273e
000000b0: 8384 653e d0b0 393c 7ac6 0cbe 26be 11be
000000c0: b3bf 5fbe c86b 023d 07cd 32be 4a88 3e3e
000000d0: 999e 9dbd c9df 55be 0abe 483e 2f79 493e
000000e0: 63b2 e4bd 3647 84bc 41cd 883e cf24 83bd
000000f0: 7d34 a4bb 7eb0 4a3c 5cde 8ebc 378a 053e
00000100: f98e 7a3e 0482 16be bc59 4fbe 027f c13d
00000110: f66f 9b3c acc8 853c 706b 32bc dda9 1ebc
00000120: 59ff 563d 1f30 64be 03be a83d 82b4 653e
00000130: cbd8 313e f0c9 683e f29f 2bbe 7f3c 2cbd
00000140: 24a8 5bbd e8e9 8d3c 8d3e 053e 10bf 8b3d
00000150: 1db7 5ebe f5de 563e 2723 82bd fe9d 24be
00000160: b64d 0dbe d97d 353e 5942 6f3e d3cb 06be
00000170: 99b4 933d cfd4 41be b887 7b3e 16d9 843e
00000180: 498d 7c3d 5aa8 56be 1dfc 2a3e 5ef0 093d
00000190: b34b e43d fdd7 9a3d f5de 32be a5b0 683e
000001a0: f6e1 84bd cb41 a43c 9d74 e33d 3621 3dbe
000001b0: 67d3 dc3d c205 853e 9d8c 4cbe 77f7 a0bb
000001c0: b1fa 263e 380f f83c aef2 e63d ead4 b03d
000001d0: 8b17 0bbe 4ff4 203e 417b 1dbe f696 a2bd
000001e0: c25a 0bbe aa2e 3e3e 8810 8f3d 5de6 7c3d
000001f0: c63f 213e 375a b83d 8e6a 1bbe 845a db3a
00000200: 3810 47bd e09b c73d 19cb 59be 197a 0ebe
00000210: b3f5 42bc b91c 8dbd 4d5a 59bd fc85 883e
00000220: e0f7 debd cbff 52bd 9b47 b63d 5283 c13b
00000230: 699b 9c3d a179 103e 8ad1 f43d 2b13 30be
00000240: 0f27 c5bd 3d8c d73d e797 513d e1d2 a93b
00000250: 2f6b ff3d 0d57 ce3d 581c 3a3e e8e8 eebd
00000260: be59 923d 4b4e 14bd e274 753e 6240 823e
00000270: d60e 2dbe a894 4cbe 7ede e8bd 05d1 e53c
00000280: eec7 a13d a387 05bd 1d53 88bc 1b28 3b3e
00000290: c19d abbd 8100 123e e128 653e dad7 833e
000002a0: eed6 1dbd a1db 903c fe70 3bbe e2bc 3ebe
000002b0: 6999 a4bd 9db7 a03d 04aa e53d cd87 0abd
000002c0: 1b89 703e d173 3b3e d20e f4bd e1d4 1c3e
000002d0: ea49 17be 3909 33be 65fd 2f3d 06bf 953d
000002e0: 4bf9 b13d b219 8d3d d2e6 dd3d debf 09be
000002f0: 1907 4d3d 6e1d 2cbd 4607 653e e6aa a8bd
00000300: a99a 21be 0687 55bd 5e4e a33c d0c5 133d
00000310: 34a1 4dbd 1a5f 863e dbfe 913e b0b0 10be
00000320: 125e 983b f8e4 a4bd bf7b 8c3d 49f3 5abe
00000330: 3f29 0ebe c2b3 49be 0032 10be 7572 103e
00000340: 05c1 c3bd 79b2 1bbe 33fe 333e ee15 38be
00000350: 4707 74bd 7782 74bc 13b5 3cbe fbc0 56be
00000360: 3db5 e23b 1318 f9ba a521 30be 81cf 243d
00000370: 3a96 403e 272b 1c3e ea27 083e a572 cfbb
00000380: 4049 64bd aa98 1fbe b41c fabc 434e d33b
00000390: b4f7 bebd 7393 abbd aba6 793d 8685 91bd
000003a0: e4db 3e3d bd00 043e 139a d6bd c4ba 563e
000003b0: 9bbc 853d a91b 083d 6985 893b 69eb 48bd
000003c0: 2e37 763d c11a d43d 2f9b 62be 6380 833d
000003d0: 2503 39bd 8f5f bd3d bbca 8ebd 6697 58be
000003e0: 61fd b8bc f30f 2cbe 48d1 833c cb54 023e
000003f0: d8cb 503d 7f9f 09bd 88ea febd 7dfd efbc
0.050334774 0.07220714 0.020175273 0.13189504 0.20874502 -0.2098761 -0.1765288 0.18779153
-0.06882664 -0.19240229 -0.05656636 -0.059210822 0.08432153 0.059725247 -0.029073277 0.10719352
-0.17708454 0.1696931 -0.052112646 -0.18892449 0.083457336 0.123406135 0.18907085 0.25140157
-0.19054382 0.14972216 0.032150004 0.09743908 -0.10761623 0.25561172 -0.029108614 0.1313306
0.08274773 -0.015985524 0.25498906 -0.17003211 -0.19930856 -0.19058013 0.07494417 0.1781544
-0.06500112 0.055214413 0.06663195 0.16355738 0.2241383 0.011333659 -0.13747588 -0.14232692
-0.21850471 0.03184107 -0.17461024 0.18606678 -0.07696266 -0.20886149 0.19603744 0.19675134
-0.11166837 -0.016147237 0.26719096 -0.06403505 -0.00501114 0.012371181 -0.017440014 0.13041006
0.24468602 -0.14698035 -0.20249075 0.09448053 0.018974286 0.01633104 -0.010889873 -0.009684053
0.052489612 -0.22283982 0.08239367 0.2243214 0.17367856 0.22733283 -0.16760233 -0.04204988
-0.05362715 0.01732345 0.13012142 0.06823552 -0.2174954 0.20983489 -0.06354361 -0.16075894
-0.13799176 0.17723788 0.23365153 -0.1316369 0.07212181 -0.18928836 0.24563491 0.25946873
0.061658178 -0.20962659 0.16697736 0.033676498 0.11147251 0.07560728 -0.17467864 0.22723635
-0.06488411 0.020050904 0.111062266 -0.184697 0.10782509 0.25980955 -0.19975515 -0.0049123126
0.16306569 0.030280694 0.11276756 0.0863436 -0.135832 0.15718196 -0.15379049 -0.0793895
-0.1360884 0.18572488 0.06985575 0.06174313 0.15746984 0.09001582 -0.15177366 0.001673535
-0.04859945 0.09746528 -0.21268882 -0.13913764 -0.0118994 -0.06890244 -0.053064633 0.26664722
-0.10887122 -0.051513474 0.089003764 0.005905547 0.0764683 0.14108898 0.11954029 -0.17194812
-0.096265905 0.10524795 0.051170256 0.0051826094 0.124716155 0.10075197 0.18174875 -0.11665517
0.07146023 -0.03620748 0.23970369 0.25439745 -0.1690019 -0.19978583 -0.11370562 0.02805377
0.07899462 -0.032600056 -0.016641194 0.18277018 -0.083796985 0.14258005 0.22378875 0.2575062
-0.03853505 0.017682852 -0.18304822 -0.1862674 -0.08037073 0.078475215 0.112140685 -0.033820916
0.23489802 0.18305899 -0.11916889 0.15315582 -0.1477429 -0.17483987 0.042966265 0.073118255
0.08690127 0.068896666 0.10835041 -0.13452098 0.050055597 -0.042020254 0.22366056 -0.08235721
-0.15781654 -0.05213072 0.01993483 0.03607732 -0.050202563 0.26244432 0.28514752 -0.14129901
0.004649886 -0.08051485 0.0685954 -0.21381868 -0.13882922 -0.19697478 -0.14081573 0.14106162
-0.095583 -0.152048 0.17577438 -0.17977116 -0.059577253 -0.014923683 -0.1842845 -0.20972054
0.006918578 -0.0019004367 -0.17200334 0.040236954 0.18807307 0.15250836 0.13296476 -0.0063308054
-0.05573392 -0.1558558 -0.030531265 0.0064485385 -0.09324589 -0.08377733 0.060949963 -0.07105546
0.046596423 0.12890907 -0.10478606 0.20969683 0.06530114 0.033229504 0.004196812 -0.04905263
0.060111217 0.103566654 -0.2212951 0.06420972 -0.045169014 0.09246742 -0.069722615 -0.21151504
-0.022581758 -0.16802959 0.016091004 0.12727658 0.05097565 -0.033599373 -0.12447077 -0.029295677

weight f4 [128, 512]
00000000: 125c 173c bfd7 913d cc4d 883c 60b8 d9ba
00000010: 8355 243d fe47 483d 9a5f 013d 5fce cd3c
00000020: e510 813d ac21 c73c 3c98 543d 41ee 0e3d
00000030: 3372 723c 4d45 b73c 2f8a 88bc 7dc7 383c
00000040: 541a 763d d1e1 8cbb 8119 f33c 9f33 51bb
00000050: 8022 e73b fcde 563d 8227 1e3d 10e4 153d
00000060: f2ae 583d 6d8a db3b f6d0 2e3d f206 703d
00000070: f9ef f73a a8a5 99b6 c51b bcbc bd22 df3b
00000080: 80b1 3c3b 37f7 c23c c4f8 4c3d 9f12 1a3d
00000090: 273f 5e3d 5832 563d 29fd 793d aac1 aa3c
000000a0: b1c4 e23c 66f4 7abc 83e6 57bc eed7 413a
000000b0: c8ed 783b 37f2 68bc 9ccc 983b f830 68ba
000000c0: 015b 51bb 3b1f 9d3c ecd3 133a 6835 5e3d
000000d0: 1568 babc 62e1 e3bb 626d aa3c 805a afbc
000000e0: 04a4 5b3d 896f 1e3c 999f 3b3d ce19 aebc
000000f0: fffe 7c3d 5614 f5bb 2124 d2bb 2d91 5d3d
00000100: 69b8 9cbc 9bad fb3c 7bca 183d d2d5 4a3d
00000110: c078 303d be0d 353c 7620 8abc b075 9a3c
00000120: 12b6 023d 0700 64bc b8b0 713d 7d35 dfbb
00000130: 7183 833c 999b 03bc b90e 3bbc f56f 3d3d
00000140: cdc6 6c3d ba28 11bc 954a 2d3d f7ac 5bba
00000150: b22c c3bb 4955 4ebb 7baf a5bc b212 a4ba
00000160: d435 5a3d 1ecb 71bc 9d24 06bc af27 7bbc
00000170: c311 f53a 18e6 3d3d 4339 8b3d 7083 e43c
00000180: 7f0a e73c 04b2 133d 83e1 253d 917e 283d
00000190: 186d d2bb bc1c 4e3c b183 113d 067c 8bbc
000001a0: 3154 753d 2f41 9cbb c67b 683d 6a7c 793c
000001b0: 0e2a 9d3c e9e3 31bc af48 3b3d 006f da3c
000001c0: 0357 703d ead0 b43c 3cb5 53bc 901c a5bc
000001d0: 080f 273d 6aaa 3e3d 069f 95bc d781 043c
000001e0: 7ea5 a73b 5646 203c 6bb1 333d 5d4c 693c
000001f0: a09b 063d 845d bb3c c9a9 cc3b 68fc a13c
00000200: 3a2b c3bc d4bf dd3c 38d2 293d d96c db3b
00000210: ec84 583d ccf0 acbc 84a1 0d3d 1214 3a3d
00000220: 024e 953c e6d1 3bbc b3ec 283d d871 2eba
00000230: bfca 6b3d a483 7f3c 993c 4abc 161a f13a
00000240: e579 6dbc c63c 8dbc cfbb f13c dcc6 5d3d
00000250: 1b9f 4a3d c577 aa3c 9100 813b 3030 27bc
00000260: cae7 c13c 844a 9abc 86b0 a83c 588e a03a
00000270: 977c 0ebb 7b7c 613d ad30 a73c cf88 213d
00000280: c549 0bbc 39fa 91bc 834b 7abc a393 943c
00000290: 8c60 c83c 5836 a3bc 7384 c8bc a2d0 9a3c
000002a0: 6299 0c3c 469a 733d 3c7a 203d 0c93 3cbb
000002b0: c42c 11bc 9bba 053d 2e2b afbc 2879 843c
000002c0: 9ee5 5d38 d104 8b3c 5d0e 5f3d 862b 723a
000002d0: a3c5 1b3d 6dd6 0d3d 1ba9 653c 6319 b5bb
000002e0: 5aa8 ddbb 9083 87bc bda4 57bc 65c5 2e3d
000002f0: bb03 3cbc 85b9 273d 2830 833d 2ff3 213d
00000300: 57bc 683d 614f 3c3d 8ef4 3b3d 7944 0a3c
00000310: e52f bc3c 57da 46bb 4f3b 563d 87d6 0d3d
00000320: 9ab2 5b3c c149 1f3d 82a3 62bc b32b 06bc
00000330: 473b 733d 759e cd3c d3e8 b8bc 5e6b 1e3b
00000340: feb8 143d be7a 4ebc 27d5 99bc ab03 ab3c
00000350: 33d5 073d 85d8 5b3a 7d96 ef3b b4ca 143c
00000360: 9de2 68bc 5bfe 1ebc 7bd4 7ebc eb68 98bb
00000370: 06a6 633d a938 823c f85c ac3a 1ff8 9eb9
00000380: a894 7c3d 026a 5a3d 301d f2bc 52e1 843c
00000390: 82a9 fabb 1278 0b3a 1e58 fcb8 f17e fbbb
000003a0: 019e 923a b7e6 46bc 9595 eb3c 304f 133d
000003b0: 0f45 fd3c 6257 ed3c 49c3 8539 b8b1 673d
000003c0: 2afd 403d 6c39 acbc 7103 e73b 86fc 8a3c
000003d0: 5b85 80bc 5949 933c 0a66 4fbc b9a6 663d
000003e0: a18e 2c3d 21c8 633d 94d8 fa3b a4d4 983c
000003f0: fb7c 76bb e753 553d 16c9 74bc a211 3a3d
0.00923826 0.071212284 0.016638659 -0.0016610734 0.040120613 0.048896782 0.031585313 0.02512282
0.063020505 0.024308048 0.051902995 0.034895185 0.014797735 0.022371912 -0.016667454 0.01127803
0.060083702 -0.0042993804 0.029675247 -0.0031921638 0.0070536733 0.05245875 0.038611896 0.03659445
0.052901216 0.0066998512 0.04267975 0.058600374 0.0018916122 -4.5790403e-06 -0.02296246 0.006809561
0.0028792322 0.023799522 0.05004193 0.037615415 0.054259446 0.052294105 0.061032448 0.0208443
0.02768168 -0.015317058 -0.013177517 0.0007394542 0.0037983526 -0.014217905 0.004663063 -0.00088573946
-0.0031945112 0.01917993 0.0005639184 0.05425015 -0.022754708 -0.006954358 0.02080411 -0.021405458
0.053623214 0.009670147 0.0458065 -0.021252539 0.06176662 -0.007479231 -0.0064129983 0.05409353
-0.019130902 0.03072243 0.037302475 0.04952032 0.043083906 0.01105064 -0.016861182 0.018854946
0.031911917 -0.013916022 0.059006423 -0.006811796 0.016053887 -0.008032703 -0.011417084 0.04624935
0.05780678 -0.008859808 0.042307455 -0.0008379961 -0.005956256 -0.003148394 -0.020225277 -0.0012517779
0.05327399 -0.0147579 -0.00818744 -0.0153292855 0.001869731 0.046362013 0.06798031 0.027894706
0.028203247 0.03605844 0.040498268 0.041136328 -0.0064216964 0.012580093 0.03552598 -0.017026912
0.059894744 -0.0047685127 0.056758665 0.0152274165 0.019185092 -0.010857561 0.045723613 0.026664257
0.05867673 0.022072274 -0.012921628 -0.020155221 0.04078582 0.04654924 -0.018264305 0.008087597
0.0051161638 0.009782394 0.04387037 0.014239398 0.03286326 0.02287174 0.006245826 0.019773677
-0.023824323 0.02706901 0.041460246 0.0066963253 0.05286114 -0.021110915 0.03457786 0.045429297
0.018225674 -0.011463618 0.04124136 -0.0006654537 0.0575664 0.01559535 -0.012343549 0.0018394615
-0.014494394 -0.017240893 0.0295085 0.054144725 0.04946814 0.020809064 0.003936835 -0.01020436
0.023670096 -0.01883436 0.020591985 0.0012249453 -0.0021741742 0.055050354 0.020408953 0.03943711
-0.008501475 -0.01781951 -0.015276792 0.018136805 0.0244601 -0.019923374 -0.02447722 0.018898312
0.008581491 0.0594733 0.03917907 -0.002877417 -0.008860771 0.032648664 -0.021382894 0.016171053
5.2904354e-05 0.01697007 0.054457057 0.0009238053 0.038030278 0.03462832 0.014017369 -0.005526708
-0.006764454 -0.016542226 -0.013161835 0.04266872 -0.011475499 0.04094841 0.064056695 0.03953856
0.05682024 0.04597414 0.045887522 0.008439177 0.022972057 -0.0030342543 0.052302655 0.034628417
0.013409281 0.038888697 -0.013832929 -0.00818913 0.059382703 0.025099972 -0.022571957 0.0024172883
0.036309235 -0.012602506 -0.018778397 0.020875772 0.033162307 0.0008386451 0.007311641 0.009081531
-0.014214185 -0.009704198 -0.015553589 -0.004651179 0.055578254 0.015896158 0.0013150265 -0.00030320973
0.061665207 0.053323753 -0.029554933 0.016220722 -0.0076496014 0.0005320321 -0.000120327095 -0.0076750447
0.0011186005 -0.012139968 0.02875785 0.03596419 0.030916719 0.028972331 0.00025513236 0.05656597
0.047116436 -0.021023475 0.007049971 0.016966116 -0.015688589 0.01797931 -0.012658605 0.056311343
0.04212821 0.05561078 0.0076552127 0.018656082 -0.0037611115 0.05208197 -0.014940521 0.045426972

bias f4 [128]
00000000: ba44 9f39 c28a 37bd 76d6 1bbd 708e 443d
00000010: 4185 83bc db5d 54bc 11ac b5bc 1a24 e6bc
00000020: a602 313c c551 8a3b a103 0b3d d11b d83c
00000030: 7168 58bc df3a 8bba 79f5 aa3c 4274 b7bc
00000040: f5db 943c d70c a53c 7a86 f73c 0f5b f5bc
00000050: fc44 afbc 986f 34bc fdbc 683d b092 1cbc
00000060: 9991 f63b b9e8 47bc 8dc0 98bc 0996 d73c
00000070: 57f6 35b9 271a af3c 3e45 b5bc c5d9 96bc
00000080: e52f c4bb 1f23 053d 9097 b63c e8a8 05bd
00000090: 31c4 2e3d 5745 fb3c 6f7c 4a3c 5062 27bc
000000a0: 9d55 ac3c 41c3 98ba 3fde 1d3d 78e6 293d
000000b0: b389 babc b394 753d 6ad4 6d3d 7274 d23c
000000c0: 2dad bfbc 830f 003c 50cc 263c 917f 4b3d
000000d0: 5d04 c1bc dfe2 96bc 4ff1 8f3d 3053 293d
000000e0: 007c 933b 5402 b8bb 56c0 103d acfe ffbc
000000f0: fc56 0f3d 9d24 84bc 13eb 1f3c b22d 163d
00000100: 6f5b 0f3d 9081 503d dea6 b23c 6fef 1e3c
00000110: acb3 2ebd fea7 15bd b4d2 2b3c 32ce 07bc
00000120: dd3e 00bd a31d 263d dbfc 193d 3fd8 cebc
00000130: 4abb 21bc a658 1d3d 2e81 ccbc 740e 3dbc
00000140: 1d91 103d ac3e 1ebd 83eb 363c f6c0 373d
00000150: f6be 633c 7cec 4abc edee 163d d485 ea37
00000160: 1b08 b4bc 7e1d 2ebc 54a5 09bd 448d 00bd
00000170: 7c6d fc3c 9c22 263d eaf1 cfbc 0d23 40bd
00000180: a20d ce3c e011 103d 6b77 253d 376d d038
00000190: 950e 643d 5b91 623d b816 753d 4878 8abc
000001a0: cb41 0fbc 9966 d73b 15fd 4a3b a474 d73b
000001b0: a5ac 8ebb 486d 2abd 714e c93c b39c f93c
000001c0: 956c 033d 9ab9 84bc 73a8 213d e83e b03c
000001d0: 96b5 663c 6137 733c ebc4 cc3c 1b16 0ebb
000001e0: e270 87bc dc59 753d 536c ae3c c2b9 54bc
000001f0: beee 07bc 7964 193c f34d fc3c d353 403c
0.00030378049 -0.044810064 -0.038046323 0.0479874 -0.016054751 -0.01296183 -0.022176774 -0.028093386
0.010803854 0.0042211735 0.033939008 0.026380451 -0.0132084945 -0.0010622403 0.020869004 -0.022394303
0.01817129 0.020147724 0.03021549 -0.029950647 -0.021395199 -0.011012934 0.05682086 -0.009556457
0.007524681 -0.0122014815 -0.018646503 0.02631666 -0.00017353274 0.021374775 -0.022127744 -0.018414387
-0.005987155 0.032504197 0.022289068 -0.032631785 0.04266757 0.030672712 0.012358769 -0.010216311
0.021036917 -0.001165487 0.03854203 0.041479558 -0.022770738 0.059956264 0.058063902 0.025690291
-0.023398006 0.007816198 0.010180548 0.049682204 -0.02356165 -0.018418727 0.07028448 0.0413391
0.004500866 -0.005615512 0.035339676 -0.031249367 0.034995064 -0.01613074 0.009760636 0.036664672
0.034999307 0.05090481 0.021808084 0.00970064 -0.042651817 -0.036537163 0.010487247 -0.008288907
-0.03130995 0.040555608 0.037594657 -0.025249599 -0.009871313 0.03841462 -0.024963941 -0.01153909
0.03529464 -0.038633987 0.011164549 0.044861756 0.013900509 -0.012385484 0.03684895 2.7957292e-05
-0.021976521 -0.010627149 -0.033604935 -0.03138472 0.030813925 0.04056035 -0.025383908 -0.046908427
0.025152985 0.035173297 0.04039709 9.938556e-05 0.05567797 0.055314403 0.05983612 -0.016903058
-0.008743714 0.00657351 0.0030973603 0.006575184 -0.004354077 -0.041608125 0.024573537 0.030470228
0.032085974 -0.016201783 0.039467286 0.021514371 0.014081379 0.014844746 0.024996242 -0.0021680656
-0.016533319 0.05990015 0.021291887 -0.012983741 -0.008296667 0.009362333 0.030798888 0.011738735

weight f4 [3, 128]
00000000: 0c0a 393c 95ad 92bd f631 9ebd dfb5 a9bc
00000010: ec53 7cbd fb10 17bb 5b85 793d b9f9 80bd
00000020: 89bd fcbb b079 5c3d 3002 3f3c aed9 0cbc
00000030: 5e82 0fbd 4d76 19bd 5222 6fbb 485c c13c
00000040: 825f 093d 6540 67bd 8010 9dbc 7df3 abbd
00000050: 6806 523d 9ce3 7dbd 4d32 d83d 0579 26bd
00000060: 752e c63d c35d 8b3d 4eb7 6c3d 84e9 aa3d
00000070: ba57 65bd af78 4f3d 19c6 53bc 052b 69bd
00000080: 6296 633d 3d98 5d3d 5a5f 96bd 5872 d53c
00000090: 19c2 e5bc 4d7a b83d b976 a03d c5e8 61bd
000000a0: dffb 17bd 5779 763d 8cec dfbb a688 403d
000000b0: 3e08 bc3d 0683 35bd f617 ff3c 6dcd 0c3d
000000c0: 212a a73d 155b b3bc 3a1f 673d b832 1f3d
000000d0: 30f8 ca3c 7e33 2fbd 77a8 823d f301 9bbd
000000e0: 1255 91bd 16e7 d83d be90 b7b1 97f1 4dbd
000000f0: 9238 4d3d 952d a23d 7e1a 293c eb11 82bd
00000100: 8ea9 8b3d 023d a63d d4ef 7dbd 7e22 31bd
00000110: 319c 9dbd f4fa 9dbd c43d 813d 36b6 0f3d
00000120: 9757 833c 88a3 d4bc 9629 8f3d f59a c8bc
00000130: f2a4 c13d 69f7 573d 9ed1 7cbd 8dcd 833c
00000140: eab5 25bd 7781 46bd 5397 85bc 1da4 043c
00000150: b30a 5e3c 9ed1 ba3c 8476 44bd 3013 023d
00000160: c4b9 1bbd 7569 27bd c569 953b ac12 a4bd
00000170: 8551 4fbd 6f70 13bc e689 003d 3c54 913d
00000180: 234d 6e3b 538e 8b3d 4ba4 b53d d9a3 78bd
00000190: df2a 733d b818 13bd 0402 dabc 0a7d 003d
000001a0: 094c 303d 8ffd 28bd d6c3 be3d b5be 1a3d
000001b0: b59b 543c f342 53bd 0690 113e e8a8 863d
000001c0: a808 8a3c e061 303d 0087 ec3c 6fd6 09bc
000001d0: 832a 9bbd 82d6 ccbc fa86 cc3d aa77 c43d
000001e0: e51f e03d 5a79 b83d 0788 5abb fe3a c33d
000001f0: be71 c13c 6cd8 34bb d4d4 acbd b969 c53d
00000200: 0894 77bb 2f4b b93d de32 a13d d51d 803d
00000210: cf8b b83d 59b7 2ebd 13ed f539 9b6c 413c
00000220: 4496 ba3d 99a0 cd3c 212a abbd 90f8 543d
00000230: edda e1bc 006f 19bc 94ae 8f3d b812 cf3d
00000240: 27a6 223d d8a9 9fbd 5daa f4bc c067 98bd
00000250: 1dc4 9f3d 505f 94bd 57a3 dd3d f75b 77bc
00000260: b10e 573d 06f1 b6bc b23e 573d 70d6 993d
00000270: 5c31 9a3d 0288 18bd cf1b 943d e47a d5bc
00000280: 955b 93bd 185c 043c d4a0 42bd ff6f a0bd
00000290: f5b6 9d3d a682 563c f0ef b33d d41d afbd
000002a0: ccdb 98bd b818 cc3d f1b4 a1bb 36d5 b43b
000002b0: 5939 89bd a5bc 053d 692d 663c 5462 8ebd
000002c0: ccc1 03bc 773c 9cbd a5b4 f73b a1f7 49bc
000002d0: 8c7a a5bd a621 94bd d27d c33d 5d48 823d
000002e0: 7824 a7bd 5b6e a33c 49ce 87bd 6b1e 10bc
000002f0: 3dcf 81bd 49a6 8ebc 73e0 10bd c088 8bbd
00000300: 5027 823d c108 cc3d 9655 893d 4c1a 70bd
00000310: c9f8 a1bd 6aea c03d 0f7a 65bd dc2d 8d3b
00000320: 551d 9fbd 1633 f7bc 05a3 0f3d 4cf6 cebc
00000330: 204b b73c 24d8 97bd 0869 333d 54d2 d23d
00000340: df70 69bd dcc2 44bd a512 86bc a5b0 a73c
00000350: b88c c93d 987f 90bd 2675 9ebd b9bb ae3b
00000360: 8171 21bd bd15 36bd 197a 73bd ce9b d13c
00000370: 3847 5ebd ebaf 463d 9e8b 60bd 1664 59bd
00000380: 4ecb 96bd 33c4 c13d 340c cebc 42c2 99bc
00000390: 453f 323d a704 503c 7d8b c53d 618b a83d
000003a0: 8dbf af3d 0ad5 1bbd f22d 253c 24e8 7bbb
000003b0: aa75 2d3d c96a c4bc e359 083e ff04 233c
000003c0: 8b43 22bd dd7b 9c3d 90a1 0a3d 2f24 5abd
000003d0: 3233 fcbc 6fcb 873d 2e16 c13d 4d2b 36bb
000003e0: d9ed 17bc 0f1d 573d a1eb 02bd 59cd 963d
000003f0: 1260 d43d 5bf1 91bd 65c1 93bd b88a 963d
0.011293899 -0.071620144 -0.07724373 -0.020716606 -0.06160347 -0.0023050893 0.060918193 -0.06297631
-0.007713024 0.053826988 0.011658236 -0.008596821 -0.035036437 -0.037466336 -0.0036488962 0.023603573
0.03353835 -0.056457896 -0.019172907 -0.08396051 0.05127564 -0.061984643 0.10556469 -0.040642757
0.0967683 0.06804993 0.057792 0.08345321 -0.055991866 0.050652202 -0.012925648 -0.056925792
0.055563338 0.054100264 -0.073424056 0.0260555 -0.028046655 0.09007702 0.078351445 -0.055153627
-0.037105437 0.060174312 -0.0068336185 0.047005318 0.091812596 -0.044314407 0.031139355 0.034375597
0.08162332 -0.021894017 0.056426264 0.03886673 0.024776548 -0.042773716 0.06379788 -0.07568731
-0.07096304 0.10590951 -5.3424563e-09 -0.050279226 0.050102778 0.0791885 0.010321258 -0.06351074
0.06819449 0.08117105 -0.061996296 -0.043245785 -0.07695807 -0.07713881 0.06310609 0.03508588
0.016032977 -0.025956884 0.06990354 -0.024487952 0.09455289 0.052726183 -0.061723344 0.016089225
-0.04045669 -0.04846331 -0.016307509 0.008095768 0.013552356 0.022805031 -0.047964588 0.03175658
-0.038018957 -0.040872056 0.004559728 -0.08011374 -0.050614852 -0.008998974 0.03138151 0.070961446
0.0036361895 0.068142556 0.08869227 -0.060703132 0.059367057 -0.035912246 -0.02661229 0.031369247
0.043041263 -0.041257437 0.093146965 0.03777953 0.012976577 -0.05157752 0.14215097 0.06575185
0.01684983 0.04306209 0.028872967 -0.008412941 -0.07576468 -0.025004629 0.09986682 0.095931366
0.109435834 0.09007521 -0.0033345239 0.09532736 0.023613807 -0.0027594818 -0.08439031 0.096393056
-0.0037777442 0.09047543 0.0787103 0.0625569 0.090110414 -0.042655323 0.00046906676 0.011805679
0.09110692 0.025100993 -0.08357645 0.05199486 -0.027570212 -0.009364843 0.0701572 0.10110992
0.039709236 -0.07796067 -0.029866392 -0.07441664 0.078010775 -0.07244742 0.1082217 -0.01509761
0.052504245 -0.022331726 0.052550025 0.07511604 0.07528946 -0.037239082 0.072318666 -0.026059575
-0.07195202 0.0080785975 -0.04751666 -0.078338616 0.07700912 0.013092672 0.08785999 -0.08550611
-0.07463798 0.09965652 -0.0049349 0.005518581 -0.06700391 0.03265061 0.014048913 -0.06952348
-0.00804181 -0.0762872 0.0075593763 -0.012327106 -0.080800146 -0.072329804 0.09545483 0.063614585
-0.08161253 0.019950083 -0.06631143 -0.008796315 -0.06338356 -0.017413275 -0.0353703 -0.06813192
0.063551545 0.09962607 0.06705777 -0.05861883 -0.0790878 0.09419711 -0.056024607 0.0043084454
-0.077692665 -0.030175727 0.035067577 -0.025263928 0.02237469 -0.074142724 0.043801337 0.10294023
-0.056992408 -0.048037395 -0.016366312 0.020469973 0.09841293 -0.070555866 -0.07737188 0.005332437
-0.039414886 -0.044454325 -0.059442613 0.025586989 -0.05426714 0.048507612 -0.05482065 -0.053073965
-0.07362996 0.0946125 -0.025152303 -0.018769387 0.04351737 0.012696422 0.09645746 0.082297094
0.08581457 -0.038044967 0.010081755 -0.0038437927 0.04234854 -0.0239767 0.13315539 0.009949922
-0.039615195 0.076408125 0.033845484 -0.053257164 -0.03078613 0.06630599 0.094280586 -0.0027796805
-0.009273016 0.052517947 -0.031962994 0.07363386 0.103698865 -0.07126113 -0.072146215 0.07350677

bias f4 [3]
00000000: 1409 47bd f70b 0d3c b49c 983d
-0.048592642 0.00860881 0.07451764
