trained/exp_train_3_6_1111_0.0001_0.001_32_0.95/model/ctrl_actor_0.pth (torch, 335871 bytes, 6 tensors)

weight f4 [512, 32]
000000 da 57 4d be 92 ba 85 bb be 08 da bc 4f e5 c2 bc
       -0.20053044 -0.004081079 -0.026615497 -0.023790983
000010 4d 84 55 bd ec 93 1b be 28 78 df bd dc 43 4c 3e
       -0.052128125 -0.15193146 -0.1091159 0.19947761
000020 bc 17 07 be 01 2c fa bc d5 78 18 bc d1 f0 3e 3c
       -0.13192648 -0.03053856 -0.009306152 0.011654095
000030 ec a6 87 be 21 b1 64 bd 7a 6f 42 3e 40 6a 77 be
       -0.2649454 -0.055832986 0.18987837 -0.24161625
000040 22 6b 01 3e 15 73 00 3e c3 0a 2e be 64 62 4e be
       0.12638524 0.125439 -0.16996293 -0.2015472
000050 31 a3 ff bc 93 8a 39 3d 0b f0 09 3d 4b 09 0f 3e
       -0.031205745 0.04529817 0.03367619 0.13968389
000060 c3 c4 9c bc 5a 49 98 3e 6e 2a f1 3d 2c 5f 15 be
       -0.019136792 0.29743463 0.11775671 -0.14587086
000070 11 fa 54 bd c5 b1 5a 3d 7d 02 14 3e 97 ba b3 bd
       -0.051996294 0.05339219 0.14454074 -0.087758236
000080 78 30 bc bd d7 3c 3d 3d 2f f8 38 bd 96 d1 64 bb
       -0.09188932 0.0462006 -0.04515856 -0.0034914962
000090 5e 02 9b 3d df 88 43 be ee 66 d0 bb 7b 7d 2b be
       0.07568811 -0.19095181 -0.0063599264 -0.16747086
0000a0 b6 ba 4c be ac 81 84 3e 3f fd 34 3e 31 48 77 be
       -0.199931 0.25880182 0.1767473 -0.24148633
0000b0 af 7d 81 be c1 90 6d 3d 4a b8 0f 3d 3b 0d 53 be
       -0.252912 0.057999376 0.03508786 -0.20610516
0000c0 5c 4b 0e be 7f 65 58 bd 62 64 62 bd 0d 1a b0 3d
       -0.13895935 -0.05283117 -0.055271514 0.08598719
0000d0 36 7e 12 be 28 7c 22 3e 04 fd 84 bb 4c 6c ad 3d
       -0.14305958 0.15867674 -0.004058482 0.084679216
0000e0 92 d7 04 3e bc f0 76 bd f8 1d 85 be dd 5e 3d 3d
       0.12972859 -0.060288176 -0.25999427 0.046233047
0000f0 e5 aa 07 3e b1 6a d5 bd ef 58 3e bc 4b 7a 83 bc
       0.13248785 -0.104207404 -0.011617883 -0.016049525
000100 52 65 70 bd cb 75 0b 3e 5d ca ea 3d a1 a3 c6 bd
       -0.058690377 0.13619153 0.11464379 -0.096991785
000110 58 2c a6 bd 8c 88 70 3c 5a d3 62 bd 25 f9 a1 bd
       -0.08113927 0.014680993 -0.05537734 -0.07908849
000120 97 a7 e6 3b dc 64 88 be 21 ef 8a bd a7 15 39 be
       0.0070390212 -0.2663945 -0.067838915 -0.18074666
000130 32 17 46 bd 1e 75 2e 3e 8d 6a 6b 3e 81 ad c7 3d
       -0.048361965 0.17036864 0.22989865 0.0974989
000140 b1 fc 80 bd 25 3e 09 bd 1f 7c ea 3c 26 28 8d bd
       -0.06298197 -0.03350653 0.028623639 -0.06892423
000150 23 90 20 3e 3a 75 52 3e f7 b3 40 be bc f3 c7 3d
       0.15679984 0.20552531 -0.18818651 0.097632855
000160 50 fb 8d 3e e5 8d 8d bd 50 ce e2 3d 8d de af bb
       0.277308 -0.0691183 0.11074507 -0.0053671063
000170 60 e6 59 be a9 4e 88 bd 53 91 04 3d 9d 0d 58 be
       -0.21279287 -0.06655628 0.032365154 -0.21098943
000180 25 0b 87 bd b1 4f 32 bd a8 2d 01 be 35 fb 17 be
       -0.065939225 -0.04353303 -0.12615073 -0.14841922
000190 b7 b3 a9 bc ea 30 63 be 01 37 35 3d 57 19 7e bd
       -0.020715578 -0.22186628 0.04424191 -0.062035885
0001a0 49 42 b0 3d fa 08 94 bd 3f 2f cf 3b 39 0e fd 3d
       0.08606393 -0.07228275 0.006322771 0.123562284
0001b0 e9 3d 28 bd 0c 24 b3 3d 01 ea 9a 3c 66 4a 6d bd
       -0.041074667 0.0874711 0.01891041 -0.05793228
0001c0 83 c0 28 3d 48 89 10 be 65 93 b6 bd b9 fb b8 3b
       0.04119922 -0.14114869 -0.08914832 0.005645242
0001d0 28 3e 87 3e 39 5a 4c 3e 2d 04 4e be 99 47 c3 3d
       0.2641461 0.19956292 -0.2011878 0.095351405
0001e0 6d 0b 31 3e 91 0e ba 3c 35 a5 4e bd 5b 26 81 be
       0.17289515 0.022712024 -0.050450522 -0.25224575
0001f0 03 f6 c4 bd c0 1e 34 3e 26 65 84 3d 7e 80 48 3e
       -0.096172355 0.17589855 0.06464605 0.19580266
000200 d9 07 f8 3c 2a 48 54 3d 19 38 c1 bd 5d 22 44 bd
       0.03027718 0.051826634 -0.09434528 -0.047884334
000210 99 5c 37 3d 47 f9 04 be ff e4 aa 3e 6e 5f 79 3e
       0.044766042 -0.12985717 0.33377835 0.2435281
000220 95 83 0b be fe d3 1d 3e a2 d0 08 3d d1 5b a0 bd
       -0.13624413 0.154129 0.033402093 -0.078300126
000230 0e b8 85 3d 1e 29 69 bd 7f b4 89 bd 3c 87 bb 3d
       0.06529246 -0.056923978 -0.0672388 0.09156653
000240 a5 cd bd bd d3 49 b4 bc 42 8e c9 3d 44 12 14 3c
       -0.09267739 -0.022007858 0.09841587 0.009037558
000250 79 62 0d be 90 0b 04 be d4 34 2f be 85 32 63 bd
       -0.13807096 -0.12895036 -0.17109996 -0.0554681
000260 3c 54 2b be 52 9f 9e be 19 76 d1 bc 4a f8 cc bd
       -0.16731352 -0.30980927 -0.025569009 -0.10008295
000270 b1 ab 65 3e 28 fa 22 3d 5e 64 23 3e a3 e6 08 3e
       0.22428776 0.03978935 0.15956256 0.13369231
000280 10 84 09 be 6b 6c 4e be 0f 4d 45 be 91 df b3 bd
       -0.13429284 -0.20158546 -0.19267677 -0.08782876
000290 cc 3d fe 3d cf f9 fe 3d 0e c3 02 be ed 9c 0d be
       0.124141306 0.12449991 -0.1276972 -0.13829394
0002a0 9d ae 0d be 61 f3 20 3d ed 2a 4c 3d 1f 18 9a bd
       -0.13836141 0.039294604 0.049845625 -0.07524132
0002b0 42 cc b0 bd c6 be ea 3d 87 71 b6 3d ec 70 4c bd
       -0.08632709 0.114621684 0.08908372 -0.04991238
0002c0 95 22 14 be 3f 25 e4 3d 9f 75 1c be 72 0b 66 3c
       -0.14466317 0.11139917 -0.15279244 0.014040815
0002d0 89 34 1d 3e 04 36 52 3e 8c 6e df bb 4b e8 45 bc
       0.15352072 0.20528418 -0.006818598 -0.012079309
0002e0 9c 37 de 3d ea 2a 04 bc fa 44 a5 3c 9d ee 09 3e
       0.108504504 -0.008066872 0.020174492 0.1346993
0002f0 0e 03 ed 3d 49 e8 7a 3e ff 82 86 bd 80 11 23 bc
       0.11572848 0.24502672 -0.06567954 -0.009952903
000300 fb c5 25 3e ee b2 5a be 46 ff 3b be 15 84 6d bd
       0.16188805 -0.21357319 -0.18359098 -0.05798729
000310 a7 dc 46 bd 1e e6 5d 3e de 85 a9 bd 6c 76 3e 3e
       -0.048550274 0.21669814 -0.08277486 0.18599862
000320 19 16 18 3e 90 62 36 bd 45 8c 54 be 74 47 18 be
       0.1485218 -0.04452759 -0.20756634 -0.14871007
000330 2f 68 13 3e c7 7d 7b 3e aa 12 b3 3d 11 c5 4f 3d
       0.14395212 0.24559699 0.08743794 0.050725047
000340 7f fd 68 3e 54 41 4c 3e 91 e6 02 be 8b d1 01 3e
       0.22752951 0.19946796 -0.12783267 0.1267759
000350 86 55 68 be 19 b9 21 be 06 3d e5 3d e4 c5 de bd
       -0.22688875 -0.15793265 0.1119328 -0.108775884
000360 ef 64 91 bc 5c d7 12 3e fe ec 6d be 28 ac 0b be
       -0.017748324 0.14339966 -0.23234937 -0.13639891
000370 b9 2d 59 bd c0 ed b9 bc df 6c 8a bd 24 af 17 be
       -0.05302212 -0.022696376 -0.06759047 -0.14812905
000380 28 da 13 3e 66 33 58 bd 6d 5a fa 3d 5c 3a 70 3e
       0.14438689 -0.052783392 0.122242786 0.23459762
000390 18 9d 1f be a2 01 9a 3d 43 36 ac bb a5 e5 4d 3b
       -0.1558727 0.07519843 -0.005255492 0.0031417396
0003a0 f6 f8 1f bd cf 15 82 be 5a 99 29 bc 64 86 2a 3d
       -0.039055787 -0.25407264 -0.010351503 0.04163207
0003b0 9d a4 b8 bc dd 31 26 3e 70 c1 1c 3e 13 00 65 3e
       -0.022539431 0.16229959 0.15308166 0.2236331
0003c0 3b 04 73 bd 17 de 32 be fc 25 c3 bd 09 ca 19 3e
       -0.059330206 -0.17467533 -0.09528729 0.15018477
0003d0 d2 66 8e 3d bc c6 46 be 62 0b eb 3c d4 fc 11 3d
       0.06953205 -0.19411749 0.028691951 0.035641506
0003e0 dc 22 99 3d 43 03 ed bd 2e 9d a3 bd d9 ba 46 3e
       0.07477352 -0.11572888 -0.07988964 0.19407214
0003f0 13 64 e9 3d dc f2 12 3d b9 37 e2 bd d5 76 fe bd
       0.11396041 0.03587614 -0.110457845 -0.12425009

bias f4 [512]
000000 6c da b6 bd 18 83 60 bd 3f ba d2 3d 5f 60 cb 3d
       -0.089283794 -0.05481252 0.1028943 0.09930491
000010 8c a3 1b be 1f b8 98 be cb b9 0e bc 38 af d0 3c
       -0.15199107 -0.29827973 -0.008711289 0.025474176
000020 46 c1 63 3d 74 4c 51 3d 54 7e 2b 3e 61 e6 79 bd
       0.05560424 0.051098302 0.16747409 -0.061010722
000030 60 12 1f bd b5 5c 1a bc cc 66 90 3d 84 67 06 3c
       -0.038835883 -0.009421517 0.07050857 0.008203391
000040 24 43 e5 bb fd 5c 07 bd 06 57 f5 bb 4b c6 d8 bd
       -0.006996529 -0.033047665 -0.0074871806 -0.105846964
000050 59 3c 58 be e0 9d 9c bc 36 c5 52 be 02 69 2e be
       -0.21116771 -0.01911825 -0.20583043 -0.17032245
000060 6e 1d 21 be b3 c8 57 3e c7 b8 15 3e eb f5 93 3d
       -0.15733883 0.21072654 0.14621268 0.072246395
000070 db 67 4c be 41 61 34 3d 20 c2 ff bc c0 bf e5 3d
       -0.19961493 0.04403806 -0.031220496 0.11218214
000080 ea 87 0c be 6b f0 71 be 1d 4b e5 bd fa 9d 7f 3e
       -0.13723722 -0.23626868 -0.11195967 0.24962607
000090 b1 bf fd bd be b2 bd bc 47 0b 35 be ed 9e 6b 3d
       -0.12390078 -0.02315652 -0.17680083 0.05752461
0000a0 28 96 25 bd 04 97 5d be 96 eb 09 3d ba bc f6 3b
       -0.040426403 -0.21639639 0.033671938 0.007529822
0000b0 60 6f 05 be 0d 81 b0 be d5 63 2c bd a1 7c 4e 3e
       -0.13030767 -0.34473458 -0.042087395 0.2016473
0000c0 87 b5 7d 3c bf 22 c4 3c 5f 51 df 3c 03 c5 11 be
       0.015485174 0.02394235 0.02726048 -0.1423531
0000d0 e6 d3 01 be dc ba be 3d df 31 8a bd 52 77 15 3d
       -0.12678489 0.09312984 -0.067477934 0.036490746
0000e0 a6 f6 2b be 61 c8 f7 3d 32 e7 b2 3d ae c6 64 3d
       -0.16793308 0.12098766 0.08735503 0.05585354
0000f0 10 2c f2 bd 60 81 e4 3c 27 1e 2a 3e b7 8c ad be
       -0.118248105 0.027893722 0.16613065 -0.3389642
000100 70 2f a8 bd f6 47 4f bd f8 b3 ca 3d 48 2c 6a be
       -0.08212173 -0.050605737 0.098976076 -0.22868454
000110 2a da 41 be 0e dd 77 be 8a ec a2 39 d4 a5 7e bc
       -0.18930879 -0.2420542 0.00031075283 -0.015542466
000120 ad 03 d3 bd 41 bf 01 3e f1 11 97 3c 1f 9e 32 3d
       -0.103034355 0.12670614 0.018441172 0.043607827
000130 fc 1b c9 bd bd c3 10 be 39 04 14 3e 0d 1f a8 be
       -0.09819791 -0.14137168 0.14454736 -0.3283619
000140 13 6a 09 bf 79 26 60 be 9c 5b 8a 3c 88 ca 42 3d
       -0.5367748 -0.21889676 0.016889386 0.04755643
000150 7d 11 71 be d3 e3 4b 3d f9 aa b1 bd 08 69 75 3d
       -0.23541827 0.049777817 -0.086751886 0.05991462
000160 bb e0 e2 bd e1 b8 03 bd da 65 af 3d b4 bc 98 be
       -0.1107802 -0.032158736 0.085643485 -0.2983147
000170 af 08 86 3d 3d 5e b5 bc db 73 91 bd ae b3 87 be
       0.06544625 -0.022139663 -0.07102176 -0.26504272
000180 f9 97 c2 be b9 13 c0 3d a1 97 91 be 47 01 32 3d
       -0.3800657 0.09378762 -0.28435996 0.04345825
000190 a1 6e 6d bc 78 aa cb 3b 8b 73 d0 bc dc d1 36 be
       -0.014491708 0.00621539 -0.02544572 -0.17853492
0001a0 d3 a4 c7 bd 57 1f da 3d d5 41 0f 3e 68 3b 22 3e
       -0.097482346 0.10650509 0.13989957 0.15842974
0001b0 38 da 99 be e9 e0 0a 3b 77 66 ac be 69 4a 03 3e
       -0.300493 0.0021191186 -0.33671924 0.12821354
0001c0 3a 3e c0 bd 22 a8 d2 3b 0c a2 50 be 9c 5e 08 be
       -0.09386869 0.0064287344 -0.20374316 -0.1331734
0001d0 b4 76 fd 3c b4 52 84 be 6b 91 d4 bd db 0c 40 be
       0.030940391 -0.25844347 -0.10379299 -0.18754904
0001e0 6a b2 0e be be 9c 4a 3d f5 ad 0f be 92 d0 8c 3d
       -0.13935247 0.049465887 -0.14031203 0.06875719
0001f0 2c f7 32 3d c2 e7 f4 bc 24 b2 1a be 7d 87 9b bc
       0.043692753 -0.029895667 -0.15107018 -0.018985504
000200 7d 58 60 bd d9 a0 58 be ef dc d4 3d df b8 46 be
       -0.05477189 -0.21155109 0.10393702 -0.1940646
000210 0b 7c 23 be 2b a0 49 bd 8b ed 9f bd 66 5b 52 3d
       -0.15965287 -0.049225014 -0.078089796 0.051356696
000220 39 91 1b be 30 76 2e be 10 b4 04 be 39 fe f9 bd
       -0.15192117 -0.17037272 -0.12959313 -0.12206692
000230 c7 fe 1a 3d 22 e1 08 3d 0e 24 2c be 7a 66 7f be
       0.03784063 0.03341783 -0.16810629 -0.24941435
000240 4f 0d 9a be 2d 70 54 be 5d 73 c5 3b 08 71 7d 3c
       -0.3008828 -0.20745917 0.0060257153 0.015468843
000250 12 b8 f6 bc 5b 02 97 bd dc 21 3f 3d ff b8 6e bd
       -0.030117068 -0.07373496 0.04666315 -0.058281895
000260 4a 26 0e 3e 9b 8f 09 be 6a 27 d2 bc 4c 58 6c be
       0.13881794 -0.13433687 -0.02565356 -0.23080558
000270 f3 d7 ea bc 13 3e f9 3d d5 63 b1 bd 0b db 8c 3d
       -0.028667426 0.12170043 -0.086616196 0.06877717
000280 e0 39 17 bc 4f 04 31 3d 35 9e 6b be 6c 75 01 be
       -0.009230107 0.043217 -0.2300957 -0.12642449
000290 24 68 1c be f2 19 d0 bd a7 ae 12 be b3 f7 34 3e
       -0.15274101 -0.10161199 -0.14324437 0.17672615
0002a0 3c 94 4f be a6 80 c5 bc 24 be 02 be fa 4a 8c be
       -0.2027139 -0.024109196 -0.12767845 -0.27400953
0002b0 c7 5b fc 3d 5f e4 0c be 39 1f ec 3d 1b 60 56 3e
       0.12322193 -0.13758992 0.11529393 0.20935099
0002c0 60 b1 97 3c 49 e1 ef 3d 5a 9d 4d 3e ce d1 ab 3d
       0.018517196 0.117128916 0.20079556 0.083896264
0002d0 af 4e 2f be b9 58 65 be 71 db 0d be 65 c3 a5 3c
       -0.17119859 -0.22397126 -0.13853242 0.020234773
0002e0 61 c8 b4 3d 75 ea 87 bd c4 b0 27 bd fa 48 50 be
       0.08827282 -0.06636516 -0.04094006 -0.20340338
0002f0 1d 9c 42 3d 21 60 6f bd 02 99 39 3e 74 ce 91 bb
       0.047512162 -0.058441285 0.18124774 -0.00444966
000300 a2 f3 00 be b9 7f 9f bd 3f fd 1b 3c 74 69 a5 3b
       -0.12592939 -0.07788033 0.009520828 0.0050479714
000310 d0 1f b0 3d 71 6f 3d 3c 10 1d 15 be 59 8c 12 be
       0.08599818 0.011562214 -0.14561868 -0.14311351
000320 f2 70 7c be ce 77 a8 bc 8e 3c 4b be 44 c0 9d bc
       -0.2465246 -0.02056494 -0.19847319 -0.019256718
000330 02 96 31 bd e2 a9 8f bd 1e ce 23 be fe 09 55 be
       -0.04335595 -0.070148245 -0.15996596 -0.20804593
000340 66 bc 83 be e2 ed aa be 87 0f b0 bd 15 38 8b bd
       -0.25729674 -0.33384615 -0.085967116 -0.06797806
000350 a9 2d d8 bd 86 79 87 3d 0f 56 4c be 51 6a 26 be
       -0.10555584 0.06614976 -0.19954704 -0.16251494
000360 3c 57 bc be a7 ba 8a be 6d a3 3a be b2 25 64 bd
       -0.36785305 -0.2709553 -0.18226404 -0.05570001
000370 9e 94 1c be b1 9a 0a be a0 ea 01 3c 1b 61 57 be
       -0.15291068 -0.13535573 0.007929474 -0.21033137
000380 c7 59 77 3d d8 b6 39 be 50 c0 8c be 65 83 7f be
       0.060388353 -0.18136156 -0.27490473 -0.24952467
000390 6b c0 cc bc 84 d6 3d be 71 2a 69 be 26 22 24 be
       -0.024994096 -0.18538862 -0.22770096 -0.16028652
0003a0 6e c2 87 bd f6 c7 fe 3d f8 9f 8c 3b 55 c6 75 bd
       -0.066288814 0.12440483 0.0042915307 -0.060003597
0003b0 2d cf 7a be fa fa 3f bd b0 43 5e be 08 b8 f7 bd
       -0.24493094 -0.04687021 -0.21705508 -0.12095648
0003c0 3f d3 b3 bd a5 85 2c be 3c 90 94 bd 6a 62 29 bc
       -0.08780526 -0.16847856 -0.07254073 -0.010338405
0003d0 9c 24 13 3e 82 7b 53 bc c0 f0 2a 3c a6 58 99 3d
       0.14369434 -0.0129078645 0.010433376 0.074876115
0003e0 d8 fd 35 be e7 a5 59 be 0b 79 d5 bc 3f fc a3 3c
       -0.17772615 -0.21254693 -0.026058694 0.020017741
0003f0 08 cc b1 bd 3b 4e 91 be 99 4a 83 bb 29 c1 40 bd
       -0.08681494 -0.28379998 -0.0040066955 -0.047059212

weight f4 [128, 512]
000000 df 89 44 be b5 23 ba 3d fc d2 b7 bd fc b6 a6 3c
       -0.19193219 0.09088842 -0.08975789 0.020350926
000010 bf 1c e3 3d 53 f3 b8 3d 2a fd 97 3d d9 ac 45 3d
       0.11089467 0.090307854 0.07421334 0.048260543
000020 18 62 ae 3d 2f f6 ac bc 9a 58 15 3e 03 46 46 3d
       0.08514804 -0.021113483 0.1458458 0.048406612
000030 95 98 ab 3c fb 69 0f 3e 5d 84 a9 3c 90 72 82 3d
       0.02094678 0.14005272 0.020692999 0.06369507
000040 ae ef 95 3c 4c d0 10 be 2c c4 33 bd 83 a6 66 be
       0.018302765 -0.14141959 -0.043888256 -0.22524457
000050 7a ed 24 3c f4 51 37 be 17 53 07 bd b2 db 9b bc
       0.010066384 -0.17902356 -0.033038225 -0.019025657
000060 30 8e 9f 3b 4a 40 01 3d 05 ab 96 be d7 46 d9 bd
       0.004869245 0.03155545 -0.29427353 -0.10609215
000070 58 97 54 bb 0f b1 38 3a 84 4f 4d 3b 22 bf eb bd
       -0.003243884 0.0007045427 0.0031327913 -0.11511065
000080 90 4a 5c bc 32 f8 20 3d d5 6b 2a bc 5a f4 0c bd
       -0.013445511 0.039299197 -0.010401686 -0.03441272
000090 50 41 04 3d 60 40 de 3d 61 26 fe bb 4a ba ff bd
       0.03228885 0.10852122 -0.00775604 -0.12486704
0000a0 92 ec 2a 3e 93 e4 51 3e 39 cd f9 3c 5c 86 03 3e
       0.16691807 0.2049735 0.030493366 0.12844223
0000b0 82 6f 9b 3d de 54 e1 3c b3 45 83 bc 90 27 78 3d
       0.07589628 0.027506288 -0.016024446 0.060584605
0000c0 a5 83 07 be 6c 20 db 3d 86 c1 34 bd 36 e1 f0 bd
       -0.13233812 0.10699543 -0.04412987 -0.117617056
0000d0 d8 3e 81 3c 90 db 0a be a5 7a fc bd 3a ae 0e bc
       0.015777037 -0.13560319 -0.1232808 -0.008708531
0000e0 4c b4 2a 3d 18 2c af bd 62 f9 37 be 06 e2 16 3d
       0.04167585 -0.08553332 -0.17966226 0.036836646
0000f0 6a 47 cc bd dc 36 78 3d 0c 1b 00 be 38 ea 2e 3e
       -0.09974559 0.060599193 -0.12510318 0.17081535
000100 a4 66 d8 bd a5 8e 70 3d de 9d 09 3d 53 4c 9e 3d
       -0.10566452 0.058729786 0.03359782 0.077294014
000110 97 20 3c be 69 a3 9a bd c2 27 98 3c 9f 51 51 3b
       -0.18371807 -0.07550699 0.018573646 0.003193952
000120 15 02 bf bb 05 d2 b6 bd f9 74 77 3d 34 93 de bc
       -0.0058291056 -0.08926777 0.06041429 -0.027169801
000130 a7 1f 06 3e 04 d0 38 bd 06 25 47 bd b8 f5 df bd
       0.13098012 -0.045120254 -0.048619293 -0.10935539
000140 e0 ef d3 3d 70 97 cb 3c f5 44 2d 3d 7f e6 26 3d
       0.10348487 0.024852484 0.04230209 0.040747162
000150 1d f1 3d 3d db 01 9a 3c ca b6 8d bd e6 68 b3 bd
       0.04637252 0.018799713 -0.0691963 -0.08760242
000160 b9 39 65 3b 7f 9e 30 38 6d a4 98 bd 32 ba 09 3c
       0.0034977032 4.210928e-05 -0.07453237 0.008406209
000170 fa 9e 3b 3b 47 7f 09 3e d2 08 2c 3d 19 ed 4d bd
       0.0028628693 0.13427459 0.0420006 -0.050274942
000180 95 46 10 bd 64 30 0a bd 10 d0 cd 3d 6b b9 66 be
       -0.035223562 -0.033737555 0.100494504 -0.22531669
000190 01 a1 42 bc fc b3 8d bd c1 fa 9e 3d d7 6d 68 bd
       -0.011879207 -0.06919095 0.07762671 -0.056745376
0001a0 b9 30 8f bd ba a6 6c bd 33 79 eb bc 21 b3 5a bc
       -0.06991715 -0.05777619 -0.028744316 -0.013348372
0001b0 5a c0 0d be a9 6c fb bd 95 6d 80 3c 86 6e d7 bd
       -0.13842908 -0.12276585 0.015677253 -0.105191275
0001c0 b1 85 ce 3d 6d 85 5d 3c 53 d2 37 bd 14 22 9a 3d
       0.10084093 0.013520581 -0.044878315 0.07526031
0001d0 0a 65 5d 3c 87 6b f4 bc b9 24 b6 bc 13 d3 2f 3d
       0.013512859 -0.02983643 -0.022234308 0.042925905
0001e0 55 95 3e 3c 62 d6 cb 3c cc 40 d6 3c cd 54 9a 3d
       0.011632283 0.0248825 0.026153944 0.07535706
0001f0 1a 30 88 bc 20 7a 81 3d 2f 24 e4 bc a5 2c 6a bc
       -0.0166245 0.063221216 -0.027849285 -0.014292871
000200 84 ea d7 bd 2f e5 7e bd 5a 9c 10 bd fa 88 3a bd
       -0.10542777 -0.062230285 -0.03530536 -0.045540787
000210 1e 34 8d 3d 72 32 27 bd 01 02 96 3d 85 db 13 bd
       0.06894706 -0.040819593 0.07324601 -0.036098022
000220 43 9f b0 bd 51 cd 02 be 01 e3 92 3b 28 fa c7 3d
       -0.08624127 -0.12773634 0.0044826274 0.097645104
000230 ca fc 9d bd ae c6 1d bd d3 76 27 be 64 00 a5 bd
       -0.07714231 -0.038519554 -0.16353922 -0.08056715
000240 b7 47 30 3e 73 61 6d 3c 56 59 9d be 4a 88 a5 bd
       0.17214857 0.014488566 -0.3073222 -0.08082636
000250 aa 9d bf 3d ce c7 a6 3d 2e 2d fd bc ad 26 08 3e
       0.09356244 0.081435785 -0.030905332 0.13296004
000260 c3 e4 85 bd fa d3 bc 3d 37 5a fa 3d bc 45 48 bd
       -0.065377735 0.09220119 0.12224238 -0.04889463
000270 f9 65 ae 3d 0b e6 90 bd 2f ff 34 3d 00 60 b9 bd
       0.085155435 -0.07075127 0.044188675 -0.09051514
000280 76 38 65 3b 49 38 9b 3d 91 62 b7 bc 59 a4 24 3d
       0.003497628 0.07579095 -0.022385867 0.040195797
000290 f5 50 22 3d ad 04 7c bd c4 6f 24 be 87 84 df bd
       0.039627988 -0.061527897 -0.1605826 -0.109139495
0002a0 97 14 f4 bd 08 61 e5 3c 4f 01 3d bd fb 3d 52 bd
       -0.1191799 0.02800037 -0.046143826 -0.05132864
0002b0 07 d1 24 3e 85 70 a3 bc a0 9d 07 3d f0 5c 61 3a
       0.16095363 -0.019951114 0.033109307 0.00085969176
0002c0 67 8e 1f 3e a8 6d e1 bb da a2 b3 bc 5a 03 ce bd
       0.15581666 -0.006879527 -0.02192824 -0.10059233
0002d0 c4 59 ae 3c bc de 01 bd c4 de ed bd db 4a 11 3e
       0.021283038 -0.031706557 -0.11614755 0.14188711
0002e0 bc 31 e0 bd a6 c5 55 bb 5a 8d 37 3e c5 c7 06 3c
       -0.10946986 -0.0032619028 0.17925015 0.00822634
0002f0 bc 7b 45 3e a3 a8 06 be a2 cf 10 3e 26 18 37 bc
       0.19285482 -0.13150267 0.14141706 -0.011175191
000300 04 00 81 3c fe 9f 0b 3c 61 29 54 3d 30 92 2e 3e
       0.015747078 0.008522032 0.051797275 0.17047954
000310 6d 7d 08 3e 7a 68 ef bc 50 30 01 3d 8e 76 3a bd
       0.13329096 -0.029224623 0.031540215 -0.04552322
000320 23 52 03 3d 8c 18 98 bd 6c f1 a9 3c 45 49 87 bd
       0.032060754 -0.07426557 0.020745002 -0.06605772
000330 b3 c1 dc bc 11 dd 20 3b 2d fd 61 bc da 7c 84 bd
       -0.026947832 0.0024545828 -0.013793272 -0.06469126
000340 83 01 81 3d 25 ad f6 3b 00 ad dd bd e7 bc 82 3d
       0.062991165 0.0075279647 -0.10824013 0.063836865
000350 c5 be 21 3e 18 b8 0e 3c 46 d1 b5 3a b1 ac 8f bd
       0.15795429 0.008710884 0.0013871572 -0.0701536
000360 0b 1a 24 3d e1 ea 88 bd 46 c6 c6 3b e3 b4 c1 3c
       0.0400639 -0.066854246 0.0060661165 0.023645824
000370 30 58 46 3d 96 59 76 bc 9b 8c c5 bc 48 c9 3e 3e
       0.048423946 -0.015036007 -0.024114897 0.1863147
000380 24 19 24 be 14 09 88 3d 4c b4 78 bd 15 91 5f 3c
       -0.16025215 0.066423565 -0.06071882 0.01364543
000390 6c 68 09 3e 9d 2c 75 3c d3 0a 7e 3d 5e e3 f8 3c
       0.1341874 0.01496425 0.06202204 0.030381855
0003a0 18 06 dc 3b 87 cb bc bc 96 77 a4 bd 96 28 ca 3d
       0.0067145936 -0.023046268 -0.08030622 0.098710224
0003b0 7e c7 48 3d c6 6c 77 3e f2 22 c6 bd b0 8f e1 3d
       0.049018376 0.24162588 -0.09674634 0.11013734
0003c0 9b bd 22 be 16 e6 0e bc 39 c5 a8 be 61 90 9c bd
       -0.15892641 -0.008721849 -0.3296297 -0.076447256
0003d0 bb f7 f5 bc 78 52 f9 39 05 4d 68 bc c0 db a5 3c
       -0.030025354 0.00047554425 -0.014178519 0.020246387
0003e0 37 03 a6 3d 44 db 9a 3c 8c e6 a9 3c 71 d8 0f 3e
       0.08106082 0.018903382 0.020739816 0.1404741
0003f0 5a ad 57 bd cd e1 1f 3c 3b 70 d3 3d e4 4d 0f be
       -0.052655555 0.009758425 0.10324141 -0.13994557

bias f4 [128]
000000 65 9f 92 bd aa 2e 32 3c 15 7a a4 3c 4f aa 4e 3d
       -0.07159308 0.010875383 0.020077744 0.050455388
000010 ef 71 1f 3d 22 b7 38 3d f8 08 fd bc dd 35 1a 3b
       0.038927015 0.045096524 -0.030888066 0.002353064
000020 93 e5 ae 3b eb de 9e 3c e1 38 26 bc 85 7d 11 3d
       0.005337426 0.019393405 -0.010145397 0.035520095
000030 13 29 bf 3d 11 ae 5e bc 40 9e 3f 3d f1 78 0b 3d
       0.09334006 -0.013591305 0.04678178 0.034050886
000040 35 08 0a bd 3a 8f d1 bc f5 24 7d 3d 66 5a 71 bb
       -0.033699233 -0.025580991 0.061802823 -0.0036827563
000050 09 53 e6 bc 1b 76 ab bd 2d 33 4f bd c5 66 63 3d
       -0.028115766 -0.08372136 -0.050585914 0.05551793
000060 bf a9 dc 3b e9 0c 40 3c 95 c3 38 3c fd e3 1f bd
       0.0067341025 0.011721828 0.011277099 -0.039035786
000070 d3 9b 88 3d ce 66 89 3c 49 89 ff 3c ec 7e 87 bd
       0.06670346 0.016772654 0.031193392 -0.06616005
000080 e7 f7 c6 3c 1c 12 c5 bc 9f 55 50 bd 9f d2 e5 3d
       0.02428813 -0.024056487 -0.050862905 0.112218134
000090 cf a9 96 3c 2c 53 49 3c 6e 8a 90 bc f2 64 21 bd
       0.018391518 0.012287896 -0.017644133 -0.03940291
0000a0 ab a6 1e bd 68 16 63 3c 8d d2 a9 bd b6 be 72 3c
       -0.038733166 0.013860323 -0.082921125 0.014815977
0000b0 94 30 f6 3c 0b 98 5e bc ab ff de bc 62 40 64 3c
       0.03005246 -0.013586055 -0.027221521 0.013931366
0000c0 e8 40 9b 3d ab 7c 05 bc 37 62 7a bc d8 15 64 bd
       0.07580739 -0.008147399 -0.015282205 -0.055684894
0000d0 fa f3 37 b9 6b f3 c6 bc bf 53 97 3c 8a 9f b0 3c
       -0.00017543128 -0.024285993 0.01847255 0.02156045
0000e0 b2 b9 01 bc 5f 96 93 3c a4 1e 0f bd b5 21 22 bd
       -0.007917808 0.018016038 -0.03494133 -0.039582927
0000f0 5a 5a 42 3d bb dc 3f bd 92 bc 68 bb c2 1a b0 bd
       0.047449447 -0.046841364 -0.0035512787 -0.08598854
000100 2b fe 42 3d 7d b4 ec bb 9a 75 f1 3c 9a dc ac bd
       0.047605675 -0.0072236643 0.029475022 -0.08440514
000110 2a 06 1d bd 17 58 57 3d 7f 81 5c bd 90 1a 02 3c
       -0.038335957 0.052574243 -0.053834435 0.007940903
000120 99 eb cf 3c e0 4d cd 3c b7 b0 11 bd 4f 7a 40 3b
       0.025380896 0.025061548 -0.03556892 0.0029369777
000130 33 64 90 3d 7d 4c b9 bd 86 74 56 3d 8e 81 19 3d
       0.070503615 -0.09047792 0.05235722 0.03747707
000140 42 60 b3 bc 80 74 88 3c 88 ac 28 3d de ce 20 bd
       -0.021896485 0.016657114 0.041180164 -0.039259784
000150 e4 bd 3d bd 65 ec 19 3d 14 02 ed 3c f2 6d 94 3a
       -0.046323672 0.03757896 0.028931655 0.001132427
000160 cb 8b 37 3d e7 47 f7 bc e2 54 62 3c 14 e2 46 3d
       0.04481105 -0.030185653 0.013814183 0.04855545
000170 f0 5a 25 bc bf 2b 8c 3d 7e b4 c2 3c 02 89 96 3b
       -0.010092482 0.068442814 0.023767706 0.0045939693
000180 a2 3a 30 3c 82 dd 0e 3d ea 6d dc 3c 7f 5c 94 3d
       0.010756167 0.034879215 0.02690788 0.07244205
000190 60 56 5d 3d b8 28 b1 3c 91 2f 2c bd a7 1e f0 3c
       0.05403745 0.021625862 -0.04203755 0.029311491
0001a0 86 c5 47 3d 9b a7 c3 bc bb e1 b3 bb c2 d5 f0 bc
       0.048772357 -0.023883631 -0.0054895557 -0.029398803
0001b0 e6 22 07 3d b4 a2 10 bd c9 81 31 3d 65 b0 ba 3d
       0.032992266 -0.035311416 0.043336663 0.09115676
0001c0 d0 a3 ec bd 7b d0 36 bd ae 47 e8 bc 1d 83 19 3d
       -0.11554682 -0.044632416 -0.028354492 0.037478555
0001d0 44 5c 5d 3b b6 4d 09 bd 68 bf 2d bc 6e e4 f2 3d
       0.0033776918 -0.033521377 -0.010604717 0.11859976
0001e0 74 8c ba 3c d9 a5 e5 3c f5 db d6 3d ff 0c 3a bd
       0.022772051 0.028033184 0.10491172 -0.04542255
0001f0 aa 18 29 3d 1a 79 8e 3d 31 53 5d 3d ea c6 9e 3d
       0.041283287 0.06956692 0.054034416 0.077527836

weight f4 [5, 128]
000000 69 33 71 be f6 f3 57 bd 1d d5 a2 3d ee 37 29 be
       -0.23554768 -0.052722894 0.079508044 -0.16525242
000010 1b 2a 92 3e e7 ad 25 bf 99 75 1d bf 0f 48 f4 3c
       0.2854775 -0.6471848 -0.61507565 0.029819516
000020 f2 3d a7 3d aa 73 22 3e d0 d5 83 3c 37 4f 0d 39
       0.08166112 0.15864435 0.016093165 0.00013476318
000030 ed 77 1f 3f ed 1a 0e be 5b 6a f1 3e d3 c9 3f 3b
       0.6229237 -0.13877459 0.47151455 0.0029264584
000040 41 05 ab 3e a4 6b b6 3d fe 66 cb 3d 1a b9 bb be
       0.33402446 0.089072496 0.099317536 -0.3666466
000050 49 12 32 be 65 76 61 bd 61 f6 ac be 1b 1a 90 3e
       -0.17389788 -0.05504455 -0.33781722 0.28144917
000060 03 a8 88 3e 95 dc 11 bf be b5 20 bd 5f 86 4e bc
       0.26690683 -0.56977206 -0.039235823 -0.012605279
000070 96 9d 55 be 44 fb a5 bd 5b 21 6b bd f7 d6 89 be
       -0.20860896 -0.08104566 -0.057404857 -0.26921818
000080 41 e5 c1 3d 98 e9 50 bd 52 c5 9c be d9 68 b1 3d
       0.09467555 -0.051004022 -0.30619293 0.08662576
000090 92 5f a4 3d 63 2c bc be f7 25 d8 be d9 df df bd
       0.08026041 -0.36752614 -0.42216465 -0.109313674
0000a0 c2 55 a2 bd fe 25 17 bc 8e 29 d3 be b6 2f 85 be
       -0.07926513 -0.009225367 -0.4124264 -0.26012963
0000b0 ed a1 9b 3d f1 78 20 3e db 3d 44 be 0c d6 2e 3c
       0.07599244 0.15671135 -0.19164221 0.01067115
0000c0 5e 4f 37 3e 23 ff be be e1 43 9d 3e f0 89 38 3d
       0.1790137 -0.3730403 0.3071585 0.045053422
0000d0 7c 50 d1 be 54 dc 2f 3e d8 84 0a 3d d8 2d 9a 3e
       -0.40881717 0.17173892 0.033818096 0.301131
0000e0 4f 7b fa bd 1a 38 0d 3e 0d c7 6c bd 47 87 8d 3e
       -0.122305505 0.13790932 -0.057807017 0.2764227
0000f0 10 0e 81 3e e7 cc 1e bd ad 99 f0 bd 70 3c c5 be
       0.2520604 -0.03876963 -0.11748061 -0.38522673
000100 89 91 36 3e 3a c1 9c 3d d6 d7 db 3d 97 40 68 bc
       0.17828955 0.076540425 0.10734527 -0.014175556
000110 37 fc fb 3e 43 65 33 3e 95 99 6f be 84 8b 2d 3d
       0.49215862 0.17519097 -0.2339843 0.04236938
000120 ac e8 ae 3d 66 2e 62 3e be 04 bf be e2 e5 f5 3d
       0.085404724 0.22088012 -0.37308306 0.12006737
000130 50 7e 94 3d 21 e1 b4 be 92 9d e5 3e 0c d8 d4 3e
       0.07250655 -0.3532801 0.4484678 0.4157108
000140 26 6e 25 bd 42 80 84 3e 5f 96 ea 3d f2 ee 1e be
       -0.04038825 0.25879103 0.11454462 -0.15520838
000150 13 1e a6 be 9d 94 1b bf 60 66 c8 bd 93 c5 68 be
       -0.3244482 -0.6077364 -0.097851515 -0.22731619
000160 5f d3 fd bd fe 61 f6 3d 90 de c1 be 46 7d 31 be
       -0.123938315 0.12030409 -0.37865114 -0.17332944
000170 8c 46 4b be 06 42 dd 3e 6b 30 21 3c 4d af 3c 3d
       -0.1985113 0.43214434 0.009838204 0.046065617
000180 9d ef 2a 3d 66 c9 4c 3e 91 04 03 3e 98 c6 45 be
       0.04173242 0.19998702 0.1279471 -0.19314039
000190 10 c4 07 3e 27 6c 33 bf 67 1d a7 3d 0d 81 36 be
       0.13258386 -0.700869 0.08159905 -0.17822666
0001a0 ef 51 f8 3d d7 ab a2 3d c3 25 7b 3d 0f 8b b5 3d
       0.121250026 0.07942932 0.06131531 0.08864414
0001b0 b3 5e 73 3e 16 c5 11 bc 1d 93 cb 3e e0 2d e0 3d
       0.23766594 -0.008897087 0.39760676 0.1094625
0001c0 66 bd 01 bf 1a 68 ce 3e 28 20 63 3e b3 29 9d bd
       -0.50679624 0.40313798 0.22180235 -0.07673969
0001d0 7b 5f ae bd 59 4a 3c be 04 dc b1 3d 06 c8 bf 3d
       -0.08514305 -0.18387736 0.08684543 0.09364323
0001e0 45 a1 b5 be e2 fb be bc 1e f5 e7 be 5f ff c2 be
       -0.354746 -0.023313466 -0.45304197 -0.38085458
0001f0 4f a3 f1 3c f4 29 97 bd 29 ef e9 3c c7 e2 21 3e
       0.029496817 -0.07381049 0.028556423 0.15809165
000200 34 a2 ea bd 18 dd 06 bf 59 2f 18 bf 0d 6f 66 3e
       -0.11456719 -0.5268111 -0.59447247 0.225033
000210 ff 8b 28 be d3 0a 07 3e 5f 34 d7 bd e2 77 1b 3e
       -0.16459654 0.13187723 -0.10508036 0.1518245
000220 42 e4 77 be 6a 61 38 bf 53 c7 12 bd 30 20 12 3c
       -0.24208167 -0.7202364 -0.03583462 0.008918807
000230 1b 90 90 be a6 d3 b0 be 61 ad ce 3d e8 be 5e 3e
       -0.28234944 -0.34536475 0.10091663 0.21752512
000240 9a c8 2b 3c 03 03 0f bf f0 0b da 3e 96 e0 70 be
       0.010484839 -0.5586397 0.42587233 -0.23523173
000250 d8 b8 a7 bd 89 b1 82 3d 86 e2 ec 3c 16 e4 13 3f
       -0.08189553 0.063815184 0.028916609 0.57769907
000260 46 88 3f be fb eb 8f 3e b7 f6 f1 3d e7 bc dc 3d
       -0.18704328 0.28109726 0.11814635 0.10778218
000270 81 ad 3b be bb 1c e4 3e aa 91 1d be e7 7a 9d bd
       -0.18327905 0.4455317 -0.15387598 -0.076894574
000280 db fd a1 be 0a d0 93 3d 24 b9 91 3e 23 6a c9 3d
       -0.3163899 0.07217415 0.28461564 0.09834697
000290 13 e6 3b be 55 d9 2e 3e c6 5b ac 3d 53 91 c9 3e
       -0.18349485 0.17075093 0.08415942 0.39368686
0002a0 d8 80 8b 3d b8 8e 17 3e 0b 81 fa 3d 15 33 5f 3e
       0.06811684 0.14800537 0.12231644 0.2179683
0002b0 27 83 ef bc 15 6c 96 bd 4b b4 63 3d 46 9c d5 3e
       -0.029237343 -0.07344834 0.055591863 0.4172079
0002c0 3e 28 4b 3d 61 07 12 be e7 15 08 bf 22 c9 0a 3e
       0.049598925 -0.14260627 -0.5315842 0.13553289
0002d0 ab be 7c bd 0b b3 04 3e 0d 08 74 3c b5 43 91 3e
       -0.061705273 0.12958924 0.014894498 0.2837197
0002e0 3c c7 04 3f b2 44 a2 3d 17 22 27 3f 8c cd 33 bf
       0.5186651 0.07923259 0.6528639 -0.70235515
0002f0 06 40 f6 be 41 75 5a bd b6 57 60 3e 52 60 63 3e
       -0.4809572 -0.05333448 0.21908459 0.22204712
000300 66 18 ac bd d4 a0 fa bc 29 15 9f bc a6 ff af 3e
       -0.08403091 -0.030594267 -0.01941927 0.34374732
000310 5d ae c4 3d 3c 6b 36 3e cc ef a4 3e 21 12 41 bd
       0.0960357 0.17814344 0.322142 -0.04713643
000320 59 d6 b9 3e 97 b9 12 3d f2 b2 2d 3e d6 2a dd be
       0.36296347 0.035821524 0.16962793 -0.43196744
000330 a2 a0 c9 bd 14 c5 ac be f1 a4 60 be f9 17 e5 be
       -0.098450914 -0.3374411 -0.2193792 -0.44744852
000340 ec e8 85 be 32 fc f1 bd 28 bc 28 be 68 0a de be
       -0.26154268 -0.118156806 -0.16478026 -0.43367314
000350 f4 c0 c9 3e 78 35 44 3b 36 6e 8d be 48 c3 b3 3c
       0.39405024 0.0029939096 -0.27623147 0.021943703
000360 c2 2d 07 3e cb 76 e6 3e a8 24 98 3e 51 6c 27 3e
       0.13201049 0.45012507 0.29715466 0.16349913
000370 08 34 90 3e 7e 4c 72 be 42 3e c4 bd 62 0f 44 3d
       0.28164697 -0.23661992 -0.09582187 0.047866233
000380 b0 03 c6 be 59 44 c3 bc 31 25 10 be 15 7b 45 3d
       -0.38674688 -0.023836302 -0.14076687 0.048213083
000390 cb fb 58 be 59 c1 45 3c 3c a7 01 bf 38 a1 98 3e
       -0.21189801 0.012070023 -0.50645804 0.298105
0003a0 9d ad 10 bc f8 e6 d9 be 50 81 17 be f7 83 33 3d
       -0.008830455 -0.42559028 -0.14795423 0.043827023
0003b0 30 eb a5 3e ed 5c 64 3e 7a ee 20 3c 23 1f 9a bc
       0.32405996 0.22301073 0.009822482 -0.018813675
0003c0 8e 22 13 bd 93 2c 6e 3e e2 8f f3 be 78 b3 b8 be
       -0.035921626 0.23259191 -0.4757071 -0.36074424
0003d0 22 c1 9e bd 7c b2 15 3f 57 12 d4 be 1a 80 23 bd
       -0.07751681 0.5847547 -0.41420242 -0.03991709
0003e0 33 40 29 be b4 65 98 3d e7 67 f4 bd f0 d2 be 3e
       -0.16528396 0.07441273 -0.1193388 0.37270308
0003f0 2c 89 5e be 53 38 0e be 9e ba 0d bf c0 64 92 3e
       -0.21732014 -0.13888673 -0.5536288 0.2859249

bias f4 [5]
000000 a7 fd f4 3b 10 42 a8 bd be 0a f8 bc fc 33 f0 3d
       0.007476527 -0.082157254 -0.03027856 0.11728665
000010 fb 67 5f 3d
       0.054542523
