trained/exp_train_3_6_1111_0.0001_0.001_32_0.95/model/ctrl_critic_1.pth (torch, 562315 bytes, 7 tensors)

weight f4 [128, 32]
0	0xbe9ba932	-0.30402523
1	0x3cb6fee3	0.022338336
2	0xbd64cb5d	-0.055858005
3	0xbd0ee867	-0.034889605
4	0xbdc91dca	-0.09820135
5	0x3c3a7283	0.011379841
6	0x3c97d738	0.018535241
7	0xbec7da60	-0.39033794
8	0x3eb1cb08	0.34725213
9	0xbe8e7dc6	-0.27830333
10	0x3e75bfce	0.23998949
11	0x3e7d381e	0.24728438
12	0x3f0a86b9	0.5411182
13	0x3ed8f1a3	0.42371854
14	0x3e560a83	0.20902447
15	0xbe9dfac8	-0.30855393
16	0xbf3564a3	-0.70856684
17	0x3dc6faf5	0.09715835
18	0x3dbfaf3e	0.09359597
19	0x3e819137	0.25306103
20	0xbe9e7743	-0.30950364
21	0x3e8be5db	0.27323803
22	0x3e02f0c4	0.12787157
23	0x3dc3cbed	0.0956038
24	0x3f71da1e	0.94473445
25	0x3f2d676a	0.6773592
26	0xbf6fd2af	-0.9368085
27	0xbf1ceb07	-0.61296123
28	0x3e723280	0.23652077
29	0x3dfb8d5d	0.12282822
30	0x3e9ed440	0.3102131
31	0x3e73f909	0.23825468
32	0xbe145f3b	-0.14489453
33	0x3ec03928	0.37543607
34	0x3df5ffcd	0.12011681
35	0x3e43f67d	0.19136997
36	0xbf456eaf	-0.77122015
37	0x3e26772a	0.16256395
38	0x3e6f5787	0.23373233
39	0x3e34f986	0.1767331
40	0xbf041a61	-0.5160275
41	0xbef41aab	-0.47676596
42	0x3e953da0	0.2914858
43	0x3ec89e71	0.3918338
44	0x3ea66e08	0.32505822
45	0x3f25b398	0.64727163
46	0x3e79554d	0.24348946
47	0xbf04dda2	-0.51900685
48	0xbf296e60	-0.66184044
49	0xbdfe72a6	-0.12424211
50	0x3f5dd3f3	0.86651534
51	0x3f02f34a	0.5115248
52	0x3f0fe668	0.5621095
53	0x3c23fc7a	0.010008926
54	0x3e9bf6b1	0.30461648
55	0x3e4a8606	0.19777688
56	0xbe09ae8f	-0.13445495
57	0xbef8ca41	-0.48591807
58	0xbec1f1a4	-0.3787967
59	0x3da51430	0.08060491
60	0xbe81bcdf	-0.2533941
61	0xbec14b16	-0.377526
62	0x3e0ee79e	0.13955542
63	0x3dd1b5c4	0.10239747
64	0xbd492ad7	-0.04911312
65	0x3e4e8929	0.2016951
66	0xbe1764cc	-0.14784545
67	0x3cfe141c	0.031015448
68	0x3f31e310	0.69487095
69	0xbdda4a95	-0.10658757
70	0xbed864c9	-0.42264393
71	0x3eec84a6	0.46194953
72	0xbd899ce6	-0.06719379
73	0x3f8404eb	1.0314001
74	0x3eaa6529	0.33280304
75	0xbeb6b3aa	-0.35683948
76	0x3eaad30d	0.33364144
77	0xbe9c47df	-0.30523583
78	0xbdda2f83	-0.106535934
79	0x3f174d72	0.5910255
80	0xbd9e569f	-0.077313654
81	0xbe348f74	-0.17632848
82	0xbeaa9f1c	-0.33324516
83	0xbde17b28	-0.11009818
84	0xbdb3649f	-0.08759426
85	0xbe448e99	-0.19195022
86	0x3ed6b80a	0.41937286
87	0xbf280c10	-0.65643406
88	0x3eb81d79	0.35959986
89	0xbf0bd1c3	-0.54616946
90	0x37c28d31	2.319235e-05
91	0x3d10a69c	0.03531514
92	0xbe2b6c35	-0.16740496
93	0xbea031cd	-0.31287995
94	0xbf146803	-0.5797121
95	0xbe346038	-0.1761483
96	0x3d7e19cf	0.06203633
97	0x3ef038ad	0.4691824
98	0x3d12ed13	0.035870623
99	0xbc3b8c29	-0.011446991
100	0xbec7ec1a	-0.3904732
101	0x3d9a73cb	0.07541617
102	0x3e1912aa	0.14948526
103	0xbeacf726	-0.3378231
104	0x3ee8cac8	0.4546721
105	0xbd840a94	-0.0644733
106	0xbe2ed8ad	-0.17074843
107	0xbd99c8c7	-0.07508998
108	0xbf50b0e2	-0.815199
109	0xbef28c2d	-0.4737257
110	0x3d08db0d	0.033412028
111	0xbd88865b	-0.06666251
112	0x3f06a4db	0.525953
113	0xbcbab6ec	-0.022792302
114	0xbe1a50f0	-0.15069938
115	0x3efde8b1	0.49591592
116	0xbf80dc39	-1.0067207
117	0xbf28f8dd	-0.66004735
118	0x3c7c0f44	0.015384499
119	0xbe54a822	-0.20767263
120	0xbf329540	-0.6975899
121	0xbe884e60	-0.26622295
122	0xbbcd04fa	-0.006256697
123	0x3eabca81	0.33552936
124	0xbe958d80	-0.29209518
125	0x3ba6468a	0.005074327
126	0x3d325223	0.043535363
127	0x3eb4ef45	0.35338798
128	0x3d9ad7c9	0.07560689
129	0x3e908079	0.28223017
130	0x3e3d5542	0.18489555
131	0xbdc3e624	-0.0956538
132	0xbf010f37	-0.5041384
133	0x3efdea10	0.49592638
134	0x3f51b030	0.81909466
135	0xbf4e7672	-0.80649483
136	0xbf03f3f2	-0.51544106
137	0x3f05db99	0.52288204
138	0xbe94c0d7	-0.29053375
139	0x3e7e5a22	0.2483907
140	0x3e781eae	0.24230453
141	0xbe9c6b02	-0.3055039
142	0xbe87b0ea	-0.26502162
143	0xbc108e4b	-0.008822988
144	0xbeafa811	-0.34307912
145	0x3e41a53e	0.18910691
146	0x3f31c9c3	0.6944849
147	0x3da1c0d9	0.07898111
148	0x3e0066cd	0.12539215
149	0x3e1e8837	0.1548165
150	0xbe62f3db	-0.22163336
151	0xbe6b1695	-0.22957833
152	0xbe76a404	-0.24086004
153	0x3f59eb4b	0.85124654
154	0xbea82ab8	-0.32845092
155	0xbf06452f	-0.52449316
156	0x3dda8ca4	0.10671356
157	0xbdb0a488	-0.08625132
158	0x3dbd7009	0.09249885
159	0xbe8db8ee	-0.27680153
160	0x3f0de5b3	0.5542862
161	0xbe011782	-0.12606624
162	0x3eb4f524	0.35343277
163	0xbeb5358e	-0.3539242
164	0x3f0a0aa2	0.53922474
165	0xbe6f8d6e	-0.23393795
166	0x3d59e36d	0.053195406
167	0xbe1975d6	-0.14986357
168	0xbf0e53fa	-0.5559689
169	0x3ee5d952	0.44892365
170	0xbe99d5ef	-0.3004603
171	0x3f270fed	0.65258676
172	0x3f38de20	0.72213936
173	0xbe6ec2f5	-0.23316558
174	0x3de88b5a	0.11354704
175	0x3ccb926d	0.024850095
176	0xbf601078	-0.8752513
177	0x3f2e21a6	0.68020093
178	0xbda58907	-0.080827765
179	0x3d41ec90	0.047344744
180	0x3e937dba	0.2880686
181	0xbeed81c5	-0.4638807
182	0xbda06e58	-0.078335464
183	0x3e659c96	0.22423014
184	0xbe344568	-0.17604601
185	0xbe845ffd	-0.25854483
186	0xbec4d7da	-0.38445932
187	0xba780102	-0.00094605994
188	0xbea7f604	-0.32804883
189	0x3dd5d23c	0.1044049
190	0xbef4afcb	-0.4779037
191	0x3c8884ec	0.016664945
192	0xbee96486	-0.45584506
193	0xbdfd1c09	-0.12358863
194	0x3e39c738	0.18142402
195	0xbeb39e55	-0.35081735
196	0x3ed09494	0.40738356
197	0xbd2aae34	-0.04167004
198	0x3e900de1	0.2813559
199	0xbe7f8be4	-0.24955708
200	0x3e0745f6	0.13210282
201	0x3e892435	0.26785436
202	0x3ca5d423	0.020242756
203	0xbeba5f01	-0.36400607
204	0x3ecc7d6c	0.3993944
205	0xbe13309f	-0.14374016
206	0xbed7566c	-0.42058122
207	0xbd47d33d	-0.048785437
208	0x3f41909e	0.75611293
209	0x3f12aa36	0.5729097
210	0xbe3b3578	-0.18282115
211	0x3e2ccfee	0.16876194
212	0x3e33dbf0	0.17564368
213	0x3f11ae46	0.56906545
214	0x3ec04cab	0.37558493
215	0xbe106b8e	-0.14103529
216	0x3c1342f4	0.008988131
217	0x3e9b7125	0.3035976
218	0x3e18794a	0.14890018
219	0xbd01e0b1	-0.031708423
220	0xbe63bdb4	-0.22240335
221	0xbdeecf01	-0.116605766
222	0x3e938a0a	0.28816253
223	0xbe13cc02	-0.14433292
224	0x3d0f00f0	0.034913003
225	0x3eff2de9	0.49839714
226	0xbf20395d	-0.6258753
227	0xbeba22af	-0.36354586
228	0xbe921099	-0.28528288
229	0xbf4505ce	-0.7696198
230	0x3ec3576e	0.3815264
231	0x3c3b1826	0.011419332
232	0x3e370c1b	0.17875712
233	0x3eefd70b	0.46843752
234	0xbf2d964f	-0.6780748
235	0xbddb1da8	-0.10699016
236	0xbecad0a0	-0.39612293
237	0x3e5d11f1	0.21588875
238	0x3f1df51f	0.6170215
239	0xbdda6401	-0.106636055
240	0x3d20ee52	0.03928978
241	0xbe4acbb4	-0.19804269
242	0x3e03565d	0.12825914
243	0xbe61a27f	-0.22034644
244	0xbe824554	-0.25443518
245	0x3f2ffd9b	0.68746346
246	0x3f462cac	0.77411914
247	0x3c420183	0.011841181
248	0xbf4963ca	-0.7866789
249	0xbf4070eb	-0.751723
250	0x3efe5f3e	0.4968204
251	0x3d3b25ad	0.045690227
252	0x3e86baaa	0.26314288
253	0xbeb6eaa5	-0.35725895
254	0xbf47515d	-0.77858526
255	0xbe1d27e5	-0.1534725

bias f4 [128]
0	0xbb8fad29	-0.004384656
1	0xbd60a82e	-0.05484789
2	0xbd59a054	-0.053131416
3	0xbed008af	-0.40631625
4	0x3e350a7e	0.17679784
5	0xbf9c5f6e	-1.2216623
6	0x3edf01c3	0.43556032
7	0xbfd1ce79	-1.6391135
8	0x3f6b2777	0.91857094
9	0x3cf6324a	0.030053277
10	0xbf2b0298	-0.6680083
11	0xbe375d5a	-0.17906705
12	0xbeb37411	-0.3504949
13	0xbe360b6d	-0.17777796
14	0x3dc55b68	0.09636575
15	0xbe80b7c8	-0.25140214
16	0xbf9d6c95	-1.2298762
17	0x3edeae35	0.43492284
18	0xbe88c6db	-0.26714215
19	0xbe8944d5	-0.26810327
20	0xbf8cb2ec	-1.0992103
21	0xbebf06e5	-0.37309948
22	0x3ec2c95b	0.38044247
23	0xbedc8deb	-0.43077025
24	0xbdded37a	-0.1088018
25	0xbf12810d	-0.57228166
26	0x3cad6f6b	0.021171292
27	0xbfd840f0	-1.6894817
28	0x3e416a9f	0.18888329
29	0xbf0f1d0b	-0.5590369
30	0xbe955b5d	-0.29171267
31	0xbf0c86e7	-0.54893345
32	0x3f2bc23a	0.6709324
33	0x3ecc618b	0.3991817
34	0xbf5d3132	-0.8640319
35	0xbede0ab3	-0.43367538
36	0x3eafd6e1	0.34343627
37	0xbebb2d40	-0.3655796
38	0x3dc1f4b3	0.09470501
39	0xbed48491	-0.4150739
40	0x3cd3e924	0.025868006
41	0xbf3bbb0f	-0.73332304
42	0x3de2da98	0.1107685
43	0xbdaef2b1	-0.085423835
44	0x3e00b3fa	0.12568656
45	0xbf03fcbf	-0.51557535
46	0xbeb22f3e	-0.34801668
47	0x3f03ae81	0.51438147
48	0x3e98533d	0.29751006
49	0x3f5c8918	0.8614669
50	0xbfd548b4	-1.6662812
51	0xbed0d9ce	-0.40791172
52	0x3f2c7cdf	0.6737804
53	0x3e8699b1	0.26289132
54	0x3eb80f4a	0.35949165
55	0x3d8c27e4	0.06843546
56	0xbe4b09a6	-0.198279
57	0x3e835f90	0.25658846
58	0xbd1a4d39	-0.0376713
59	0xbf0bc02f	-0.54590124
60	0xbdced276	-0.10098736
61	0xbe99d56a	-0.30045635
62	0x3eebfb4b	0.4609016
63	0x3ef38a0f	0.47566268
64	0x3f071c3e	0.5277747
65	0x3dd6351c	0.104593486
66	0x3e9b30fc	0.3031081
67	0x3e8a27a1	0.2698336
68	0x3e77c528	0.24196303
69	0xbe2417d5	-0.16024716
70	0xbf93cf85	-1.1547705
71	0x3edf53fb	0.4361876
72	0xbf07e978	-0.5309062
73	0x3d1cfde1	0.038328055
74	0xc00ddad5	-2.2164814
75	0xbebfc369	-0.37453774
76	0xbd9308b2	-0.07179393
77	0xc00e2073	-2.2207305
78	0x3e046129	0.12927689
79	0x3f1df3d6	0.6170019
80	0xbf7f7402	-0.9978639
81	0xbeda764d	-0.4266838
82	0xbf87fe16	-1.0624416
83	0xbf831b56	-1.0242717
84	0xbed23ebc	-0.41063488
85	0x3e9991ec	0.29994142
86	0xbd023e91	-0.03179795
87	0xbe1f88b9	-0.155795
88	0xbfb753f2	-1.4322493
89	0xbd3c1c66	-0.04592552
90	0x3eabd307	0.3355944
91	0x3e91d1e9	0.2848046
92	0x3e0edce7	0.13951455
93	0xbea6d2c6	-0.32582682
94	0x3da6860d	0.08131037
95	0xbfa2f669	-1.2731448
96	0xbea4a701	-0.32158664
97	0xbf7bc187	-0.98342174
98	0xbe2e0680	-0.16994667
99	0xc009eb18	-2.154974
100	0xc004726e	-2.0694842
101	0xbfb7e9bb	-1.4368204
102	0xbe5c55d6	-0.21517119
103	0xbf7a3b96	-0.9774717
104	0xbea25dba	-0.31712133
105	0xbf134089	-0.5752035
106	0xbef85de7	-0.48509142
107	0xc0224359	-2.5353606
108	0xbf597f75	-0.8496011
109	0xbf2ed77f	-0.6829757
110	0xbe97524d	-0.29554978
111	0xbd9f7d71	-0.07787598
112	0xbf4fbb40	-0.81145096
113	0xbf45146d	-0.7698429
114	0xbfcaa536	-1.5831668
115	0xbea67cc4	-0.32517064
116	0xbf1d7599	-0.61507565
117	0xc02c42cc	-2.691577
118	0x3dc1330c	0.094335645
119	0x3e733791	0.23751666
120	0x3e282e45	0.164239
121	0xbe3bb3c5	-0.18330295
122	0x3f248ded	0.6427906
123	0xbea82ff1	-0.32849076
124	0xbcca005f	-0.02465838
125	0xbf4fbf24	-0.8115103
126	0xbf99ae28	-1.2006273
127	0xbf21b508	-0.63166857

weight f4 [256, 399]
0	0x3e9396cd	0.2882599
1	0x3e3258f5	0.17416747
2	0x3e8901bb	0.26759133
3	0x3efe74e8	0.49698567
4	0x3e4feb7d	0.20304675
5	0xbea0eb63	-0.31429586
6	0x3e29328f	0.16523193
7	0x3dce0d61	0.100611456
8	0x3eb91203	0.36146554
9	0x3d832812	0.06404127
10	0x3ddecc7b	0.10878845
11	0xbe171270	-0.14753127
12	0x3dd15d5b	0.10222884
13	0x3e4bee78	0.19915187
14	0x3eb4b116	0.35291356
15	0x3ea319e9	0.31855705
16	0x3dc70b63	0.09718969
17	0x3f2d2b48	0.67644167
18	0x3efa0579	0.488323
19	0x3e4312bb	0.19050114
20	0xbe02df92	-0.12780598
21	0x3ec79286	0.38978976
22	0x3ee859a2	0.45380884
23	0x3db75295	0.08951298
24	0x3e14e10d	0.14538975
25	0x3e314e6c	0.17315072
26	0x3eb63dcf	0.3559403
27	0xbe69bb43	-0.22825341
28	0x3e1e653c	0.15468305
29	0x3e4541b8	0.19263351
30	0x3e86aea4	0.26305115
31	0xbd5a5f10	-0.053313315
32	0x3ef69f08	0.48168206
33	0x3edf0f10	0.4356618
34	0x3e5cc390	0.21558976
35	0x3f051b74	0.51995015
36	0x3df08f69	0.11746103
37	0x3ea6b150	0.32557154
38	0x3d9300b7	0.07177871
39	0x3e5c4432	0.2151039
40	0x3e881c3a	0.26584035
41	0xbcaa9400	-0.020822525
42	0x3e92a21c	0.28639305
43	0x3ea2bbe2	0.31783968
44	0x3e2345fc	0.15944666
45	0xbcdc9491	-0.02692631
46	0x3d99e111	0.07513631
47	0x3e4274b8	0.18989837
48	0x3ec66f6c	0.38756883
49	0x3e991ac2	0.29903227
50	0x3e19c93f	0.15018176
51	0x3dca7b4c	0.09886798
52	0x3eeab673	0.45842323
53	0x3de7e613	0.1132318
54	0x3e973c90	0.29538393
55	0x3ed0f537	0.40812084
56	0xbdf5f972	-0.120104685
57	0x3e168dc9	0.14702524
58	0x3eea6b13	0.45784816
59	0xbd105cff	-0.035244938
60	0x3edfdb0c	0.43721807
61	0x3e194387	0.14967166
62	0x3e025927	0.12729321
63	0x3eef1311	0.46694234
64	0x3e963dde	0.29344076
65	0x3e9c7902	0.30561072
66	0x3e380ff5	0.17974837
67	0x3ef9b766	0.48772734
68	0x3eb8ba10	0.36079454
69	0x3e349145	0.17633541
70	0xbe93ebca	-0.2889083
71	0x3e905be0	0.28195095
72	0x3e5ababd	0.21360298
73	0x3e0b7726	0.1361967
74	0xbe7a2c21	-0.24430896
75	0x3e61de6e	0.22057506
76	0x3e84f931	0.25971368
77	0xbd951ffe	-0.07281493
78	0x3eb9a2bd	0.36256972
79	0x3e96d17f	0.29456708
80	0xbc10dc94	-0.008841652
81	0x3e08bfde	0.13354442
82	0x3eb0d34f	0.34536216
83	0x3e9b17f5	0.30291715
84	0x3da6d45d	0.08145974
85	0x3e2e0f64	0.16998059
86	0x3e6d07d1	0.23147513
87	0x3ebcadd5	0.36851373
88	0x3e7846b9	0.24245729
89	0x3e5fdc42	0.21861365
90	0x3dd12ada	0.102132514
91	0x3e9b34b3	0.30313644
92	0x3e58fd95	0.21190484
93	0x3ef7f327	0.48427698
94	0x3e63580c	0.22201556
95	0x3d1d29e9	0.038370047
96	0x3e18f445	0.14936931
97	0x3e7968ca	0.2435638
98	0x3e6ff49a	0.23433152
99	0xbdcc3c87	-0.09972482
100	0x3e3bfcf1	0.18358208
101	0x3e772226	0.2413412
102	0x3df1a5d8	0.1179921
103	0x3e02ebda	0.12785283
104	0x3ebf80d4	0.37402976
105	0x3e4f1d38	0.2022599
106	0x3e0e8a56	0.13919958
107	0xbdf0222d	-0.117252685
108	0x3d5870de	0.052842014
109	0x3e95d330	0.29262686
110	0x3e5fcaf1	0.2185476
111	0x3e9c585d	0.30536166
112	0x3d524fa0	0.051345468
113	0x3d071129	0.03297535
114	0x3e4c4eae	0.19951889
115	0x3eebe3a7	0.46072122
116	0x3ea8b32c	0.32949197
117	0xbcbf76b6	-0.023372035
118	0x3e129308	0.143139
119	0x3e59a0f5	0.21252806
120	0x3e810078	0.2519567
121	0x3eb23f54	0.3481394
122	0xbd2af6a6	-0.04173913
123	0x3e69cf23	0.22832923
124	0x3e823330	0.25429678
125	0x3d9276db	0.07151576
126	0xbd16f400	-0.03685379
127	0x3eaa3d4f	0.332499
128	0xbe47ea0f	-0.1952288
129	0x3dff6e7e	0.124722466
130	0xbcb0e3e6	-0.021593045
131	0xbde8625b	-0.11346885
132	0x3b3111cd	0.0027018667
133	0x3d36cf64	0.044631377
134	0x3e99fa07	0.30073568
135	0xbd9422f0	-0.07233226
136	0xbd613bb7	-0.05498859
137	0x3e418154	0.18896991
138	0x3e2902fe	0.16505048
139	0x3eb3226b	0.34987196
140	0xbd1f5830	-0.03890246
141	0x3e9da2a4	0.30788147
142	0x3ed3bcfa	0.41355115
143	0xbdebc028	-0.1151126
144	0x3e641984	0.22275358
145	0x3dce6f86	0.10079865
146	0x3e92294c	0.28547132
147	0x3d870593	0.0659286
148	0x3b7d2dfc	0.0038632145
149	0xbe2f7d84	-0.17137724
150	0x3df312a2	0.11868788
151	0xbd6a6b52	-0.057231255
152	0xbd225f04	-0.039641395
153	0x3e5580e7	0.20849954
154	0x3e40ed35	0.18840487
155	0x3e80a819	0.25128248
156	0x3e4bed40	0.19914722
157	0x3e0d7ff1	0.13818337
158	0xbd6f707f	-0.058456894
159	0x3dd4b445	0.10385946
160	0x3cc7f552	0.02440897
161	0x3e9c27a8	0.30499005
162	0xbe3c7944	-0.18405634
163	0x3d2e5252	0.042558976
164	0x3e6406ac	0.2226817
165	0x3eb8e617	0.36113045
166	0xbbbffa60	-0.0058587044
167	0x3ebff791	0.37493566
168	0x3e2f7276	0.17133507
169	0x3e2e914c	0.17047614
170	0x3e154cd6	0.14580092
171	0x3e4332f9	0.19062413
172	0xbd66eb4a	-0.056376733
173	0x3e25f845	0.16207989
174	0xba547430	-0.00081044715
175	0x3de4e410	0.11176312
176	0x3e123abf	0.14280222
177	0x3e32fec8	0.17480004
178	0x3da7126a	0.08157809
179	0x3e1b4db1	0.15166356
180	0x3f05f29f	0.52323335
181	0x3e24daeb	0.16099136
182	0x3e74a089	0.23889364
183	0xbb27cf85	-0.002560587
184	0x3b8b1f13	0.0042456477
185	0x3d2d874b	0.042365354
186	0x3e6dca79	0.23221768
187	0x3e2bd757	0.16781364
188	0x3df4c3a4	0.11951378
189	0x3e9e935b	0.30971798
190	0x3e51e3ea	0.20497099
191	0x3e6ed00c	0.23321551
192	0x3e8bac0a	0.27279693
193	0x3e18ff34	0.14941102
194	0x3e9f63b5	0.31130758
195	0x3e085f7b	0.13317673
196	0xbd8d8b88	-0.06911379
197	0x3e36d34c	0.17854041
198	0x3e82e652	0.25566345
199	0x3db7337e	0.08945368
200	0x3e02546c	0.12727517
201	0xbd55ea83	-0.0522256
202	0xbc49f9d4	-0.01232763
203	0x3be22e62	0.006902502
204	0x3e71fa6d	0.23630686
205	0x3b2c2d9d	0.0026272305
206	0x3e640c2f	0.22270273
207	0x3e9af649	0.30266026
208	0x3e7c46db	0.24636404
209	0x3e40ca24	0.1882711
210	0x3d66d334	0.056353763
211	0x3e4aba43	0.19797616
212	0x3e90bdd6	0.28269833
213	0xbdf5e950	-0.120073915
214	0x3e1cdc9d	0.15318532
215	0xbd337693	-0.043814253
216	0xbe8bf86a	-0.27337962
217	0x3dff6c25	0.12471799
218	0x3d11c214	0.035585478
219	0x3e6b585e	0.22982928
220	0x3acab02d	0.0015463881
221	0xbce45eee	-0.027877297
222	0x3e123302	0.1427727
223	0x3e6892bf	0.22712229
224	0x3d1d561d	0.038412202
225	0x3e03c918	0.1286968
226	0xbe68e1d9	-0.22742404
227	0x3ec98e7d	0.39366522
228	0x3cb91cbd	0.022596711
229	0x3da5b8a8	0.08091861
230	0xbd92f317	-0.07175272
231	0x3eafb0b9	0.34314516
232	0x3d80db71	0.06291855
233	0xbd81d7aa	-0.06339963
234	0xbe412295	-0.18860848
235	0x3ec4a7cc	0.3840927
236	0x3d5074f7	0.050892796
237	0xbda9fd19	-0.08300228
238	0x3dcd1bdc	0.100150794
239	0x3dcaa3e8	0.09894544
240	0xbdc808c4	-0.09767297
241	0xbd9a509d	-0.07534907
242	0x3d19e063	0.037567507
243	0x3d89fd0f	0.0673772
244	0x3e9b08a1	0.3028002
245	0x3e0ae6e2	0.13564637
246	0x3db28534	0.08716813
247	0x3cbb191a	0.022839118
248	0x3e46213b	0.19348614
249	0x3d9bb2a0	0.076024294
250	0xbe5112c2	-0.20417312
251	0x3d84b154	0.06479135
252	0x3dd45bab	0.10369047
253	0x3e121047	0.14264022
254	0x3e2fbd56	0.1716207
255	0x3eb488ad	0.35260525

bias f4 [256]
0	0x3fa2ce3f	1.2719191
1	0x3e2974a2	0.16548398
2	0x3e4e20b3	0.20129661
3	0xbd870108	-0.065919936
4	0x3db5c367	0.08875161
5	0xbd70ab36	-0.05875703
6	0x3e658776	0.22414955
7	0x3c881cf8	0.016615376
8	0x3e3b8ba1	0.18314983
9	0x3decd325	0.1156371
10	0x3e2e55ef	0.17024969
11	0x3d7e6c2f	0.06211489
12	0x3c876862	0.016529266
13	0xbc100bb3	-0.008791852
14	0xbf60b19a	-0.87771
15	0x3a0bca01	0.000533253
16	0x3e41e55b	0.18935148
17	0xbf3a5ebc	-0.72800803
18	0x3fb36120	1.4014015
19	0xbb6bd25f	-0.0035983545
20	0x3ec434f1	0.3832164
21	0xbd1e4f88	-0.038650066
22	0x3f251e8d	0.6449974
23	0x3ebe8f15	0.37218538
24	0x3ec0bf9f	0.37646195
25	0x3f005b15	0.5013898
26	0x3f31e1c5	0.6948512
27	0xbe5531ba	-0.2081975
28	0xbe3e28d1	-0.18570258
29	0xbd1d5d18	-0.03841886
30	0x3fb49c11	1.4110128
31	0xbdb3a64c	-0.08771953
32	0xbcc8f79b	-0.02453213
33	0xbd4c616f	-0.049897607
34	0x3f9934ff	1.1969298
35	0x3f80a687	1.005082
36	0x3e5521c2	0.20813659
37	0x3d86ea6c	0.06587681
38	0x3f35e153	0.7104694
39	0xbe7afbaf	-0.24510072
40	0x3e83cd42	0.25742537
41	0xbd061710	-0.032736838
42	0x3dfc8d7f	0.12331676
43	0x3bba889b	0.005692554
44	0x3dbfabc0	0.093589306
45	0xbdc3a307	-0.095525794
46	0x3d57b08d	0.052658606
47	0xbe917a37	-0.28413555
48	0x3ed3a14e	0.41334003
49	0xbf0a7220	-0.5408039
50	0x3d58ae63	0.052900683
51	0xbbf887e7	-0.00758456
52	0x3dc550ec	0.09634575
53	0x3e17ce95	0.14824899
54	0xbd4b0e35	-0.049574096
55	0x3f207760	0.6268215
56	0x3ed6df06	0.41967028
57	0x3ee21cf6	0.4416272
58	0x3d77cd15	0.060498316
59	0xbed81958	-0.42206836
60	0x3f4f5541	0.8098946
61	0xbc9e8f0b	-0.019355318
62	0xbde4dec5	-0.111753024
63	0x3b25d622	0.0025304635
64	0x3f42d483	0.7610552
65	0x3e9ccfff	0.30627438
66	0x3f5a3399	0.8523498
67	0xbaa49d3c	-0.0012559067
68	0x3e6c4cb2	0.23076132
69	0x3d8753bb	0.06607767
70	0x3c0d0c19	0.008608841
71	0x3c84f009	0.016227739
72	0x3d0a62d1	0.033785645
73	0x3ddf9d85	0.10918716
74	0x3af11243	0.0018392283
75	0x3e9d2a33	0.30696258
76	0x3d8807a0	0.06642079
77	0x3b68eff0	0.0035543405
78	0xbc5a9b7e	-0.013342736
79	0x3e0246cc	0.1272232
80	0x3e85d469	0.2613862
81	0xbd19e2b5	-0.03756972
82	0xbcabe852	-0.020984802
83	0x3e031d8b	0.12804238
84	0x3d850f03	0.06497004
85	0xbd198789	-0.037482772
86	0x3e49c6c7	0.19704734
87	0x3eb412d8	0.35170627
88	0x3e1a32d3	0.1505845
89	0x3f01712a	0.505633
90	0xbea07701	-0.31340793
91	0xbe01483e	-0.12625214
92	0x3c307c9f	0.0107718995
93	0xbf228685	-0.6348651
94	0xbd2f956b	-0.042867105
95	0x3c54886d	0.01297198
96	0xbd5f99ba	-0.054589964
97	0x3c98ede9	0.018668132
98	0xbd0bbbad	-0.03411453
99	0x3cc8103c	0.024421804
100	0x3f02db70	0.51116085
101	0x3f1df510	0.6170206
102	0xbb99cc2d	-0.004693529
103	0x3edc8f91	0.43078282
104	0xbd6ffea3	-0.05859245
105	0x3d8f052d	0.06983409
106	0x3c3c29c0	0.011484563
107	0xbca53ec9	-0.02017154
108	0xbd60f574	-0.054921582
109	0x3f2f6907	0.68519634
110	0x3df7a704	0.120924026
111	0x3e71255f	0.23549412
112	0x3f641061	0.8908749
113	0x3f03523c	0.51297355
114	0xbcd26d4e	-0.025686886
115	0xbba91f3e	-0.005161195
116	0x3e2b5894	0.16733009
117	0x3f05e2ea	0.5229937
118	0x3d00296d	0.031289507
119	0xbeb2c90c	-0.34919012
120	0x3e2ea0db	0.17053549
121	0x3ee4ae8b	0.44664416
122	0xbb164152	-0.0022927118
123	0x3ead3e84	0.33836758
124	0x3dadf30d	0.08493624
125	0xbc54f0a1	-0.0129968235
126	0x3da69b56	0.08135097
127	0xbf57aa20	-0.84243965
128	0xbb367557	-0.0027840936
129	0x3e8f3f88	0.27978158
130	0x3eb14029	0.34619263
131	0x3e298eaf	0.16558336
132	0x3d452d6c	0.04813902
133	0x3d20f3a3	0.03929485
134	0xbb8d5f47	-0.0043143365
135	0xbebe942f	-0.3722243
136	0x3eef959e	0.46793836
137	0xbd797af5	-0.060908277
138	0xbd983a10	-0.074329495
139	0x3d425980	0.047448635
140	0x3e6b3737	0.22970282
141	0x3faa2f02	1.3295596
142	0x3e303296	0.17206797
143	0x3c9eeecc	0.019400977
144	0x3e8b9f40	0.27269936
145	0xbd75ea37	-0.060037818
146	0xbef508ce	-0.4785828
147	0xbd2f7f8c	-0.042846248
148	0x3de69b0e	0.11260043
149	0x3f626f4f	0.88451093
150	0xbd3d4492	-0.046207972
151	0x3bb2e25e	0.005459114
152	0x3f7168bf	0.94300455
153	0xbd5afb18	-0.053462118
154	0xbca70737	-0.020389182
155	0x3deaa1e8	0.114566624
156	0x3e25f650	0.16207242
157	0xbd7c0072	-0.061523862
158	0x3ddc803d	0.10766647
159	0xbcdfb0d2	-0.027305994
160	0xbda2ac5e	-0.07943033
161	0x3f0202c1	0.5078545
162	0x3bf26c3e	0.0073981574
163	0xbca79c1b	-0.02046018
164	0xbc8ee50a	-0.017443199
165	0x3e3ba44d	0.18324395
166	0x3ec22c67	0.379245
167	0x3facdc87	1.35048
168	0xbcacd59b	-0.021097949
169	0x3f01ee14	0.50753903
170	0xbd483220	-0.048875928
171	0x3d1dee3a	0.03855727
172	0x3f3d8395	0.74028903
173	0x3f15bb09	0.5848852
174	0x3e8e2752	0.27764374
175	0x3dc217f0	0.09477222
176	0xbc032ecc	-0.008006763
177	0x3ca3d4bc	0.0199989
178	0x3e20019e	0.15625617
179	0x3eca8d0c	0.39560735
180	0x3c5ca4d7	0.013467035
181	0xbe3c01bf	-0.18360041
182	0x3d06e188	0.032929927
183	0x3dcfcde2	0.10146691
184	0xbcc83a38	-0.024441823
185	0xbd4d0fa2	-0.050063737
186	0xbf4edb13	-0.8080303
187	0x3eba426e	0.36378807
188	0x3df923ca	0.12165029
189	0x3f8316ab	1.0241293
190	0xbf1563ab	-0.58355206
191	0x3ea76c05	0.326996
192	0x3f18e148	0.5971875
193	0x3cda6614	0.026660003
194	0x3bbcf8c9	0.005766962
195	0xbe93ae7e	-0.28844064
196	0x3c4b5c5a	0.012412155
197	0x3e3c4b7e	0.18388173
198	0x3d99e869	0.07515032
199	0x3daead50	0.085291505
200	0x3f508dbc	0.8146627
201	0x3e74f624	0.2392202
202	0x3c851113	0.016243493
203	0x3ded9fdc	0.116027564
204	0x3d0290f2	0.031876512
205	0xbf2b0d72	-0.6681739
206	0x3d207ce5	0.03918161
207	0x3cbb0a6f	0.022832124
208	0x3e635400	0.22200012
209	0x3e51716e	0.20453426
210	0x3d6ba254	0.057527855
211	0x3e420c8a	0.18950096
212	0xbe9983c3	-0.2998334
213	0xbd24784f	-0.040153798
214	0x3fa8335b	1.3140672
215	0x3e9d4059	0.30713156
216	0x3d0808e7	0.033211615
217	0xbd1e6d1b	-0.03867827
218	0x3ec1c52e	0.3784575
219	0x3bc43829	0.00598814
220	0x3dc66538	0.09687275
221	0x3dcbb7af	0.09947144
222	0x3f07ffba	0.5312458
223	0x3e346a39	0.17618646
224	0xbd12df27	-0.035857346
225	0x3f1a31bf	0.60232157
226	0x3f1db93c	0.6161077
227	0xbe839e31	-0.25706628
228	0x3efd566b	0.49479994
229	0x3daa8f89	0.083281584
230	0x3fae4d5e	1.361736
231	0x3e1fa85a	0.15591565
232	0xbe60c976	-0.21951851
233	0x3f805962	1.0027277
234	0x3be2d9e4	0.0069229472
235	0x3e97756d	0.29581776
236	0x3f51ab8d	0.8190239
237	0x3d87d5f2	0.06632604
238	0xbe7d9d19	-0.24766959
239	0x3faaf4ec	1.3355994
240	0xbdb0ade8	-0.0862692
241	0x3f90ae43	1.130318
242	0xbf4f0581	-0.80867773
243	0xbf6119d3	-0.8793003
244	0x3d898c86	0.06716256
245	0x3e48dc92	0.19615391
246	0xbd198cac	-0.03748767
247	0xbcbaa9dd	-0.022786075
248	0xbce6c3b6	-0.028169494
249	0x3ce647d8	0.02811043
250	0x3e69e035	0.22839434
251	0xbd53ee95	-0.0517412
252	0xbe9f6f22	-0.31139475
253	0x3db3c277	0.087773256
254	0x3f4d2d6d	0.8014744
255	0x3d9d4c65	0.07680587

weight f4 [128, 256]
0	0xbd7f41e6	-0.062318705
1	0x3c724f98	0.014789484
2	0xbd3962ad	-0.04526012
3	0x3d53918e	0.051652484
4	0x3c45e1d8	0.012077771
5	0x3bdb3780	0.0066899657
6	0xbd8e543a	-0.06949659
7	0x3cb81795	0.022472182
8	0xbd31830a	-0.04333786
9	0x3ce7df32	0.02830467
10	0x3d0b653d	0.034032095
11	0x3c456f60	0.01205048
12	0xbd234d58	-0.039868683
13	0x3c334774	0.010942329
14	0xbd8cc87e	-0.06874178
15	0x3d308a50	0.043100655
16	0xbcf57fec	-0.029968224
17	0x3d331f3e	0.043730967
18	0xbd0d1d71	-0.034451906
19	0xbd726cf8	-0.059185952
20	0x3d05844d	0.032596875
21	0xbd01f5ca	-0.031728543
22	0x3d23bb56	0.03997358
23	0x3d3f745a	0.04674182
24	0x3d34391b	0.043999773
25	0xbcf54913	-0.029942071
26	0x3bb58d01	0.0055404906
27	0x3ce2c0ea	0.02767988
28	0xbd094830	-0.03351611
29	0x3cb64738	0.022250757
30	0xbd6e5454	-0.05818589
31	0xbd013b68	-0.031550795
32	0x3c9ead31	0.019369693
33	0x3c1b1cc0	0.009467304
34	0x3d3a7697	0.045523252
35	0xbd297081	-0.041367058
36	0xbd89140e	-0.06693278
37	0x3cea1695	0.028575221
38	0x3ac3773c	0.0014912854
39	0xbd34a206	-0.04409983
40	0xbd6d5cee	-0.057949953
41	0xbd7ec85e	-0.062202804
42	0x3be07280	0.006849587
43	0xbd892fc4	-0.06698564
44	0xbd07b50a	-0.033131637
45	0xbd404558	-0.04694113
46	0xbd82bf34	-0.06384125
47	0x3d4e1ef2	0.05032248
48	0xbccf5778	-0.025310263
49	0xbb53ee92	-0.0032338244
50	0xbc63d42f	-0.013905569
51	0xbd8631f7	-0.06552499
52	0x3cbd6be4	0.023122735
53	0x3d6804a0	0.056645036
54	0x3cbf8435	0.02337847
55	0xbd2f0d16	-0.04273709
56	0x3ba102c4	0.0049136598
57	0xbd28ed5f	-0.041242
58	0xbc9bee94	-0.019034661
59	0x3cc74510	0.024324924
60	0xbc1f48d7	-0.009721956
61	0xbd0edcb4	-0.034878448
62	0xbd61d4a6	-0.055134438
63	0x3d1fbcc4	0.03899838
64	0xbc8d0c4d	-0.01721778
65	0xbd171070	-0.03688091
66	0xbd5dfdb2	-0.05419702
67	0x3d1ef144	0.038804308
68	0xbd1f21f5	-0.038850743
69	0x3d7ad9e4	0.061242953
70	0xbd184200	-0.037172318
71	0xbce2e406	-0.02769662
72	0xbb4cefa0	-0.0031270757
73	0xbcd4c090	-0.025970727
74	0x3d3b8bde	0.045787685
75	0xbd4774d0	-0.048695385
76	0x3d5077a6	0.050895356
77	0x3ba89954	0.0051452313
78	0xbb408040	-0.0029373318
79	0x3ca5c49e	0.020235356
80	0xbcb5d86c	-0.022197925
81	0x3c044505	0.008073096
82	0xbd776180	-0.060395718
83	0xbd5a0441	-0.053226713
84	0x3d0839d1	0.033258263
85	0xbd2c75dc	-0.042104587
86	0xbd3b30af	-0.045700725
87	0xbd4e8bca	-0.050426282
88	0xbbd270a2	-0.0064221183
89	0xbca39178	-0.019966826
90	0xbcb12f58	-0.02162902
91	0x3cddfea4	0.027098961
92	0x3d7e3b84	0.062068477
93	0xbc18c500	-0.009324312
94	0x3d15f5ac	0.036611244
95	0xbce71afe	-0.028211113
96	0xbbf14a10	-0.0073635653
97	0x39d32430	0.00040272018
98	0x3c5ed980	0.013601661
99	0x3b5e383b	0.0033908028
100	0x3d123559	0.035695408
101	0x3d1a3797	0.03765067
102	0xbca7a37e	-0.020463701
103	0xbd7e4ab9	-0.06208298
104	0xbd46dc7c	-0.048550114
105	0x3b3dcbf7	0.0028960684
106	0xbd52da7e	-0.0514779
107	0xbd6075df	-0.05479991
108	0xbd5891ea	-0.05287353
109	0xbce20dab	-0.027594408
110	0x3d16f356	0.036853157
111	0xbced43b8	-0.028962955
112	0xbd2a7ce4	-0.04162301
113	0xbbe3d1fa	-0.0069525214
114	0xbafe0140	-0.0019379035
115	0x3c16207a	0.009163016
116	0xbd671b94	-0.056422785
117	0x3cff4553	0.031160986
118	0x3b34953d	0.0027554773
119	0xbc2ae448	-0.010430403
120	0xbd6de882	-0.058083065
121	0xbc01a7cc	-0.007913541
122	0xbd3b6126	-0.045746945
123	0xbc94c67a	-0.018161047
124	0x3cd5549c	0.026041321
125	0x3d245d7a	0.04012821
126	0xbc883ceb	-0.01663061
127	0xbd635f98	-0.055511087
128	0xbc9d8884	-0.019230135
129	0x3cf5981f	0.029979764
130	0xbd1bedd2	-0.0380686
131	0xbcae3298	-0.02126436
132	0xba1bd1d2	-0.00059440464
133	0xbd5ef5d4	-0.05443366
134	0x3cfda1a8	0.030960873
135	0xbc5bdac8	-0.013418861
136	0xbcbe98a4	-0.023266144
137	0x3ca4abd3	0.020101463
138	0xbd29d382	-0.041461475
139	0xbc0b54a1	-0.008504064
140	0xbbfa4f70	-0.007638864
141	0xbd32623a	-0.043550707
142	0x3d485527	0.048909333
143	0x3ce37d68	0.02776976
144	0xbcc8990b	-0.02448704
145	0xbcbd9324	-0.023141451
146	0x3cf12005	0.029434213
147	0xbc89ae00	-0.016806602
148	0x3d123338	0.035693377
149	0xbd06ee1c	-0.032941923
150	0xbd24809c	-0.040161714
151	0x3d4699b6	0.048486434
152	0xbc11b9fa	-0.008894438
153	0x3ccab84c	0.024746083
154	0xbd0d5b3a	-0.03451083
155	0xbd5c160c	-0.053731963
156	0x3d3c6be8	0.046001345
157	0x3c8058dd	0.015667373
158	0xbd14fb02	-0.036372192
159	0xbc8da952	-0.017292652
160	0x3b686a00	0.0035463572
161	0x3c1ce29d	0.009575513
162	0xbcbef968	-0.023312286
163	0xbd23dcc6	-0.040005468
164	0x3bade033	0.0053062676
165	0xbd37eabe	-0.044901602
166	0xba1a65f7	-0.0005889828
167	0x3c61721c	0.013760116
168	0xbd60fda4	-0.05492939
169	0x3cb37441	0.02190602
170	0xbd81d922	-0.06340243
171	0xbc3602ef	-0.011109098
172	0xbbab5450	-0.0052285567
173	0x3c9f6463	0.019457048
174	0xbc04e8cb	-0.008112143
175	0x3d09756f	0.03355926
176	0xbc8d3a64	-0.017239757
177	0xbc4389a9	-0.011934676
178	0xbc0c2eca	-0.008556077
179	0x3d1a270b	0.03763489
180	0x3ccce4fd	0.025011534
181	0xbd42ddea	-0.047574915
182	0xbd487c8a	-0.048946895
183	0x3d353647	0.044241216
184	0xbc954e44	-0.018225797
185	0x3d1b99c4	0.03798844
186	0x3cc65e94	0.02421502
187	0xbca48584	-0.020083196
188	0x3c594f44	0.013263527
189	0xbd76c818	-0.060249418
190	0xbc6f2758	-0.014596783
191	0xbc9f9026	-0.019477915
192	0xbd58db75	-0.052943666
193	0xbcea20a9	-0.028580027
194	0xbd210f7a	-0.0393214
195	0xbcfe0254	-0.03100697
196	0x3c4191c6	0.01181454
197	0x3ca5715f	0.020195661
198	0x3ccf64bc	0.025316589
199	0xbce67954	-0.028134026
200	0xbb6a8860	-0.0035786852
201	0x3b803951	0.0039130826
202	0x3d17c020	0.03704846
203	0x3ad09234	0.0015912713
204	0xbd1ef794	-0.038810328
205	0x3d5ba2ee	0.05362218
206	0x3c5e39dc	0.013563599
207	0xbc7fdfa6	-0.015617287
208	0xbcda1c02	-0.026624683
209	0xbd789932	-0.060692973
210	0xbd7393d3	-0.059467148
211	0x3c98b9a8	0.018643215
212	0xbd300026	-0.04296889
213	0x3c0acea8	0.008472122
214	0x3d40176e	0.046897344
215	0xbd1bfa40	-0.038080454
216	0xb760698f	-1.3376018e-05
217	0x3cb06784	0.021533735
218	0x3d2806ca	0.0410221
219	0x3cfe1e54	0.031020321
220	0xbd79489b	-0.060860258
221	0xbd8506d0	-0.0649544
222	0xbc8c515f	-0.017128645
223	0x3d285f66	0.041106604
224	0xbd8532b6	-0.06503813
225	0xbd5b061d	-0.053472627
226	0xbd780f68	-0.060561568
227	0xbd0886e7	-0.033331778
228	0xbd9247d6	-0.07142608
229	0xbcd41664	-0.025889583
230	0xbd9198cc	-0.07109222
231	0x3ca3b21d	0.019982392
232	0x3c665000	0.014057159
233	0x3c99773b	0.018733611
234	0xbc55eac7	-0.013056464
235	0x3d2344ce	0.03986054
236	0x3b9f7a4b	0.0048668734
237	0xbd224798	-0.03961906
238	0xbd623fa0	-0.05523646
239	0x3a8aa331	0.0010577199
240	0x3d36e8d6	0.044655643
241	0xbc994d2d	-0.018713558
242	0x3796a000	1.79559e-05
243	0xbd342966	-0.043984793
244	0xbd5134a3	-0.05107559
245	0x3cd5f049	0.026115553
246	0xbd23f344	-0.040026918
247	0x3cb1a5f7	0.021685584
248	0xbc0f8e70	-0.008761987
249	0xbcafc5f0	-0.021456689
250	0xbc9f2195	-0.019425193
251	0xbd48a4e6	-0.048985384
252	0x3d3aef2b	0.045638245
253	0x3c1f1088	0.009708531
254	0x3c918498	0.017763421
255	0xbb78815a	-0.0037918896

bias f4 [128]
0	0xbd6b5961	-0.057458285
1	0xbc21cffb	-0.009876247
2	0xbc99b42d	-0.018762672
3	0xbb1dd4a7	-0.002408305
4	0x3e12317c	0.1427669
5	0xbd1b3997	-0.03789672
6	0xbd879b28	-0.066213906
7	0xbd574c1b	-0.052562814
8	0x3eeb5b43	0.45968065
9	0x3e15f4d1	0.14644171
10	0x3e82f683	0.255787
11	0x3ac7c110	0.0015240032
12	0x3e0b93d1	0.13630606
13	0xbd144c64	-0.036205664
14	0xbd01a121	-0.031647805
15	0x3f560039	0.8359409
16	0xbbb5035e	-0.005524083
17	0x3e1563f7	0.14588915
18	0x3e6950d5	0.22784741
19	0xbc8b8ade	-0.01703399
20	0x3e369357	0.17829643
21	0xbb824aa0	-0.003976181
22	0xbd2b3ecc	-0.041807935
23	0xbd993746	-0.07481246
24	0x3dfa9505	0.122354545
25	0x3ea53fd4	0.3227526
26	0x3e830487	0.25589392
27	0x3cf4b5fb	0.029871931
28	0xbd0560f2	-0.032563157
29	0x3d400242	0.046877153
30	0x3eb08849	0.34478977
31	0x3e524fbb	0.20538227
32	0x3f213051	0.6296435
33	0xbcbeedba	-0.023306716
34	0x3a8da809	0.0010807525
35	0x3f395ff1	0.7241202
36	0x3db05e58	0.08611745
37	0x3dec3f74	0.1153554
38	0xbc550638	-0.013001971
39	0xbcc72525	-0.024309704
40	0x3d20bf78	0.0392451
41	0x3e3eb3c6	0.18623266
42	0xbbcee29b	-0.0063136346
43	0xbd24c79a	-0.040229417
44	0xba89f3f6	-0.0010524977
45	0x3e32ddc4	0.1746741
46	0xbc5edd8a	-0.013602624
47	0x3f568d50	0.83809376
48	0xbc7d046c	-0.015442949
49	0x3c050e1c	0.00812104
50	0xbd432600	-0.04764366
51	0x3bf8372c	0.0075749364
52	0x3e88eacf	0.26741645
53	0x3de804ac	0.11329016
54	0x3ec6044e	0.3867516
55	0x3dc4f016	0.09616105
56	0xbd883a77	-0.06651776
57	0xbd030d0f	-0.031994876
58	0x3c3f28f8	0.011667483
59	0x3bb2615e	0.005443736
60	0x3d3e9916	0.046532713
61	0x3d81316c	0.063082546
62	0x3c44d078	0.012012593
63	0x3f637892	0.8885585
64	0x3fdfd7e0	1.7487755
65	0xbd469cc7	-0.04848936
66	0xbdb61687	-0.088910155
67	0xbcecd1ba	-0.0289086
68	0xbc331ea7	-0.010932601
69	0x3964621b	0.00021780322
70	0x3e635d38	0.22203529
71	0x3eea42a4	0.45753968
72	0x3ea3de42	0.32005507
73	0x3e076a22	0.1322408
74	0x3e9e4352	0.30910736
75	0x3efa1adb	0.48848614
76	0xbd80974e	-0.06278859
77	0x3c0a3d95	0.008437534
78	0x3e7bb940	0.24582386
79	0x3d123229	0.035692368
80	0xbdad8ec3	-0.08474495
81	0x3eef3f36	0.46727914
82	0x3e581335	0.21101077
83	0xbc0f7cc0	-0.00875777
84	0xbc07d2a2	-0.008289965
85	0x3c9192e7	0.017770244
86	0xbdc98888	-0.098404944
87	0xbcf0b834	-0.02938471
88	0xbd8b8999	-0.06813354
89	0xbd02e740	-0.03195882
90	0xbd38fcd5	-0.045162994
91	0xbd4de65e	-0.050268523
92	0xbd9d0564	-0.07667044
93	0xbb32e838	-0.0027299058
94	0x3fda962e	1.7077081
95	0xbd019eca	-0.031645574
96	0x3cd87e16	0.02642731
97	0x3e0767c9	0.13223185
98	0xbc72015c	-0.014770832
99	0xbd6cc8a0	-0.05780852
100	0xbd94e3c8	-0.07270008
101	0x3e7f9028	0.24957335
102	0xbdd509df	-0.104022734
103	0x3f2e494f	0.6808061
104	0xbc4bb7fb	-0.012434001
105	0x3f15b6a1	0.58481795
106	0xbd37624e	-0.044771485
107	0x3b9b9354	0.0047477875
108	0x3eb8024f	0.3593926
109	0x3e409a21	0.18808796
110	0x3e81a20a	0.25318938
111	0xbd968e74	-0.073513895
112	0x3dbd4aeb	0.09242805
113	0xbba4fd52	-0.005035081
114	0x3e83dad9	0.25752905
115	0x3eca1b9a	0.39474183
116	0xbdcb014a	-0.09912355
117	0x3e7a9a35	0.24472888
118	0xbdbe5745	-0.09293989
119	0x3e63af6c	0.22234887
120	0x3d0c4459	0.03424487
121	0x3b160e1e	0.0022896598
122	0x3fa0e779	1.257064
123	0x3fa5e2f9	1.2959892
124	0x3fd70aaf	1.6800135
125	0xbc51c12c	-0.012802403
126	0x3f871c43	1.05555
127	0x3d7c92a6	0.061663292

weight f4 [1, 128]
0	0x3c340384	0.010987166
1	0xbb9fa32f	-0.004871748
2	0x3c861ff9	0.016372668
3	0xbcbf9bb0	-0.023389667
4	0x3ca0b6d1	0.019618424
5	0xbb76f5a9	-0.0037683046
6	0x3d989cf0	0.074518085
7	0xbbeec058	-0.0072861128
8	0x3cf07969	0.029354768
9	0x3ce5e268	0.02806206
10	0x3d401ab4	0.046900466
11	0x3d3c8771	0.046027604
12	0xbb984f83	-0.0046481504
13	0xbcba23a5	-0.022722075
14	0xbda8d63d	-0.08243988
15	0xbc131c5c	-0.008978929
16	0x3bcc1ab3	0.0062287687
17	0xbcf8b12f	-0.030357925
18	0x3cfd8d1a	0.030951072
19	0x3cd818e1	0.02637905
20	0x3cc9b808	0.024623886
21	0x3d50f555	0.051015217
22	0x3d7962a8	0.0608851
23	0x3c86f4c9	0.016474145
24	0x3c4dea2e	0.01256804
25	0xbcc1acea	-0.023642022
26	0x3cbe1055	0.023201147
27	0x3cde6f0b	0.027152559
28	0x3d844d53	0.06460061
29	0x3cfb744b	0.030695101
30	0xbc4155d6	-0.01180025
31	0xbc2f634f	-0.010704829
32	0xbcea2be6	-0.028585386
33	0x3c14f9b2	0.009092735
34	0x3d1f3fc2	0.038879164
35	0xbacb35de	-0.0015503725
36	0xbc43a73b	-0.011941726
37	0x3c60e43d	0.013726291
38	0x3c0d14b4	0.008610893
39	0x3cd6007f	0.026123283
40	0x3da4e182	0.08050825
41	0x3ca0699a	0.019581605
42	0x3d641eff	0.055693623
43	0x3d2c22b1	0.04202527
44	0x3c8cf055	0.017204443
45	0x3c1599a3	0.009130868
46	0x3a9e0989	0.0012057285
47	0x3cd44b07	0.025914682
48	0xbbaf49ab	-0.005349358
49	0x3caf1af3	0.021375155
50	0xbd1e83c1	-0.03869987
51	0x3d2939a0	0.04131472
52	0xbcd49e0f	-0.025954274
53	0x3cba5fb5	0.022750715
54	0x3c986ab2	0.018605564
55	0xbc392171	-0.011299477
56	0x3ca99df1	0.020705195
57	0x3d4cf23e	0.050035708
58	0xbcf18d03	-0.029486185
59	0x3cfcd3ce	0.030862715
60	0x3cca85dd	0.024722034
61	0xbcea5ec4	-0.02860964
62	0x3d88aed8	0.06673974
63	0xbc5a9b27	-0.013342655
64	0xbe21aa6c	-0.15787667
65	0xbbfa9c85	-0.007648053
66	0xbb541e12	-0.0032366556
67	0xbb0d1bb9	-0.0021531417
68	0x3d5933f4	0.053028062
69	0xbccd0814	-0.025028266
70	0xbcd040f6	-0.0254216
71	0x3cb6bffc	0.022308342
72	0x3c325e20	0.010886699
73	0xbcf6009f	-0.030029593
74	0x3cda5b8e	0.026654985
75	0x3c283209	0.010265836
76	0x3be1d66f	0.0068920176
77	0xbc2f6328	-0.010704793
78	0xbcfee1d7	-0.031113548
79	0xbcc067e3	-0.023487037
80	0xbc9f3e88	-0.019438997
81	0x3b3452ae	0.0027515101
82	0x3c8958c4	0.01676596
83	0x3d282b5c	0.041056976
84	0xbcb6dc7e	-0.022321936
85	0x3cebf2eb	0.028802356
86	0x3c01fee5	0.007934307
87	0x3c5d6569	0.013512948
88	0xbcc85b68	-0.024457648
89	0x3cf0641f	0.029344616
90	0x3b8d6f27	0.004316229
91	0x3d9465f2	0.07246007
92	0x3d4246f5	0.04743095
93	0x3a146091	0.00056601415
94	0xbdd7416d	-0.10510526
95	0xbca58b4c	-0.020208023
96	0x3c607805	0.01370049
97	0x3ca83c85	0.02053667
98	0xbca0d13d	-0.019631023
99	0x3d9a2e5a	0.07528372
100	0xbbc55763	-0.00602238
101	0xbbb03333	-0.005377197
102	0xba13032c	-0.00056080776
103	0xbce11f8b	-0.027480861
104	0x3d23f288	0.040026218
105	0x3c49161e	0.01227334
106	0xbb59374c	-0.0033144532
107	0x3cd3b227	0.025841786
108	0xbc153aae	-0.009108229
109	0x3a1859a6	0.00058116985
110	0xbcedb2ed	-0.029015983
111	0x3c721a0a	0.014776716
112	0xbcf7c97f	-0.030247448
113	0xbce6e114	-0.028183497
114	0x3cac30be	0.021019336
115	0xbc72fc93	-0.014830726
116	0x3d1dc3e4	0.038516894
117	0x3ce01e2c	0.027358137
118	0x3b0a85b5	0.0021136825
119	0x3c90469d	0.017611796
120	0x3d8b6588	0.06806475
121	0xbd51770a	-0.051138915
122	0x3c177cb8	0.009246044
123	0x3c335734	0.010946084
124	0xbe0829e8	-0.13297236
125	0xba9275ce	-0.0011174025
126	0x3c0875ee	0.008328898
127	0x3cf6e783	0.03013969
