trained/exp_train_3_6_1111_0.0001_0.001_32_0.95/model/ctrl_actor_1.pth (torch, 335871 bytes, 6 tensors)

weight f4 [512, 32]
0	0xbe16d64b	-0.14730184
1	0x3dc7a191	0.09747613
2	0x3db4c7fb	0.08827206
3	0xbe2091be	-0.15680596
4	0xbd3ea52d	-0.046544243
5	0x3e5c4508	0.21510708
6	0x3dc66080	0.09686375
7	0xbe545ba3	-0.20738082
8	0xbdb7bf04	-0.0897198
9	0xbd9b5380	-0.07584286
10	0xbe137749	-0.14400972
11	0x3dc67d05	0.09691814
12	0xbd5da284	-0.054110065
13	0x3e6cb369	0.23115315
14	0xbca2ded3	-0.019881641
15	0xbda9f046	-0.08297782
16	0xbe58bb79	-0.21165265
17	0x3dbc517b	0.09195229
18	0xbdac4f2a	-0.08413537
19	0xbde669e3	-0.11250665
20	0xbcd2b086	-0.025718939
21	0xbc57ed89	-0.013179191
22	0xbd137697	-0.036001768
23	0x3e1bc252	0.15210846
24	0xbd020c72	-0.03175015
25	0x3d410ff0	0.04713434
26	0xbdccca81	-0.09999562
27	0xbdeae082	-0.11468603
28	0x3dba0089	0.09082133
29	0xbe5739c2	-0.21018127
30	0xbcc5bd94	-0.02413825
31	0x3db12e17	0.08651369
32	0x3db7bebf	0.08971929
33	0xbd932fab	-0.07186826
34	0x3e516c3c	0.20451444
35	0x3e13cb35	0.14432986
36	0xbdfeb3e0	-0.12436652
37	0xbe4c1e13	-0.19933347
38	0x3d58de82	0.052946575
39	0x3da94bde	0.08266424
40	0xbc918a1a	-0.017766047
41	0x3dea6a06	0.114460036
42	0xbd89bd45	-0.067255534
43	0xbceb51bc	-0.028725497
44	0x3a0af6d1	0.0005301061
45	0x3cea02cc	0.028565787
46	0xbd292178	-0.041291684
47	0xbd3ded7e	-0.04636907
48	0x3e5eed8d	0.21770306
49	0x3e7e8002	0.24853519
50	0xbdc2d980	-0.09514141
51	0x3bf470ac	0.0074597206
52	0x3dbab3ca	0.09116323
53	0x3dfc97fd	0.12333677
54	0xbc197d4e	-0.009368254
55	0xbe1d3698	-0.15352857
56	0xbe17d460	-0.14827108
57	0x3dd2439e	0.10266803
58	0x3d886fa9	0.066619225
59	0xbe4d5703	-0.20052724
60	0x3e387393	0.18012838
61	0x3d6762db	0.05649076
62	0xbe7f4132	-0.24927214
63	0xbda923a2	-0.082587495
64	0xbdb1b913	-0.08677878
65	0x3ca360a3	0.01994354
66	0x3de16b5c	0.11006805
67	0x3e6a1fa6	0.22863635
68	0xbe34c24d	-0.17652245
69	0x3e4bdc5f	0.19908284
70	0xbd6b4b2c	-0.057444736
71	0xbd547390	-0.05186802
72	0x3e519c53	0.20469789
73	0x3d6027d8	0.054725498
74	0xbdac4f1a	-0.08413525
75	0x3bc40ed5	0.0059832134
76	0xbda671d3	-0.08127179
77	0xbe0e92fb	-0.13923256
78	0xbd17e05e	-0.037079208
79	0x3e0264c8	0.12733757
80	0xbe9c4cdd	-0.30527392
81	0x3e581ab1	0.21103932
82	0x3d4d990a	0.050194778
83	0x3c847e44	0.01617349
84	0xbdffeef9	-0.12496752
85	0x3d50c231	0.050966445
86	0x3e9be04f	0.3044457
87	0xbd44a7c7	-0.048011567
88	0x3e11c5de	0.14235637
89	0x3e303a92	0.17209843
90	0x3e2ca0bc	0.1685819
91	0x3da221e2	0.07916619
92	0xbe77a437	-0.24183737
93	0xbe2a66f7	-0.1664084
94	0x3e51b4cc	0.20479125
95	0xbd8b7ec1	-0.06811286
96	0x3d8d4294	0.068974644
97	0xbbab830a	-0.005234127
98	0xbd5bceca	-0.053664006
99	0x3d888375	0.066656984
100	0xbb346ce1	-0.0027530717
101	0x3ce8510c	0.028358959
102	0xbd93bc35	-0.07213632
103	0x3cf63f53	0.030059492
104	0x3d098dbc	0.033582434
105	0xbe30f1cb	-0.17279737
106	0xbe18ff9d	-0.14941259
107	0x3d2e8503	0.04260732
108	0x3d8eeacc	0.06978378
109	0x3d810216	0.06299226
110	0xbdc56a5f	-0.09639429
111	0x3d663569	0.05620328
112	0xbddd5af3	-0.10808363
113	0x3e1eeee2	0.15520814
114	0xbe54bef0	-0.20775962
115	0x3d094449	0.033512387
116	0x3dc74409	0.097297736
117	0x3e607bf9	0.21922292
118	0xbea81f4c	-0.32836378
119	0xbbc7e67a	-0.006100473
120	0x3c80b6de	0.015712198
121	0xbe294de0	-0.16533613
122	0xbe0628b5	-0.13101466
123	0xbd0a4ee6	-0.03376665
124	0x3e08c134	0.13354951
125	0xbe5d6321	-0.21619846
126	0x3de5b80e	0.11216746
127	0x3dc81075	0.09768764
128	0xbe25bbab	-0.16184871
129	0xbdf518c5	-0.11967615
130	0x3dba19b0	0.09086931
131	0x3e27832d	0.16358633
132	0x3e48e975	0.19620307
133	0xbcc9e096	-0.024643224
134	0x3e3ca40b	0.18421952
135	0xbb9770db	-0.0046216077
136	0x3e3e0cb9	0.18559541
137	0x3e5326cf	0.20620273
138	0x3dee0718	0.11622447
139	0xbe7aa6ae	-0.24477646
140	0x3d9d7acb	0.076894365
141	0xbd4194c7	-0.047261026
142	0x3c976241	0.018479468
143	0x3cb41f23	0.021987503
144	0x3ddbc88f	0.10731613
145	0xbd84de9d	-0.064877726
146	0xbde9c9de	-0.11415456
147	0xbe134eca	-0.14385524
148	0xbe87c3e9	-0.26516655
149	0x3e459d12	0.19298199
150	0xbe004385	-0.12525757
151	0x3e6d47b6	0.23171887
152	0xbe5cbeb5	-0.21557124
153	0xbe379136	-0.17926487
154	0xbe0f665a	-0.14003888
155	0xbe0f5731	-0.13998105
156	0xbdc7717c	-0.09738442
157	0xbe188c33	-0.14897232
158	0x3de69f67	0.11260872
159	0x3e47c478	0.1950854
160	0x3dc7e1ab	0.097598396
161	0xbd459b78	-0.04824397
162	0x3d45b5cc	0.048269078
163	0xbd2e8f1d	-0.042616952
164	0x3e4a3dc0	0.19750118
165	0xbe66272d	-0.22475882
166	0xbcc07f4f	-0.023498205
167	0xbe18b8dc	-0.14914268
168	0xbe75e4c9	-0.24013056
169	0x3cf340e1	0.029694023
170	0xbdfc8be6	-0.12331371
171	0x3e1b99de	0.15195414
172	0xbdb1d427	-0.08683043
173	0x3e02bd6f	0.12767576
174	0xbc3fc59f	-0.011704831
175	0x3d9498f8	0.07255739
176	0x3e049e2c	0.12950963
177	0xbdc052e8	-0.09390813
178	0xbe864e92	-0.2623182
179	0xbe532d29	-0.20622696
180	0xbdc71291	-0.09720338
181	0x3de156f1	0.11002911
182	0xbd51c23a	-0.05121062
183	0x3d52ff12	0.051512785
184	0x3d08bdff	0.03338432
185	0xbd31744a	-0.043323793
186	0x3dabdebc	0.083920926
187	0x3da47c4e	0.08031522
188	0xbd17cddd	-0.03706156
189	0xbe0ee3a1	-0.13954021
190	0xbe40fbde	-0.1884608
191	0x3d589985	0.052880783
192	0x3e6875e4	0.22701222
193	0x3d34b81f	0.044120904
194	0x3db3d7ea	0.08781417
195	0x3e43a54c	0.19106025
196	0xbe3aa83f	-0.18228243
197	0x3e0a2cc2	0.13493636
198	0x3d1ad7f2	0.037803598
199	0x3e2223ec	0.15834016
200	0x3d64f064	0.055893317
201	0xbd95b65c	-0.07310173
202	0x3e090de6	0.13384208
203	0x3d10290e	0.035195403
204	0x3d46dacb	0.0485485
205	0xbd68f197	-0.056871023
206	0xbdf2af54	-0.118498474
207	0xbdb35cc2	-0.087579265
208	0xbb7888f4	-0.0037923427
209	0x3db76751	0.08955253
210	0xbe821032	-0.2540298
211	0x3d90e120	0.07074189
212	0x3ea5be1d	0.32371607
213	0xbd5a3ccc	-0.053280637
214	0xbe59cdc3	-0.21269898
215	0xbd3ba909	-0.0458155
216	0xbe78de63	-0.24303584
217	0x3d52178c	0.051291987
218	0x3dd1e9df	0.102496855
219	0xbdfd6d9c	-0.12374422
220	0x3e71b214	0.23603088
221	0x3d804be6	0.062644765
222	0x3cc630cf	0.024193196
223	0xbd849f1d	-0.06475661
224	0xbd88bad5	-0.066762604
225	0xbce1cb62	-0.0275628
226	0xbbe5231c	-0.0069927108
227	0xbe0f56b9	-0.13997926
228	0x3e747fec	0.23876923
229	0x3e56ea19	0.20987739
230	0xbe484170	-0.19556212
231	0xbe0a73a7	-0.1352068
232	0x3e8ffba3	0.2812167
233	0xbdefa358	-0.11701077
234	0x3d00f508	0.03148368
235	0xba94d6d9	-0.0011355533
236	0x3e8024de	0.25028127
237	0xbe7a0c04	-0.24418646
238	0x3e446b13	0.1918147
239	0x3ddf0a91	0.10890687
240	0xbe79f962	-0.24411538
241	0x3e6f6408	0.23378003
242	0x3d1c47bb	0.038154345
243	0x3c130bee	0.008975012
244	0xbdb88ec9	-0.09011609
245	0xbe75e724	-0.24013954
246	0xbdb83f3a	-0.089964345
247	0xbe200e25	-0.15630396
248	0x3c10053c	0.0087903105
249	0x3ddadfd3	0.10687222
250	0xbcc4333c	-0.023950212
251	0x3ddaa6b4	0.10676327
252	0x3e0c6d36	0.13713536
253	0x3e1bfc5d	0.15232988
254	0xbd93e82b	-0.07222017
255	0x3e41bfd7	0.18920837

bias f4 [512]
0	0xbde19c9b	-0.11016198
1	0xbdcdce17	-0.10049074
2	0x3db13a79	0.08653731
3	0x3dd7731d	0.10520003
4	0x3e13640f	0.14393638
5	0xbda6d0e6	-0.08145313
6	0xbdc77d4a	-0.09740694
7	0x3e11ac3d	0.1422586
8	0xbe70193b	-0.23447125
9	0xbe388afa	-0.18021765
10	0xbd9e943c	-0.07743117
11	0x3de3b3ca	0.111182764
12	0xbdc7a43c	-0.09748122
13	0xbee89276	-0.4542424
14	0x3dd9849c	0.10620996
15	0x3d4ed464	0.05049552
16	0xbe2a4dd8	-0.16631258
17	0xbe6ced6c	-0.23137444
18	0xbe75c983	-0.24002652
19	0xbe973c96	-0.2953841
20	0x3de7cf2f	0.11318814
21	0x3d486025	0.048919816
22	0xbde22ef1	-0.110441096
23	0x3d5f923c	0.05458282
24	0xbe25ef70	-0.1620462
25	0x3d99a6b6	0.07502501
26	0x3d8044d3	0.06263127
27	0x3cc4999a	0.023999024
28	0xbe22b734	-0.15890199
29	0xbe29d5d9	-0.16585483
30	0xbd5cb1b1	-0.053880397
31	0xbd428163	-0.047486674
32	0xbdce723d	-0.10080383
33	0x3cff5a6d	0.031171048
34	0xbe163229	-0.14667572
35	0x3bd1ee86	0.006406608
36	0x3d2015cb	0.039083283
37	0xbdf1b905	-0.11802868
38	0xbd571b0e	-0.052516036
39	0xbd09a57e	-0.03360509
40	0xbe0c567d	-0.13704868
41	0xbd17f0be	-0.037094824
42	0xbe4a6f74	-0.19769078
43	0xbd4f5df8	-0.050626725
44	0xbe86debf	-0.26341817
45	0xbd5d7f48	-0.054076463
46	0x3df721e9	0.12067015
47	0x3dbeb149	0.09311158
48	0xbdad93a6	-0.08475427
49	0xbe041114	-0.1289714
50	0xb9ade8aa	-0.0003317048
51	0x3cb20891	0.0217326
52	0xbe38c8b4	-0.18045312
53	0x3e2797f8	0.16366565
54	0xbea1235b	-0.31472287
55	0x3d2df034	0.042465404
56	0xbe0bf790	-0.13668656
57	0xbe219e6f	-0.15783094
58	0xbdd117ec	-0.10209641
59	0x3ba6d6ca	0.005091523
60	0x3d28d2c0	0.04121661
61	0xbc5988b0	-0.013277218
62	0xbdc7e5df	-0.09760641
63	0xbd829b00	-0.0637722
64	0x3df2bea3	0.11852767
65	0xbdd14ee3	-0.102201246
66	0xbe659cbd	-0.22423072
67	0x3dd0838a	0.10181339
68	0xbe8f82b3	-0.28029403
69	0x3d7f24d0	0.062290967
70	0x3cc84c3a	0.02445041
71	0xbe29158e	-0.16512129
72	0x3e4f8102	0.20264056
73	0xbe168279	-0.14698209
74	0xbc741865	-0.014898394
75	0x3b79b90c	0.0038104681
76	0x3e9c5a53	0.30537662
77	0xbda48d2e	-0.080347404
78	0xbd12bbb7	-0.03582355
79	0x3d9dd494	0.07706562
80	0xbe070c86	-0.13188371
81	0x3e28d55d	0.16487642
82	0xbe2fdb68	-0.1717354
83	0x3b948270	0.004532151
84	0xbe64109c	-0.22271961
85	0x3d4eed5a	0.050519325
86	0x3db8d646	0.090252444
87	0xbe1b9f05	-0.1519738
88	0xbe54fb00	-0.20798874
89	0xbe136d0c	-0.14397067
90	0xbe9e9a3e	-0.30977052
91	0x3d12a77f	0.035804268
92	0x3de8c18b	0.113650404
93	0xbe42f064	-0.19037014
94	0xbe27709f	-0.16351555
95	0x3e135536	0.14387974
96	0xbca921c4	-0.020645984
97	0xbbd4ab1d	-0.006490125
98	0xbe6cba85	-0.23118027
99	0x3daa4b09	0.08315093
100	0x3b8d33f6	0.0043091727
101	0x3dd00739	0.101576276
102	0xbc33b78b	-0.010969053
103	0xbd019e5b	-0.03164516
104	0xbce1cab0	-0.02756247
105	0x3de023d3	0.10944333
106	0x3d3cc800	0.046089172
107	0x3cbb7254	0.022881664
108	0xbe4ef1ad	-0.2020938
109	0xbe83e1cd	-0.2575821
110	0xbda9b2ce	-0.082860574
111	0x3e3494b3	0.17634849
112	0xbc845e78	-0.016158327
113	0xbe2f966a	-0.17147222
114	0xbcc53876	-0.024074774
115	0xbe27fd6f	-0.16405271
116	0xbe6c19e2	-0.23056749
117	0xbe1b0d23	-0.1514173
118	0xbe84848e	-0.2588238
119	0x3d6f2361	0.05838335
120	0xbda8bfa9	-0.08239681
121	0xbce1d52a	-0.027567465
122	0x3df2d97c	0.11857888
123	0xbc3219a4	-0.010870371
124	0xbe0a2168	-0.13489306
125	0xbd785d12	-0.060635634
126	0x3e667489	0.22505392
127	0xbcfff606	-0.031245243
128	0xbd95f884	-0.07322791
129	0xbeb374de	-0.350501
130	0x3e1a664a	0.15078083
131	0xbe177f63	-0.14794688
132	0xbda20481	-0.07911015
133	0xbd238322	-0.03991998
134	0x3d9a913f	0.07547235
135	0xbd73d31b	-0.059527498
136	0xbe55ea53	-0.20890169
137	0xbe2326bd	-0.15932746
138	0xbdb7e69f	-0.08979534
139	0xbe75f2fb	-0.24018471
140	0x3bf3833d	0.0074314163
141	0x3db068cb	0.08613738
142	0x3dadf580	0.08494091
143	0x3e3aed2e	0.1825454
144	0xbd6a82a2	-0.057253487
145	0x3e513096	0.2042869
146	0xbe0bbd4d	-0.13646431
147	0xbdd03c66	-0.1016777
148	0x3e38b7dc	0.18038887
149	0xbdf1e19d	-0.118106104
150	0xbecf85fc	-0.4053191
151	0xbe59f542	-0.21284965
152	0xbe2ee69d	-0.1708016
153	0xbd81dfa2	-0.06341483
154	0xbe5fa410	-0.21839929
155	0xbda62789	-0.081130095
156	0xbdf0dcf2	-0.11760892
157	0xbe0fd0f6	-0.14044556
158	0xbe10cde1	-0.14141037
159	0x3d861438	0.06546825
160	0x3df2d7a3	0.11857536
161	0x3db23dcf	0.08703195
162	0xbe82660f	-0.2546849
163	0xbdf626d6	-0.12019126
164	0xbd50e86e	-0.051002912
165	0x3cfe3799	0.03103237
166	0x3e006f52	0.12542465
167	0x3daea2e1	0.085271604
168	0x3dd20936	0.10255663
169	0xbd080df8	-0.033216447
170	0xbece8860	-0.4033842
171	0xbd4a6c88	-0.04941991
172	0xbd3ce73b	-0.046118956
173	0x3da0d13e	0.0785241
174	0xbd70b161	-0.05876291
175	0xbe94e7cf	-0.29083106
176	0xbde5b0ff	-0.112154
177	0xbd691c9e	-0.056912057
178	0x3dfb0697	0.12257116
179	0x3e36fc1a	0.17869607
180	0xbe0d14a2	-0.13777402
181	0x3cfedb31	0.031110378
182	0x3cc67b17	0.024228616
183	0x3d96cfb3	0.07363834
184	0xbe151174	-0.14557439
185	0xbcfc1397	-0.03077106
186	0xbe00568f	-0.1253302
187	0x3ded4c78	0.11586851
188	0xbe4df4f1	-0.20112969
189	0xbe1f531f	-0.15559052
190	0xbe570385	-0.20997436
191	0xbe4c4b77	-0.19950663
192	0x3dd1da6f	0.10246741
193	0xbc027df0	-0.007964596
194	0x3e76f5a8	0.24117148
195	0xbe039636	-0.1285027
196	0xbda843a9	-0.0821603
197	0xbde31b96	-0.11089246
198	0x3e330ebe	0.17486092
199	0xbd56dc40	-0.05245614
200	0xbe44d22c	-0.19220799
201	0xbcd07db0	-0.025450557
202	0x3cf72afc	0.030171864
203	0xbe84fe9c	-0.25975502
204	0x3bc48f64	0.005998539
205	0xbd86d0e0	-0.065828085
206	0xbc07d494	-0.008290429
207	0x3df94932	0.12172164
208	0x3e690261	0.22754814
209	0xbd2fb91d	-0.042901147
210	0xbd8ac9f0	-0.06776798
211	0x3dae9efc	0.085264176
212	0xbc8692dd	-0.016427452
213	0xbe86e80e	-0.2634892
214	0x3c9ba8c9	0.019001381
215	0x3d24bdb7	0.04021999
216	0xbe07e26c	-0.13269967
217	0x3bb5f108	0.005552415
218	0x3dc57e18	0.09643191
219	0x3dd9d373	0.10636034
220	0x3c4853d3	0.0122270165
221	0x3d38cf82	0.04511977
222	0xbd886716	-0.06660287
223	0xbe1733b4	-0.14765817
224	0xbdeb4677	-0.114880495
225	0xbde38c6b	-0.11110767
226	0xbd612027	-0.054962303
227	0x3d503105	0.050828
228	0xbe16ec00	-0.14738464
229	0x3ce86cd3	0.028372204
230	0xbde44072	-0.111451045
231	0xbcc93019	-0.024559068
232	0xbdff8413	-0.12476363
233	0xbb78eec6	-0.0037984117
234	0xbd7ff777	-0.06249186
235	0x3dfd1c22	0.123588815
236	0x3d47b163	0.048753154
237	0xbea8055e	-0.32816595
238	0xbe7f376e	-0.24923488
239	0xbe4a934a	-0.19782749
240	0xbe4329b7	-0.19058882
241	0xbceff3aa	-0.029290993
242	0xbde52a2a	-0.11189683
243	0xbd4841ce	-0.04889088
244	0xbe411216	-0.18854555
245	0x3d1bbb79	0.038020585
246	0xbc81af99	-0.015830802
247	0x3dfa7c6a	0.12230761
248	0xbd11b5c5	-0.03557374
249	0xbe0fb0f8	-0.14032352
250	0xbed83d92	-0.42234474
251	0xbe77f778	-0.24215496
252	0x3d86a91b	0.06575223
253	0xbdb1ebdc	-0.08687565
254	0xbe2e0a38	-0.16996086
255	0xbd87ae60	-0.06625056

weight f4 [128, 512]
0	0xbd99c82f	-0.07508885
1	0xbd3d2421	-0.046177033
2	0x3cb600bb	0.022217145
3	0x3c65a718	0.014016889
4	0xbc330c66	-0.010928249
5	0x3dd7115a	0.105013564
6	0x3c45681c	0.012048747
7	0x3c8a6422	0.01689345
8	0x3b6d03f5	0.0036165689
9	0x3e396be0	0.18107557
10	0xbe048148	-0.12939942
11	0x3e32811d	0.17432065
12	0x3c0e9af4	0.008703936
13	0xbcbe583b	-0.023235431
14	0xbb839393	-0.004015395
15	0x3d216906	0.0394068
16	0x3dd38e91	0.10329927
17	0x3d021822	0.031761296
18	0xbde32924	-0.11091831
19	0x3e2ed9c2	0.17075256
20	0x3de29206	0.11063008
21	0x3cb96b66	0.02263422
22	0x3d0d0fdc	0.034438953
23	0xbbf8c00b	-0.0075912527
24	0x3d85e6c1	0.065381534
25	0xbcf26a7d	-0.029591793
26	0xbce96019	-0.028488206
27	0x3ddbc8f9	0.10731692
28	0xbaeade51	-0.0017919039
29	0x3b6d37c9	0.003619658
30	0xbda943fd	-0.08264921
31	0xbc886a47	-0.01665224
32	0x3e267d09	0.16258635
33	0x3d9d9137	0.07693713
34	0xbe129cd3	-0.14317636
35	0x3d26f8d6	0.040764652
36	0x3e2e7f25	0.1704069
37	0xbc20dfce	-0.009818984
38	0x3d724a38	0.05915281
39	0xbe326a1a	-0.17423287
40	0x3e00362b	0.12520663
41	0xbe714594	-0.23561698
42	0xbb91a021	-0.0044441377
43	0xbd801ad4	-0.06255117
44	0xbd0034f5	-0.031300504
45	0xbd72ad24	-0.05924715
46	0x3d8669f6	0.06563179
47	0x3c750ddf	0.01495692
48	0xbe5f12a2	-0.21784452
49	0x3e56c12d	0.20972128
50	0xbdbf8dee	-0.09353243
51	0x3e1de2e1	0.15418579
52	0xbdae6ac0	-0.08516455
53	0xbe1f80b4	-0.1557644
54	0x3cfbef2b	0.030753693
55	0xbd0d85c7	-0.03455141
56	0x3baaad27	0.0052086296
57	0x3df67cda	0.12035532
58	0x3da479d5	0.0803105
59	0x3e519d06	0.20470056
60	0x3dcf3e4f	0.10119306
61	0x3e334204	0.17505652
62	0xbdc7a26a	-0.09747775
63	0x3db7f0a0	0.089814425
64	0x3d490239	0.049074385
65	0x3b331872	0.0027327803
66	0x3c17b1c2	0.009258689
67	0xb8d37cc1	-0.00010084501
68	0x3d9514f6	0.072793886
69	0x3dfaab77	0.122397356
70	0x3d95907e	0.0730295
71	0xbd2ab9d2	-0.04168112
72	0xbe0d75d8	-0.13814485
73	0x3df249fb	0.11830517
74	0xbd731c44	-0.059353128
75	0xbd3b195b	-0.045678478
76	0x3c922042	0.017837647
77	0x3c95f396	0.018304627
78	0xbc9d8d1b	-0.019232323
79	0x3ccff53a	0.025385488
80	0xba372289	-0.0006986042
81	0x3af67aed	0.0018804945
82	0xbdc602ef	-0.09668528
83	0xbeafdf56	-0.3435008
84	0x3dc1fc82	0.0947199
85	0x3e14bc82	0.14525035
86	0x3d2aef85	0.04173233
87	0x3cd7f178	0.026360258
88	0xbe334c99	-0.17509688
89	0x3d5bd48c	0.053669497
90	0xbd338b6d	-0.04383414
91	0xbe23f353	-0.1601079
92	0x3c034482	0.008011939
93	0xbc335052	-0.010944443
94	0x3e07960e	0.13240835
95	0xbe005d4f	-0.12535594
96	0x3db2b0a3	0.08725097
97	0x3e63ce28	0.22246611
98	0xbe30bf13	-0.17260389
99	0x3ce2130f	0.027596978
100	0xbda91343	-0.08255627
101	0x3d32c4fa	0.043644883
102	0x3dcb7894	0.09935108
103	0x3d45bfa5	0.04827847
104	0xbd9bb84f	-0.076035134
105	0xb9c65274	-0.00037826935
106	0xbd05d0dc	-0.032669887
107	0x3e2464dc	0.160541
108	0xbe05a94a	-0.1305286
109	0x3ad1d4c1	0.001600884
110	0xbd9f403d	-0.07775924
111	0x3ca9b6ea	0.020717103
112	0x3d08b980	0.03338003
113	0x3d2bd7b9	0.041953776
114	0x3cee7c57	0.029112024
115	0x3d7912be	0.06080889
116	0x3d11eb8c	0.035625026
117	0x3d80246f	0.06256949
118	0x3d9d17a3	0.07670524
119	0xbe16901e	-0.14703414
120	0xbc11922d	-0.008884949
121	0xbcdae811	-0.026721986
122	0xbce6c00b	-0.028167745
123	0x3b1131bd	0.002215489
124	0x3dd75d11	0.10515798
125	0x3bf0a863	0.007344292
126	0xbe34e2cf	-0.17664646
127	0x3df053cd	0.11734734
128	0x3df80162	0.12109639
129	0xbda91966	-0.082567975
130	0x3d24d814	0.04024513
131	0xbd538153	-0.051637005
132	0x3cf177f1	0.029476138
133	0x3deedd9d	0.11663363
134	0x3bd94895	0.006630967
135	0xbcba3f87	-0.02273537
136	0x3b52895c	0.003212533
137	0xbd3e0103	-0.046387684
138	0xbd9eec46	-0.07759909
139	0xbdbc9e6c	-0.09209904
140	0x3b9d2d5d	0.0047966675
141	0xbcb1c93b	-0.0217024
142	0x3df2f2df	0.1186273
143	0xbcc7fdde	-0.024413045
144	0x3be3b310	0.006948836
145	0x3e295d9b	0.16539614
146	0xbd9b2918	-0.075761974
147	0xbda8d984	-0.08244613
148	0xbd616300	-0.055026054
149	0x3e4298f7	0.19003664
150	0xbe4e88cd	-0.20169373
151	0x3d68f122	0.056870587
152	0x3c62d699	0.013845109
153	0x3cfbd30e	0.030740287
154	0xbd3a4343	-0.045474302
155	0xbe04d034	-0.12970048
156	0xbd975477	-0.07389157
157	0x3e449d50	0.19200635
158	0x3d9c4eb4	0.07632199
159	0x3d2d0a12	0.042245932
160	0x3d45c59a	0.04828415
161	0x3e111161	0.14166786
162	0xbc46d71a	-0.012136245
163	0x3d357dc1	0.04430938
164	0x3d375193	0.04475553
165	0xbd6bc5ac	-0.05756156
166	0x3dbb448d	0.091439344
167	0x3d132046	0.03591945
168	0xbe1eb522	-0.15498784
169	0x3d113a58	0.03545603
170	0x3df587ff	0.1198883
171	0x3e20a082	0.15686229
172	0xbb9ad40a	-0.004724984
173	0xbe4b41fb	-0.19849388
174	0xbc73c579	-0.014878624
175	0x3d818dfe	0.06325911
176	0xbd775a7d	-0.06038903
177	0xbe8ce348	-0.27517152
178	0xbde6cc4e	-0.11269437
179	0x3c388899	0.011263036
180	0xbe525719	-0.20541038
181	0xbe05c648	-0.1306392
182	0x3db69847	0.08915763
183	0xbbcfa0b8	-0.006336298
184	0x3dde4d6b	0.1085461
185	0x3d348265	0.044069666
186	0xbc8b9ae7	-0.017041637
187	0xbd784032	-0.060608096
188	0xbd8c37f6	-0.06846611
189	0x3c9965c5	0.018725285
190	0x39a3cd6e	0.0003124284
191	0xbcd9ef14	-0.02660326
192	0xbe1f8da6	-0.15581378
193	0x3d6d8657	0.057989445
194	0xbc398353	-0.011322814
195	0x3df2ab94	0.11849132
196	0x3d5094a4	0.050923005
197	0x3d8fb66b	0.07017215
198	0x3df91160	0.12161517
199	0x3c86a2f7	0.01643513
200	0xbd2225d4	-0.039586857
201	0xbe32a8f9	-0.1744727
202	0x3d00a92e	0.031411342
203	0xbda2c3d6	-0.07947509
204	0xbe4302ce	-0.19044039
205	0xbbc77c30	-0.0060878024
206	0x3d0ae9af	0.033914264
207	0x3d1b763a	0.037954547
208	0xbd0322ea	-0.03201572
209	0xbdbef951	-0.09324897
210	0x3d7639c8	0.0601137
211	0xbded3bfb	-0.11583706
212	0x3e04b2d1	0.12958838
213	0x3e0fa50c	0.14027804
214	0xbea5de24	-0.32396042
215	0xbc53e81a	-0.012933755
216	0xbcc38af0	-0.023869962
217	0xbdadf818	-0.08494586
218	0x3c897354	0.016778626
219	0xbe091e6c	-0.13390511
220	0x3d91ee34	0.07125512
221	0x3d477b73	0.048701715
222	0x3d348ef4	0.044081643
223	0xbdb28672	-0.0871705
224	0xbbafa421	-0.005360142
225	0xbdc065ed	-0.09394441
226	0x3e0e60ea	0.13904157
227	0x3d0e96f2	0.03481192
228	0x3bbff7ba	0.0058583887
229	0x3d46dda9	0.048551235
230	0x3cebdc67	0.02879162
231	0xbe92992d	-0.2863249
232	0x3e001d11	0.12511088
233	0xbdc2c6ce	-0.09510575
234	0xbd76b6a7	-0.060232785
235	0x3d5a0095	0.05322321
236	0x3b970add	0.0046094493
237	0x3b64b78c	0.0034899442
238	0xbe1aa419	-0.15101661
239	0x3dabbaf8	0.08385271
240	0x3e0678a1	0.13131954
241	0x3d85a18d	0.06524954
242	0x3d9bb708	0.0760327
243	0xbd3beae1	-0.045878295
244	0xbd8ae1f2	-0.06781377
245	0xbdc06717	-0.09394663
246	0x3dd3e879	0.10347075
247	0x3de1faf5	0.110341944
248	0x3cda9b8a	0.026685495
249	0xbdb1fd2a	-0.08690865
250	0x3a912419	0.001107338
251	0xbda6d242	-0.08145572
252	0xbc176c22	-0.009242089
253	0x3d6192d0	0.055071652
254	0xbc6feb33	-0.014643478
255	0xbd39d807	-0.045372035

bias f4 [128]
0	0x3d0ceb3a	0.034404017
1	0x3ce0daaf	0.027448026
2	0xbd5fa48d	-0.054600287
3	0xbb89a18f	-0.0042001675
4	0xbcab0bf1	-0.020879718
5	0xbd372551	-0.044713322
6	0xbd3394ba	-0.04384301
7	0x3d01350c	0.03154473
8	0x3dbe7764	0.09300116
9	0x3ad86d0e	0.0016511993
10	0x3c98b107	0.0186391
11	0x3d234243	0.039858114
12	0x3d00227b	0.031282883
13	0x3c921159	0.017830538
14	0xbc9ba9b9	-0.019001829
15	0x39e80138	0.00044251396
16	0x3c7eb899	0.015546941
17	0x3d94954e	0.0725504
18	0xbc9a7d3e	-0.018858548
19	0x3d14e01f	0.03634655
20	0xbd54a243	-0.051912557
21	0x3840fed2	4.6013687e-05
22	0x3d929b6d	0.07158551
23	0xbc471b57	-0.012152514
24	0xbcb19316	-0.021676581
25	0xbca4bfe4	-0.020111032
26	0x3cf7df2e	0.030257788
27	0xbd00c510	-0.031437933
28	0xbd8429a5	-0.064532556
29	0x3caf45b9	0.021395551
30	0x3d23a4eb	0.0399522
31	0x3dbee24b	0.09320506
32	0x3cb162b0	0.021653503
33	0xbcf2092a	-0.029545385
34	0x3cc6398e	0.024197366
35	0x3dc87f0b	0.097898565
36	0xbce8b590	-0.028406888
37	0xbc7d6b44	-0.015467469
38	0xbd896074	-0.0670785
39	0x3cbbf72c	0.02294501
40	0x3d2a868d	0.041632224
41	0xbd31c822	-0.043403752
42	0x3c81cb1c	0.01584392
43	0x3d014854	0.031563118
44	0xbd2bda58	-0.041956276
45	0xbd0ebd99	-0.034848783
46	0x3d73443c	0.059391245
47	0xbba925b4	-0.0051619653
48	0x3dba8ff4	0.09109488
49	0x3c67def3	0.014152276
50	0xbc97a5c9	-0.01851167
51	0xbc0d20ba	-0.00861376
52	0x3d0ba65a	0.034094192
53	0x3dd7d222	0.105381265
54	0x3d4da1f9	0.050203297
55	0xbc0563e8	-0.008141495
56	0xbce47696	-0.027888577
57	0x3d1c2849	0.038124356
58	0x3cf7c8ba	0.030247081
59	0x3c41e6ac	0.011834782
60	0xbc18a44c	-0.009316515
61	0x3ce6dff0	0.028182954
62	0xbd45c55d	-0.048283923
63	0x3c5980b7	0.013275317
64	0x3da7500f	0.08169567
65	0xbbbaa0ee	-0.005695454
66	0x3cd78f3b	0.026313415
67	0x3bbb04dd	0.005707367
68	0xbc0a77ef	-0.008451446
69	0x3d07611a	0.033051588
70	0xbce23c23	-0.027616566
71	0x3da0a99b	0.0784485
72	0x3dbba7a3	0.091628335
73	0x3db75833	0.089523695
74	0x3d97fc82	0.07421209
75	0x3d6638da	0.05620656
76	0xbad6cd52	-0.0016388095
77	0xbc6f0e4b	-0.01459081
78	0xbd3c1b7c	-0.04592465
79	0x3c0fa6e7	0.00876782
80	0xbda21ca4	-0.07915619
81	0xbc23799e	-0.009977726
82	0x3cef0a3a	0.029179681
83	0xbb2713fe	-0.0025494094
84	0x3d1a147c	0.03761719
85	0xbc499a47	-0.012304849
86	0x3db9a524	0.09064701
87	0x3ca1e307	0.019761575
88	0xbd8f18c4	-0.069871455
89	0x3d789930	0.060692966
90	0xbd9ff0eb	-0.07809623
91	0xbbb77cb8	-0.0055995844
92	0xbcd424c3	-0.025896436
93	0x3d445e44	0.04794146
94	0xbcc1da98	-0.023663804
95	0xbdbcaf53	-0.09213128
96	0x3c66c099	0.014084005
97	0x3d9225c0	0.071361065
98	0xbd23c59f	-0.039983388
99	0xbb731d36	-0.0037096268
100	0x3d858471	0.06519402
101	0xbca50af7	-0.02014683
102	0x3d3e93d6	0.046527706
103	0x3c0e1508	0.008672006
104	0xbd2c7af7	-0.042109456
105	0x3bb6c5d5	0.0055777826
106	0x3c9265fe	0.0178709
107	0x3cee68fa	0.029102791
108	0x3c36ec7a	0.011164779
109	0xbc20567e	-0.009786246
110	0xbcb1b2de	-0.021691736
111	0x3d1ce0b3	0.038300227
112	0x3da633f4	0.08115378
113	0x3d8157c4	0.06315568
114	0x3bcc849b	0.0062413937
115	0x3d33e665	0.043920893
116	0x3c543ef2	0.01295446
117	0x3d5c75b4	0.053823188
118	0xbca328f4	-0.019916989
119	0x3ce574b6	0.028009754
120	0x3bc01d61	0.0058628772
121	0x3c700d74	0.014651645
122	0xbd92df9a	-0.07171555
123	0x3b7924c9	0.003801631
124	0x3db5d068	0.08877641
125	0x3c929086	0.01789118
126	0x3cafb8e7	0.021450473
127	0xbd4a3487	-0.0493665

weight f4 [5, 128]
0	0xbd9229d0	-0.07136881
1	0x3dd5a73b	0.10432287
2	0x3d8a3422	0.06748225
3	0xbed6477b	-0.4185141
4	0xbe88eac0	-0.267416
5	0x3c84d36c	0.016214095
6	0xbe9c00e1	-0.3046942
7	0x3b1dfc9b	0.0024106863
8	0xbdedf76d	-0.11619458
9	0xbd484310	-0.04889208
10	0x3f16456e	0.5869969
11	0x3efe32dc	0.49648178
12	0x3e25a9ce	0.16178057
13	0x3e580db0	0.21098971
14	0xbdce5d4e	-0.1007639
15	0x3e20b83d	0.15695281
16	0x3eb04b49	0.34432438
17	0x3ebff11c	0.3748864
18	0xbecbd220	-0.3980875
19	0x3f05fd7f	0.5233993
20	0xbd54cda9	-0.051953945
21	0x3d81d9ac	0.06340346
22	0x3e1d2840	0.15347385
23	0xbe92a150	-0.28638697
24	0xbe08ecef	-0.13371633
25	0xbf44414b	-0.7666213
26	0x3e9c6a9a	0.3055008
27	0x3dd280d0	0.10278475
28	0xbddfc5ec	-0.109264225
29	0xbdea8fe4	-0.11453226
30	0xbe89f9fe	-0.2694854
31	0x3e54f5e2	0.20796922
32	0xbe9b5acc	-0.3034271
33	0x3e6f3cf0	0.2336309
34	0xbde70d6a	-0.112818554
35	0xbe0ec240	-0.13941288
36	0x3e645c00	0.2230072
37	0xbd813015	-0.06307999
38	0xbd51174f	-0.05104762
39	0x3b3df039	0.0028982295
40	0x3ed49115	0.4151694
41	0xbea1a1bb	-0.31568703
42	0xbd67a0d1	-0.05654985
43	0xbe09bb0c	-0.13450259
44	0xbd6ba33f	-0.05752873
45	0x3c6c9237	0.014439157
46	0x3ebe0bf0	0.37118483
47	0x3e8be92c	0.27326334
48	0xbf1c6d85	-0.61104614
49	0x3e614cca	0.22001949
50	0xbed1cbc2	-0.40975767
51	0x3d18546a	0.03718988
52	0x3e000f17	0.12505756
53	0x3ca3b27c	0.019982569
54	0xbe20ffc5	-0.15722568
55	0x3e518b65	0.20463331
56	0xbeb0322e	-0.34413284
57	0x3eb983df	0.36233422
58	0xbecae816	-0.39630193
59	0xbdb116e9	-0.08646948
60	0x3e9e9d51	0.30979398
61	0xbeb1c596	-0.3472106
62	0x3eec0d50	0.46103907
63	0xbe8e4b96	-0.27792042
64	0x3ed00c41	0.4063435
65	0x3d202d9e	0.039106004
66	0x3d3aa9cf	0.0455721
67	0x3eb74ae3	0.35799322
68	0x3cd58ebe	0.026069041
69	0x3e1b8f5c	0.15191406
70	0xbcb1d4be	-0.021707889
71	0xbe1c0bd9	-0.15238895
72	0x3dc4604b	0.09588679
73	0xbc991700	-0.018687725
74	0xbedef0b9	-0.43543032
75	0xbdec5457	-0.11539524
76	0xbee70a70	-0.4512515
77	0xbe9816a3	-0.2970477
78	0x3ed29ba0	0.41134357
79	0x3d3ac1fd	0.045595158
80	0x3e9f27c3	0.31085023
81	0x3d76bb44	0.060237184
82	0x3de03a64	0.10948637
83	0xbe735987	-0.2376462
84	0x3ce1688a	0.027515668
85	0xbddbb5c3	-0.10728028
86	0x3e72bf58	0.23705804
87	0xbed89a0e	-0.42305034
88	0xbec44188	-0.38331246
89	0x3e1bf8a5	0.15231569
90	0x3e251b01	0.16123582
91	0xbe859dc0	-0.26096916
92	0xbde43e41	-0.111446865
93	0xbd9fd861	-0.07804943
94	0x3d5b4bd1	0.0535391
95	0xbe0c16e1	-0.13680603
96	0x3e4d9d6b	0.20079581
97	0xbe915fa5	-0.28393283
98	0xbea3e600	-0.32011414
99	0x3cb11557	0.021616621
100	0x3b3e335d	0.0029022314
101	0x3e6c58f2	0.23080805
102	0x3ddbe2d5	0.10736624
103	0xbe6f11e8	-0.23346674
104	0x3e9d39c1	0.30708125
105	0xbdbcdaeb	-0.09221443
106	0x3e4c08a9	0.19925179
107	0x3c34b502	0.011029484
108	0x3d349e49	0.044096265
109	0xbd74c8d1	-0.059761826
110	0xbf03f07b	-0.5153882
111	0x3d686053	0.056732487
112	0xbda48220	-0.08032632
113	0x3e92f84d	0.28705063
114	0xbdb1c3c7	-0.0867992
115	0x3e1bd051	0.15216185
116	0x3d2b278d	0.041785765
117	0xbe706344	-0.23475367
118	0x3e5500ce	0.20801088
119	0xbead745a	-0.33877832
120	0xbe5890e5	-0.21149023
121	0x3ed30c66	0.41220397
122	0x3e6c2605	0.23061378
123	0xbe6515c8	-0.2237159
124	0x3eb47f99	0.352536
125	0x3d1adf77	0.03781077
126	0xbe8cf1cc	-0.27528226
127	0x3df48e50	0.119412065
128	0xbd43b03a	-0.047775485
129	0xbe6a5112	-0.22882488
130	0x3e9587b4	0.29205096
131	0x3e77305d	0.24139543
132	0x3d166e24	0.036726132
133	0x3cdb29db	0.026753357
134	0x3f0d704e	0.5524949
135	0x3ecd79aa	0.40131885
136	0xbeec2e1e	-0.46128935
137	0xbec1f695	-0.3788344
138	0xbeb4662f	-0.3523421
139	0x3e53b0e7	0.20672952
140	0xbe81150a	-0.25211364
141	0x3da109d7	0.07863205
142	0x3e1171aa	0.14203516
143	0xbf11a9d4	-0.5689976
144	0xbec1c076	-0.3784215
145	0x3e984963	0.2974349
146	0x3e85e9e4	0.26155007
147	0x3ca11db1	0.019667478
148	0x3c1f71e9	0.009731748
149	0xbe9f8a76	-0.31160325
150	0xbeefc4dc	-0.4682988
151	0x3e005921	0.12534
152	0xbea4225b	-0.3205746
153	0xbdf25f38	-0.11834568
154	0x3e8c030d	0.27346078
155	0xbdd14c98	-0.10219687
156	0xbecd8e47	-0.40147611
157	0x3e83fe5f	0.25780007
158	0x3edab469	0.42715767
159	0x3d842697	0.06452673
160	0x3d08a12c	0.03335683
161	0xbcdcdbf8	-0.026960358
162	0xbe4eaeec	-0.20183915
163	0x3d32554e	0.043538384
164	0xbe8db82f	-0.27679583
165	0xbc819f3c	-0.015823
166	0x3ead84a7	0.33890268
167	0xba33e354	-0.00068621826
168	0x3e5f983a	0.21835414
169	0xbe93cb01	-0.28865817
170	0x3d43a820	0.04776776
171	0xbe80e4dc	-0.25174606
172	0x3e6fb185	0.23407562
173	0x3ea0fc5a	0.3144253
174	0x3daae2bd	0.08344028
175	0x3e1fef4f	0.15618633
176	0xbe0c16ef	-0.13680623
177	0x3dac6927	0.08418494
178	0x3e77bb13	0.24192457
179	0xbd4e92f7	-0.050433125
180	0xbde04303	-0.109502815
181	0xbee99180	-0.4561882
182	0x3e11d2e3	0.14240603
183	0xbe688817	-0.22708164
184	0xbf016ce9	-0.5055681
185	0xbf0c0c52	-0.547063
186	0x3db010c8	0.08596951
187	0x3df149be	0.11781643
188	0x3e0cdc78	0.13755977
189	0xbdefd52c	-0.11710581
190	0xbd8d6d85	-0.06905655
191	0x3ef3206d	0.47485676
192	0x3e026657	0.12734352
193	0x3d8c11af	0.068393104
194	0xbda91eff	-0.08257865
195	0x3e7c8802	0.24661258
196	0xbdee5d4c	-0.11638889
197	0xbe98eafc	-0.2986678
198	0xbcda1fd1	-0.0266265
199	0x3dc95efe	0.098325714
200	0x3e1430d2	0.14471748
201	0xbd4e407e	-0.050354473
202	0xbebc4532	-0.36771542
203	0xbe4256b1	-0.18978383
204	0x3ec6c94c	0.38825452
205	0x3eefc3cf	0.46829078
206	0x3e8f8b20	0.2803583
207	0x3e86a649	0.2629874
208	0xbdaa60c8	-0.08319241
209	0x3d5f6add	0.054545272
210	0x3defba69	0.11705477
211	0xbde358fe	-0.11100958
212	0xbdb81c49	-0.0898977
213	0xbd5f00f5	-0.054444272
214	0xbe3641bc	-0.17798513
215	0xbd9b2d61	-0.07577015
216	0x3ca8d9cf	0.020611672
217	0x3e7afcc5	0.24510486
218	0x3e443e50	0.19164395
219	0xbe58fafb	-0.21189491
220	0xbe29d976	-0.16586861
221	0xbcab0a87	-0.020879043
222	0x3d2f1ca3	0.04275192
223	0x3d80950f	0.06278431
224	0xbe977cc2	-0.2958737
225	0x3db419c9	0.08793981
226	0x3da5d796	0.080977604
227	0x3eb0a2ac	0.3449911
228	0x3e45bb15	0.19309647
229	0x3ebd6e7c	0.36998355
230	0xbed7a677	-0.4211919
231	0x3d38a554	0.045079544
232	0x3ebe7fa2	0.3720675
233	0x3f054510	0.52058506
234	0xbebb8073	-0.36621436
235	0xbe48280b	-0.19546525
236	0x3cb66636	0.022265535
237	0x3e806a6a	0.25081187
238	0x3d9f7e36	0.07787745
239	0xbdea2c88	-0.11434275
240	0xbe186a3f	-0.1488428
241	0x3b053174	0.0020323666
242	0xbe1927ea	-0.14956632
243	0xbebd2a0c	-0.36946142
244	0x3e61ae62	0.22039178
245	0xbe871aef	-0.26387736
246	0x3eeafeab	0.4589742
247	0x3c41586c	0.011800867
248	0x3e5381ed	0.20655032
249	0xbf2e3064	-0.6804259
250	0x3e4131ea	0.18866697
251	0x3eec042a	0.46096927
252	0xbdb6ec4f	-0.08931791
253	0xbdf6a434	-0.12043038
254	0xbeff5e26	-0.49876517
255	0x3da63f75	0.08117572

bias f4 [5]
0	0xbd23d4c8	-0.039997846
1	0x3b454a3c	0.0030104062
2	0x3d9de2a4	0.07709244
3	0xbc3b4dbb	-0.011432107
4	0x3ba34740	0.004982859
