trained/exp_train_3_6_1111_0.0001_0.001_32_0.95/model/ctrl_critic_2.pth (torch, 562315 bytes, 7 tensors)

weight f4 [128, 32]
00000000: 7cab 10bc 5c46 a53e 3042 b5bc cde3 943e
00000010: 5458 89be 94c8 2bbf 3b02 31be fd27 e83e
00000020: da6d 98be 7a08 37bf b167 f33e 8783 813e
00000030: 1607 4bbd c024 aabd 9727 26be 7316 f23c
00000040: 9666 cb3e 6ab6 9ebf 1d2d bebe 8a4b c83e
00000050: 98c6 f6be 0ec5 873e f4f7 3b3e 6552 cdbd
00000060: 543b 97bd 9ba4 9fbe 12be b03d 8fa0 c03e
00000070: c562 bd3e 6fe9 54bd e755 7ebd ec73 003d
00000080: f126 c03e f14e b83e bad4 093e d17d ea3d
00000090: 11cf 64be f31b d33d 8794 57be 0c02 20bf
000000a0: f9fd f33e 2db2 453e a1c8 a83d 669d 45bd
000000b0: 6b98 d2be 7358 a6be 8d2e 60be 7486 22be
000000c0: 0084 bd3e 01d8 3a3e 1edc 21bf 2b18 833c
000000d0: fbbf 82bf b62b d03e a30d 2c3e 0df4 29be
000000e0: 5687 bbbe 7554 ba3e 913c 07bd 2fa8 17bd
000000f0: b621 ab3d 94cc 083e e87d c0bd 7d65 27bd
00000100: 35d5 55bd e3df 3dbd 9d43 07bf a976 063e
00000110: 0f8f fbbe 4f77 76be 6ef7 063f 0170 92be
00000120: 5adc 12bf dbd2 803f d548 583f 6c75 823e
00000130: fd4b d83e e035 dcbe 9bcb 6dbe 7701 8c3e
00000140: 3a67 f73e b2d8 ecbe a2be fd3e d77f 5abe
00000150: 250c 50bf 8893 573e 852b 24bf 1b05 24be
00000160: 4401 58bf 32c9 ce3e c032 a23e 20d8 fdbe
00000170: 9603 7abe 4c1c babd 0c2c e73e 7770 e93d
00000180: 0f9e 70bd 1f20 a6bd 9a43 68be faa7 99be
00000190: 9710 0e3f 58fd 09bf 2e46 4abe 4fef 3dbe
000001a0: a764 b73e b928 263f c665 1bbf a006 b4be
000001b0: ffa6 5cbe c975 43bf 6797 b83e 4268 1b3f
000001c0: 9639 2cbf 7d4a 113e f34a a13e 7695 b83e
000001d0: b28a 18bf 783b f9bc da69 553f ef78 a5bd
000001e0: 520c cc3c 909b 38bf f99e 13bf fbda 893e
000001f0: af58 2f3d 5a1c bbbc 85d2 90be 20c2 00be
00000200: f3e0 d33e 1cc3 cc3e 953e 2d3e de5f cc3e
00000210: fbcf 2a3e ed79 793e a902 d3be 5ac0 eb3e
00000220: 3977 bebe 477c ea3d 0655 823e c90b 1abe
00000230: 2b7d 7abf 6fd9 bd3e d4ac 2a3f 8444 35bf
00000240: 8fde 0d3f 0322 12bf 5e2e c5bd 4d42 92be
00000250: ff5f 0dbd ed97 60bc ce28 d23e d3f3 923e
00000260: a809 d1be efdb a83f 50aa 87be f70c 24bf
00000270: 3c3a aa3d 8061 4dbb e993 a8be 3d08 243d
00000280: 3dc6 883e d786 9a3e 90f7 5ebb c8d9 a63e
00000290: e164 5cbe f1c0 f23d 05e3 4abe 7ec1 1ebf
000002a0: d8e5 ab3e 744b 4fbe 35ce 043f 6542 d63e
000002b0: 885c 8b3f 8a52 c6be 8922 a0be 240b 7b3f
000002c0: 351e 1abb c7b7 b93e c952 e93d af67 26be
000002d0: 870f 7c3d cb88 a53e 2703 d1bd bc3e 91be
000002e0: a78b 1c3e 7744 153f 51e7 7dbf 7792 bdbe
000002f0: 92c5 023d d2e3 8bbd 99cc 70be 85e8 1bbe
00000300: 53a9 ba3d 31a5 8cbd 4960 febd 7b14 39bd
00000310: 2fc1 a83e 8d98 93bf 3128 00bf 791b b13e
00000320: 60e4 34be 7347 cf3e 2e3a c13e ca6f 57be
00000330: 3a85 abbc bfc5 99be 059b f23d 6c62 263f
00000340: 28ec d9bd 23bd 70bf 93b2 cb3d cea2 6c3f
00000350: 3c9d 7bbe 48a5 1fbe 9859 0dbe bc29 91be
00000360: 6e4f 533f 1e23 5d3f 94fd 16be 95b6 cebe
00000370: 5b1f 34bd 3791 ab3d b850 a5be f532 84bd
00000380: d219 cabd 5ce3 b1be c295 efbd a20f 933e
00000390: d896 3a3e 2cc9 193e 673c 4b3e 5716 09bd
000003a0: e8e7 8c3e e9ba 193e 700d 7abe 7849 de3e
000003b0: 1021 d63e 91c5 373f 30c4 ccbe 2471 a9bd
000003c0: c56c 90be aad4 313e 9964 a7bd 56e0 123d
000003d0: 970b 63bc da27 f3be f423 813e 1b39 623e
000003e0: 1518 fd3d 8562 663e 8f0d f9bd 9695 913d
000003f0: fe40 803a dd2b cd3b eaf2 013e a674 4abd
-0.008829948 0.32280242 -0.022126287 0.29080048 -0.26825202 -0.6710293 -0.17286007 0.4534301
-0.2977131 -0.7149731 0.47540048 0.2529566 -0.049567305 -0.08307791 -0.1622604 0.02955172
0.39726704 -1.2399418 -0.37143794 0.39120132 -0.4819839 0.26517528 0.18356305 -0.10025481
-0.07384363 -0.31180272 0.08630003 0.37622496 0.36989418 -0.051980432 -0.06209364 0.03136055
0.3752971 0.35997728 0.13460055 0.11449779 -0.22344615 0.10308065 -0.21052752 -0.62503123
0.47654703 0.1930625 0.08241392 -0.04824581 -0.4113191 -0.32489356 -0.21892758 -0.15871602
0.3701477 0.18246461 -0.632265 0.016002735 -1.0214838 0.4065835 0.16802077 -0.16597004
-0.3662669 0.3639256 -0.033016745 -0.037025627 0.08356039 0.1335929 -0.09399015 -0.04086827
-0.052205283 -0.046356093 -0.52837545 0.13131203 -0.49132583 -0.2406895 0.527213 -0.28601077
-0.5736748 1.0064348 0.8448613 0.2548021 0.42245474 -0.43009853 -0.232222 0.27344868
0.48320943 -0.46259075 0.49559504 -0.2133783 -0.8126853 0.21052372 -0.64128906 -0.16017573
-0.8437693 0.40387875 0.31679344 -0.49578953 -0.2441543 -0.090874285 0.45150793 0.11398404
-0.058744486 -0.08111595 -0.22682038 -0.30010968 0.55494064 -0.53902197 -0.19753334 -0.1854832
0.3581898 0.6490589 -0.6070217 -0.35161304 -0.21548079 -0.763516 0.3605301 0.6070596
-0.6727537 0.14188571 0.31502494 0.3605153 -0.5958663 -0.030423865 0.8336464 -0.08079707
0.024908219 -0.7211237 -0.5766445 0.2692488 0.042809185 -0.022840668 -0.28285614 -0.12574053
0.4138256 0.39992607 0.16918404 0.3991689 0.16680901 0.24362917 -0.41212967 0.4604519
-0.37200335 0.11449485 0.25455493 -0.15043558 -0.9784724 0.3707995 0.66669965 -0.7080767
0.5541772 -0.5708315 -0.096279845 -0.28566208 -0.034515377 -0.013708097 0.41046757 0.28701648
-0.4082768 1.3192118 -0.26497126 -0.6408228 0.083118886 -0.0031338632 -0.32925346 0.04004692
0.26713744 0.30181 -0.003402207 0.3258803 -0.21522857 0.11853207 -0.19813164 -0.62013996
0.33573794 -0.20243627 0.51877147 0.4184753 1.0887613 -0.38734847 -0.31276348 0.98063874
-0.002351654 0.36273023 0.11392743 -0.1625049 0.061538246 0.32330927 -0.102056794 -0.28368175
0.15287648 0.58307594 -0.99181086 -0.37025806 0.0319267 -0.06830563 -0.23515548 -0.15225418
0.09114327 -0.06867445 -0.12420709 -0.045185547 0.32959887 -1.153093 -0.5006133 0.34591272
-0.17665243 0.404842 0.377397 -0.21038738 -0.02093755 -0.3003368 0.11845974 0.6499393
-0.10640746 -0.940386 0.0994617 0.9243592 -0.24571699 -0.15590394 -0.13803709 -0.28352153
0.82543075 0.8638171 -0.1474517 -0.40373674 -0.043975215 0.08377307 -0.32288146 -0.06455032
-0.09868206 -0.34743774 -0.11698486 0.28722864 0.18221605 0.15018147 0.1984726 -0.03346857
0.2752068 0.15012707 -0.24419188 0.43415427 0.418221 0.7178584 -0.3999343 -0.08273533
-0.28207985 0.17366281 -0.08173484 0.035858475 -0.013857744 -0.47491342 0.25222743 0.22092097
0.12358109 0.2249852 -0.12160789 0.071086094 0.0009784994 0.0062613324 0.1269032 -0.04942765

bias f4 [128]
00000000: 2e65 aabe d912 babf 9df2 5dbf d7f5 64bf
00000010: d15c f1be 2e98 6dbf 2786 c2be 4d33 d1bd
00000020: 64ba 15be 4de8 bfbf 04a9 1bbf eff8 79bf
00000030: b0ab 04bf 3e85 80bf 05bd 02c0 9f53 91bf
00000040: 08f8 13c0 f43c 71bf bb42 1ebf fcb0 16bf
00000050: 9c64 02c0 5152 49be f58e 313b b08f 73bf
00000060: a385 43bf 26a5 5fbf 6b4d c7bf 7d1a afbd
00000070: 2a9a b7be 93c4 39bd c931 2cbf d8dd 1bbf
00000080: 817a 583e 58b4 f3bd 3e13 b7bf a56a 3fbf
00000090: c1c7 18bf 8f2b af3e ed92 8fbf 4701 58be
000000a0: 92c5 14bf 1dd5 f8be 4124 92bf 2c2a e7bf
000000b0: 4577 dbbe e514 c5bf 2a52 23bd 905d c03e
000000c0: a8c3 b5bf a6e8 b7bf 5646 3e3e 3b62 85be
000000d0: fad9 e4bf b8d9 32bf 9f7e 5f3d 5d8c 33bf
000000e0: f6c8 71bf cfcb 99be 5852 debd b0ba d4bf
000000f0: 6ff2 66bf d83c bebe 83b8 e33d 43d4 77bf
00000100: a628 4bbf 69ac c1bf dcbd 91bf 9e5c d6be
00000110: b3c2 a0bf 0f95 80be e68f 00c0 49c3 a4be
00000120: 697c b8bf 18fe 2cbf cc10 1abf 335b 873e
00000130: fd55 76bf bd84 47bf 2306 79bf 2934 16be
00000140: 5b9f 36bf 788f 77be 6ef1 9d3d 0ff2 49bf
00000150: 02e1 67bf 076a 80bf 318b 4fbe 3ae4 13bf
00000160: 2c56 d0bd 370d 9c3e 508d ea3d d206 c0be
00000170: 0ce1 9fbf 448a 93be 1ed5 11bf 7377 3a3d
00000180: 15f3 07bd 0f67 59bf 45e4 28bf ccc8 a0bf
00000190: 5395 3ebe ce24 6bbf e48d 3ebf d2a4 3abf
000001a0: 0953 04bf 344c ae3d b678 18be f3dd b6bf
000001b0: f1d9 c4be 653a 8ebf c621 7fbe f389 4bbf
000001c0: c093 b0bf aba2 93bf c0bf 12bf 3890 2abf
000001d0: 945e 8ebf 88dc 7abd a3f9 92bd 820b e0be
000001e0: 264b a2bf 0691 813d b85d 81bf 1283 a9bd
000001f0: a626 d1bf 3548 ff3d 0f73 9abf 6587 aebf
-0.3328032 -1.4537002 -0.86698323 -0.8943762 -0.47141126 -0.9281033 -0.37992975 -0.10214863
-0.14621884 -1.4992768 -0.6080477 -0.9764547 -0.51824474 -1.0040662 -2.0427868 -1.1353644
-2.3120136 -0.9423363 -0.6182057 -0.58863807 -2.0373907 -0.19660307 0.0027093266 -0.95141125
-0.7637579 -0.8736137 -1.5570501 -0.08549974 -0.35859805 -0.045353483 -0.67263466 -0.6088538
0.21140482 -0.11899632 -1.4302747 -0.747721 -0.596798 0.3421292 -1.1216713 -0.21094237
-0.5811397 -0.48600093 -1.1417314 -1.8059745 -0.42864433 -1.5397002 -0.03987328 0.37571383
-1.4200335 -1.4367874 0.18581519 -0.26051506 -1.7879021 -0.6986346 0.054564115 -0.7013605
-0.9444727 -0.30038306 -0.108555496 -1.6619473 -0.90213674 -0.37155795 0.11119177 -0.9680826
-0.793589 -1.513074 -1.1386065 -0.41867536 -1.2559417 -0.25113723 -2.0087829 -0.3218024
-1.4412967 -0.67575216 -0.6018188 0.26436767 -0.9622496 -0.7793692 -0.9727499 -0.14668335
-0.7133691 -0.24175823 0.07712065 -0.7888498 -0.9057771 -1.0032357 -0.20267941 -0.5777012
-0.10172686 0.30478832 0.114527345 -0.37505203 -1.2490554 -0.28816426 -0.56965816 0.045524072
-0.033190805 -0.8492288 -0.6597331 -1.2561278 -0.1861165 -0.91853034 -0.7443526 -0.72907746
-0.516892 0.08510628 -0.14889798 -1.4286484 -0.38447526 -1.1111571 -0.24915227 -0.7950737
-1.379509 -1.1534017 -0.5732384 -0.6662631 -1.1122613 -0.06124547 -0.07176521 -0.4375878
-1.2679183 0.06326489 -1.0106726 -0.08276953 -1.633992 0.12464944 -1.2066363 -1.3635069

weight f4 [256, 399]
00000000: 932b 19bd 6696 9bbd 75e0 143e ae87 32bf
00000010: 3741 48be afde c13e 2c60 903e dd7f 81be
00000020: efc0 4bbe 2592 1abe 2a87 9b3e 0b3b 893e
00000030: 5ee4 9ebc 79af f5be 61a8 13bf 756b 9f3e
00000040: cc7d 81bd b05a 3bbf 84ee ebbe ea7c d6bd
00000050: 17bb dd3e aa06 5fbf 567a 7c3d b6b3 1f3e
00000060: e953 a43e 18fa aabe 537f af3b 9a10 aa3e
00000070: 0bee 7fbf 67f6 8abe f9de 51bd e715 173e
00000080: 922d 163e ce0a 10be 2975 773e baaf 26bf
00000090: e2ac 13bf 1901 7bbe c946 4fbf b256 de3e
000000a0: 1257 06bf 1862 93be 5c7c 25bf d101 6bbe
000000b0: f57e b6be ffbe 9abe a532 7d3e 1cc1 293b
000000c0: aaf9 aabd 898d 8c3e 0a62 c3be 743f 06bc
000000d0: 5a79 2f3f c38c 8bbe dd1e 003e 9a04 e53e
000000e0: a807 42be 9399 5bbe 8335 39be bc61 bd3e
000000f0: 1ca4 31bf 4c2e 66bf 3bd4 3d3d de38 6d3e
00000100: 9150 953c 44ca 973e b043 37bf caeb d83d
00000110: c1f8 7a3e 6fe9 d73e 26c8 e13e cc3d 533e
00000120: c4cf 02bf da07 0fbe eb1c 0fbe c2eb db3d
00000130: 3a45 863e 2f0f 803e 2998 cabe 4f5c b63e
00000140: 6c5a ad3e e0fa 6e3f bba7 143f 2d0e 053f
00000150: 0824 803e 650e 56bd 2e9b 94be 64f9 febe
00000160: 0ebe c83e 8e58 d2bd c021 81be 64a2 5b3e
00000170: cc3b e4bd 3e24 37bf cdb6 363d ed7a 553b
00000180: e912 46bf 4025 b3be d080 5abe 1165 aa3e
00000190: ed83 8a3e aa87 013f 5789 8bbe 0e85 35be
000001a0: 762d 46be 954a c53d 5a1f 513e 2b6b 62be
000001b0: ea44 e73e 6383 18bf 702c 733e 8406 dfbe
000001c0: 2b10 2abf c42a d1be 5520 51be b9f5 a5be
000001d0: 93e7 af3d 9835 18bf 96f4 153f 9092 c0bf
000001e0: e237 1e3f d986 183e f992 563e a27c 9f3e
000001f0: f212 f7be 0be2 d5be 3392 0a3f 725a 3c3e
00000200: 056e 523f 79be c23f c039 063f 24ad fabf
00000210: 7ca0 9ebf d215 353f 36a1 643e 8e29 10bd
00000220: 72e0 7cbd 9e8d abbd 0ccd eebd 692c 2e3f
00000230: d478 1abe 5454 84be b6b6 cdbd e49f 173e
00000240: 706a 383e 7bc3 d63e 3af7 31be aaf2 babe
00000250: 0a6c 67bd 6460 533e b225 9ebe 8a00 62bf
00000260: 86ac 9d3d 5488 97be c302 92bf 9b5f 9ebe
00000270: 3fd1 2f3e 5513 153f bc0c b8be a232 c8bd
00000280: 5a2c 7ebc acc1 663f e021 073f fc4d b03d
00000290: a9fa 21be 6d24 ff3e 489f 7c3e 1e4f 0abf
000002a0: 2363 15be 12c2 993e 55ea 81be 20b5 d0bf
000002b0: c8e3 663e 14b1 d4be 8cd6 ffbe e6d3 21bf
000002c0: e146 d93d fc84 5fba 26b1 5bbe 56b4 e23e
000002d0: 5606 053f 7165 d9bd caf4 013f 033d b8be
000002e0: 715e 52be fd55 163f 6087 2d3e 5914 53bf
000002f0: 554d 823e 55c5 9ebd 8063 07bf 7b24 40be
00000300: 753b 4e3c af90 d63e c0b0 b8bd 7363 253d
00000310: 6e3f 333e f663 4e3e ddbb 953d 003f bf3c
00000320: f462 a93e 7f24 81be 789d 523e 2a30 4cbe
00000330: 615f 923d eba9 bdbd 9ad7 6cbe 3d4a 79be
00000340: 5fb8 9cbd 012c ad3e 33af 183f c144 4b3e
00000350: 88d2 833d 38eb f83e ae15 2a3f 1695 c53e
00000360: ed5d 1e3f 7029 c83e 6eca 063f b4d0 88be
00000370: b91e 8dbe b9a2 31bf beb3 073e aab4 dbbe
00000380: 41e3 453f 33a8 26be a8ae 4ebf a4a8 d9be
00000390: e565 513e 1c60 7eb9 0f66 10be d9f6 5abf
000003a0: 0b40 033f 71d1 d53d 47db 9c3c ec98 85be
000003b0: ac24 21bf b3a5 333e 8df5 803e a6c5 cf3e
000003c0: 5a82 e2be f2ca e0be 2fc5 89be 110b 9b3d
000003d0: ca84 97be 5632 83bf f50b dcbe 11be d8be
000003e0: 8dfa 423e 96b5 843e 9379 1ebf 402d 503f
000003f0: 9ae4 b0bf d923 133f d2d9 47bf a209 493d
-0.03739507 -0.075970456 0.14538749 -0.6973828 -0.19556127 0.37865207 0.28198373 -0.25292864
-0.19897817 -0.15094812 0.3037656 0.2680286 -0.019396003 -0.47985438 -0.576788 0.3113667
-0.06322822 -0.73185253 -0.4608041 -0.10473044 0.433068 -0.87119544 0.061640106 0.15595898
0.32095268 -0.3339393 0.0053557544 0.3321579 -0.999726 -0.27141115 -0.051238034 0.14754449
0.14665821 -0.14066622 0.24165787 -0.6511189 -0.57685673 -0.24512137 -0.80967385 0.43425518
-0.5247661 -0.28785777 -0.6464288 -0.22949912 -0.35643736 -0.30223843 0.2472635 0.0025902456
-0.08348401 0.27451733 -0.38160735 -0.008193839 0.6854454 -0.2725583 0.12511773 0.44730073
-0.18948233 -0.21445303 -0.1808682 0.36988628 -0.69391036 -0.89914393 0.046344977 0.23166224
0.018226894 0.29646504 -0.7158766 0.10591848 0.24508955 0.42170283 0.44098014 0.20629042
-0.51098275 -0.13967839 -0.13975875 0.107383266 0.2622469 0.25011584 -0.39569214 0.356173
0.3385805 0.93351555 0.58068436 0.51974756 0.2502749 -0.05225982 -0.29024643 -0.49799645
0.392075 -0.10270797 -0.25221062 0.21448666 -0.11144218 -0.71539676 0.044607926 0.003257449
-0.77372605 -0.34989357 -0.213382 0.33280233 0.27053776 0.5059763 -0.2725322 -0.17726538
-0.1935328 0.09633366 0.20422116 -0.22111194 0.45169765 -0.5957548 0.2374742 -0.4355966
-0.6643092 -0.4085294 -0.2042249 -0.32414034 0.08589091 -0.5945678 0.58576334 -1.5044727
0.6180402 0.1489519 0.20954503 0.31149775 -0.48256642 -0.4177402 0.5412933 0.18393877
0.82199126 1.5214378 0.5243187 -1.9584088 -1.2392726 0.7073642 0.22327122 -0.03519588
-0.061737485 -0.08376621 -0.11660203 0.68036515 -0.15085155 -0.25845587 -0.10044615 0.14807087
0.18009353 0.41946015 -0.17379466 -0.36513263 -0.05649952 0.20642239 -0.30888134 -0.8828207
0.07698922 -0.29596198 -1.1407093 -0.30932316 0.17169665 0.58232623 -0.35947216 -0.097752824
-0.015513504 0.9013927 0.52786064 0.08608624 -0.15818276 0.49832478 0.24670136 -0.54026973
-0.14588599 0.30030876 -0.25374094 -1.6305275 0.22547829 -0.4154135 -0.49968374 -0.63213956
0.10609222 -0.0008526591 -0.21454296 0.4427821 0.5196279 -0.106150515 0.50764143 -0.35984048
-0.20543839 0.5872496 0.16946173 -0.82452923 0.25449625 -0.07752482 -0.528862 -0.18763916
0.012587418 0.4190726 -0.090180874 0.040378045 0.17504665 0.2015532 0.07311223 0.02334547
0.33083308 -0.25223157 0.20567882 -0.19940248 0.07147098 -0.09260925 -0.2312912 -0.24344726
-0.076523535 0.33822635 0.5964233 0.19850446 0.0643664 0.48616958 0.6643933 0.38590306
0.6186207 0.39094114 0.52652633 -0.26721728 -0.27562502 -0.6938892 0.1325216 -0.42911273
0.77299887 -0.162751 -0.80735254 -0.42511475 0.20449026 -0.00024259131 -0.14101432 -0.8553291
0.51269597 0.104403384 0.019147528 -0.26093233 -0.6294658 0.17543678 0.2518734 0.4058048
-0.44240075 -0.43904835 -0.26908252 0.0757047 -0.29593498 -1.0249736 -0.42977872 -0.4233251
0.1904089 0.2591979 -0.6190426 0.81319046 -1.3819764 0.57476574 -0.7806674 0.049081452

bias f4 [256]
00000000: ff67 a1be 0efc 693d 5394 a6bc a77e 0abd
00000010: 4438 1e3e 64c4 5e3d bd90 3d3b a927 8ebe
00000020: a56c 0cbf 1ee7 0cbd 69a1 d63d 7eba 183f
00000030: 60f1 be3d cd66 ac3c f537 7bbb d4e0 a63d
00000040: ebc2 aa3f 36f5 c93d 879c e53e 2eca cebc
00000050: 3f28 a43d 82ba 1dbc f650 883f d9b9 133e
00000060: 2136 073e effc ad3c afdb 7f3e 9649 153e
00000070: 003d d03e 0394 943e 8508 43bf e421 b33e
00000080: cd1d c63c 664f 583e c987 8f3e 7578 ad3d
00000090: f06a 83bd 7407 3c3f 0d70 8e3e 557d bc3d
000000a0: d310 a1bc ef20 bbbe ff6f 713c a98d 86bc
000000b0: 41b2 173d 84fd 6cbd 306c 173f 89e9 cc3f
000000c0: 2bb2 0f3e 9dca 863d 9ed2 5bbf 73dc 173d
000000d0: 6b15 af3e 8694 723f 6efc 0bbc ec9c 7f3f
000000e0: 052b b33d c6e4 5b3e 2250 c6bb 3691 52bf
000000f0: b525 af3c f7a1 95bc b7d9 bbbe d9fe 05bd
00000100: 8248 6abd 5fd5 0fbd df44 2f3e 3f2b be3c
00000110: bd0f f9be 4b6d 97bd e7ef 4f3f 183e 8fbd
00000120: 30cb c53d 2ca8 6e3e 239e 01bd 4dff 3e3d
00000130: 9138 2d3e 5708 e6bc b0cf c13c 8787 1bbf
00000140: a43d 1fbd a7d2 053e 0211 623e 8feb 263f
00000150: 5e36 023e 07bc db3d 7e2a 2fbf d7d9 9c3c
00000160: 2a7e 30bc b909 473d d0d7 bd3e 7350 22bd
00000170: 7ccf 683e 9dbf a53d 43ba 203e e60d 71bd
00000180: 8ff1 153b 71b6 143e 9116 98bb e986 0abf
00000190: d617 003d 22b4 cabe eee3 0c3c e6af 1a3f
000001a0: beea aebc ee5a e3bb e886 e13f f56b 4b3e
000001b0: ac8c d43c 2134 f23d e67a 633e d5c1 49bf
000001c0: c5ac 6bbc 5b16 5fbd abce 0dbd 9b4c 423f
000001d0: dc9a f0be ceda 2a3d cdea 673e da22 ae3f
000001e0: e81c 3ebc d6a4 aa3d 54ac 843d 0d1d f93e
000001f0: 8d60 4e3c 2df7 3c3f 6679 a43e 5066 963d
00000200: 819b 9d3b 5cef dcbc 914c 033f 345e 203f
00000210: d4f1 2d3f 9ac4 fcbd 6bde 263e 4dc9 0d3e
00000220: ce10 1a3e b442 193d e5cc ab3e 0586 c43f
00000230: 4ef6 1d3e eb9d bebe ba8c acbe 4cb1 4dbc
00000240: 6f24 0d3e 3405 d8bc 74c9 0aba b209 e43f
00000250: 643e 3b3e 5612 e1bc 3bfc 913c 5b1c 913e
00000260: 235c 233e 87a6 9a3d 6cd7 41be c081 a33e
00000270: 1d54 23bd 2ac8 803f 07b1 093e a39b 8d3f
00000280: f7ae 303e ae3b ce3e 752b 063e 5237 75bc
00000290: 6e86 5c3e 238a cc3f 23a1 493e dab2 73bd
000002a0: ef74 d93c d805 2e3e e1f3 9a3d 7457 993b
000002b0: 31b9 143c d2e3 463e a391 303c f6de 37bd
000002c0: 6989 cfbc 17ad c93c f41f b5bc a72f 933e
000002d0: 7a34 dc3e d954 1b3e c9fc c33f 04df bfbd
000002e0: ec6d 733e 603b f93e 85c4 943f 4a38 23bd
000002f0: 2a14 43bc d25d 4b3e 73cd 0a3f 9ed9 583f
00000300: 876f 51bc 611d 953e acc0 7d3e 11b5 34bf
00000310: 8b9d 823d e5ab 5ebf 6a01 72bc 477f a73d
00000320: 35ee 1cbe 3b4c 743e caf5 d4bc 34a6 c13f
00000330: beac 143e 9671 0a3f 1f8c 513f e131 753f
00000340: a4c5 ea3d 1cda 0f3e 0d1f 863e 7c79 f0bc
00000350: 71d7 80bc 0fb0 d63c e5af e0be 5486 513f
00000360: 77a7 a3bf 902a a03d 9e26 12bf df9c b93d
00000370: 6209 393d 0326 a9bd 6bc9 663e e90e 79bd
00000380: 73f0 81bd d5a3 0e3e 1a7d 92be 06e1 c1bd
00000390: 26d1 963d 60a6 abbd 8b92 923d a783 73bd
000003a0: 891f 8bbd a3f5 cabc 8738 0bbd ec66 3c3f
000003b0: 513f ca3c ef98 ad3f 3a33 163e a445 133e
000003c0: 01a5 013d d4dd b93e 6e9f b93b 3cdf 5dbc
000003d0: a9d4 3dbf 4c44 253e 30b7 caba 2a33 5bbd
000003e0: 3fb4 4f3d b842 5cbd d1e0 6d3d 3ea4 433f
000003f0: 96e1 963d be85 173d 3dcf f63d 7296 553c
-0.31524655 0.057125144 -0.020334398 -0.03381219 0.15451151 0.05438651 0.0028925382 -0.27764633
-0.5485328 -0.034400098 0.10480005 0.59659564 0.093233824 0.021045113 -0.0038332914 0.08148351
1.3340734 0.098612234 0.44845983 -0.025242891 0.08015489 -0.009626986 1.0649707 0.14426364
0.13204242 0.021238772 0.24986146 0.14578852 0.4067154 0.29019174 -0.76184875 0.34986794
0.024184132 0.21124038 0.28033283 0.08470241 -0.06416881 0.7344887 0.27819863 0.09203593
-0.019661343 -0.36548564 0.014736175 -0.01642497 0.03703523 -0.05785896 0.59149456 1.6008769
0.1403281 0.06581614 -0.8586825 0.03707547 0.34196028 0.9475788 -0.008544071 0.9984882
0.0874844 0.21473989 -0.006052033 -0.82252824 0.021380285 -0.018265707 -0.3668954 -0.032713745
-0.057198055 -0.035115596 0.17116116 0.02321398 -0.4864482 -0.07393893 0.81225437 -0.06994265
0.096578956 0.2330634 -0.03164495 0.046630193 0.1691611 -0.028080149 0.023658603 -0.60753673
-0.038877144 0.13068639 0.220768 0.65203184 0.12716052 0.10729223 -0.6842421 0.019146843
-0.010772267 0.048593257 0.37078714 -0.039627504 0.22735399 0.08093188 0.15696053 -0.058851145
0.0022879576 0.14522721 -0.004641362 -0.54112107 0.03127273 -0.39590555 0.008599265 0.6042465
-0.021352168 -0.00693833 1.7619295 0.19865401 0.025945984 0.11826349 0.22214851 -0.7881139
-0.014384453 -0.05446468 -0.034620922 0.7589814 -0.46993148 0.041712575 0.22648163 1.3604386
-0.0116035715 0.08332221 0.064781815 0.48654976 0.012596262 0.7381466 0.3212387 0.07343733
0.0048097973 -0.026969604 0.51288706 0.6264374 0.67947125 -0.12342186 0.16295783 0.13846321
0.15045473 0.03741713 0.3355476 1.53534 0.15425989 -0.37229857 -0.33701116 -0.012554478
0.1378343 -0.026369669 -0.0005294301 1.7815459 0.18285519 -0.027474564 0.017820468 0.28341946
0.15953116 0.07551294 -0.18929833 0.3193493 -0.03987514 1.0061085 0.13446437 1.1063122
0.17254244 0.40279907 0.13102515 -0.014966803 0.21535656 1.5979656 0.19690375 -0.059496738
0.026545016 0.16994417 0.075660475 0.0046796147 0.009077356 0.19422844 0.01077691 -0.044890366
-0.025334077 0.024618668 -0.022109963 0.28747293 0.43008786 0.15169086 1.5311519 -0.09368709
0.237724 0.48678112 1.1622473 -0.039848603 -0.011906663 0.19860008 0.5421974 0.8470706
-0.012782938 0.29123977 0.2478053 -0.70588785 0.06377705 -0.8698104 -0.014770845 0.08178573
-0.15325244 0.23857205 -0.025996108 1.5128846 0.14519021 0.5407957 0.8185443 0.95779234
0.11463478 0.14048046 0.26195565 -0.029354803 -0.01572773 0.026206998 -0.43884197 0.81845593
-1.2785481 0.07820618 -0.57090175 0.09063124 0.045174964 -0.08259203 0.22537772 -0.060805235
-0.0634469 0.13929684 -0.2861107 -0.09466748 0.07364111 -0.08381343 0.07156857 -0.059451725
-0.06793124 -0.024775332 -0.033989456 0.73594546 0.024688395 1.3562297 0.14667979 0.14382035
0.0316515 0.36302054 0.0056647575 -0.013541993 -0.7415262 0.16139334 -0.0015465971 -0.05351559
0.050709005 -0.053774565 0.05807573 0.7642249 0.07367246 0.03699278 0.12051246 0.013036357

weight f4 [128, 256]
00000000: 6e6c 51bf 0c54 cdbc 6ab4 493d 46a0 eabc
00000010: 2d5e 783a 8fc7 203d 7f6f 933d dba7 52bf
00000020: 117e a1bf 8db8 6abd f6e0 b43c 1b57 0a3f
00000030: a676 a0bd f444 0dbc 0f50 41bd f2e4 7bbf
00000040: a642 ef3e 4e6d c7be 4320 2a3f 44e7 a23c
00000050: 8ef7 97bb 4221 ea3c af81 3abe 495a 683d
00000060: 6aa5 173d 63de 253d 0ec7 49bf 1511 88bf
00000070: 6601 323f dadd ccbd c559 43bf 0107 3c3f
00000080: 028e 96bc 3930 adbb 8622 84bf 0c1b 2a3d
00000090: 2433 ebbd 9085 363f 76dd f6bc 613b 863c
000000a0: 5563 afb9 bc49 45bf fced 9dbd 4c55 bc3b
000000b0: 6ddc a4bc 2af1 b9bc 098f 1b3f f38a 203d
000000c0: c84f 5cbf e040 893d 60b1 3bbf d40a eebb
000000d0: 198d 7ebd b5b1 e2bb 9bac 813d cd95 063f
000000e0: 9cc0 50bd 11b7 823c b9d5 653c 7912 73bf
000000f0: 0e45 a6bd 5f70 90bc 681a 01bf 6ade 973d
00000100: 6489 833d 16fc 7a3c 9a32 373f 8397 da3c
00000110: e55a 86bf 6f45 683d 9142 103f 4a41 803d
00000120: 3830 453c cb75 013f fa27 a8bc d21b 003f
00000130: 80bf 22bd 058b 97bf 0602 613d 2996 6bbf
00000140: cf42 0b3c 4457 3ebe ebc9 9fbc fb3e 473f
00000150: 42e0 55bf ff36 b13c 5787 fdbe 2fb8 3cbd
00000160: f08e fbbc 4e00 573b fb40 283f 8c6c d6bc
00000170: 9f64 e4ba 0962 5a3d 7e2b c6bb 10bf 12bd
00000180: f729 97bd dd65 47bd f809 3bbc 7cd0 50bf
00000190: 668f 92bc bb8e 8fbf b383 273d 7a68 043f
000001a0: 0220 1cbd 32a2 213d 2a08 b73d 4702 0e3d
000001b0: bcd5 51bd 6e7e 67bd f19c 43bc b1d0 acbf
000001c0: 67ee f63c 3790 eabc 5745 373d f1b6 073f
000001d0: 217f 8abf 5260 193d 6623 0fbd cbf6 b3bd
000001e0: a9d2 bfbc be93 56bd 26f2 2abd 66c5 593f
000001f0: aa15 2d3d ea6f 073f 8c6c e03e 9deb ccbc
00000200: ef14 42bd ea06 32bd 0888 013f 784b 203f
00000210: 64a1 4f3f 6e5b 97bc 0b0a 163c 2b49 36bb
00000220: 80dd c9bb 8c19 42bc 21ea b5bd 3e6f 36ba
00000230: 05e8 47bf 15ef 02bf f147 82bf 2a57 55bd
00000240: e7e9 47bd 2341 8c3d d77e 9a3c ec25 81bd
00000250: f4f3 433f 33cf 923c c7aa 67bd 5ce8 4cbd
00000260: f86d 1ebf e423 65bb c3b1 6cbf dcf3 5c3f
00000270: 2634 663c b821 533f 7554 47bd 3327 a43e
00000280: b0b4 723f 00d4 1c3f 83d4 ddbc 745d 343d
00000290: 8f68 0d3f 8340 9f3c f269 263b 9f32 e33c
000002a0: 1d24 783c 5d2b 043f fa13 56bf 61ae 6e3d
000002b0: 338c 803c 9704 f13c f54b d1bc bcf0 44bd
000002c0: 13b8 3d3d 6b1a dabc 3f8e 923b 47bf 2c3f
000002d0: 624f 373f 4944 4ebd 5661 80bc 39c1 8fbb
000002e0: 0789 eabc b102 213f 1939 a7be 4e5d 283d
000002f0: a636 1ebd 8c0e 46bd 25a1 3d3f 6722 493f
00000300: f9f1 6dbc 5fca 94bd e8d4 0e3f fcae 18bf
00000310: 86d7 d2b9 7f98 3fbf 22eb 94bc 5b69 8fbc
00000320: 7dab a8be c1ec 92bd aab1 febe 59f3 c53c
00000330: 9bf3 63bf c51a 6dbd cd58 e23e bf93 b43e
00000340: e620 1b3c 6d0a f73c 64c6 d6bb 6842 e53b
00000350: 48c5 87bf e723 abbd f92a 4cbf f237 303f
00000360: d616 18bf eb99 043d a1cd 44bf 1ad4 ac3b
00000370: 1fb2 2c3d dc7c dd3c c185 75bc 3505 603d
00000380: a085 a6bd 9e70 84bd 2706 54bf 5b09 353f
00000390: 1fca 063f bac9 7fbc 60a4 90bd 6c29 7c3d
000003a0: a555 c23c 1af5 5dbd a110 8bbd 3898 1b3f
000003b0: 625d 7d3d d7d7 61be 5fbf 9e3b cafd f13c
000003c0: a877 25bd 5678 1fbc 0709 6f3e c58d 843d
000003d0: 76cd 23bf 03f3 0d3f 3351 a33c c4cf f73c
000003e0: e74a 4dbf 579a 46bd 7463 55bf 9ad7 273f
000003f0: a1e8 79bd da6b 61bc 9936 413d 816f 16bd
-0.81806076 -0.02506449 0.049244322 -0.028640877 0.00094744825 0.039252814 0.071990006 -0.8228738
-1.2616597 -0.057304908 0.022079926 0.5403916 -0.078351304 -0.008622397 -0.04719549 -0.9839622
0.46730536 -0.3895058 0.6645548 0.019885667 -0.004637665 0.028580312 -0.18213533 0.056726728
0.037022986 0.040495288 -0.7881936 -1.0630213 0.69533384 -0.10003252 -0.7630885 0.7344819
-0.018378261 -0.0052852896 -1.0323036 0.0415297 -0.11484364 0.7129755 -0.030134898 0.016385736
-0.0003345261 -0.77065635 -0.077114075 0.005747473 -0.020124638 -0.022698004 0.6076513 0.039195012
-0.86059237 0.06701827 -0.7331753 -0.0072644744 -0.06214628 -0.006918157 0.0633175 0.5257233
-0.050964937 0.015956433 0.014028006 -0.9495006 -0.0811864 -0.017631708 -0.5043092 0.07415469
0.064226896 0.015318891 0.71561587 0.026683575 -1.0496489 0.056706842 0.5635157 0.06262453
0.012035422 0.5057036 -0.020526875 0.5004245 -0.03973341 -1.18393 0.05493357 -0.92026
0.008499815 -0.18587977 -0.019505462 0.77830476 -0.83545315 0.02163267 -0.4951732 -0.04607409
-0.030707806 0.0032806578 0.6572415 -0.026174806 -0.0017425007 0.05331615 -0.006047665 -0.035826743
-0.07381051 -0.04868113 -0.011415951 -0.8156812 -0.017890643 -1.1215433 0.040897083 0.5172192
-0.038116463 0.039461322 0.08937104 0.03467014 -0.051229224 -0.056517057 -0.011939273 -1.3501188
0.030142976 -0.02863322 0.044743862 0.5301352 -1.0820047 0.037445374 -0.034945868 -0.087873064
-0.02341588 -0.05238699 -0.041734837 0.8506683 0.04225699 0.5290514 0.43832815 -0.025014693
-0.047383245 -0.043463625 0.5059819 0.62615156 0.8110564 -0.018476214 0.009157668 -0.0027814608
-0.006160438 -0.011846911 -0.08882547 -0.00069593254 -0.7808841 -0.5114606 -1.0178205 -0.05208508
-0.04880705 0.06848361 0.01885931 -0.06306061 0.7654412 0.017921066 -0.05655935 -0.050026283
-0.6188655 -0.003496402 -0.9245874 0.863096 0.014050519 0.82473326 -0.04866453 0.32061157
0.9480696 0.61260986 -0.027078873 0.044034436 0.5523767 0.019439941 0.0025392738 0.027734099
0.015145329 0.5162867 -0.8362423 0.05827177 0.015691852 0.029421134 -0.025548914 -0.048081145
0.046318125 -0.026623925 0.0044725235 0.67479366 0.71605504 -0.05035809 -0.015671413 -0.0043870476
-0.028629793 0.6289473 -0.3266075 0.041104607 -0.038626336 -0.048353717 0.7407401 0.7856812
-0.014523023 -0.07265162 0.5579362 -0.59642005 -0.000402149 -0.74842066 -0.018178526 -0.017506292
-0.32943335 -0.071740635 -0.49744922 0.024163889 -0.8904359 -0.057886858 0.44208375 0.3526897
0.009468293 0.030156339 -0.0065544117 0.0069964416 -1.060708 -0.08356457 -0.7975307 0.68835366
-0.59409845 0.03237335 -0.76876265 0.005274308 0.042162057 0.027037077 -0.014985503 0.054692466
-0.08130956 -0.064667925 -0.8282189 0.707174 0.5265216 -0.01561206 -0.07062602 0.06156294
0.02372248 -0.054188825 -0.06790281 0.6077914 0.061856635 -0.22054993 0.0048445906 0.029539961
-0.040397316 -0.00973328 0.23343287 0.06472353 -0.63985384 0.5544893 0.01993618 0.030250438
-0.80192417 -0.048487034 -0.8335488 0.65563357 -0.061012868 -0.013758624 0.04717121 -0.036727432

bias f4 [128]
00000000: 62f5 9c3f 8d10 7a3c be01 88bd 8f05 883e
00000010: 97a1 7cbd dbc6 80bc 7c71 e8be 8001 a93f
00000020: fd70 b03e e84e b7bd 9431 0a3d 9fc4 3e3e
00000030: e926 2b3c ac9e 90bd bea4 74bd 6e58 4b3c
00000040: f831 293b b3d0 1cbd 7139 b83b 1377 b93c
00000050: 37e3 0f40 3719 bc3e 94c7 143c 7d65 063f
00000060: ea19 963c 8be2 66bd 631d a23f 8ec5 0c3e
00000070: d57e 1540 c788 493e 964e 0dbd 9d52 b5bd
00000080: 3a5e 86bc 0da9 a3bd d397 66bd b5ee 48bd
00000090: b034 993d d625 0d3e 6102 153e c3d1 b93f
000000a0: 28a0 ba3b e478 8fbd 6756 c3bd b3a6 2fbd
000000b0: bb45 96bd 6ed1 c93d fffc 95bd 6c00 4fbd
000000c0: 0a26 873d 8cf4 7b3f 7a42 afbd 12fd f03d
000000d0: f871 92bd fdf5 bbbc 5fe4 67bd 87ca debc
000000e0: be13 a33c 9df6 933e 44b9 8ebd 8309 9c3d
000000f0: 01a9 ab3b dbb6 5a3e c8b0 5c3e 121e 273e
00000100: d763 3f3e f2ce 663f 30f9 60bd d1af 883c
00000110: 921c 8dbd df13 4d3e 2e5e 96bd 351e 8dbd
00000120: 492e 743d 10d1 9f3c a478 f23e 4420 bd3d
00000130: c890 0b3c c1d6 363c 774d 693e 1e63 e53d
00000140: 2489 b4bc 39fe 7a3d 1a6d 94bc d32f cb3f
00000150: 271a ac3d b07b 673b 35ea 4b3f df55 913d
00000160: f270 abbd 213e b8bd e304 adbd c659 103e
00000170: b92e 05bc 004a e23c 567d b8bd 966a a8bd
00000180: 50d4 b53a b7f1 a53c d0ab 0ebd 1504 ef3c
00000190: 09c4 ed3a 808b 5cbd abd8 bbbd 37c2 aabd
000001a0: 1a2d 45bc fa0e 233e 9b57 40bd 2550 31bd
000001b0: fa4f b5bb 56f0 55bd 2d99 8a3e 4a54 aa3d
000001c0: 13d8 ff3d a17a d2bd 47b2 4ebd 0f48 afbd
000001d0: f7c2 193d 47fd 63bc d571 193e 1080 8b3c
000001e0: 9138 113d 89f2 c4bd 2337 9b3e beeb bf3f
000001f0: d9d2 e8bc 21bc 8e3e a296 973e 0dc4 e03e
1.2262385 0.015262735 -0.06640957 0.2656674 -0.06167754 -0.015719822 -0.45399082 1.3203583
0.34461203 -0.08950597 0.033738688 0.18629692 0.010446289 -0.07061514 -0.059727423 0.01241122
0.0025817137 -0.03828497 0.005622082 0.022639787 2.248243 0.36737987 0.009080786 0.5249861
0.018322904 -0.056368392 1.2665218 0.13747236 2.3358662 0.19681083 -0.034498774 -0.08853648
-0.016402353 -0.07991228 -0.056297135 -0.049055774 0.074807525 0.13783965 0.14551689 1.4517139
0.0056953616 -0.0700548 -0.09537964 -0.042883586 -0.07337519 0.09854399 -0.07323646 -0.05053751
0.06599052 0.98420024 -0.08557601 0.11767019 -0.07150644 -0.022944445 -0.056614276 -0.027196182
0.019906875 0.28899089 -0.0696893 0.07619002 0.0052386527 0.21358816 0.21551812 0.16320065
0.1869043 0.90159523 -0.054925144 0.016685398 -0.06890215 0.20027111 -0.07342182 -0.06890527
0.059614453 0.019508868 0.47357666 0.0923467 0.008518405 0.0111596 0.22783457 0.11200546
-0.02203805 0.061277602 -0.01811843 1.587397 0.08403426 0.0035321526 0.79654247 0.07096457
-0.08371152 -0.08996225 -0.08448198 0.14096746 -0.008128815 0.027623177 -0.09008281 -0.08223455
0.0013872478 0.02025686 -0.034831822 0.029176751 0.0018140088 -0.053843975 -0.091721855 -0.08337825
-0.012034679 0.15923682 -0.046958547 -0.043289322 -0.0055332156 -0.052231155 0.2706999 0.08316858
0.12492385 -0.10277296 -0.050462987 -0.08558666 0.03753945 -0.0139153665 0.1498483 0.017028838
0.035454337 -0.096165724 0.30315503 1.4993818 -0.028420852 0.27877906 0.2960711 0.43899575

weight f4 [1, 128]
00000000: a66d 0dbf dbc7 bb3b c21e b03c 8a7e f0bd
00000010: 3d38 c13c bc68 3e3b a6ed 7b3f f678 f3be
00000020: b30a 22bc 9c53 293b 4f9c 463c bc4e bc3c
00000030: eb95 833d 445b de3c ddb9 a8bc a392 a13c
00000040: 5234 9b3d a923 fcb9 f70b 8ebc 092c fd3c
00000050: 2277 08be f5c2 0f3c ecdb e9ba 22ba 0dbc
00000060: a54e 183d 1261 0a3d 04d1 bf3d 6af3 b5bb
00000070: 754d 36be 2db2 043c 9990 493d 1cfc ebba
00000080: 63c9 d23b d041 a83c 0383 693c e27f d0bb
00000090: 60a5 00ba bbc0 873b 82c3 eabc 887e 3b3e
000000a0: 6a4e bdbb 5694 ec3b f7a9 96bc 91ff 87ba
000000b0: 3ea2 bc3c 66cc f0bc 316c a93d 462a 2ebc
000000c0: c802 9bbb cec7 33be 847b 59bd 56fb ed3c
000000d0: 9f09 e8bc 777b bebc ed69 b4bc 3274 f73c
000000e0: 85d3 723b 3ba8 8ebc 76d5 01be b660 bb3d
000000f0: 0c32 433d 0317 aabc 3209 d5bc bfae c4bb
00000100: ee64 8a3b 81ab 773d 5637 3a3d 6874 f73b
00000110: b000 203d 9303 bf3c cb01 043d 67c9 1f3d
00000120: ab35 0c3d 93f0 893b 8172 023e 63e3 debc
00000130: 6bb3 f23c b64f bd3c fdaa ea3b e414 003d
00000140: 480d 48bc 7fba 073c 602f 83bc 9111 893d
00000150: 7709 a13c be8b 0f3d eccc b8be b422 aabc
00000160: 1146 02bb 430a f2bc 26cf ddbc 4281 c93b
00000170: cbf0 57bc 0475 3b3c 2dc1 11bd d36f 413d
00000180: f9b4 87bc bee8 953d 36ae b73c e836 8a3d
00000190: dd3e b4ba 681f 42bc 9955 0c3d d27e d43b
000001a0: 9a88 e2bb 2125 0cbc 5623 a53c ce77 883c
000001b0: c98d f0bc 691a c9bc 8285 463c 32d5 d8bc
000001c0: bc82 013d 8fc5 83bc f8fb b0bc 1d2b 62bb
000001d0: 6a0d 8c3c 2057 ef3c 410b f8bc dec6 1a3a
000001e0: b60a 463b 166b c83a 93d5 d4bc 0fed b9be
000001f0: 5e7b 8fbc c1bb e33c f88f 0e3c 97f9 e63d
-0.55245435 0.0057306117 0.021499041 -0.117428854 0.023586387 0.0029054126 0.984095 -0.47553223
-0.009890246 0.0025837189 0.012122228 0.022986762 0.06425079 0.027143128 -0.020596439 0.019723242
0.07578339 -0.00048091754 -0.01733969 0.030904787 -0.13326696 0.008774509 -0.0017842031 -0.008650335
0.037184376 0.03378398 0.093660384 -0.005552699 -0.17802985 0.008099121 0.049210165 -0.0018004212
0.0064326986 0.020539194 0.014252427 -0.006362901 -0.00049074553 0.0041428483 -0.028657679 0.18309987
-0.00577717 0.0072198315 -0.018391592 -0.0010375847 0.023026582 -0.02939434 0.08272589 -0.010630196
-0.004730556 -0.17556688 -0.05309631 0.02905051 -0.0283249 -0.023252232 -0.022023166 0.030206773
0.0037052345 -0.017414203 -0.12679085 0.091493055 0.04765515 -0.020762926 -0.026005361 -0.0060022767
0.0042234575 0.060466293 0.04546293 0.0075517185 0.039063156 0.023317134 0.032228272 0.03901043
0.03423087 0.004209587 0.12738992 -0.027208036 0.029626569 0.023109298 0.0071614967 0.031269923
-0.012210198 0.00828421 -0.016013801 0.06692804 0.019657834 0.035045378 -0.36093843 -0.0207685
-0.0019878189 -0.029545909 -0.027076315 0.006149442 -0.013179968 0.011441473 -0.035584617 0.047225785
-0.016565787 0.07319783 0.022421937 0.06748754 -0.0013751645 -0.011848308 0.03426132 0.0064848447
-0.006913257 -0.008553774 0.020158451 0.01665869 -0.029364483 -0.024548726 0.012116792 -0.026468847
0.03161882 -0.016085414 -0.021604523 -0.003451056 0.01709624 0.02921635 -0.030278804 0.00059042673
0.0030218787 0.0015290703 -0.025980746 -0.36313674 -0.01751488 0.027799489 0.008701317 0.11278074
