trained/exp_train_3_6_1111_0.0001_0.001_32_0.95/model/ctrl_actor_2.pth (torch, 335871 bytes, 6 tensors)

weight f4 [512, 32]
0.091817 0.0507863 -0.06543142 -0.04405032 -0.0012751338 0.018367728 -0.12404472 0.12746418
0.24311654 0.2319001 -0.12556338 -0.05600148 -0.27771682 -0.2039573 0.16207688 -0.119248025
-0.048476454 0.0034991498 0.11266831 -0.051592253 0.11102463 -0.19256414 -0.03377291 0.15422998
0.003368406 -0.06553378 -0.10226402 -0.09354932 -0.20586134 -0.13358602 0.057402443 -0.098724134
-0.22846903 -0.029402757 0.09845775 0.04782462 0.15157884 0.09400859 0.19377291 -0.11298894
0.046890095 -0.040720932 0.1982382 0.10978657 0.019161807 -0.032551937 -0.05409618 -0.045781244
0.18273203 0.12415343 0.041936304 0.13484278 -0.08485856 0.04993672 0.15556821 -0.038280234
-0.22031182 -0.08390053 0.16302706 -0.22874743 -0.2844325 0.14685443 -0.057418708 0.021389438
-0.031650785 -0.027728477 -0.15619189 -0.115955904 -0.030349474 0.0489263 0.14772685 0.07335458
-0.033795767 0.11845155 0.001693586 0.041008156 -0.15617014 -0.22594252 0.11676979 0.22308041
0.114066266 -0.045379065 -0.24277154 -0.036466874 0.0029055972 -0.03912015 -0.14008519 0.05889077
-0.3068362 0.045377955 0.06543099 -0.17286706 -0.110710666 -0.108346835 -0.10874959 -0.031506915
-0.18116325 -0.15405974 -0.08183495 -0.10498521 -0.19711427 -0.31113657 0.056984466 0.20883004
0.002303028 -0.04213113 0.12689799 0.1080143 0.1973705 -0.09692295 -0.073850065 0.029765468
0.15326113 -0.032497976 -0.06953179 -0.04179344 -0.341795 0.09857046 0.073196866 -0.30241254
0.08019309 0.04013562 0.0907758 -0.026898315 -0.03751578 0.12665801 -0.0784382 0.08744371
-0.22805901 0.30094242 -0.024033202 -0.086338386 -0.061710764 -0.069287874 0.23845068 0.25705996
0.25394264 0.001238848 0.17055222 0.17822438 0.12437812 0.11975537 -0.08873802 0.01014981
-0.1457525 -0.15080957 -0.004482996 -0.036148433 -0.002427276 -0.084899366 -0.014627018 -0.07152411
0.033192635 0.032089457 -0.017022723 -0.02003778 0.059548568 -0.1270235 -0.1373733 0.0028784047
-0.17795368 -0.10698018 0.05615731 0.22324692 0.16981481 0.08786927 0.010641381 -0.25899717
-0.16530682 -0.05206218 0.20633875 0.04957575 -0.01341405 0.10073089 0.022506526 -0.20157875
-0.066422954 -0.28770798 -0.006953044 -0.023155684 0.21971643 -0.0148804085 -0.14786822 -0.15059866
-0.0017000759 0.08974117 0.025443336 -0.14096338 0.18966673 0.045944273 0.10427863 0.12263103
-0.004663469 0.0034175918 -0.11292447 0.10600418 -0.04813259 0.0627304 -0.076696046 -0.11409147
-0.031133434 -0.034712788 0.16775128 -0.16878724 0.2291594 0.24484347 0.024313547 -0.27830833
-0.13971426 0.29295456 0.04402961 0.24815348 -0.15920712 -0.09416083 -0.09214075 0.041294165
0.021067735 -0.05595992 -0.10203771 -0.06031234 0.15467581 0.046036504 0.051803444 0.09300051
-0.02245037 0.04931926 -0.03795703 0.030388761 -0.23751539 -0.08554302 0.0046818214 0.001169702
0.18197444 -0.011947102 0.06672159 0.05998252 0.028564768 0.1942595 -0.3091232 0.07172216
-0.05994137 0.17889291 0.055398434 -0.08098451 -0.0709892 -0.1179306 -0.09448457 0.106772885
0.20487463 -0.12949668 0.12746446 -0.1093114 3.731328e-05 -0.10506493 -0.03697039 -0.012761197
00000000: 8d0a bc3d 4c05 503d e900 86bd 1c6e 34bd
00000010: 6422 a7ba eb77 963c 280b febd f885 023e
00000020: 8bf3 783e 3877 6d3e b093 00be cf61 65bd
00000030: e630 8ebe 2fda 50be 7bf7 253e 4f38 f4bd
00000040: 3f8f 46bd fe51 653b a5be e63d 6652 53bd
00000050: e260 e33d 892f 45be 7655 0abd 77ee 1d3e
00000060: 7ac0 5c3b 9336 86bd cc6f d1bd c996 bfbd
00000070: 51cd 52be c6ca 08be d31e 6b3d e12f cabd
00000080: c9f3 69be 0dde f0bc 38a4 c93d c0e3 433d
00000090: 7c37 1b3e 9387 c03d 686c 463e bf66 e7bd
000000a0: d40f 403d feca 26bd f4fe 4a3e c8d7 e03d
000000b0: 39f9 9c3c 2e55 05bd f593 5dbd 1d85 3bbd
000000c0: 1b1e 3b3e 2744 fe3d 67c5 2b3d 3a14 0a3e
000000d0: 53ca adbd 728a 4c3d 464d 1f3e bccb 1cbd
000000e0: 6c99 61be 0bd4 abbd 91f0 263e c43c 6abe
000000f0: 23a1 91be 0261 163e e12f 6bbd e738 af3c
00000100: 41a4 01bd d526 e3bc c4f0 1fbe 4a7a edbd
00000110: 769f f8bc f266 483d b545 173e ed3a 963d
00000120: 6e6d 0abd ba96 f23d 51fb dd3a 2bf8 273d
00000130: 11eb 1fbe 7a5d 67be 0025 ef3d 316f 643e
00000140: 939b e93d 66df 39bd 1a99 78be 4a5e 15bd
00000150: d56b 3e3b 733c 20bd 7e72 0fbe 7337 713d
00000160: a219 9dbe 3cde 393d af00 863d 1004 31be
00000170: 46bc e2bd f2e4 ddbd 1bb8 debd 650d 01bd
00000180: dc82 39be d6c1 1dbe 1599 a7bd 7c02 d7bd
00000190: 53d8 49be 4b4d 9fbe 8b68 693d 8bd7 553e
000001a0: 66ee 163b b191 2cbd 8cf1 013e 9a36 dd3d
000001b0: 7e1b 4a3e 8a7f c6bd b43e 97bd b6d6 f33c
000001c0: 7cf0 1c3e 991c 05bd af66 8ebd 992f 2bbd
000001d0: c1ff aebe 4fdf c93d 3de8 953d d1d5 9abe
000001e0: 463c a43d 3f65 243d aae8 b93d db59 dcbc
000001f0: 26aa 19bd a3b2 013e 35a4 a0bd b015 b33d
00000200: 4d88 69be 2015 9a3e 47e1 c4bc 2ed2 b0bd
00000210: 6dc4 7cbd cde6 8dbd 6a2c 743e 5d9d 833e
00000220: c504 823e d760 a23a 3ea5 2e3e 7480 363e
00000230: f5b9 fe3d 4e42 f53d 47bc b5bd 644b 263c
00000240: 2540 15be d36d 1abe 19e6 92bb 6110 14bd
00000250: ef12 1fbb b8df adbd 29a6 6fbc 3c7b 92bd
00000260: 00f5 073d 3c70 033d 3d73 8bbc 4526 a4bc
00000270: 33e9 733d 7312 02be 96ab 0cbe 9ea3 3c3b
00000280: 7d39 36be 6d18 dbbd 3505 663d d79a 643e
00000290: efe3 2d3e cef4 b33d 3059 2e3c 479b 84be
000002a0: 3146 29be 273f 55bd 774a 533e f10f 4b3d
000002b0: 9bc6 5bbc ff4b ce3d 9b5f b83c a96a 4ebe
000002c0: c208 88bd 764e 93be 5cd6 e3bb fdb0 bdbc
000002d0: 58fd 603e f5cc 73bc c46a 17be 8936 1abe
000002e0: 15d5 deba 38ca b73d 8b6e d03c b458 10be
000002f0: ff37 423e 1030 3c3d 0990 d53d fa25 fb3d
00000300: 03d0 98bb adf9 5f3b f244 e7bd b818 d93d
00000310: ae26 45bd cc78 803d d112 9dbd caa8 e9bd
00000320: 8b0b ffbc ff2e 0ebd fec6 2b3e 90d6 2cbe
00000330: c3a8 6a3e 3fb8 7a3e 342d c73c 6e7e 8ebe
00000340: 4111 0fbe 24fe 953e 6458 343d f21b 7e3e
00000350: 3107 23be 65d7 c0bd 4ab4 bcbd 1224 293d
00000360: 3e96 ac3c 3b36 65bd 26f9 d0bd 120a 77bd
00000370: 5663 1e3e c690 3c3d d92f 543d 0d77 be3d
00000380: d7e9 b7bc fe02 4a3d d578 1bbd daf1 f83c
00000390: 3c37 73be 2e31 afbd f769 993b b050 993a
000003a0: 8257 3a3e c7bd 43bc 54a5 883d 3bb0 753d
000003b0: a900 ea3c f6eb 463e 6545 9ebe 11e3 923d
000003c0: 1585 75bd b42f 373e 78e9 623d 35db a5bd
000003d0: c962 91bd 9985 f1bd 2081 c1bd beab da3d
000003e0: a8ca 513e c79a 04be 0b86 023e a8de dfbd
000003f0: d480 1c38 482c d7bd 436e 17bd 5714 51bc

bias f4 [512]
0.1536217 0.01715281 0.05809925 -0.018883104 -0.24095151 -0.1352414 -0.13932814 0.028895115
-0.14152278 -0.013410829 -0.06359699 -0.04296627 -0.14301413 -0.15587325 -0.07744818 -0.10574566
-0.13618699 -0.34073615 -0.11820075 -0.14315034 -0.21842152 0.12713133 -0.14738894 -0.13030945
-0.10888736 -0.047481988 0.008073935 -0.2072455 0.027779995 -0.17488964 0.03339292 0.009352015
0.2192076 -0.14144127 -0.035590768 -0.21000467 -0.104333535 -0.004969089 0.14410765 -0.1907665
-0.16842794 -0.042555846 -0.09179353 0.00050865277 -0.18424469 -0.102192484 -0.31627724 -0.20995075
0.08703131 0.11689835 -0.05908063 -0.076860696 -0.07354517 -0.061538704 0.063657485 -0.020707248
-0.3036469 -0.073062114 0.031036457 -0.0051328815 -0.16356497 -0.021001901 0.11580585 -0.17492878
-0.09980523 0.0982304 -0.013203521 -0.08748754 -0.154944 -0.011179059 0.17758341 -0.19978315
-0.30505985 0.11423537 -0.18060583 0.083988965 -0.14392515 -0.14982954 0.030412784 0.007094953
-0.0755752 0.13665387 -0.28030014 0.008006858 -0.06277699 0.06839668 -0.19326288 -0.079647735
-0.028647833 -0.18677118 -0.1673591 0.02795778 0.17417097 -0.14889127 0.23902768 -0.26213694
-0.042442974 -0.097670235 -0.18923186 -0.17102812 -0.1027325 0.04388019 -0.037133984 -0.04911515
-0.19825594 -0.0612592 -0.13011149 0.12802076 -0.030855602 0.11465468 -0.10332142 -0.14406082
-0.007307069 -0.34279388 -0.31435487 0.050532103 0.0338691 -0.01792736 -0.115005866 -0.19400653
-0.01967405 0.14554876 -0.25632083 0.14894155 -0.021010447 -0.12669122 0.09809146 -0.03408948
-0.15150595 0.0058155074 -0.07821639 -0.071756676 0.124149986 -0.06210348 0.03670333 0.04127124
-0.210129 -0.07205893 0.04784438 0.016621988 -0.0095811505 0.001978113 -0.13517241 0.04222842
-0.1566809 -0.16727544 0.11225968 0.19421595 -0.15595406 0.12772952 -0.14844935 -0.027473519
-0.107539415 -0.07127973 -0.24792 -0.2047056 0.06420509 -0.102839686 0.022187093 -0.18906356
0.033197146 0.010791652 -0.11018446 -0.2696745 0.21896248 0.0026139568 -0.24025466 -0.22761531
-0.2365434 -0.016813919 -0.119082324 -0.029627554 -0.21114598 -0.17803976 -0.06803165 0.01865028
-0.042075947 -0.14738843 0.0032154466 -0.10093599 0.009505002 0.053704433 0.04916 -0.20108531
-0.3731895 -0.1384734 -0.0040029003 0.100038834 -0.18577734 -0.17730635 0.091026194 -0.20309292
-0.009346826 -0.15209137 0.112836316 -0.0669154 -0.12190389 -0.025238462 -0.09497919 0.1620697
0.07391058 -0.062254697 -0.045960743 -0.13591793 0.099238165 0.12859754 -0.17858426 -0.07827209
-0.15850946 -0.19036447 0.04219271 -0.05663163 0.03164925 -0.06458206 0.010909697 -0.0916594
-0.030765992 -0.046649814 -0.13850288 0.06393593 0.0441674 0.013763466 -0.17124851 0.031746913
-0.028165694 -0.31517878 -0.010726398 -0.25554177 0.07785984 0.08018876 0.0065109176 0.15977533
0.14266947 0.004847103 -0.04204113 -0.003913074 -0.20436879 -0.034890484 0.06580831 -0.2545722
0.0812802 -0.25147057 -0.0014785079 -0.16682497 -0.09340254 0.019764375 -0.092303924 0.12145419
-0.03266183 0.122573264 0.2265041 0.1583112 -0.08639368 -0.03525424 -0.11902253 -0.015748309
00000000: 024f 1d3e 0d84 8c3c 7bf9 6d3d bdb0 9abc
00000010: febb 76be b97c 0abe 09ac 0ebe 73b5 ec3c
00000020: 59eb 10be 18b9 5bbc 243f 82bd 66fd 2fbd
00000030: 4c72 12be 3d9d 1fbe 279d 9ebd 2e91 d8bd
00000040: 9a74 0bbe f874 aebe 3c13 f2bd 0196 12be
00000050: e4a9 5fbe b72e 023e 20ed 16be d76f 05be
00000060: 5600 dfbd 797c 42bd 8a48 043c 2a38 54be
00000070: df92 e33c 4516 33be 04c7 083d 3239 193c
00000080: f577 603e fbd5 10be a0c7 11bd 770b 57be
00000090: d2ac d5bd bdd3 a2bb f590 133e 4b58 43be
000000a0: 6078 2cbe 0a4f 2ebd 3ffe bbbd 1c57 053a
000000b0: a4aa 3cbe 4b4a d1bd 17ef a1be 54fd 56be
000000c0: 793d b23d 6768 ef3d 88fe 71bd 2469 9dbd
000000d0: da9e 96bd 0210 7cbd db5e 823d 3fa2 a9bc
000000e0: 9b77 9bbe 97a1 95bd 2b40 fe3c bb31 a8bb
000000f0: 937d 27be 2e0c acbc 9e2b ed3d 8820 33be
00000100: af66 ccbd 052d c93d 9553 58bc ab2c b3bd
00000110: a4a9 1ebe 5f28 37bc 6dd8 353e f493 4cbe
00000120: ce30 9cbe 3cf4 e93d bcf0 38be 6802 ac3d
00000130: 1d61 13be ea6c 19be 3b24 f93c c87c e83b
00000140: 2cc7 9abd feee 0b3e 8083 8fbe 322f 033c
00000150: 3991 80bd 8f13 8c3d b4e6 45be 5a1e a3bd
00000160: dcae eabc f240 3fbe 2f60 2bbe b707 e53c
00000170: e059 323e f476 18be acc3 743e d036 86be
00000180: afd8 2dbd 5507 c8bd ffc5 41be ff21 2fbe
00000190: 6b65 d2bd b7bb 333d ce19 18bd f82c 49bd
000001a0: 9b03 4bbe edea 7abd f23b 05be e017 033e
000001b0: e3c4 fcbc 13d0 ea3d 2e9a d3bd ae84 13be
000001c0: 2370 efbb ae82 afbe 1ff3 a0be c0fa 4e3d
000001d0: 53ba 0a3d 66dc 92bc 3288 ebbd a6a9 46be
000001e0: 792b a1bc bc0a 153e 7c3c 83be 2284 183e
000001f0: 1a1e acbc 58bb 01be 2de4 c83d 69a1 0bbd
00000200: 6024 1bbe 0390 be3b ea2f a0bd 2af5 92bd
00000210: 5942 fe3d 3860 7ebd 3b56 163d 080c 293d
00000220: 0e2c 57be a293 93bd 78f8 433d d62a 883c
00000230: 42fa 1cbc 3ba3 013b a36a 0abe b5f7 2c3d
00000240: f570 20be 414a 2bbe 67e8 e53d 8ce0 463e
00000250: 6cb2 1fbe 87cb 023e 1b03 18be 2510 e1bc
00000260: a03d dcbd 1bfb 91bd bede 7dbe 589e 51be
00000270: f57d 833d 9d9d d2bd b5c1 b53c e199 41be
00000280: bbf9 073d 78cf 303c 64a8 e1bd c712 8abe
00000290: b337 603e eb4e 2b3b 5105 76be fd13 69be
000002a0: 6f38 72be 58bd 89bc 6fe1 f3bd 7cb5 f2bc
000002b0: a736 58be 0e50 36be 2d54 8bbd 79c8 983c
000002c0: d457 2cbd feec 16be 3eba 523b 87b7 cebd
000002d0: deba 1b3c 2ef9 5b3d ff5b 493d 4fe9 4dbe
000002e0: b212 bfbe f9cb 0dbe c32a 83bb 29e1 cc3d
000002f0: 6a3c 3ebe cc8f 35be f16b ba3d 97f7 4fbe
00000300: 6e23 19bc d7bd 1bbe ba16 e73d f10a 89bd
00000310: bfa8 f9bd e4c0 cebc 7384 c2bd 99f5 253e
00000320: 6e5e 973d c8fe 7ebd 5541 3cbd 122e 0bbe
00000330: 613d cb3d 13af 033e cbde 36be 1e4d a0bd
00000340: 4e50 22be e7ee 42be 43d2 2c3d 91f6 67bd
00000350: a5a2 013d 9943 84bd 96be 323c ecb7 bbbd
00000360: f608 fcbc e013 3fbd b3d3 0dbe d7f0 823d
00000370: e0e8 343d 2980 613c c55b 2fbe 0d09 023d
00000380: bebb e6bc 1d5f a1be c6bd 2fbc 5fd6 82be
00000390: fb74 9f3d 013a a43d 8959 d53b 259c 233e
000003a0: f217 123e 72d4 9e3b 5233 2cbd 3e39 80bb
000003b0: 0d46 51be 53e9 0ebd 82c6 863d 4a57 82be
000003c0: 3c76 a63d c0c0 80be 7eca c1ba 2ad4 2abe
000003d0: d549 bfbd e6e8 a13c d709 bdbd f9bc f83d
000003e0: 69c8 05bd b107 fb3d b1f0 673e 551c 223e
000003f0: 2bef b0bd c066 10bd 16c2 f3bd 9902 81bc

weight f4 [128, 512]
0.05130789 -0.09641876 -0.09849915 0.097448684 0.06004327 0.0036102114 -0.12396422 -0.14825019
0.02015667 0.03862653 -0.10483302 -0.033429686 0.013479556 -0.020185446 0.02604841 0.048731238
0.1200745 0.007115391 -0.026033685 -0.057912365 -0.15908857 -0.026474338 -0.10803001 0.051092904
-0.03630816 -0.026454672 0.0010145865 -0.11384152 -0.08909521 0.0132271005 -0.074312955 0.066770695
0.07744021 0.07404863 -0.27105743 -0.1132328 -0.020518444 -0.08019723 0.004305319 0.056102928
0.094867244 -0.04291475 -0.026964676 -0.19026262 -0.16176459 -0.09386541 0.035797745 -0.06434436
-0.082000464 0.007656373 -0.014156583 -0.0627982 0.01770532 0.007849731 0.026226174 0.14456837
-0.06460427 0.0365598 0.12466057 -0.013697145 -0.009195197 0.073571034 -0.10379139 -0.04701264
0.046049263 0.08174616 0.117067434 -0.0014399835 -0.026415406 -0.11371229 -0.038638614 0.03831964
0.19660094 0.045318358 -0.012864083 -0.20982753 -0.013163284 -0.048714355 -0.047746517 -0.062247254
-0.17037247 0.11308928 -0.09174195 -0.10895049 0.0143971145 0.048796542 -0.018449785 -0.0040255436
-0.000855081 0.07630597 -0.00968483 -0.0056224796 0.012590443 0.08588845 0.0004228734 0.05179761
0.0035248674 -0.067412 0.060716134 -0.1723786 0.0015408633 0.036593016 -0.1263945 -0.026254311
0.11989739 -0.17193285 0.07805585 -0.052229438 0.074208036 0.052449077 -0.016043255 -0.032437094
-0.039365876 0.034749568 0.058522765 -0.079649076 -0.037174292 -0.24787195 -0.095871255 -0.020077065
0.032353267 0.0025445684 -0.15637407 -0.011321633 -0.065280534 0.15533118 -0.0009810976 0.04387392
-0.006033571 -0.12374596 -0.06253801 -0.010055628 -0.2595456 0.07382711 -0.0914657 -0.14993227
0.09128116 0.11647551 -0.029637933 -0.08327621 0.037916034 0.0804946 0.037970174 0.03180996
0.1117804 0.045058854 0.03300803 0.05235742 0.07417484 0.06181176 0.012382747 0.052430697
-0.11607276 -0.048421863 -0.12542494 0.12200215 0.10268729 -0.028947208 0.06420676 0.032119907
-0.0046122307 0.0118879555 0.09335072 0.033580467 -0.00058372563 -0.023852399 -0.06637214 -0.08073675
-0.13688117 0.02121136 -0.1889452 0.048692286 0.031530734 -0.16348052 -0.12996127 0.17443538
0.16421872 0.14410873 -0.05751368 0.018062018 0.024791092 0.02673955 0.04181508 -0.031548016
-0.0672949 0.016202012 -0.015131275 0.037193656 -0.021743773 0.060414825 -0.056240857 -0.04483046
-0.026619121 -0.053053826 -0.070415005 -0.0026731628 0.10103518 -0.085928716 -0.007024236 0.043228798
-0.0058869384 -0.043350093 0.047672838 0.012863468 0.03734277 0.04708779 0.056001615 0.07600341
0.21948199 -0.15017663 -0.042831827 0.027446184 -0.020146916 0.04443053 -0.11520354 0.17346074
0.101947315 -0.04480083 0.061623227 -0.1811832 -0.106295034 -0.03414406 0.02231407 -0.2301018
0.026932532 0.079715714 -0.007183179 0.08332879 -0.07179632 0.0056387642 -0.03783553 0.0035983128
-0.1519198 -0.099519 -0.017374484 -0.19255328 -0.024824321 0.05708569 0.087495245 -0.0142200235
0.081136815 0.04575775 -0.033270247 0.038513213 -0.06306275 0.065508075 -0.07405879 -0.06782268
0.049873166 0.10529125 0.052701667 -0.16351405 0.07179234 -0.024435565 -0.045695495 -0.11284244
00000000: 3928 523d 3377 c5bd ecb9 c9bd 2d93 c73d
00000010: efef 753d 4c99 6c3b f4e0 fdbd e6ce 17be
00000020: 9a1f a53c da36 1e3d b2b2 d6bd 91ed 08bd
00000030: 5bd9 5c3c f35b a5bc 7a63 d53c 689a 473d
00000040: 9fe9 f53d 3a28 e93b 9844 d5bc 8435 6dbd
00000050: 1de8 22be b6e0 d8bc d63e ddbd cb46 513d
00000060: ddb7 14bd 78b7 d8bc e0fb 843a be25 e9bd
00000070: 8d77 b6bd 7bb6 583c 6431 98bd 13bf 883d
00000080: f998 9e3d cfa6 973d 0ac8 8abe 99e6 e7bd
00000090: 4c16 a8bc 723e a4bd a213 8d3b 2fcc 653d
000000a0: c249 c23d 60c7 2fbd 06e5 dcbc 34d4 42be
000000b0: 9ea5 25be 823c c0bd a8a0 123d fac6 83bd
000000c0: dcef a7bd 50e2 fa3b 03f1 67bc 589c 80bd
000000d0: bf0a 913c 289c 003c 46d8 d63c bb09 143e
000000e0: 3e4f 84bd bbbf 153d 0a4e ff3d fd69 60bc
000000f0: 74a7 16bc 69ac 963d 9590 d4bd 5390 40bd
00000100: 279e 3c3d 886a a73d 0dc1 ef3d d4bd bcba
00000110: 1f65 d8bc fde1 e8bd 8643 1ebd 0ef5 1c3d
00000120: c251 493e be9f 393d e0c3 52bc 07dd 56be
00000130: d1aa 57bc b488 47bd da91 43bd faf6 7ebd
00000140: 1f76 2ebe 5a9b e73d 34e3 bbbd 6f21 dfbd
00000150: e0e1 6b3c e2de 473d 0124 97bc b5e8 83bb
00000160: 8427 60ba 4e46 9c3d 1fad 1ebc c73c b8bb
00000170: 2548 4e3c 49e6 af3d 1bb5 dd39 bb29 543d
00000180: 7601 673b 4d0f 8abd 7bb1 783d 0484 30be
00000190: cbf6 c93a 8fe2 153d 8f6d 01be 4813 d7bc
000001a0: c38c f53d 2a0f 30be bfdb 9f3d 89ee 55bd
000001b0: 62fa 973d d8d4 563d 256d 83bc c2dc 04bd
000001c0: 1d3e 21bd 9055 0e3d 91b5 6f3d 0e1f a3bd
000001d0: 1244 18bd 25d2 7dbe 2658 c4bd a878 a4bc
000001e0: dc84 043d c6c2 263b 8620 20be 5f7e 39bc
000001f0: cdb1 85bd 230f 1f3e 2c98 80ba 24b5 333d
00000200: 43b5 c5bb 866e fdbd ee13 80bd 5cc0 24bc
00000210: 29e3 84be ab32 973d 5e52 bbbd d887 19be
00000220: 9ef1 ba3d b68a ee3d 40cb f2bc b88c aabd
00000230: d84d 1b3d 5ada a43d 9d86 1b3d 294b 023d
00000240: 1fed e43d a28f 383d 6e33 073d bc74 563d
00000250: fae8 973d 542e 7d3d 01e1 4a3c 92c1 563d
00000260: 8eb7 edbd 0156 46bd 656f 00be 43dc f93d
00000270: b74d d23d b222 edbc d57e 833d 2a90 033d
00000280: 3222 97bb b3c5 423c aa2e bf3d ac8b 093d
00000290: 2a05 19ba 1b66 c3bc 1eee 87bd 4f59 a5bd
000002a0: 942a 0cbe 72c3 ad3c da7a 41be 9071 473d
000002b0: 5f26 013d 7067 27be 9114 05be 309f 323e
000002c0: f428 283e 3d91 133e 7793 6bbd ccf6 933c
000002d0: b016 cb3c e70c db3c 4a46 2b3d 7e38 01bd
000002e0: e9d1 89bd 15ba 843c 2be9 77bc 6058 183d
000002f0: ff1f b2bc 8975 773d d05c 66bd 25a0 37bd
00000300: 5810 dabc f84e 59bd be35 90bd 3b30 2fbb
00000310: 88eb ce3d 65fb afbd 902b e6bb ae10 313d
00000320: 38e7 c0bb de8f 31bd 9844 433d 4cc1 523c
00000330: bbf4 183d 20df 403d f361 653d ada7 9b3d
00000340: e3bf 603e e7c7 19be 6d70 2fbd d2d6 e03c
00000350: 250b a5bc cafc 353d d5ef ebbd b19f 313e
00000360: c1c9 d03d 1381 37bd a368 7c3d 1788 39be
00000370: 36b1 d9bd a4da 0bbd ffcb b63c ce9f 6bbe
00000380: 9da1 dc3c fe41 a33d df60 ebbb 49a8 aa3d
00000390: f309 93bd 62c5 b83b 6ef9 1abd acd1 6b3b
000003a0: dd90 1bbe 9ed0 cbbd ef54 8ebc b02c 45be
000003b0: 605c cbbc afd2 693d b530 b33d 1afb 68bc
000003c0: 0f2b a63d 7a6c 3b3d 6246 08bd 08c0 1d3d
000003d0: 0b27 81bd 1929 863d 23ac 97bd 9ee6 8abd
000003e0: ce47 4c3d f0a2 d73d b4dd 573d 3a70 27be
000003f0: dd07 933d 182d c8bc 332b 3bbd f019 e7bd

bias f4 [128]
-0.063608356 0.060386423 -0.05392569 0.06362927 -0.025720498 0.057694755 0.045110155 -0.00019235922
-0.06341414 -0.06688112 -0.020196095 0.014677739 0.056251097 0.033603486 0.00782386 -0.025924385
-0.013472936 -0.009847802 -0.10134856 0.074459516 0.09274083 0.039922897 -0.04012813 -0.05247345
-0.005711101 -0.020874685 -0.013779281 -0.049118485 -0.043877307 -0.045939106 -0.04038562 0.06315785
-0.01837469 0.0180842 -0.04170853 0.048264798 0.041123223 0.016925942 0.0037245357 0.104882404
0.19287051 -0.03217584 -0.0156075815 0.026327193 -0.0030794572 -0.031333998 0.0578892 0.013795577
-0.03701684 -0.10944886 0.005590469 0.053848457 -0.07030468 0.01971879 0.14308833 -0.0256347
0.010501646 -0.05482354 0.028210608 -0.028755965 -0.012784418 -0.024193373 -0.025024576 -0.060002044
-0.030368257 0.020189587 -0.1063783 0.13076851 -0.025769576 0.030416774 0.11609872 -0.03448682
-0.020622492 -0.06858591 0.070134945 0.10899219 -0.02372314 0.055981316 0.021290032 0.036982827
-0.053623773 -0.04540043 0.08869301 0.035555534 -0.048516333 0.044054653 -0.021867808 0.022891382
0.10508291 -0.015349751 -0.027637048 0.021926945 -0.027511692 -0.010691125 0.06380593 0.026561465
0.09086665 0.035887137 -0.046300855 -0.014112429 0.063675575 -0.0013323426 0.0031153758 0.029415667
-0.1136945 0.039053284 0.03831199 -0.022262681 0.058954652 -0.05171387 0.101548985 0.061938312
-0.06698519 -0.02884897 -0.021075143 -0.039072987 0.019514827 -0.09615839 -0.060836222 -0.033883695
0.04693237 0.009825695 0.030708848 0.053740542 -0.018897437 0.0484629 0.11512604 -0.03959662
00000000: 1945 82bd c157 773d 2fe1 5cbd 1050 823d
00000010: cbb3 d2bc 5651 6c3d 6dc5 383d 09b4 49b9
00000020: 46df 81bd f8f8 88bd 4872 a5bc e67a 703c
00000030: 8d67 663d cfa3 093d a62f 003c 605f d4bc
00000040: 97bd 5cbc ad58 21bc d58f cfbd 3b7e 983d
00000050: e7ee bd3d 3186 233d 655d 24bd 66ee 56bd
00000060: 3024 bbbb 6301 abbc 7ec2 61bc 7730 49bd
00000070: b1b8 33bd a52a 3cbd 646b 25bd e758 813d
00000080: 8586 96bc 5125 943c 90d6 2abd 4fb1 453d
00000090: d370 283d 46a8 8a3c 5717 743b 96cc d63d
000000a0: d97f 453e d0ca 03bd f1b6 7fbc 20ac d73c
000000b0: b8d0 49bb 1458 00bd 3a1d 6d3d d806 623c
000000c0: f89e 17bd b926 e0bd 4130 b73b 3390 5c3d
000000d0: e6fb 8fbd 4d89 a13c bf85 123e ddff d1bc
000000e0: 190f 2c3c a68e 60bd ef19 e73c a191 ebbc
000000f0: bc75 51bc 2e31 c6bc 5700 cdbc b4c4 75bd
00000100: dac6 f8bc a264 a53c dedc d9bd 2ee8 053e
00000110: b81a d3bc 992c f93c 2ac5 ed3d 0d42 0dbd
00000120: 80f0 a8bc c576 8cbd e9a2 8f3d 4c37 df3d
00000130: 0857 c2bc aa4c 653d 6f68 ae3c 4e7b 173d
00000140: 9aa4 5bbd cdf5 39bd aea4 b53d aea2 113d
00000150: 10b9 46bd a772 343d 1e24 b3bc b586 bb3c
00000160: b535 d73d 867d 7bbc 1767 e2bc 23a0 b33c
00000170: 3360 e1bc d429 2fbc afac 823d 6e97 d93c
00000180: 4b18 ba3d 64fe 123d f7a5 3dbd d137 67bc
00000190: 5768 823d 00a2 aeba 552b 4c3b 20f9 f03c
000001a0: a9d8 e8bd 56f6 1f3d 09ed 1c3d 3a60 b6bc
000001b0: 6f7a 713d ecd1 53bd eaf8 cf3d 07b3 7d3d
000001c0: 882f 89bd ad54 ecbc c7a5 acbc ff0a 20bd
000001d0: 8fdd 9f3c b1ee c4bd 672f 79bd a1c9 0abd
000001e0: 283c 403d f4fb 203c 1f91 fb3c 0b1f 5c3d
000001f0: ccce 9abc 0981 463d 34c7 eb3d 1130 22bd

weight f4 [5, 128]
-0.3039399 0.22947471 -0.029121889 0.019755922 0.12203266 -0.2241876 0.29480386 -0.13324392
-0.13523136 0.18193841 -0.026922846 -0.035425693 0.14963451 0.1854281 0.13828878 -0.14829434
-0.09025646 0.060562264 0.24990076 0.1239222 0.2669734 0.07050073 -0.09073021 0.079063155
0.019613236 0.21835797 0.20501445 0.11203159 -0.026881171 -0.08782632 0.0059394753 0.04154377
0.23360197 -0.0044218297 0.1261032 0.07941143 -0.049498875 0.08803003 -0.045692436 0.38758716
0.25991443 -0.34694564 -0.075466186 -0.070179954 0.23714098 0.16250011 -0.015052569 0.051045224
-0.10448022 0.010398454 -0.09391577 0.28917208 -0.2493517 0.23981844 0.23118496 0.1559503
0.24952447 0.15970117 -0.07932568 0.21259302 0.05058377 0.2777293 -0.109269984 0.043385766
0.022298185 0.20098546 -0.094625436 0.42382962 0.11560193 0.19777429 0.07673953 -0.09230671
0.20753531 0.14614831 -0.07565872 -0.031186141 -0.036889207 -0.020494781 0.2907281 -0.29193294
-0.02027451 0.08466885 0.106629685 0.12081004 -0.019095993 0.035346407 0.0044956836 0.050353326
0.044166107 0.008374229 -0.13465652 0.30592236 0.3911993 0.022403602 0.060188204 -0.08107526
0.1276186 -0.13862245 0.06438415 0.04928295 0.22577037 0.0346953 -0.012155546 -0.11810753
0.26585737 0.27353355 0.10033412 0.2191664 0.13955274 0.045589592 0.25574556 0.01849645
-0.074612156 0.036034405 0.12972856 -0.052926987 0.18647522 0.015875854 0.29805195 -0.03189372
0.2255026 0.048413377 -0.02462374 0.069227375 -0.08086709 -0.099081926 0.06993247 0.115202725
-0.21629618 -0.15183133 -0.14993063 0.1888502 -0.31957275 -0.38204038 0.22355452 -0.2442493
0.20775315 -0.063341394 -0.16157497 0.0795281 0.21615651 -0.12414708 -0.39895537 0.22074856
-0.11650081 0.01825351 -0.31518283 0.25370663 0.05326361 0.3346639 -0.40042335 -0.032886937
0.40084583 -0.20902944 -0.093658924 0.35884476 0.006051789 0.34014064 -0.24124336 0.046414554
-0.14999081 0.03569089 -0.3528913 -0.33724475 0.07110917 0.379294 0.2438156 0.0207758
0.10563335 0.0012972852 -0.033347398 0.3880614 -0.23303899 0.1675415 0.22902721 -0.048475817
0.08722889 -0.1663501 -0.17172648 -0.2169892 0.1582993 0.35844886 0.10071204 0.36202672
-0.074373655 -0.14120276 0.15309814 0.16206765 0.022520922 0.018141838 -0.025548805 0.25022563
0.20061791 -0.12193421 -0.07359578 0.028423745 -0.3152088 0.09259464 0.09788609 -0.2361848
-0.19336838 -0.0921506 0.17276193 0.043922152 0.14003871 0.036225762 0.23362215 0.54921377
-0.14531983 -0.07234349 -0.0011729079 0.08679404 -0.03203473 0.07098194 -0.1467379 -0.23457499
-0.029789783 -0.19091937 -0.27440682 -0.14484085 -0.15613016 -0.06432975 0.58774304 -0.019116452
0.54342943 0.34293118 0.2713722 0.30429682 -0.10939871 0.3403216 0.4863359 -0.11369501
-0.07688174 0.3132118 0.30841625 0.38744324 0.14940856 -0.22347067 0.11881248 -0.05375684
-0.21247102 -0.19378988 -0.21540307 0.2617266 -0.1730424 -0.15444292 -0.09012496 0.013046801
0.3722141 0.55941373 0.07301828 0.26039818 -0.16499402 0.43646428 0.026601933 0.038325153
00000000: 039e 9bbe 6bfb 6a3e 0791 eebc 2cd7 a13c
00000010: 42ec f93d 6f91 65be 88f0 963e 1871 08be
00000020: 177a 0abe 104e 3a3e 4d8d dcbc 881a 11bd
00000030: ca39 193e dde0 3d3e 939b 0d3e 79da 17be
00000040: 61d8 b8bd 2310 783d fce5 7f3e ecca fd3d
00000050: bdb0 883e b062 903d c3d0 b9bd ddeb a13d
00000060: f0ab a03c 3b99 5f3e 4fef 513e d170 e53d
00000070: e735 dcbc 49de b3bd ee9f c23b cd29 2a3d
00000080: 5b35 6f3e ffe4 90bb 3221 013e 76a2 a23d
00000090: 55bf 4abd 1749 b43d fe27 3bbd d371 c63e
000000a0: 8113 853e dca2 b1be 048e 9abd 82ba 8fbd
000000b0: 16d5 723e 6e66 263e 0d9f 76bc cc14 513d
000000c0: baf9 d5bd 475e 2a3c e956 c0bd 5d0e 943e
000000d0: 0d56 7fbe f792 753e c0bb 6c3e 6fb1 1f3e
000000e0: 5883 7f3e b488 233e 8175 a2bd fcb1 593e
000000f0: ed30 4f3d 8932 8e3e f1c8 dfbd 46b5 313d
00000100: afaa b63c 22cf 4d3e fbca c1bd 3200 d93e
00000110: b4c0 ec3d 5885 4a3e 9d29 9d3d 4d0b bdbd
00000120: 2384 543e e7a7 153e f6f2 9abd 147a ffbc
00000130: 2319 17bd ace4 a7bc 50da 943e 3c78 95be
00000140: bb16 a6bc dd66 ad3d aa60 da3d 416b f73d
00000150: 336f 9cbc 65c7 103d 8750 933b 4a3f 4e3d
00000160: 85e7 343d 1034 093c 66e3 09be dba1 9c3e
00000170: 464b c83e c287 b73c e887 763d c90a a6bd
00000180: 73ae 023e 0bf3 0dbe d6db 833d ebdc 493d
00000190: 5930 673e a91c 0e3d 0e28 47bc 5ce2 f1bd
000001a0: 751e 883e 970c 8c3e fa7b cd3d 286d 603e
000001b0: eae6 0e3e 27bc 3a3d 15f1 823e de85 973c
000001c0: 42ce 98bd d098 133d 90d7 043e f8c9 58bd
000001d0: 5cf3 3e3e 140e 823c 449a 983e fda2 02bd
000001e0: 27ea 663e 1b4d 463d bab7 c9bc 15c7 8d3d
000001f0: a59d a5bd 77eb cabd c138 8f3d 68ef eb3d
00000200: bf7c 5dbe ac79 1bbe 6a87 19be f261 413e
00000210: 0a9f a3be cc9a c3be 7aeb 643e 7d1c 7abe
00000220: 3ebd 543e 22b9 81bd e973 25be a1df a23d
00000230: 2258 5d3e d340 febd e143 ccbe e90b 623e
00000240: fa97 eebd 6388 953c a55f a1be d6e5 813e
00000250: f12a 5a3d 1159 ab3e 4a04 cdbe 74b4 06bd
00000260: aa3b cd3e d00b 56be 40d0 bfbd 80ba b73e
00000270: 164e c63b ea26 ae3e 8008 77be 301d 3e3d
00000280: 3197 19be 9c30 123d 2bae b4be 58ab acbe
00000290: afa1 913d d332 c23e ccaa 793e 0332 aa3c
000002a0: 4c56 d83d ab09 aa3a 4897 08bd fcaf c63e
000002b0: c6a1 6ebe 0090 2b3e 1c86 6a3e 948e 46bd
000002c0: 0fa5 b23d ae57 2abe 11d9 2fbe 6b32 5ebe
000002d0: 3619 223e 9c86 b73e 1d42 ce3d 915b b93e
000002e0: 3751 98bd 7597 10be c2c5 1c3e 10f5 253e
000002f0: cc7d b83c 319e 943c ba4b d1bc 931d 803e
00000300: c86e 4d3e a5b8 f9bd 62b9 96bd ead8 e83c
00000310: 0c63 a1be 42a2 bd3d 8178 c83d 6eda 71be
00000320: 5c02 46be 74b9 bcbd 81e8 303e b7e7 333d
00000330: 4f66 0f3e 7761 143d a53a 6f3e 4699 0c3f
00000340: b9ce 14be d328 94bd 42bc 99ba 13c1 b13d
00000350: d936 03bd fb5e 913d 7642 16be 6d34 70be
00000360: b409 f4bc 5e80 43be 0d7f 8cbe 2951 14be
00000370: 96e0 1fbe 51bf 83bd 5476 163f 1b9a 9cbc
00000380: 311e 0b3f ad94 af3e 4cf1 8a3e cbcc 9b3e
00000390: 6e0c e0bd a23e ae3e 0501 f93e eed8 e8bd
000003a0: 2c74 9dbd 4c5d a03e bce8 9d3e f65e c63e
000003b0: 8ffe 183e 7fd5 64be f553 f33d 2230 5cbd
000003c0: 0192 59be db70 46be 9f92 5cbe 0701 863e
000003d0: 0732 31be 4926 1ebe 6f93 b8bd 40c2 553c
000003e0: d992 be3e bd35 0f3f 9c8a 953d e952 853e
000003f0: 31f4 28be 3f78 df3e 4cec d93c d6fa 1c3d

bias f4 [5]
0.13647412 0.0075511066 0.11915597 -0.1296474 0.061015975
00000000: dfbf 0b3e 466f f73b 0c08 f43d 4ac2 04be
00000010: e3eb 793d
