trained/exp_train_3_6_1111_0.0001_0.001_32_0.95/model/ctrl_critic_0.pth (torch, 562315 bytes, 7 tensors)

weight f4 [128, 32]
000000 8b e0 1f be fc 0e e2 3e 1d 1f 22 3e f6 47 fd 3e
       -0.15613 0.44152057 0.15832181 0.49468964
000010 86 ae f0 be 95 06 12 3f 55 bb bf 3e 71 8e 0d bf
       -0.4700815 0.57041293 0.3744761 -0.55295473
000020 a2 28 f5 3e 86 4d 12 3e 7f dd de be de 8d 86 be
       0.47882563 0.14287385 -0.43528363 -0.2628011
000030 4a 3b 14 be 28 8a 24 be 08 b9 da 3e b5 7e be bc
       -0.14475742 -0.16068327 0.42719293 -0.023253778
000040 af 0b 39 be cf b5 51 3e bf 8e 9f bd ed a6 38 3e
       -0.18070863 0.2047951 -0.077908985 0.18032427
000050 b0 80 97 3d ef 89 c8 3d 7a 4f 37 3f 2a 2c cb 3d
       0.07397592 0.09791934 0.71605647 0.09920533
000060 6e f4 13 3f c1 a7 a2 be f4 55 5f bf 81 59 2f 3f
       0.57794845 -0.3176861 -0.8724053 0.6849595
000070 28 f5 fd be b5 32 a2 be f6 ab ce bd e7 5a ef 3d
       -0.49601102 -0.3167931 -0.10091393 0.1168726
000080 85 70 ff 3c d4 cc e7 bc 42 6f e0 3e cc f4 67 3e
       0.031181583 -0.028295912 0.43834883 0.22651976
000090 8f 0c 55 3f 76 65 81 3e fd 3a 2c bf 56 13 aa be
       0.8322229 0.2527272 -0.6727751 -0.33217877
0000a0 e4 71 4d 3e ee 1a 48 bf 19 ee a3 be 70 93 98 3e
       0.20062977 -0.7816609 -0.32017592 0.29799986
0000b0 85 27 e6 3e a4 54 26 bf 56 4f e2 be ed a4 54 3f
       0.44952026 -0.649729 -0.44201154 0.83064157
0000c0 43 05 67 3d 06 3d 09 3f 95 18 cc be 83 0d b4 be
       0.056401502 0.5360874 -0.39862505 -0.3516656
0000d0 bd 4c fb be c1 24 f6 be 1a 22 23 3f c5 a9 72 3e
       -0.49081984 -0.48074916 0.6372391 0.23697574
0000e0 d5 42 0c 3f d0 f7 0b 3b 95 83 9e 3e 1c 4a b1 3d
       0.5478948 0.0021357425 0.30959764 0.08656713
0000f0 cb 33 29 bd 9b 09 03 3f 0d c3 df bd a9 ce 49 be
       -0.04130916 0.5118653 -0.10925875 -0.19707741
000100 f4 f7 c7 3d 56 e8 9f 3e 5d 03 80 3e 8b 9a c4 be
       0.0976409 0.31231946 0.25002566 -0.38399157
000110 52 dc 48 3e 11 c7 28 be f0 13 03 bf 47 bf 26 be
       0.19615296 -0.16482188 -0.512023 -0.16283904
000120 35 48 26 3d f5 33 1d bf 9d b9 84 3e 48 63 30 3f
       0.040596206 -0.61407405 0.25922862 0.6890149
000130 44 99 2f bc bd 6a 14 bf fb a5 b7 3d 9c 1d c1 3e
       -0.010717694 -0.5797537 0.08967205 0.37717903
000140 ab 7d d2 3e eb 55 9f be 23 04 f6 be 2b ef b2 3e
       0.41111502 -0.31120238 -0.4805003 0.34948096
000150 db b6 90 3f 96 2b 1e bc 9c 0a 5a bf 29 86 ce bd
       1.1305803 -0.009653946 -0.8517244 -0.10084183
000160 b5 5a dc 3e 65 bd 15 3f dc e7 86 be e2 ea f9 be
       0.43037954 0.5849212 -0.2634877 -0.48812014
000170 ec 52 d9 bd ae 63 b1 be f2 a9 e1 3d a8 75 54 bc
       -0.10611519 -0.34646362 0.110187426 -0.012967505
000180 05 b0 c0 3c 1d 34 6d be af f7 ba be 4b d3 32 bd
       0.023521433 -0.23164411 -0.36517093 -0.043658536
000190 32 4d 0e bf 12 fd 90 3e 7b ca 1a 3e d7 91 d4 be
       -0.5558654 0.28318077 0.15116303 -0.41517517
0001a0 c9 ca 61 3d c2 15 80 3e 22 28 a9 be 2e 6f 97 be
       0.05512503 0.250166 -0.3303843 -0.2957701
0001b0 03 24 17 3f b8 e0 24 3f ec 39 5d bd 0d dd db 3e
       0.59039325 0.64405394 -0.054010317 0.42942086
0001c0 12 f4 16 bf 5a 80 39 bf 10 98 23 3f a0 7c bd be
       -0.5896617 -0.72461474 0.63903904 -0.37009144
0001d0 16 6c 6d 3d 70 4f 00 3f 14 aa 00 bf 3b 22 cf be
       0.057964407 0.5012121 -0.5025952 -0.40455803
0001e0 a1 53 f6 be 45 20 02 3e 82 2d 67 3e 78 cd 0d 3f
       -0.4811068 0.12707622 0.22575954 0.55391645
0001f0 bc b3 b8 bd fa f3 c2 bd f9 0d 2c be e2 e3 a4 be
       -0.090186566 -0.09519191 -0.16802205 -0.3220511
000200 de 9c 59 be b6 34 dc 3c c2 7a b0 be d4 ca a2 3b
       -0.21251246 0.026880603 -0.34468657 0.0049680267
000210 85 99 85 3e 9a b4 89 be 07 75 9d bb 66 2c ca 3e
       0.2609369 -0.268956 -0.0048052105 0.39486998
000220 45 2b 20 3f c5 e8 28 bf 6f 8e 77 bf 9b d1 d3 3e
       0.62566024 -0.6598018 -0.9670171 0.41370854
000230 25 a1 b3 be 6f 92 8f bd ce 1c f8 3c 77 f9 5d 3e
       -0.3508388 -0.07010352 0.030287173 0.21677195
000240 49 d4 7e be 16 24 36 3f 9b ba c3 3e a6 7e 2c be
       -0.24885668 0.7114881 0.38228306 -0.16845188
000250 de f0 ae 3e a4 d6 23 bf cd 24 a3 be 88 50 fd 3e
       0.34168142 -0.6399939 -0.31864014 0.49475503
000260 0e c7 26 bd a2 b4 a7 3e b0 9f 63 bd c9 ec d4 3d
       -0.040717177 0.32755 -0.05557221 0.10396726
000270 50 ba 26 be b6 a5 11 be 58 f7 9f 3e 06 ba 90 be
       -0.1628201 -0.1422337 0.31243396 -0.28266925
000280 e7 95 03 3e 22 b3 92 be 63 0f fb 3e 0a ff b3 be
       0.12850152 -0.28652292 0.49035177 -0.35155517
000290 97 01 ad be 83 d9 3d be 93 bf 5f 3e 89 b9 9d 3d
       -0.33790275 -0.18540005 0.21850424 0.07701404
0002a0 85 8f d2 3e 74 fb 8d be b8 61 8e 3d 72 47 7a 3e
       0.41125122 -0.27730906 0.06952232 0.24441317
0002b0 66 5c d3 3e 89 6d 70 3d 97 b2 b6 be 00 73 f7 3d
       0.41281432 0.05869821 -0.35683128 0.120824814
0002c0 7f 7d 25 be 42 16 5e bf 8d 61 92 bd 81 86 ab 3e
       -0.16161154 -0.8675271 -0.071475126 0.33501056
0002d0 17 b2 9c 3f cb 24 af 3e 8a cb 49 be 5d 6c ab 3e
       1.2241849 0.34207758 -0.1970655 0.33481112
0002e0 60 6d d0 3d bf 93 6d bc 56 ec c0 3e bb 21 e4 3d
       0.101771116 -0.014500557 0.3768031 0.11139246
0002f0 57 07 d8 3d f2 81 db 3e dc 7d 0e 3d 5b e9 19 3e
       0.10548275 0.42872578 0.034787998 0.15030424
000300 1b e4 03 bd 40 c1 e0 3d 79 0f f5 be ec 89 cf be
       -0.03219996 0.109743595 -0.47863367 -0.40534914
000310 92 b8 1b 3f b1 9b 0f 3e 71 54 09 bf 08 90 8a be
       0.60828507 0.14024235 -0.5364447 -0.27063012
000320 7b ef 1e 3f 8c ab 61 be 11 5b 06 be 45 89 5c be
       0.6208417 -0.22038096 -0.13120677 -0.21536739
000330 df 2e 18 bf 00 e1 ea 3e 63 6d 00 3f 48 5a 33 3d
       -0.5944652 0.45874786 0.5016691 0.04378727
000340 d1 f1 5c bf 40 f6 12 bf 96 83 67 3e b4 9d 93 3e
       -0.8630648 -0.57407 0.2260879 0.28831255
000350 7a cb 34 bf 25 0f 23 bf 32 f4 02 3f e1 25 bd 3e
       -0.7062298 -0.63694984 0.5115386 0.36942962
000360 57 ce ae bd 59 03 24 3d af 07 b7 bd a1 28 f0 bd
       -0.0853545 0.040042255 -0.089370124 -0.11726499
000370 00 d9 ec 3d 20 84 81 3a 3f c7 af 3e 6e b8 cb be
       0.11564827 0.0009881295 0.343317 -0.39789146
000380 27 65 f4 be e3 02 f3 be fb c4 a7 3d 05 8a 01 bd
       -0.47733423 -0.4746314 0.08191868 -0.031625766
000390 c9 b2 95 be 08 44 79 3e 3c 14 3c 3e 20 ac f9 bd
       -0.29237965 0.24342358 0.18367094 -0.12191033
0003a0 22 3f 8c 3f df 10 ad 3e 92 c5 4b be 34 96 73 bd
       1.0956767 0.33801934 -0.19899586 -0.059469417
0003b0 de 92 e9 be a4 09 88 3e 42 9b 83 3e fa 0e af be
       -0.45619863 0.26569855 0.2570439 -0.34191114
0003c0 f2 3b 9b 3e 8f d6 e1 3e 4b 2d 90 3e 33 36 84 bd
       0.30319172 0.44109008 0.28159556 -0.0645565
0003d0 94 1e a3 be 43 89 bf be b0 bd 90 be c7 95 df 3e
       -0.31859267 -0.3740941 -0.2826972 0.4366896
0003e0 e8 00 29 bf b1 6f 82 bd 5d 74 b6 3e b4 43 a1 bc
       -0.6601701 -0.0636896 0.35635653 -0.019685604
0003f0 9a 08 ea 3e e7 a9 3f 3e 65 f8 35 3e e9 0f 88 3e
       0.45709687 0.18717156 0.17770536 0.26574638

bias f4 [128]
000000 cd 22 ff be 9b 11 32 bf da fd 02 3d 9a 1a 69 bf
       -0.49831238 -0.69558114 0.031980373 -0.91056216
000010 01 ac 16 3f f6 08 bd bf 49 8e 37 be 5b ca 6d be
       0.5885621 -1.476836 -0.17925371 -0.23221724
000020 b6 f1 ce bf b6 0d 33 bf 1f b3 85 3e 41 06 1f bf
       -1.6167514 -0.69942796 0.2611322 -0.6211892
000030 eb b2 10 3e 89 a9 66 be d3 44 93 bd 89 33 62 bf
       0.14130752 -0.2252561 -0.071908616 -0.88359886
000040 b4 35 1d 3e 76 8e c1 bd 93 06 16 c0 5c 3c 13 bf
       0.15352517 -0.094510004 -2.3441513 -0.57513976
000050 ee 21 1c 3f 3c 7c 8a be e3 cc db 3d eb 44 a0 3d
       0.6098927 -0.27047908 0.107324384 0.07825645
000060 1a 21 24 3f 7a 1d e4 be 66 38 2b 3e 7c 02 7c 3d
       0.6411301 -0.4455374 0.16720733 0.061525807
000070 96 d5 5e be 79 da 7a bc 7d 65 86 bf c1 e5 bf bf
       -0.21761164 -0.015310877 -1.0499722 -1.499199
000080 d2 84 5e bf ce 82 cf 3d 09 49 7e bf 1d fc 06 bf
       -0.8692142 0.10132371 -0.9933019 -0.52728444
000090 ce ef e1 be 08 38 9c bf 1a e0 c0 bc a1 e2 c2 bf
       -0.4412827 -1.2204599 -0.02354436 -1.5225412
0000a0 9e fd 1b 3f 28 d5 5d bb bd f1 70 be 8b 08 49 be
       0.60933864 -0.0033848975 -0.23529716 -0.19632165
0000b0 f1 bb 6b 3e e7 fa ab bf 43 8f f3 bf e6 ad 4c bd
       0.23020913 -1.3435944 -1.9028095 -0.04997053
0000c0 98 79 0c be cd 71 8a be ba 33 87 bf 37 31 8c be
       -0.1371826 -0.27039948 -1.0562661 -0.27381298
0000d0 b0 56 4e be 98 4e 9b 3a 6a 0c 6c bf fd c9 55 bf
       -0.20150256 0.0011848984 -0.9220644 -0.83511335
0000e0 7d 12 f8 3e a6 90 0a c0 a5 11 16 bf 36 f4 c0 bf
       0.48451605 -2.1650786 -0.58620673 -1.5074527
0000f0 59 a0 06 bf 85 a2 81 be 7f c6 e0 3d d1 19 c1 3e
       -0.5258842 -0.25319305 0.1097536 0.3771501
000100 d8 00 9d bf 33 79 f3 be 37 34 94 bf bf 90 06 bf
       -1.2265882 -0.47553405 -1.1578435 -0.52564615
000110 d8 2e ca be d6 41 7e 3c ff 83 93 be 09 a6 eb 3e
       -0.39488864 0.015518626 -0.28811643 0.46025112
000120 69 48 c7 bf db 79 10 be f1 95 13 bd 63 43 f5 bd
       -1.5568973 -0.14108984 -0.036031667 -0.119757436
000130 1d e6 fe be 51 d5 bc 3d ef c0 9c 3e ac c9 26 bf
       -0.49784938 0.092203744 0.30615947 -0.65151477
000140 c1 61 2f bf db c2 63 be 06 26 8d be 6f a0 26 3f
       -0.68508536 -0.222423 -0.27568072 0.6508855
000150 16 b5 f9 be f8 b7 d2 be 79 eb 85 bf 17 2d ec be
       -0.4877097 -0.41155982 -1.0462486 -0.4612815
000160 59 57 2e 3f 98 e4 16 3d 6e 1f 4d 3f 6a 3a 9d be
       0.6810203 0.036839098 0.8012608 -0.3070863
000170 f1 d5 30 3d fa e1 24 bc 00 46 a5 be b3 6a ab be
       0.04317278 -0.010063643 -0.32279968 -0.33479843
000180 3a 0d f3 be 57 7e 43 3e 74 ab 48 bf 34 fc ef 3d
       -0.4747103 0.19091164 -0.78386617 0.11718026
000190 24 99 8d bf ce f2 b2 3d c1 36 b6 bf 9e 7d e4 be
       -1.106236 0.087377176 -1.423546 -0.44627088
0001a0 40 ed 57 bf cd ab 12 be a8 f6 b5 bd 3b b0 70 bf
       -0.8434639 -0.1432335 -0.088849366 -0.94018906
0001b0 d8 44 ee 3d 08 c6 be 3d 02 2e 8a bf 9a 24 b0 bf
       0.11634225 0.09315115 -1.079529 -1.376117
0001c0 dd 2f b9 be cf a2 99 bf 34 2b d1 3b c6 85 c5 3d
       -0.3616933 -1.200281 0.006383324 0.09644656
0001d0 d9 85 db 3e 7d 66 b1 3d 4b 63 0e 3c 3f 86 44 3f
       0.42875555 0.08662126 0.0086906655 0.76767343
0001e0 cb fc 03 bf a8 21 ce 3d c6 62 d0 bf 4f 1f 20 3d
       -0.51557606 0.10065013 -1.6280143 0.03909236
0001f0 30 35 41 be b9 1f 9f be d1 67 2b bf ef f4 a0 3e
       -0.18867946 -0.3107889 -0.66955286 0.3143687

weight f4 [256, 399]
000000 ad 2c 27 3d c2 6f fb be 66 80 03 3f 77 1c 39 3f
       0.04081409 -0.49108702 0.51367795 0.7230906
000010 42 61 05 bf 7e d4 e1 bd 91 84 39 3d fd 97 cb be
       -0.5210153 -0.11026858 0.04529244 -0.39764395
000020 67 74 84 bf b7 46 01 3e 1d b2 d4 3e 29 0c f6 bc
       -1.0348023 0.12624632 0.4154214 -0.030035095
000030 8f 06 a2 3c 45 9a b2 3c 67 19 c4 be 04 38 98 3d
       0.019778518 0.021802077 -0.3830063 0.07432559
000040 e1 c2 4b bf fc 4a 10 be 65 a3 f5 be fc fe 1f be
       -0.79594237 -0.14091104 -0.47976223 -0.15624613
000050 7a 8c 83 be dc 19 10 bf 6a 11 23 bf 1b 81 95 3e
       -0.25693113 -0.5628946 -0.63698447 0.29200062
000060 c2 95 49 3e 14 e4 f9 bd a6 6c a7 be 6f fc 77 bf
       0.19686034 -0.122017056 -0.3270008 -0.9686956
000070 96 4b 7f 3d 1a 1f 81 3e d1 cf 02 3f 73 cc 31 bf
       0.062327944 0.2521904 0.5109835 -0.6945259
000080 d6 be 83 3d ad 5a 67 be 67 9c 46 3e 3f a5 8d bc
       0.064328834 -0.22593184 0.193956 -0.01729071
000090 17 1f 83 be 20 a5 a4 be 33 f8 32 3e 53 5d 5b bf
       -0.25609657 -0.3215723 0.17477493 -0.85689276
0000a0 93 9a da bd d8 5e 1b 3f d3 3d c0 3d 3a 8b 36 bf
       -0.10674014 0.60691595 0.09386792 -0.7130619
0000b0 f9 91 85 3e 2a db fd be bd 1c a6 3e 39 8c 4a 3f
       0.2608793 -0.4958127 0.324438 0.7912021
0000c0 33 89 7e be e9 b2 95 3e 37 2c ce 3d 8c b5 9a 3d
       -0.24857025 0.2923806 0.10067027 0.075541586
0000d0 48 b0 f1 bd 55 09 6e bd 2c fb f4 be ab d6 a3 3e
       -0.11801201 -0.05811437 -0.4784788 0.31999716
0000e0 19 be 6a bc 15 94 eb bd 13 63 4c bf b7 3f 25 bc
       -0.014327549 -0.11502854 -0.79838675 -0.010085992
0000f0 5d 2f db 3d 39 73 ff 3b 39 a6 3e 3d 57 7f fd 3c
       0.10702393 0.007795718 0.04654524 0.03094451
000100 06 1f 68 3e fd be 60 3e 3c 9e 22 bf 05 5a 19 3e
       0.22668085 0.21947856 -0.63522696 0.14975746
000110 c3 cc 46 be 9a 86 7d 3e 50 28 b4 bd 72 41 43 3e
       -0.19414048 0.24758378 -0.087967515 0.19067934
000120 64 4b 00 be 4c f0 8f bd 2d f6 7a 3f 59 c1 3c be
       -0.12528759 -0.07028255 0.98031884 -0.18433131
000130 bb 96 1b bf e2 e8 80 bf 0c c9 13 be 3f dc 1e bc
       -0.6077687 -1.007107 -0.14432162 -0.009696065
000140 56 76 34 3e 60 d7 3b 3d b6 7c 33 be 61 7f bf bf
       0.17623267 0.045859694 -0.17528042 -1.4960748
000150 12 5b 8d bf 24 ae 4b 3d 22 f9 24 3f f0 d1 6f bd
       -1.1043417 0.04972662 0.64442647 -0.05854982
000160 07 2e 5d 3e 6a b6 9e be d8 a7 0f 3d c6 c2 4f be
       0.2159959 -0.30998546 0.035072178 -0.20289144
000170 57 22 4f 3d b9 73 94 be 69 66 01 bf 39 3d 68 bf
       0.05056986 -0.2899454 -0.5054689 -0.9071842
000180 33 d2 2e 3f 64 7c 55 3e d2 87 fd be b4 1d 98 be
       0.6828949 0.20848233 -0.49517685 -0.29710162
000190 53 5c 7a 3e 3e fc 0b bf 42 cb 15 3e 45 97 01 3f
       0.24449281 -0.54681766 0.14628318 0.50621444
0001a0 9e 8e ad 3e a3 e8 2a 3e d3 ed fc 3e 61 3f 42 3c
       0.3389787 0.16690306 0.49400195 0.011855931
0001b0 e9 7e 88 3e a0 a4 ad 3e 98 7b 53 3e 2a 5e 52 3f
       0.26659325 0.3391466 0.20652616 0.8217493
0001c0 bd 85 59 bd 21 ab 3a be 17 2f b3 3d 19 9b 09 3f
       -0.05310606 -0.18229343 0.08749216 0.53752285
0001d0 f1 4a 19 be f0 ff 67 3e 78 bb 2d bf 32 b6 ed 3d
       -0.14969994 0.22656226 -0.6786418 0.116070166
0001e0 e5 6d db 3d b2 57 ce 3d 07 32 e5 3e 0e a4 b2 3e
       0.1071432 0.1007532 0.4476473 0.3489079
0001f0 be 2c f3 be b4 8a 24 3f 35 85 14 bd 2a f1 60 bf
       -0.47495073 0.64274144 -0.03625985 -0.8786799
000200 9d 2e bb 3f 6a 7c 0a 3f e6 16 16 3e ad 60 c6 3f
       1.46236 0.5409609 0.14657173 1.5498253
000210 29 fd 79 3f 65 2d 06 bf b2 b2 39 bf 65 ed bd 3e
       0.97651917 -0.52413017 -0.7253829 0.3709518
000220 23 60 a4 3e 7f 85 49 be a6 66 8a 3d a1 13 4b bf
       0.32104596 -0.19679831 0.0675786 -0.79326826
000230 5f d5 90 bf d6 67 68 bf 03 62 db be 21 86 cd 3d
       -1.1315116 -0.9078344 -0.42848215 0.10035349
000240 0d 42 74 3d 65 a2 af 3d aa e8 13 3f e4 cc 6c be
       0.059633303 0.08575896 0.5777689 -0.23125035
000250 9f 5c 17 3e d2 2c bd be 9b cc c9 be 53 79 88 be
       0.14781426 -0.36948258 -0.39413914 -0.26655063
000260 80 bb 08 bd eb bf 31 bf 82 11 ed be b9 5f 69 bf
       -0.03338194 -0.6943347 -0.4630242 -0.91161686
000270 20 d6 79 bf 57 9e 63 be 29 d6 b6 be 7e 2f 28 3f
       -0.97592354 -0.2222837 -0.35710266 0.6569747
000280 79 11 91 be 2a fd f8 bc fc e3 2c be 43 37 13 3f
       -0.28333643 -0.030394156 -0.16883844 0.575062
000290 29 b5 c8 3d 26 cd f2 be 7c 9e 63 3c 51 8a a0 be
       0.098001786 -0.4742214 0.013892766 -0.31355527
0002a0 a0 fd 37 3f fd ef d0 be 05 ba 86 bd 1d c0 a3 be
       0.71871376 -0.40808097 -0.06578449 -0.31982508
0002b0 24 ce a3 bc 2b 86 0b bf 92 4e 4e 3d 48 e3 a4 3e
       -0.019995756 -0.545016 0.0503679 0.32204652
0002c0 b5 b5 3a bd c9 99 34 3e 50 ad 8e 3e 9a 2b a8 be
       -0.045583446 0.1763679 0.27866602 -0.32845765
0002d0 ff 1a 13 3f 78 31 3c bf a7 7e 91 bf fe 85 55 3e
       0.5746307 -0.73512983 -1.1366776 0.20851895
0002e0 74 a0 44 3e fa 7c 1d bf f3 f1 b0 bc 72 77 d5 bd
       0.19201833 -0.61518824 -0.021599745 -0.10423173
0002f0 94 c3 b9 3e b6 49 8c 3e 9c 9e 13 be 0f 5e 20 bf
       0.36282027 0.27399987 -0.14415973 -0.6264352
000300 3f 41 a3 be 1a fa 88 3e cb 69 1d 3e 27 10 a4 3e
       -0.31885716 0.26753312 0.15372388 0.32043573
000310 7c 3f 98 be 2d 54 80 be 78 b1 20 bf c3 15 b1 be
       -0.29735935 -0.2506422 -0.62770796 -0.34586915
000320 f5 cb d2 3d f5 fa fb ba ed 29 ba 3e be 76 10 be
       0.10292808 -0.0019224571 0.36360112 -0.14107797
000330 ba be 24 bb a0 2f 3a bf 26 b9 dc bd bc 38 f1 bd
       -0.0025138096 -0.7272892 -0.10777502 -0.11778399
000340 69 f3 72 bf 3f 97 fe 3b df f4 5d bf 77 a1 8e 3e
       -0.94902664 0.007769495 -0.8670177 0.27857563
000350 9e e9 da 3d 2f 13 cc 3c 0b 23 20 bc 5a 87 b0 3e
       0.1068909 0.024911491 -0.00977398 0.34478265
000360 62 01 ab bf 1e b3 26 be 3e dd c7 3e f6 ee f3 be
       -1.3359797 -0.16279265 0.39035982 -0.4764325
000370 e7 2f 57 3e b9 aa dd 3d 4f 6b 90 3e 7c 46 10 bd
       0.21014367 0.108235784 0.2820687 -0.03522347
000380 bc 6b 04 3e 69 c2 d7 3d 6f 3e e0 be 29 9e 4e bd
       0.12931722 0.10535128 -0.43797633 -0.050443802
000390 8d d9 b7 bf 7e 85 e0 3d 62 66 b3 3e f0 a8 9b bf
       -1.4363266 0.109629616 0.3503905 -1.2160931
0003a0 b9 c3 08 bf d3 c8 aa 3e e3 8d 66 bf 10 24 02 be
       -0.5342365 0.33356342 -0.9006025 -0.12709069
0003b0 60 61 de 3e 61 15 bd bd f0 f0 7c bf f1 26 0e 3f
       0.43433666 -0.09232593 -0.9880514 0.5552817
0003c0 10 88 e7 be 69 ff 94 3d 4f 7c 2d bf 90 df 53 be
       -0.45220995 0.07275278 -0.67767805 -0.20690751
0003d0 85 a3 cc 3e 59 4b b6 3c 32 f6 97 bf 3a c4 e1 bd
       0.39968506 0.022252725 -1.1872008 -0.11023755
0003e0 f1 cf b9 3d 2f ed 84 3e 94 dd 06 3f d2 8c 03 3c
       0.09072865 0.25962207 0.5268185 0.00802918
0003f0 d1 b9 96 3e f2 31 25 bd cd 2f 17 be fc 9a 38 3e
       0.29438642 -0.040330835 -0.14764328 0.18027872

bias f4 [256]
000000 f3 de 58 3f a7 c5 32 3b 77 de 6e bd a9 f6 3f 3e
       0.84715194 0.0027278455 -0.058317628 0.18746437
000010 2e 05 a4 3c d0 b2 0f 3f 24 f9 3f bd 70 de 33 bc
       0.020022001 0.5613222 -0.04686846 -0.010978326
000020 e3 55 18 3e 11 f8 2e 3c 39 b4 6e bd 0c ae 9d 3e
       0.14876513 0.010679261 -0.058277342 0.3079685
000030 a3 ad c9 bd a6 ac 06 3e 02 fd ab 3f cd af 1e 3f
       -0.09847572 0.13151798 1.3436587 0.61987
000040 b0 ee b5 3f 9f 80 28 3f db c0 c1 bb ca 4a 20 3d
       1.4213467 0.6582126 -0.0059128827 0.039133824
000050 8b 76 cb bc d2 3b ad 3f 24 af 4f bd 8f 6d 27 3b
       -0.0248368 1.3533881 -0.050704136 0.002554748
000060 26 fe bf 3e 7a 57 c2 bc 78 14 15 3e e3 61 87 3f
       0.37498587 -0.023723353 0.1455859 1.0576748
000070 9e c3 b7 3c a3 f6 43 be 51 09 6e bf 04 46 00 3f
       0.022432145 -0.19137053 -0.92982966 0.50106835
000080 a4 e3 95 3e a7 a9 ab bc da 32 4a 3e 7e b1 a1 3b
       0.2927524 -0.02095492 0.19745961 0.004934489
000090 50 03 88 3c d8 90 38 3b 08 b0 25 3f a0 cf ae be
       0.016603142 0.0028162505 0.6472173 -0.3414278
0000a0 d0 65 8a bd e8 11 8c 3e bd 33 e7 bc 27 1e 29 3e
       -0.067577004 0.2735741 -0.028222913 0.16515408
0000b0 fc 0c 5b bf 84 f8 dc 3e c6 94 8e 3e 87 e5 b4 3f
       -0.8556669 0.43158352 0.2784788 1.4132546
0000c0 e5 58 fb 3d ae 45 bf 3e f9 6b fb 3c 31 1e ae bd
       0.12272815 0.3735785 0.030691134 -0.08501852
0000d0 dd 26 c0 3e 39 fc f9 3c fa e5 71 3f 44 dc 14 3f
       0.3752965 0.030515777 0.9449154 0.581486
0000e0 5c 22 b1 3b e2 4f 17 3f fe 8e 32 bf 24 04 ad 3e
       0.0054057073 0.59106266 -0.6974944 0.33792222
0000f0 57 5b 6e 3a 22 eb 12 bf 40 8e 10 3f 7a c3 3d bf
       0.000909259 -0.57390034 0.56467056 -0.741264
000100 0e 50 91 bd 62 3e 09 3f 06 13 46 3e 53 c6 a9 3c
       -0.07095347 0.53610814 0.19343194 0.020724451
000110 93 a1 8e 3d 9c 3f 0f bd 6d 7c c2 3e 47 22 fe 3e
       0.069644116 -0.034972772 0.37985554 0.49635527
000120 b3 52 18 bd fb 23 ec 3d e0 79 f3 3e c1 26 aa 3d
       -0.037188243 0.115303 0.4755392 0.08308173
000130 be f3 1d 3e f1 77 1a 3f 1c 88 87 bc 1b ed 81 3e
       0.15425012 0.60339266 -0.016544394 0.2537621
000140 63 72 54 3e a7 22 24 3e cf e6 b8 3e 0a 4e ab 3e
       0.2074676 0.16028844 0.36113593 0.33457977
000150 5d 4f 9c 3d dc 5b dd be 40 eb 85 bd 53 42 05 be
       0.07632325 -0.43234146 -0.06539011 -0.13013582
000160 50 f0 f9 3c f7 6c 73 3e 52 07 2b bd 4a f3 fa 3e
       0.030510098 0.23772036 -0.041755028 0.4901374
000170 cb 3d 35 3e 42 bb 2d 3f 8a d2 29 bf 73 e2 e1 bc
       0.17699353 0.6786386 -0.6633688 -0.0275738
000180 ca d4 75 bd 33 e3 d5 be 2b 97 1c bc 4c 35 85 bd
       -0.060017385 -0.41774902 -0.009557526 -0.06504306
000190 07 ae 73 3c 1a 0d 5a 3e 78 54 46 bd dc 8f 27 3f
       0.014873034 0.2129406 -0.0484204 0.65453887
0001a0 57 1e ea 3e 71 c2 d7 be 44 14 4a 3d 84 92 24 3e
       0.45726272 -0.42140535 0.049335733 0.16071516
0001b0 ae a2 aa 3d 28 d9 12 3e bb c6 89 bd 81 06 23 be
       0.0833181 0.14340651 -0.06727358 -0.1592045
0001c0 9a cc a0 bd 26 e0 18 bb 46 ad a0 bd 4c e4 87 3f
       -0.07851525 -0.0023326962 -0.07845549 1.0616546
0001d0 13 2d f7 bc 70 29 34 bc ea fa e5 3b 87 5e 19 bf
       -0.03017286 -0.010996208 0.0070184367 -0.5990986
0001e0 03 d9 4a bd 9f de dd 3c ad bc 43 bc f2 96 df 3d
       -0.049523365 0.027083693 -0.011946839 0.109174624
0001f0 5f fa 10 bd 30 ea 80 bd 1e 9a ea bd ca 7e 4f 3f
       -0.035395022 -0.06294668 -0.11455177 0.8105284
000200 2d cd 23 bc 20 e2 85 3d e9 76 88 bc 65 ae 25 3e
       -0.009997648 0.065372705 -0.016658263 0.16179807
000210 0a e6 3c be 16 14 c5 3e 6c 2e cf bc fb d8 af bd
       -0.18447128 0.38491887 -0.02529069 -0.085863076
000220 25 d0 16 bd 19 0b 86 3c 9a 7a 35 bd 33 00 69 3d
       -0.036819596 0.016362714 -0.044306375 0.056884956
000230 2a 9b 67 bd 4a 5b 85 3f 6b 11 9b 3d d6 60 37 3e
       -0.05654446 1.0418484 0.075716816 0.17908034
000240 6b e2 4d 3f e2 48 58 3e da 7a e6 bc 2d a7 a8 bc
       0.8042361 0.21121553 -0.028134752 -0.020587528
000250 4a 30 5d 3d ba 4a b4 3d 35 ef 18 3f 0d d3 01 3d
       0.05400113 0.088033155 0.5974 0.031695414
000260 82 59 28 3f 4f 2b de 3c 0a d7 dd be 3e c6 04 3f
       0.6576158 0.02712026 -0.43328124 0.51864994
000270 6b da b3 3f 75 ce 97 bc 7d 11 01 bd 3f 49 0d 3f
       1.4051031 -0.018531064 -0.03151082 0.5518989
000280 28 3c 5a bf 84 b0 d4 bb 94 9d 46 bd f7 e2 2b bd
       -0.8524804 -0.006490769 -0.048490122 -0.041964497
000290 bb fc f1 bc 2e 52 a3 3f 8d 8a 66 3f ee 3b 32 3f
       -0.029539457 1.2759454 0.9005516 0.69622695
0002a0 85 7a cc bc 05 a4 e7 3e 76 a4 54 3e 23 e2 40 3f
       -0.024960766 0.45242324 0.20765862 0.7534506
0002b0 ce 6f 92 3f 3f 89 b0 3e 2b 94 00 3f 33 ba 8e 3f
       1.144037 0.3447971 0.50226086 1.1150573
0002c0 31 a1 7e 3d 0e 78 72 bd d1 28 33 3d 02 e6 02 3d
       0.062165443 -0.059196524 0.043740097 0.031957634
0002d0 9a 9b 24 3f d2 e7 06 3f 9e f7 9f 3f 9e f0 7a 3f
       0.6429993 0.5269748 1.2497442 0.980234
0002e0 ef d6 71 bd d5 c3 5c be a3 ea 50 3e 36 03 07 3f
       -0.059042867 -0.21559079 0.20402007 0.52739275
0002f0 11 63 90 bc 57 c0 3f 3e df 6e 27 3b 34 65 ce be
       -0.017625364 0.18725716 0.0025548262 -0.40311587
000300 ad 16 14 3c 87 cf 65 3d c9 65 ea 3c 69 ad 9e 3e
       0.009038609 0.056106117 0.028612988 0.30991676
000310 c6 27 e8 3e a8 43 dd 3d 3f cb 95 3e 20 39 2a bd
       0.45342845 0.1080392 0.29256627 -0.041558385
000320 38 d5 15 bf c9 b6 0d 3f c7 f8 27 3e 8d 2c bc 3e
       -0.5852847 0.55357033 0.16403495 0.3675274
000330 68 c3 1d bd 6b 55 74 bf 91 5e e2 3e cf ce 17 3c
       -0.038516432 -0.9544284 0.44212773 0.009265616
000340 51 f7 77 3b 2c 73 ce 3e c3 0d 3e 3f 0e a5 ac 3f
       0.003783662 0.40322244 0.7423975 1.3487871
000350 b7 92 9b 3e d8 b8 98 bc 77 76 c0 3d 29 de 04 3f
       0.30385372 -0.018642828 0.093975954 0.5190149
000360 7c 98 9b 3c 0f b8 61 bd 8e b1 4b bd b9 07 81 3e
       0.018993609 -0.055107173 -0.049729876 0.25201204
000370 10 3b e9 3e 71 e8 43 bd 92 ef ab bd 25 0f 01 bf
       0.45552874 -0.047829095 -0.08395304 -0.50413734
000380 cf 5c aa bc 63 8e 39 3e 39 17 7f 3e 24 74 90 3e
       -0.020796208 0.18120722 0.24911202 0.28213608
000390 b5 1d 2b 3e 50 48 b0 bb 2a 25 1e 3c ef 55 ea 3e
       0.16710551 -0.005379714 0.009652415 0.45768687
0003a0 4c 0d ad 3e f8 68 a6 3f 57 f7 81 3e 55 19 d2 3e
       0.33799207 1.3000784 0.25384018 0.41034952
0003b0 52 23 b4 be 7a 95 7c 3e 5b e2 f6 3d c5 7e ef 3e
       -0.35183197 0.24666396 0.12054893 0.46776405
0003c0 16 4d 25 bc a2 9a 03 bf 8f 14 8c 3e be 4e 86 bd
       -0.0100891795 -0.51407826 0.27359435 -0.06557988
0003d0 da e4 c5 3d af eb 7e 3d 83 84 58 bc 6e 6b 04 3e
       0.096627906 0.062236484 -0.013215187 0.12931606
0003e0 89 e5 e4 3d c5 97 52 bd 01 e6 4f 3b ac 0d eb bd
       0.11176593 -0.05141427 0.0031722786 -0.11477217
0003f0 af 69 ee 3c 84 f0 90 3e 0f bf c1 3e ae 8f 5e bd
       0.029103128 0.283085 0.3784108 -0.054336242

weight f4 [128, 256]
000000 85 9a a4 bc 50 24 d8 bb 36 69 66 bd af 30 a4 3c
       -0.020093212 -0.0065961257 -0.05625268 0.020042745
000010 a6 a3 41 bd 0e 19 41 3d 00 7f 8b 3c 80 fd 34 bc
       -0.047275208 0.047143035 0.017028332 -0.011046767
000020 40 3a 28 3d 60 56 ad 3b 04 d4 f0 bc fc 31 5d 3d
       0.041071177 0.0052898377 -0.029397972 0.054002747
000030 5e d8 36 3d 9c 05 18 3d af b5 89 bd 4c dd 85 bd
       0.044639938 0.037114725 -0.067241065 -0.0653635
000040 2e a2 6c bd ee 7f 86 bd 87 f7 8a bd bf 65 48 bc
       -0.057771854 -0.065673694 -0.06785493 -0.012231289
000050 64 f8 3c bd 3b 3c b7 3c 80 d3 4a bd 58 4c 7a bd
       -0.04613532 0.022367587 -0.04951811 -0.061107963
000060 ff 78 9b 3c 38 00 78 bc aa 90 55 bd 76 b8 58 bd
       0.018978594 -0.015136771 -0.052139916 -0.05291029
000070 6c 20 9e 3c b8 c5 30 3d 20 eb 96 bb 40 5e 76 bb
       0.01930257 0.04315731 -0.004605666 -0.0037592798
000080 96 a6 58 3d b8 a2 4a 3d c0 0e 1f bd f7 e1 12 bd
       0.052893244 0.049471587 -0.038832426 -0.035860028
000090 00 70 20 ba e6 08 1c 3d 01 34 c5 bc 90 55 d7 bc
       -0.0006120205 0.038094424 -0.024072649 -0.026285917
0000a0 fb 71 4f bd 0a 25 22 bd 36 c4 7b bd 4a 31 5d 3d
       -0.05064581 -0.039586104 -0.06146642 0.054002084
0000b0 58 88 48 bc 98 64 0c bd 9f 23 84 bc 40 de 73 bd
       -0.012239538 -0.03427562 -0.016130267 -0.059538126
0000c0 cc 94 f2 3c e0 28 63 3d c5 d2 69 bc e2 d1 83 bd
       0.029611968 0.055458903 -0.014271443 -0.06436516
0000d0 96 c0 79 bd b4 a6 37 bd e6 a8 52 3d ca 57 3d 3d
       -0.06097468 -0.044836715 0.051430605 0.0462263
0000e0 9c e8 4f 3d 10 62 51 bd e0 92 16 bc fa e8 10 3d
       0.050758943 -0.05111891 -0.009190291 0.035378434
0000f0 48 2c 48 bd 4e 01 43 3d 1e 55 65 3d 45 cc 5e bc
       -0.048870355 0.047608666 0.055989377 -0.013598506
000100 97 75 25 3b b6 17 6b 3d 76 6b 82 bd 06 6c 69 bd
       0.002524709 0.05739566 -0.06368153 -0.056987785
000110 8f f2 83 bc e5 7a 4b bd 50 49 1b bd 09 d8 88 bd
       -0.016106872 -0.04967775 -0.037911713 -0.066818304
000120 3c a2 f7 3b 0e 0e 06 bd 3e 71 74 bd d8 d1 c7 bc
       0.0075571816 -0.032728247 -0.05967831 -0.024392053
000130 1c 07 b8 3c c1 41 85 bd 7c 57 12 3d 69 29 06 bc
       0.022464328 -0.06506682 0.035727963 -0.008188584
000140 ec 04 f3 3c 0a 34 f5 3c 3b cc cf 3c 10 e8 3c 3d
       0.029665433 0.02993204 0.02536594 0.04611975
000150 64 d7 58 bd 0c ec f0 bc d0 16 17 bc 7a f2 11 bc
       -0.052939788 -0.02940943 -0.0092217475 -0.008907909
000160 31 06 3d 3b b0 cb 86 3c 4c 3e 4c 3d e0 01 c6 3c
       0.0028842802 0.016454548 0.0498641 0.024170816
000170 06 a2 f4 bb 60 33 0b 3d 40 8c c4 3b 7c 6d 93 3c
       -0.0074656038 0.033984542 0.0059981644 0.017996542
000180 e8 41 22 3c 90 4c 72 3c 49 d7 fb bc 9c fc 2d bd
       0.009903409 0.014788762 -0.030742304 -0.042477235
000190 eb bd 82 bd 75 93 df bc 70 71 1a bd c6 a6 1a 3d
       -0.0638388 -0.027291993 -0.03770584 0.037756704
0001a0 f4 e2 08 3d 26 9a 5f 3d c8 ce 76 bb 4d ed 06 bd
       0.033419564 0.054590367 -0.0037659872 -0.03294115
0001b0 61 e8 a6 bc 05 1b 9f bc 20 a3 a2 bb b0 fb 7c ba
       -0.020374479 -0.019422064 -0.0049632937 -0.00096505415
0001c0 00 8a 34 3c 6e ca 3b bd 20 a8 39 3d 20 67 82 bb
       0.01101923 -0.04584735 0.045326352 -0.0039795786
0001d0 c0 2b 4e bd 5e 1b 6e bd 7a f3 06 3d 70 11 c4 3c
       -0.050334692 -0.058131568 0.03294704 0.023934096
0001e0 94 cf c6 bc 00 42 86 bb 4a d3 56 3d 64 0e 21 3d
       -0.024268903 -0.0040972233 0.052447595 0.039320365
0001f0 38 4c 3c 3d 1a 90 33 3d f8 cd 2f 3d 42 9e 34 bd
       0.045971125 0.043838598 0.042921036 -0.04409624
000200 e4 a5 91 3c 9e 96 3e 3d cd 9d 9b bc ec 3c 25 bd
       0.017779298 0.04653036 -0.018996144 -0.040341303
000210 7d ed ae bc f0 88 09 3c 14 a2 65 bd cc 6d b5 bc
       -0.021353478 0.008394465 -0.056062773 -0.022147082
000220 06 57 68 bd 9b 3a 98 3c a7 f9 eb 3c 78 e7 09 3c
       -0.056723617 0.018582633 0.028805567 0.008417003
000230 5e 25 ce 3c 2a 47 55 bd 30 44 3d bc a4 aa b4 3a
       0.025164302 -0.05206982 -0.011551902 0.0013783765
000240 2c 9a 78 bd 39 f9 b8 bc 2e e0 69 bd 20 39 31 bd
       -0.060693905 -0.022579776 -0.05709856 -0.04326737
000250 46 c8 3e bd 1d 87 d2 bc 48 22 1a 3d d7 47 e0 bb
       -0.046577714 -0.025699193 0.03763035 -0.0068445015
000260 dc 92 aa 3c ed 8b c8 bc 4f 0e a5 3c 0e 12 f5 3c
       0.020821981 -0.024480784 0.020148424 0.029915836
000270 22 1b 66 bd ba 22 6c bd 10 22 25 bd 42 19 2e 3d
       -0.05617822 -0.057650305 -0.040315688 0.042504556
000280 d0 b9 6e bc 8e 6f 7d 3d ba 71 61 bd c8 53 61 bc
       -0.014570668 0.061873965 -0.0550401 -0.013752885
000290 cb fc b6 3c 87 dd 3b bc 1e 6b 23 bd 62 1a 2e bd
       0.022337338 -0.01146639 -0.039897077 -0.04250563
0002a0 b4 4a 58 3d c6 e4 63 bd 82 97 6c bd 82 86 0a bd
       0.052805617 -0.055638097 -0.057761677 -0.033819683
0002b0 c0 3b 7b bd 38 14 27 3c ec 4c 04 bb 8c 1f f2 bc
       -0.06133628 0.010197692 -0.002018745 -0.029556058
0002c0 36 4a 09 3d 23 d0 c8 3c b8 4a 45 bd c0 e4 1a bb
       0.03351804 0.02451331 -0.04816696 -0.002363488
0002d0 f0 59 21 bd 8c b2 5e bd 0c cd 9f bc 00 ec aa 38
       -0.03939241 -0.054369494 -0.019506954 8.15019e-05
0002e0 c8 cb fd bc 10 61 8d 3b a0 43 a5 bc d0 cb 38 bd
       -0.03098096 0.0043145493 -0.020173848 -0.045116246
0002f0 ec 55 f8 bc b6 f5 93 bb 16 f6 5a bd c8 3e 1d bd
       -0.030314408 -0.004515375 -0.053457342 -0.03838995
000300 35 b7 56 3b 78 35 5a bd 64 2e 78 bd 31 46 5f 3b
       0.0032763008 -0.053273648 -0.060591117 0.0034068937
000310 32 1b 43 3d c2 ff ad 3c 47 f5 7f bb 94 5f 5f 3d
       0.047633357 0.021240119 -0.0039056109 0.05453451
000320 47 cb 03 bd ca b3 eb ba 06 48 05 bc 7c e8 2e 3d
       -0.032176282 -0.0017982658 -0.0081348475 0.042702183
000330 c0 9b 5f bc 30 e1 03 3d 55 7d ba bc 17 ce 90 ba
       -0.013647974 0.032197177 -0.022764841 -0.0011047748
000340 8a 6c 1a bd fe ff 88 bc f4 33 7a 3a ea 3c 2d 3d
       -0.037701167 -0.01672363 0.0009544485 0.04229442
000350 4d c3 dd 3c e8 3a 31 bc 80 2c e2 3a 08 f8 15 bd
       0.027070666 -0.010817267 0.0017255694 -0.036613494
000360 a9 74 da 3b 08 af b8 3b 6c cf 33 3d 84 e2 28 bd
       0.006666739 0.0056360997 0.043898985 -0.041231647
000370 10 f2 67 bc 10 46 da bb 88 28 28 3c 07 a0 86 3b
       -0.014156833 -0.006661184 0.01026357 0.004108432
000380 00 39 69 3c 28 cb 6c bd ce 0c 5e bd b6 06 08 3c
       0.014234781 -0.057810932 -0.05421143 0.008302381
000390 28 f2 5f 3d 8c 85 0a 3d 8c 3e 9d bc 90 77 a0 3b
       0.054674298 0.033818766 -0.019194864 0.0048970655
0003a0 10 54 09 bc 44 37 91 bc e0 87 f0 3c 70 10 54 bd
       -0.0083818585 -0.017726548 0.029361665 -0.05177349
0003b0 60 be de 3c 1c 7f 9c 3c 79 98 ce 3c 30 cc 92 3c
       0.027190387 0.01910358 0.025219189 0.01791963
0003c0 d8 f2 e1 3c a4 93 51 3d 8a 6b 7c bd 30 eb ab 3c
       0.027581617 0.05116619 -0.061625995 0.02098617
0003d0 a6 7a 45 3d 88 40 96 3c 7a 04 3b 3d cc 14 01 bd
       0.04821267 0.018341318 0.045658566 -0.031513974
0003e0 b0 af 94 3c a4 5a 1c bd 68 3e 8c bc ce 3a 35 3d
       0.01815018 -0.03817238 -0.017119601 0.044245534
0003f0 2d 78 fd bc 35 f2 dc bc 4a b1 1c bd 10 f7 df bb
       -0.030941093 -0.026970962 -0.038255014 -0.006834872

bias f4 [128]
000000 78 d8 3a bd cd 51 7a bd 19 19 19 bd da bb 38 bd
       -0.045616597 -0.061113168 -0.03737745 -0.045101024
000010 8c d7 85 3c 0a 0b 1c bd c7 6a 0e 3f f7 81 d1 3f
       0.016338132 -0.038096465 0.5563168 1.6367787
000020 2d f6 30 3e 37 77 30 bd 67 41 59 3a 5d cf 6f bd
       0.17281409 -0.043082442 0.0008287639 -0.058547366
000030 30 96 45 3e 07 9e 7a 3f ae 19 4f 3d c6 12 c6 bd
       0.19295573 0.9789738 0.0505616 -0.096715495
000040 8b 32 df bc d0 78 8b bd 49 ee 09 3c 2c d6 82 3e
       -0.02724578 -0.068101525 0.008418628 0.25554025
000050 50 f4 a6 bd 00 73 fe 3d 10 51 f4 3e 19 c0 90 3e
       -0.08152068 0.12424278 0.47718096 0.2827156
000060 2e 27 da 3d 10 03 32 bd c0 39 7d bc 2d e0 d5 3f
       0.10652004 -0.043459952 -0.015455663 1.6709038
000070 16 18 0c 3d 47 98 2e 3e f9 fc 1d bd 4c b0 b0 bd
       0.034202658 0.17050277 -0.03857133 -0.08627376
000080 55 1a 0e bc e0 b1 36 bd 47 a4 42 bd 65 44 cc bd
       -0.00867327 -0.04460323 -0.04751995 -0.09973983
000090 46 24 7e bd ae c3 20 3e ab 04 8d ba f8 b1 02 3e
       -0.06204631 0.15699646 -0.0010758837 0.12763202
0000a0 2d 66 80 bd 24 6c ec 3c 1d 21 b4 3e d8 f0 df bc
       -0.062694885 0.02886016 0.35181513 -0.027336523
0000b0 0a 40 9d 3d 0d 8e 3a 3f c8 63 bc 3e 92 f4 0f ba
       0.0767823 0.72873 0.36794877 -0.0005491461
0000c0 93 91 69 bd ee dd ad 3c d4 57 a8 3c 6c 9f 5b 3f
       -0.057023596 0.021223988 0.020549692 0.85790133
0000d0 c0 f6 dc 3c ef d1 58 3e 78 00 84 3d bb 37 9e 39
       0.026973128 0.21173833 0.06445402 0.0003017763
0000e0 b7 07 03 3d 56 97 92 3c 08 b9 37 3e ff 90 20 3f
       0.03198978 0.017894428 0.17941678 0.62721246
0000f0 da 3d ce 3e 4d 1e ac 3e 4c 35 4f 3e 42 f0 e8 bc
       0.40281564 0.33616868 0.20235175 -0.028434876
000100 4a 32 36 3d 7c 1c 78 3e 8a 75 69 3d 5f 10 1a 3e
       0.044481553 0.24229616 0.05699686 0.15045308
000110 17 05 99 bd 2f 59 71 bd 82 bd 2e 3f f0 d7 86 3f
       -0.07471674 -0.058922943 0.68257916 1.0534649
000120 11 3c d9 3f 78 2a f3 bc d2 d0 c3 bc 1c fd 7c bd
       1.6971456 -0.029683337 -0.023903284 -0.06176482
000130 ca cd d8 bc b5 dc 82 bc b8 f4 55 bd 8a 48 62 3e
       -0.026465315 -0.015974382 -0.052235335 0.22097984
000140 bc 2b 71 3d f7 73 3e 3d a9 84 6a 3f 66 be ab bc
       0.0588796 0.04649731 0.91608673 -0.020964812
000150 38 74 1d bd 6a 36 98 bd f2 39 13 bd 07 ff 41 3c
       -0.038440913 -0.07432254 -0.035943933 0.011840588
000160 e9 6d 7d 3c 67 87 39 bd b0 83 9a bd 74 39 4d 3c
       0.015468099 -0.045295145 -0.07544649 0.012525905
000170 3e e0 76 bd 30 3d 41 bd f4 1d 3c 3e 35 c8 9b 3d
       -0.060272448 -0.047177494 0.18370801 0.07606546
000180 a4 f6 fa bc 3d df 9b 3e 58 81 5f bd c9 fd f0 3d
       -0.030635186 0.30443755 -0.05456671 0.11767156
000190 e0 f9 72 bc 00 c8 7e 3c 7a 7f a5 3f 0a d2 3c 3d
       -0.014830083 0.015550613 1.2929528 0.046098746
0001a0 a1 73 09 bc bc ee 96 3c c7 ca 8a 3e 98 b0 07 3c
       -0.0083893845 0.018424384 0.27107832 0.008281849
0001b0 b3 c7 76 3e 15 20 ad 3e d3 6b c1 3d 14 41 43 3e
       0.24099617 0.3381354 0.09444394 0.19067794
0001c0 08 ee 21 3e 7e 25 00 3d 4e fb 0d 3f b2 28 11 bd
       0.15813458 0.031285755 0.55461586 -0.0354392
0001d0 d8 30 a4 bd 39 e3 54 3d d8 94 46 bc a9 c2 b9 bc
       -0.08017129 0.05197451 -0.012120448 -0.022675829
0001e0 dc 03 00 3d c6 f4 b6 3e 2a 19 a3 bd 53 52 db 3c
       0.03125368 0.35733622 -0.07963784 0.026772654
0001f0 59 95 ba 3c b2 85 10 bd c0 34 ec bc af 99 1b ba
       0.022776293 -0.03528375 -0.028833747 -0.00059356814

weight f4 [1, 128]
000000 2c 43 65 3d 21 2c ff 3c c0 db cd 3c 72 4b 70 3d
       0.055972263 0.031148972 0.025129199 0.0586657
000010 5e ce cd bc 26 55 5f 3c b6 32 92 3c 5c 50 04 be
       -0.025122818 0.013631141 0.017846446 -0.1292128
000020 21 c5 00 3d b3 24 76 bd b7 05 ca bb 0e 44 16 3d
       0.031437997 -0.060093593 -0.006165232 0.036685996
000030 39 0e 7c 3b a6 bc c8 38 09 69 92 3c 15 a5 2e 3d
       0.0038460626 9.571882e-05 0.01787235 0.042637903
000040 f2 0f af 3c 25 4f 2f 3c 40 82 08 3d 6d 7c 36 3c
       0.021369908 0.010700022 0.03332734 0.011138064
000050 22 46 64 3d f7 c8 4d 3c c8 54 f9 3c 0c 7c 9e 3c
       0.055730946 0.012560121 0.030435935 0.01934626
000060 65 8a 35 bc 51 b8 fc 3c f8 81 8c bc b8 d3 13 be
       -0.011080359 0.030849608 -0.017151818 -0.14436233
000070 92 76 a3 3b 91 a9 4c 3c 85 62 b7 3c 22 26 ad bc
       0.0049885 0.0124916 0.022385845 -0.021136347
000080 b8 0c 04 3d 33 2a d6 bc 43 5e 06 3d 85 cf 7e bc
       0.032238692 -0.026143169 0.03280474 -0.015552406
000090 6e bf 81 3d 29 53 18 bc 55 7a b6 bc a0 7f 48 3c
       0.063353404 -0.009297171 -0.02227513 0.012237459
0000a0 c3 54 f4 bc cd d8 c3 3c 30 2a 87 3c 78 f3 3f 3d
       -0.029825574 0.02390709 0.016499609 0.04686305
0000b0 25 07 00 3d 1c 34 f0 ba 3d 37 a5 bc d9 3e ae 3c
       0.031256814 -0.0018326077 -0.020167941 0.021270202
0000c0 73 7c 35 3d e2 49 17 3d ef 2c 06 bb ed 31 92 ba
       0.044308137 0.036935695 -0.002047356 -0.0011153795
0000d0 7c 0e 8e 3c cc cb 76 3c e4 b7 7a 3c 87 64 d1 3c
       0.017340891 0.015063237 0.015302632 0.02556063
0000e0 38 21 da 3a 30 bb 17 3c 79 32 e9 bc fe 87 b4 bc
       0.001664198 0.009260938 -0.02846645 -0.022037502
0000f0 59 03 2a 3c f1 fa d2 bb 5d 9d 01 bd 33 af 8f 3d
       0.010376775 -0.006438606 -0.031644214 0.070158385
000100 34 d7 a2 3a ac d5 8e bc 06 ff 4a 3d cf bd dd bc
       0.0012423755 -0.017435871 0.049559616 -0.027068047
000110 4b 39 4d ba 4f 0b 5a b9 6b 2f fe bc 6b 3c 58 bc
       -0.0007828667 -0.00020794313 -0.03102847 -0.0131979985
000120 03 f7 04 be 0a 3f 01 3c bc a1 2b 3d 70 aa 76 3d
       -0.12984852 0.007888565 0.04190229 0.060221136
000130 c0 71 fa bc 54 91 67 bd 7a 7b d9 bc df 3f bc bb
       -0.030571818 -0.05653508 -0.026548136 -0.0057449187
000140 24 c1 ff 3c 09 56 74 3d 85 ff c5 3c 3c 6c 48 3c
       0.031220026 0.059652362 0.024169693 0.012232836
000150 cd ac d0 3c c3 92 d7 3c 92 fb ae bb 75 20 6b 3d
       0.025473023 0.026315099 -0.005340048 0.057404
000160 44 95 00 3c ff 71 d9 bb e6 f3 2d 3d 1a 67 98 3d
       0.007848088 -0.006635904 0.042468928 0.0744154
000170 3d 47 44 3d 18 31 ff bc 31 fc af 3b 2d 8d df 3b
       0.0479195 -0.03115134 0.0053706397 0.0068222494
000180 b8 90 d8 bc e8 97 ae bb 90 c6 d6 3c 94 b2 a1 bb
       -0.026436195 -0.005328167 0.026217729 -0.0049346182
000190 3c bd 16 bd 56 bb 82 3d 64 61 06 3d e1 97 93 bd
       -0.03680156 0.06383388 0.032807723 -0.07206703
0001a0 45 00 83 bc e6 69 25 3d 6c 3e d8 3c cb 24 80 3d
       -0.01599134 0.040384196 0.026396953 0.06257018
0001b0 08 b6 2a bc 33 f0 dc 3c ef 8f 1f 3d 1c e2 78 bb
       -0.010419376 0.026970005 0.038955625 -0.0037976569
0001c0 6f c7 a4 3b 89 72 66 bb 9d 30 44 3c dc ed 8b 3c
       0.005028657 -0.0035163483 0.011974481 0.017081194
0001d0 d0 17 98 bc 1a d5 40 3b 46 3f 46 3d 48 16 84 3a
       -0.018566042 0.0029423893 0.048400186 0.0010077441
0001e0 cd 93 fd 3c 9c 98 a0 3c 3c 73 bd 3c 01 d2 82 3d
       0.030954266 0.01960402 0.023126237 0.06387711
0001f0 9d af e3 3c 30 7d 7d 3c 2b 93 99 3b 7e 5c c8 3c
       0.0277937 0.015471742 0.0046867332 0.024458166
