trained/exp_train_3_6_1111_0.0001_0.001_32_0.95/model/meta_actor_0.pth (torch, 302079 bytes, 6 tensors)

weight f4 [512, 16]
00000000: 4d26 0dbe a47a e23d 4f83 79be 48c9 663e
00000010: 893d 96bd 553f 3c3d 69c6 5b3e f650 813e
00000020: a860 b8bd 9155 9b3c 6f85 64bd b4dd d13d
00000030: ad15 a13d c38f 713d c8ff 77be 9cb1 12be
00000040: d23b 83be 2355 e13d cf44 17be 4130 2cbd
00000050: b005 2fbd e0e6 2f3e b66b 363d bfa8 29bd
00000060: 4bbb c6bc 57db 8cbd 7f9b c2bd ad7a 0f3e
00000070: b7ab 653b a6c5 9a3d a990 753d 24c9 5f3e
00000080: b008 1c3e 0801 663e 44f6 5fbe a8bd f83d
00000090: f9c1 c7bd cec4 083e 66eb 453e d423 643d
000000a0: aa0c 7b3e 462f 153e ab48 a13d 12ed 17be
000000b0: 0211 553d 4899 0c3e 00ac 653d 9a96 9cbd
000000c0: b0a8 8ebd 4d78 5b3e a077 a53d efd3 6b3e
000000d0: 2a72 64be 0c40 26be 05e6 e93d 078e 203e
000000e0: d4e2 613e 21ba 11be 5aeb c5bd f59e 993c
000000f0: 4f3b b83d c78c 403e 737d 67be db5e 4f3e
00000100: 7315 1bbd a045 aebd 5f83 c63d 23c7 6fbc
00000110: 915e 5d3d cde7 37be 7a65 80be 1ec5 41be
00000120: 9e11 59be 2415 73bd 8c9f 3e3d d475 22be
00000130: 6f7f 49be e766 1bbe b4cf 0abe 9b90 553d
00000140: f596 413e f9a0 713e 6b12 c3bd 8d4a 163d
00000150: 8b51 7d3d b81a 41be 9f1e 0cbd ed79 72bc
00000160: 541d 6a3e 63a8 00be c8de 063e bec2 3ebe
00000170: 2305 1c3e 00e5 78be a525 243e 5c85 b8bc
00000180: 9fe4 bdbd 3bca ccbd f18e 1f3c 6fd5 72be
00000190: 21b0 243e a27d 933d 06e7 55be 04b6 96bd
000001a0: 9287 4d3e 5993 003d 32dc c3bb 8f02 383e
000001b0: 0346 aa3d 0776 9f3d 218f d0bd c695 b6bd
000001c0: 1433 223e f884 40be ab18 a43c dc0c 353d
000001d0: 1aaa b5bd 0518 363e 82a6 813e efc3 29be
000001e0: 6330 87bd 755c 5a3e 6290 acbd 31f8 8c3b
000001f0: a238 7fbe d4fe 82be 6eaa 903d 3905 61be
00000200: c33b b33d 4102 9bbd 3572 473e 34da 223d
00000210: 397b d5bd 2027 7a3e 9484 8d3d 2b63 d83d
00000220: 403d 693d 9de1 d13d 97ea b2bd d398 913d
00000230: f757 1cbe f3f5 023e b44a 2bbe 7ec1 15be
00000240: 0d13 9dbd dace 333e 583a 7ebe 15c1 4e3e
00000250: a952 16be 8e9c 013d de2f 0bbe 37d9 92bd
00000260: 5503 4ebd 19f4 f6bc 71a6 14bc 4c7f 883d
00000270: 3d61 bc3d c84e b7bd 2665 e0bd 7ade 493e
00000280: 0ec8 39be 1647 273e fc20 7cbd 67c2 6a3e
00000290: 2b28 12be 5645 d6bd fe0c fcbd c0e4 673d
000002a0: acbe e43c 16c2 61be 3fd9 a13d 567f 69be
000002b0: 96d6 e2bd 8e49 5ebe fbb5 e9bd a621 cdbd
000002c0: 524a 76be b874 21be 4cf8 febd 11c5 9f3d
000002d0: ea7a 37bd 1e88 863e 9d47 c43c 946e d63d
000002e0: 9a90 143d 5a3c 4d3c 7f7e 173e 6d53 f5bd
000002f0: 5454 6f3e 0303 703e db44 8dbd fde2 4bbe
00000300: 7f31 60be 1003 50bc 8d48 ee3c 9d1f 14bd
00000310: 471e 593e 3602 15bd 65fc 3dbe 8ed9 483e
00000320: 3dfb 91bd a020 75be d5de d3bc 58d9 803d
00000330: ecf7 0a3e 6a90 693e d4e5 06bd 7094 83bd
00000340: 01dc 7c3e 712a 393d b5d6 1cbe a1c7 8dbd
00000350: 856b f03d 26c1 dd3d 2fa1 2c3d aa45 6abd
00000360: dc9b 9c3d 7a95 7c3e b8fd fbbd 2c2f 783d
00000370: e1f6 753d 4100 0d3d 4257 81bd 8c13 1e3e
00000380: 9b0d 3a3e 00d5 423e b688 adbd e21d 4cbe
00000390: 4163 2e3e 830a 323e 192d 02bd a0de 6dbe
000003a0: 06f5 8c3c 0f42 93bd 58af 66be 1674 66be
000003b0: 6821 4b3e d0c4 04be 8467 9a3d 617a 013c
000003c0: ceb4 09be 3a6a edbd 7d76 d6bd 18e6 593d
000003d0: a5d1 513d 2b5f 1c3d b7a4 6b3e 0305 cf3d
000003e0: 62d6 25be c18c 09be 09c5 773e 9009 223e
000003f0: f481 163e 3814 4f3e bf24 75be e2d4 bf3d
-0.13784142 0.11058548 -0.24366497 0.2253772 -0.07335956 0.045958836 0.21462406 0.2525708
-0.09002811 0.0189617 -0.055791315 0.10247365 0.078654625 0.058974992 -0.24218667 -0.14325565
-0.25631577 0.11002567 -0.14772342 -0.042038206 -0.042730033 0.17177916 0.044536315 -0.041420694
-0.02425923 -0.06877773 -0.09502315 0.14011641 0.0035044977 0.0755723 0.05995241 0.21854073
0.15237689 0.22461331 -0.21871287 0.12145549 -0.09753794 0.13356325 0.19328079 0.05569823
0.2451655 0.14568815 0.078751884 -0.14836529 0.052018173 0.13730347 0.056072235 -0.076459125
-0.06965768 0.2143261 0.08079457 0.23030065 -0.22309175 -0.1623537 0.11420826 0.15679179
0.22059184 -0.14231159 -0.096640304 0.018752554 0.08995687 0.18803702 -0.22606449 0.20251028
-0.037862252 -0.08509374 0.09693026 -0.01463488 0.054045264 -0.17959519 -0.2507742 -0.1892285
-0.21198127 -0.059346333 0.046538875 -0.1586526 -0.19677518 -0.15175973 -0.13555795 0.05213986
0.18905242 0.23596562 -0.09524997 0.03669219 0.061845344 -0.18857849 -0.03420889 -0.014799577
0.2286275 -0.12564234 0.13170922 -0.18628976 0.15236335 -0.24306107 0.16029985 -0.022524528
-0.09272122 -0.0999951 0.00973867 -0.23714231 0.16082813 0.07201697 -0.2088891 -0.073589355
0.20071247 0.03139052 -0.005977177 0.17969726 0.08314135 0.07786184 -0.1018355 -0.08915286
0.15839797 -0.18800724 0.020031294 0.044201717 -0.08870335 0.177826 0.25322348 -0.16578649
-0.06601026 0.21324332 -0.08425976 0.0043020477 -0.24923947 -0.25585043 0.07063757 -0.21974649
0.08751633 -0.07568789 0.1947716 0.039758876 -0.104238935 0.24428988 0.06910053 0.1056579
0.05694318 0.102481104 -0.08736151 0.07109227 -0.15267931 0.12789135 -0.16727716 -0.14624593
-0.07669649 0.17559376 -0.24826944 0.20190842 -0.1467997 0.031643443 -0.13592479 -0.07170337
-0.050296146 -0.030145692 -0.009072886 0.06664905 0.09198234 -0.08950573 -0.109567925 0.19713774
-0.18142721 0.16335711 -0.061554894 0.22925721 -0.14273135 -0.104624435 -0.123071656 0.056614637
0.02792295 -0.22046694 0.079027645 -0.22802481 -0.11076085 -0.21707746 -0.11411663 -0.100161836
-0.24051788 -0.15767181 -0.124497026 0.07801259 -0.044794954 0.26275724 0.02395993 0.1047031
0.036270715 0.012526596 0.14794348 -0.11978803 0.23372012 0.23438649 -0.06897899 -0.19910808
-0.21893881 -0.012696043 0.02908733 -0.03616296 0.21202956 -0.03637906 -0.18553312 0.1961424
-0.07127998 -0.23938227 -0.02586309 0.06291455 0.13571137 0.22808996 -0.032934025 -0.064247966
0.246933 0.04520649 -0.15316279 -0.06922842 0.11739258 0.10827856 0.042145904 -0.057195343
0.07646915 0.24666396 -0.123042524 0.06059186 0.060049895 0.03442407 -0.06315471 0.15437144
0.18169253 0.19026566 -0.08473341 -0.19933274 0.1703005 0.17386822 -0.03178129 -0.23229456
0.01720668 -0.07190334 -0.22527826 -0.22505221 0.19836962 -0.12965703 0.07539275 0.007902713
-0.13447878 -0.11592527 -0.104718186 0.05319795 0.051225323 0.038176697 0.23012052 0.10108378
-0.16195062 -0.134326 0.24196257 0.1582396 0.1469801 0.20222557 -0.23939799 0.09366776

bias f4 [512]
00000000: 0c51 d2bd f369 373e 5c38 053d 9502 473e
00000010: 03b2 8b3b d240 1b3e d43b babd 6e6c 193e
00000020: 893f 54be e306 36bd c2a9 6d3d da80 c23d
00000030: f99a 693c eb22 c33d c95f 35be 813f 113e
00000040: 11ac 783e 5270 183e 3de2 873e dc2e 71bb
00000050: 0785 6a3e 2f14 f03b d956 7b3e 409d 543e
00000060: 8100 3d3e 44ec 263d 1e1a 70bd cfe1 503e
00000070: c750 283e ae35 b3bc 0d6f 9dbc 3273 263d
00000080: f14f 27be b97b 1ebe e38a 723d de64 a2bc
00000090: 3710 d93d 1565 5bbe 4fe0 c93c b302 363e
000000a0: 46a6 4dbe 571f 00be 7acb c6bc 278a 743e
000000b0: 9783 92bd cdd5 f6bc bb30 48be b364 01be
000000c0: 76cb 663d 75ac 393e a298 3f3c a85c 7f3e
000000d0: 05cf 26be 561c 393e 9f6c 42be 4e4b 803e
000000e0: 1e49 353d 784a 693e 5f28 a83c 7b98 05be
000000f0: c76a 38be 208d 823e f234 75bd a3fd 4ebe
00000100: 2658 64be c53c 343d a1a7 07bd cfc6 06bd
00000110: ca04 0fbd de2c 2fbe 603f ee3c 913f b2bd
00000120: b2e5 aa3d 294f 53bd 54d6 563e 9178 863e
00000130: cafc c03d d8a4 943c b87e bdbd c9cb 543e
00000140: 2073 153c 79a2 9fbd dceb d9bc 3415 4dbe
00000150: 1687 8abc 202d 8d3a 0e77 8d3d 7fa0 15be
00000160: 7ed7 f7bc 22cf 433e 0570 b3bd 8885 073e
00000170: 843d 793e 1366 5ebe ae37 8ebc 3be0 7d3e
00000180: c1b4 b2bd 8a63 353e 82d1 873e 7f1b 133e
00000190: b49a 4cbe 4446 b13d ac92 013d 87ea 863e
000001a0: 2458 fbbd f8ca 5cbe 9d67 273e 5468 393e
000001b0: 2a5d d5bd df2f 9f3d 3d05 393e b085 323e
000001c0: 15b1 14be 2d6f 6e3e 4ea9 23bc 77bf 2bbe
000001d0: a01e 883e 679c 27be 2c5f 023e 4710 2f3e
000001e0: 735d 36bd f171 0abe 2351 ebbc 37df 803e
000001f0: 2045 533d e0bd c63d 286c c53d 4049 a1bc
00000200: cc67 4b3d 3506 463d b904 61be 4f78 50be
00000210: ab95 25be 16d6 b0bd bf88 3dbd 3797 4ebd
00000220: 0a68 35be c561 963d 75b8 263e 10ca 12be
00000230: d618 883e f050 ad3c f82a 3cbe bc3b d7bd
00000240: 115c d5bd e935 3cbe 459b 0c3e 851e cb3c
00000250: 2d4d 823e 73c2 983a 4009 67bd c52e b63d
00000260: 815e 28be 2e7d 643d 281e 133e 5e4f 0f3d
00000270: 195f d03d 06ac e8bd f2e5 8b3e 6e12 273e
00000280: b3ac 8d3e 4fa0 4bbe c4f4 f8bd 0a30 32be
00000290: 3663 dabd f253 46bd 211d a43c d699 08be
000002a0: f934 23bd 3ca6 173e 9ee8 be3d cd48 6b3e
000002b0: a638 7f3e 2177 3f3e 4046 b13c 480f 17bd
000002c0: fd55 1dbe a7a2 e23d f6be 8b3d bb9d 373e
000002d0: 6166 b43d ec76 5f3e 0e2b 2abe e66f bebd
000002e0: 2dc6 04be 99bf 4d3e 4980 a03d 6a70 383d
000002f0: cf5b 473e 61f8 51bd 5ad5 2dbe 4896 15be
00000300: c096 3e3d 111a 6e3e 0022 2fbc e7e3 52be
00000310: 4dd6 173b 0a27 06be 176c 77bc 462b 883e
00000320: d385 fc3d 627c 823e 08ef dd3d 5d49 863b
00000330: 15d6 da3d 08ed b8bd 88a6 1fbe 32c2 813b
00000340: bfd0 083e fe50 1fbe ac24 4abe 60e2 61be
00000350: 7966 043e e192 09bd 68dd c63d 658c 303e
00000360: 1cba 243d fd68 573e bc78 ebbc fcfc 8e3e
00000370: 3a6c 28be 3f3e 553e e6cf eabc 8563 e83d
00000380: 9ed0 163e 86f4 693e cd1b d3bd 7cb9 3f3e
00000390: f4a0 603e db26 9ebd 1f01 cc3d f374 7a3e
000003a0: d6a6 15be 6324 53be 33dc 51be cf43 543e
000003b0: 6b9d 8e3d 3e21 113e 65f1 2b3d ce34 733e
000003c0: 3959 acbd 4d7d 033c 02b3 ec3d 2b20 3abd
000003d0: fe02 03be 3950 82bc d729 a0bc 7544 1cbe
000003e0: 853f bcbd cdcd 243e 69e7 603e cfa7 e9bd
000003f0: 27b5 5bbd d9e3 113e a3c1 14bd 1b67 a7bd
-0.10269365 0.1791151 0.03252445 0.19434579 0.004263164 0.15161446 -0.090934426 0.14982769
-0.20727362 -0.04444016 0.05802322 0.09497233 0.01425814 0.095281444 -0.1771232 0.14184381
0.24284388 0.14886597 0.26539794 -0.0036801612 0.22902308 0.007326625 0.24544849 0.20763111
0.18457223 0.040752664 -0.058618657 0.20398639 0.16437064 -0.021876182 -0.019217992 0.040637203
-0.16339089 -0.15476884 0.059214484 -0.019823488 0.10598796 -0.21425278 0.024643091 0.17774467
-0.2008296 -0.12511955 -0.024266947 0.23880826 -0.07154005 -0.030131245 -0.19549839 -0.1263607
0.05634638 0.18132193 0.011694105 0.2493769 -0.16289909 0.18077216 -0.18986748 0.25057453
0.044259183 0.22782314 0.020527063 -0.13046448 -0.18009482 0.25498295 -0.059864946 -0.20213942
-0.22299251 0.044003267 -0.033118848 -0.032904442 -0.034916677 -0.17106959 0.029082954 -0.087035306
0.08344592 -0.051589165 0.20980197 0.2626386 0.09423216 0.01814501 -0.09252685 0.20780863
0.009121686 -0.07794661 -0.026601724 -0.2002762 -0.016910117 0.0010770895 0.069074735 -0.14612006
-0.030254122 0.19121984 -0.087616004 0.13234532 0.24339873 -0.21718626 -0.017360535 0.24792568
-0.08725882 0.17713752 0.2652703 0.14365958 -0.1998089 0.0865598 0.031634018 0.26350805
-0.12272671 -0.21561801 0.16348119 0.18106204 -0.1041816 0.077728026 0.18068404 0.1743381
-0.14520676 0.23284598 -0.009989096 -0.16772257 0.26585865 -0.16368257 0.12731618 0.17096053
-0.044522714 -0.13520028 -0.028725212 0.251703 0.051579595 0.097041845 0.0963977 -0.019688249
0.049659535 0.048345763 -0.21974458 -0.20358394 -0.16170375 -0.08634584 -0.04627299 -0.05043718
-0.17715469 0.07342867 0.16281302 -0.14334893 0.26581448 0.021156758 -0.18375766 -0.1050944
-0.10417951 -0.1837994 0.13731106 0.024794826 0.25449505 0.001165463 -0.056405306 0.08895639
-0.164423 0.055783443 0.14366972 0.0349878 0.101743884 -0.11360936 0.27323872 0.16315624
0.27670822 -0.19885372 -0.1215606 -0.17401138 -0.10663454 -0.0484199 0.020033421 -0.13339934
-0.03984544 0.14809507 0.09321712 0.2297699 0.24923953 0.18697788 0.021639943 -0.036879808
-0.15364833 0.1106618 0.06823532 0.17931263 0.0880859 0.21822709 -0.16617987 -0.09298687
-0.12966223 0.2009262 0.078369685 0.04502908 0.19468616 -0.051262263 -0.16975918 -0.14608109
0.046530485 0.23252131 -0.010689259 -0.2059475 0.0023168505 -0.1310083 -0.015101454 0.26595515
0.123302124 0.25485522 0.10836607 0.004098101 0.10685364 -0.09029585 -0.1559087 0.0039599175
0.1336088 -0.1555824 -0.19740552 -0.22059011 0.12929715 -0.03358734 0.09710199 0.17241056
0.04021655 0.21036144 -0.028744094 0.27927387 -0.16447535 0.20824526 -0.028663587 0.11347107
0.14728019 0.22847185 -0.10308037 0.187231 0.21936399 -0.07722255 0.09961151 0.24458675
-0.14614424 -0.20619349 -0.20494156 0.20728992 0.06963619 0.14172837 0.04197826 0.23750612
-0.08415455 0.0080254795 0.115575805 -0.045440834 -0.1279411 -0.015907394 -0.0195512 -0.1526049
-0.09191803 0.16094132 0.21963276 -0.1140896 -0.053639557 0.14247073 -0.03631748 -0.08173963

weight f4 [128, 512]
00000000: c9eb da3c 30e1 bdba 041c 8bbc aaf8 cd3b
00000010: ee84 133d b152 753c 7234 dc3c a6a1 1d3d
00000020: 4201 2fbb a069 923c 4c7a 253d ea2d db3b
00000030: c96c cbbc 0dda 09bc b855 d7bc fae8 30bd
00000040: bd37 f03c 4d50 763c 21bc c33c f7cf fabc
00000050: a8ab 1c3d 3554 54bc 3561 01bd e077 f33b
00000060: 6b93 f03b b015 a63c 8046 053d 1cf3 b83c
00000070: 0b4c ff3c a701 b83c 95c0 8ebc 24ff 03bd
00000080: cbcc c23a 3202 dcbc 8d55 c63b dfe4 1dbd
00000090: 06d6 05bc 7fd8 88bc 6f6b e9bc 5490 38bd
000000a0: b5b1 edbc 706d 063d 763e bf3c 3f7e 36bd
000000b0: 3509 9e3c fe73 d8bb 91c0 f9bb 9aa2 c33c
000000c0: d0c3 5fbb 779b d23b 999f e83b c9f8 983b
000000d0: 11c1 b2bc d5ec 223c 6560 0fbd f472 c13c
000000e0: cd74 d93c 6bf6 e03c df7b a4bc 4d56 2fbd
000000f0: 32da 78b7 6b29 463c 68da cdbc 6ff5 78bc
00000100: 8122 de3c dd16 1fbc 0d95 ffbc 7970 19bd
00000110: aa2f b23c c950 e43c eeda 86bc cdaf d43b
00000120: 5ca9 82bc c437 b33c b15e 1bbc ad2d 1d3c
00000130: f2ab 3abd dcf0 2fbd a3d2 36bd 6861 233d
00000140: 51dc 9b3c 51d5 033d 8313 1dbd f52c 23bd
00000150: 200b 903c 065c b53c 7889 1c3d 28a6 c4bc
00000160: 5cef 093c 456b 1b3d 1cc8 143d 1e48 2cbd
00000170: 67e3 e23c 7f67 a53a 278a f6bc 2b76 c8bc
00000180: 0831 133c e75c c93c 30fe f1bc f527 e1bc
00000190: 6070 3dbd 2c55 14bd 26cf 913c 520c 8bbb
000001a0: 72c8 bbbc 4087 f2bc 0ab4 32bd b897 28bd
000001b0: 3f29 02bc de18 95bb 82ad a63c 070c f23c
000001c0: ec4e 24bd 3f60 edbc 07e9 33bb 963f b5bb
000001d0: 9438 48bc 35cc a4bc 483b ff3c 4b2c 91bc
000001e0: e5b7 593b 583f 313c 3850 b6bc acce 3fbc
000001f0: e567 223d f75d a53c 03cb 193b db1a 45bc
00000200: 31e5 b5bc b087 31bd fe99 38bd d331 033d
00000210: 3679 82bc 8212 a93c 020d a03a 5967 cc3c
00000220: 99fd 303c ff2b d93c bb05 44bd 3195 d4bc
00000230: d2fa debc c0e8 7dbc d995 6dba 8f02 09bd
00000240: 30a2 45bd 899a 163d 4c7a edbb b1e4 b03c
00000250: df66 edbc ef27 39b9 4a72 6c3b 4bf2 853c
00000260: 12b2 a539 b708 fcbc 6056 0abd d4df 22bd
00000270: 8ece c3bc 3f0b a6bc ef3c 3bbd 25fd f6bc
00000280: 026c c9bc 265a e3bc dc10 e13c 69e0 423c
00000290: d5d3 5bbc 2ca9 11bd 6f62 bebc fafb a73c
000002a0: dcdc af3c 2f51 e13b d1f9 563b be0c c73c
000002b0: 9f13 05bc c712 0c3d aeb2 193d e8a6 1bbd
000002c0: fdb3 32bd 89df 423c 2d1d 43bd 2902 f73b
000002d0: c06d f4bc 452d dd3c 076d 05bd 2219 10bd
000002e0: 1ceb 8a3b 54ae 2c3c 5db0 41bd 9640 3c3c
000002f0: ca02 c5bc 9698 fbb8 0d9f 023c a21c e73c
00000300: 54f5 13bd 5be4 0d3c 4be4 db3c 539d 643b
00000310: be10 0bbd f2fe 233d 8eeb 4e3c 8b9f 10bc
00000320: 9ba9 05bd 48df 1b3d 9b2d 37bd ef80 a03c
00000330: 920d 21bd a976 0dbd 708d 7cbc 26b3 ab3b
00000340: 20da dfbc f2da 28bc d3fb 6dba 7aa3 e7bc
00000350: 8852 003d 1bd1 d43c 611a 0a3d c637 81bc
00000360: 7673 973b 9dbc 073d e9fd d7bb 5472 f83c
00000370: 9519 0dbd 5fc5 c0bb 664b 1c3d 602b 22bd
00000380: 1a2c 4c3c 1846 e5bc a18d 1b3d 1922 0c3d
00000390: 94c8 e23c b48d f33c 7307 05bd 09db 593c
000003a0: 5016 fdbb 557c 25bc c356 85bc 8093 193c
000003b0: bdc4 873b 5ee2 25bd acd7 0cbd fbb3 8e3c
000003c0: 6bf6 aabc f80b 0fbd 3e21 3fbd 6868 ef3b
000003d0: 5a6e 0ebd a0c8 36bd c6e8 233b 264b 1a3c
000003e0: c680 cd3c fda1 023b 7eb3 b63c 2d6b 98bc
000003f0: fff9 82bc 3eeb 3cbc 57bf f83c 259a 843b
0.02672376 -0.0014486667 -0.016981132 0.0062857466 0.036015444 0.014973328 0.026880477 0.038484238
-0.002670363 0.017872632 0.040399835 0.006688823 -0.024832146 -0.008413804 -0.026285991 -0.043190934
0.029323453 0.015033794 0.023893418 -0.030616743 0.03824964 -0.01295953 -0.031586844 0.0074300617
0.0073417923 0.020274013 0.032537937 0.022576861 0.03116419 0.022461725 -0.017425815 -0.032225743
0.0014862058 -0.026856516 0.006052679 -0.038548347 -0.008168703 -0.016704796 -0.028493611 -0.045059517
-0.029015401 0.03281921 0.023345213 -0.04455399 0.0192915 -0.006605624 -0.0076218327 0.023881245
-0.0034143813 0.0064272243 0.0070991036 0.0046683294 -0.021820577 0.0099441605 -0.03500404 0.023614384
0.026544953 0.027461251 -0.020078598 -0.042806912 -1.48327545e-05 0.012094836 -0.025128558 -0.015195235
0.027116062 -0.009710041 -0.031199003 -0.037460778 0.021751244 0.027870553 -0.016461816 0.0064906836
-0.015949897 0.021877177 -0.009483025 0.0095934095 -0.045574136 -0.04295431 -0.044634473 0.039887816
0.019025953 0.032185856 -0.038348686 -0.039837796 0.01758343 0.022138607 0.038217038 -0.02400501
0.008418884 0.037944097 0.03632365 -0.042060964 0.027696325 0.0012619345 -0.030095173 -0.02447041
0.008983858 0.024580432 -0.029540151 -0.027484873 -0.046249747 -0.03621404 0.017798971 -0.004243412
-0.022922728 -0.029605508 -0.04362873 -0.041160315 -0.007944404 -0.0045500835 0.020346407 0.02954675
-0.04011433 -0.028976558 -0.0027452128 -0.0055312617 -0.0122205205 -0.020116905 0.031156197 -0.017721316
0.0033221182 0.010818325 -0.022255048 -0.011706989 0.039649863 0.020186407 0.0023466952 -0.012030329
-0.022204014 -0.043342292 -0.045068733 0.032029938 -0.015926939 0.020638708 0.0012210908 0.024951624
0.01080265 0.026510237 -0.047857028 -0.025950046 -0.02721921 -0.015497386 -0.00090631616 -0.033449706
-0.048250377 0.03676847 -0.007247245 0.021593424 -0.028979717 -0.00017657851 0.0036078864 0.016350886
0.00031603925 -0.030765874 -0.03377378 -0.03976424 -0.023902204 -0.020269034 -0.045712408 -0.030150006
-0.024587635 -0.027752947 0.02747386 0.011894324 -0.013417204 -0.035561725 -0.023240296 0.020505894
0.021467619 0.006876133 0.003280271 0.024298068 -0.008122354 0.034197595 0.037523918 -0.03800097
-0.04362868 0.011894115 -0.047635246 0.0075380993 -0.02983749 0.026999125 -0.03257468 -0.03518022
0.004239453 0.01053961 -0.047287334 0.011490008 -0.024049181 -0.00011997034 0.007972491 0.028211895
-0.036122635 0.008660401 0.026842257 0.0034883812 -0.033951513 0.040038057 0.012629403 -0.0088271005
-0.03263245 0.038054734 -0.044721227 0.01959273 -0.039319582 -0.03453699 -0.015414581 0.005239862
-0.02732569 -0.010306107 -0.0009078357 -0.028276194 0.031328708 0.025978616 0.033716563 -0.015773665
0.0046219183 0.03313886 -0.0065915477 0.030327953 -0.034448225 -0.0058829035 0.038157843 -0.039592147
0.0124616865 -0.027987525 0.037976865 0.034212206 0.027683534 0.029730655 -0.032477807 0.013296851
-0.007723607 -0.010100444 -0.016276723 0.009373546 0.004143326 -0.040499084 -0.03438537 0.017419806
-0.020869454 -0.034923524 -0.04666256 0.0073061474 -0.03477321 -0.044624925 0.002501057 0.009417331
0.025085818 0.0019932978 0.022302385 -0.018605793 -0.015988348 -0.0115306955 0.030364675 0.004046696

bias f4 [128]
00000000: dfa3 093c 9851 3f3d 7166 29bc 41f6 04bd
00000010: 0277 39bb c560 30bd 17b1 22bd 5530 623d
00000020: 6883 4cbb e0ba 24bd d044 0ebd 2c41 113d
00000030: e129 d4bb b386 1ebc 285e 83bb 358f 143d
00000040: d290 8b3a ab26 97bc e66e c03b 55c7 413b
00000050: ee7d 61bc 0711 d8bb 9ec8 933c 2612 453d
00000060: 95a3 f6bc e882 713d da3a 01ba 25bf 713c
00000070: 57f6 75bc 8c93 e33c 8bce c7bc 85d0 823c
00000080: f32b eabc c61e e7bc 3314 123d dc1a 443d
00000090: 9a97 843c 0d44 fcbb 8b6a 3a3c fdaa 75bc
000000a0: e6fe 2e3c bf84 8fbc 9b3a cabb d10d 023b
000000b0: a873 5b3d a24d dcbc 0dc8 b6bc bdab 99bc
000000c0: 5670 2e3d 590f 8dbc cb18 6b3d 34c1 c3bc
000000d0: 7749 c13c 6f43 cf3c 2eef 8abc c7a7 bebc
000000e0: 22b0 4cbc 3929 e83c b602 25bc 5b93 de3c
000000f0: b6fe 593c a501 85ba 6892 c33c 0895 50bc
00000100: c518 063d 118a 343d fac7 9a3c 9a7a 1c3a
00000110: 3dd1 683d 07ee 123d e038 c3bc ea97 33bd
00000120: ac3a ef3c 3fdd 9c3c dbde 353d aea8 35bc
00000130: ea7a 213c 843b 8d3c 2b81 7d3c d190 5dbb
00000140: fe04 143d a5c1 ba3c 0e82 97bc a50b 9bbc
00000150: 44aa 94ba 7c0f 3bbc d291 143d aa24 043d
00000160: f50c 563d 0cdb 4a3c 40df 823c 4d2e 223d
00000170: 9d1b 98bc 4539 a1b9 71e6 183d 38bd 3b3d
00000180: df3b b3bc e2a8 d03c 424a e93c 4cf4 b7bc
00000190: 256c 143d f0bb 4bbc 61b7 02bd a6cc dbbc
000001a0: caa4 963c 3835 663d 2882 963c bd3a 44bd
000001b0: 16e3 e73c 8d8c 6b3c 5a99 38bd ce64 9c3b
000001c0: 2c3a b83b aa83 83bc 4b92 27bd f277 b23c
000001d0: ed30 b53b 5a2a 693d e778 1bbd 2e7f 2e3d
000001e0: b1d1 31bc 8308 7b3c d753 0b3d f28c 37bb
000001f0: 35e9 0e3d 5842 6d3d 2680 883c 5bdb b53c
0.008400886 0.046708673 -0.010339365 -0.03246141 -0.0028299694 -0.043061037 -0.039719667 0.055221874
-0.0031206254 -0.04021728 -0.034733593 0.035462543 -0.006474719 -0.0096756695 -0.004009027 0.036269385
0.0010648018 -0.018451056 0.005872595 0.0029568274 -0.013762934 -0.0065938267 0.018039998 0.04811301
-0.030107299 0.058962733 -0.0004929729 0.014755045 -0.015012345 0.027780317 -0.02439048 0.01596857
-0.02858541 -0.028212916 0.035663795 0.047877178 0.01618557 -0.007698542 0.011377941 -0.01499438
0.01068089 -0.017519353 -0.006171537 0.001984466 0.053577095 -0.026892487 -0.022312189 -0.018758649
0.0425876 -0.017219232 0.05739669 -0.023895837 0.023594601 0.02530071 -0.016959753 -0.023273362
-0.012493165 0.028339969 -0.010071447 0.027169874 0.013305357 -0.0010147585 0.023873523 -0.012730844
0.032738466 0.044076983 0.018894184 0.0005969197 0.05684017 0.03587153 -0.023830831 -0.04384605
0.029202782 0.019148467 0.044401985 -0.01108758 0.009855965 0.017240293 0.015472691 -0.003380824
0.036137573 0.022797415 -0.018494632 -0.018926451 -0.0011342247 -0.011417266 0.036271878 0.032261528
0.05225845 0.012381326 0.015975595 0.039594937 -0.018567855 -0.00030750982 0.03732914 0.04583475
-0.021879135 0.025471155 0.028477792 -0.022455357 0.036235947 -0.0124349445 -0.031913165 -0.026830982
0.018389124 0.056203097 0.01837261 -0.04790758 0.028306525 0.014376772 -0.045068122 0.004772759
0.005622169 -0.016053993 -0.040911 0.02178571 0.005529514 0.056925155 -0.0379571 0.042601757
-0.010853217 0.015321854 0.034015503 -0.0028007594 0.034890372 0.0579246 0.016662668 0.022199323

weight f4 [3, 128]
00000000: 33ac 83bd bb4b 8c3b aec8 ebb9 81b9 2f3d
00000010: a3e1 40bd 6507 4dbb 438c 19bc e3a5 7ebd
00000020: f109 5bbd 2d38 70bd 9fe7 36bd c1b3 983c
00000030: abda b0bc 10a7 aabd 9028 483c 7902 9fbd
00000040: 096a 413c ca6e 21bc e655 4d3c 9b95 0e3c
00000050: 3e1b a0bc 7dee 043d dc9c 9ebc f20a d23d
00000060: f1f1 67bb a092 dcbb dc76 8f3c d4f0 9cbd
00000070: 7627 49bd 56fc 2cbc 8a89 5e3c 0d35 693d
00000080: e333 643c 7f62 363c 504a 9f3d 275a ce3d
00000090: f2e5 6e3d 626d b0bd d034 97bc e14e c53c
000000a0: 8180 72bd eb63 b83c 1f29 5f3d 1edd af3d
000000b0: 5a70 b33c e421 a03d 11d6 5abd c6ae a8bd
000000c0: 2a29 f93c 03c2 403d 213c c43d e5f6 3cbd
000000d0: 715c 823d e761 d53d bb34 e03d 8a33 b83d
000000e0: 065a 1f3b 896f 753b 4cfb 23bd e9c6 ae3d
000000f0: 79b8 9abd 3d3f 113d 77bf f53c 5dd2 7abc
00000100: 657d 4c3d cb6a e438 b9ea 0ebd 25fc 4bbc
00000110: b7e0 3d3d 67f3 f9bb 7d36 9abc 2af9 453a
00000120: bfd2 e0bc 762f 923c 1ca1 133d 098a 36bc
00000130: 0c20 17ba 8304 183d d92f 05bd 8e29 8b3b
00000140: 0412 d93d fbd5 a6bd e7d7 073d b17d 153d
00000150: d50a 923d 3337 98bd b468 6cbd 632b c13d
00000160: 74d7 d33d 9d2d 82bd a053 25bd 961c a5bd
00000170: 32e5 0a3d 16ac aa3d 732e 463d 4509 cb3d
00000180: 1e50 29bd be83 903d 8418 be3d 24c8 873d
00000190: 2ecc 93bd 8d76 a23d 1443 43bc 230d aa3d
000001a0: 171c 553d 74fe 903d 3ecc 263d 14be 41bd
000001b0: a17a 89bd 2dea a53d 6141 13bd def9 a73c
000001c0: 589d c1bc a037 53bd 5ca7 16bd dce9 aabd
000001d0: 35c1 9e3d 1348 873d 3055 9f3c 85f5 043d
000001e0: fa2b d93a 524c 31bd 5417 d73d c095 95bd
000001f0: eb77 b53d 7bb2 3fbd 295f a2bd f89c 6fbd
00000200: 114d 9bbd cfbb 1b3d a9b4 013d fb44 4abd
00000210: aa6a 5abd 26db 4fbd 2aec 3b3c 5c2e 9d3d
00000220: 7fb0 c33d c047 8dbc 236f 66bc 9507 903d
00000230: d685 a9bd 7554 9bbd 845b 91bd 8127 5bbc
00000240: fd09 823d 6e12 9bbd 662e 043d 37f6 95bd
00000250: 72b9 453d 05ff a53c e244 f4bb b374 c73c
00000260: eee5 68bc e623 173c 643a 083e 3557 90bd
00000270: 1683 fe3c 409e d03d 1bd7 69bd b83e 3fbd
00000280: 000a 8dbd 5989 1cbd 8501 9b3d 221b d5bb
00000290: d34c 08bc 06de 53bd 7a79 82bd 2925 30bd
000002a0: 28d9 d73d 5d4c 393d 7d81 77bd 74f5 36bd
000002b0: 45cb 0b3d a702 5a3d f2f1 23bd f635 98bd
000002c0: 8c60 033e 991d b73d 5b88 f7ba 5850 8a3d
000002d0: 3ea1 1a3d b3a2 74bc 8656 a83d 242c 813d
000002e0: 086e 20ba 085f 24bd b929 94bd 7b6f 2ebc
000002f0: a4a7 793d fc0a 213d 77ac 88bd f1a7 e5bc
00000300: 4908 0c3d 2822 59bd 9dbb 92bd 96ea a1bc
00000310: c5cb 863d c9aa 79bd 28bd a9bd d4ef a1bd
00000320: e998 b2bc 3e85 9b3d 3273 a43d e073 c73d
00000330: b7bf ca3d 308c cd3c 1f39 ffbc feb5 98bc
00000340: de1a 7ebd 093e ed3c fed8 c2bb 248e d03d
00000350: eac7 8a3d 7ddc 51bc da1c b83d f2a2 c53d
00000360: bf59 4cbd a19c 7abd 4374 4d3c 71a7 4abd
00000370: 757f 0bbd e65d 8e3d 47ab c23d 7881 823d
00000380: 2a32 0cbd 3bea 81ba b74f a5bc 887f f33c
00000390: 198d 84bd bd99 c73c 63e9 08bd 0c55 3fbd
000003a0: 5319 893d 200b 6c3b c259 acbd f40a 5fbc
000003b0: f460 5f3d 40ea cdbb a7e5 423d 4bb0 a93d
000003c0: fbbe 433d 42a6 21bd 6803 04bd fa08 f9bc
000003d0: b9ef 55bd 649c 18bd 60f0 2bbd d4f2 a83b
000003e0: 6089 19bd 9259 c23c 5951 cc3b 7d84 53bd
000003f0: 46a3 b63b d129 f43d 9968 7bbd b86b b63c
-0.06429329 0.0042814887 -0.0004497221 0.04290152 -0.047090184 -0.0031284925 -0.00937182 -0.06216992
-0.053476278 -0.058647323 -0.044654485 0.0186404 -0.021588644 -0.08332646 0.012216702 -0.077641435
0.011805066 -0.009853074 0.012532687 0.008702661 -0.01954424 0.032454003 -0.019361906 0.10255994
-0.003539201 -0.0067313462 0.017512731 -0.07663122 -0.0491099 -0.010558208 0.013582597 0.05693536
0.013928386 0.011131882 0.07777846 0.10075789 0.05832476 -0.08614613 -0.0184578 0.024085464
-0.059204582 0.022508582 0.054482576 0.08587097 0.02190416 0.07818964 -0.053426806 -0.082364604
0.030415136 0.047060024 0.09581781 -0.046133894 0.06365288 0.10419064 0.109475575 0.08994205
0.0024315133 0.0037450513 -0.040034577 0.08534033 -0.075547166 0.0354607 0.029998524 -0.015308944
0.049924273 0.00010891779 -0.034891818 -0.012450253 0.046356883 -0.007627893 -0.01882481 0.0007552082
-0.027444242 0.017844897 0.036042318 -0.011141309 -0.0005764968 0.037113678 -0.032516334 0.004246897
0.10599139 -0.08146282 0.033164885 0.03649682 0.07130972 -0.074324034 -0.05771704 0.094321035
0.10343829 -0.06356356 -0.040362954 -0.08062093 0.033909984 0.08333604 0.04838414 0.099138774
-0.04133617 0.07056378 0.0928202 0.06629971 -0.072166786 0.07932768 -0.011917848 0.08303287
0.05202874 0.07079783 0.040722124 -0.047300413 -0.06712843 0.08101306 -0.035951022 0.020504888
-0.023634598 -0.05156672 -0.0367807 -0.083453864 0.07751695 0.06605544 0.0194498 0.03246071
0.0016568892 -0.043285675 0.10502496 -0.07303953 0.08860763 -0.04680107 -0.079283066 -0.058499306
-0.075830586 0.038020905 0.03166643 -0.04938219 -0.05332438 -0.050746106 0.01146988 0.07674858
0.09555148 -0.017246127 -0.014064583 0.07032696 -0.0827748 -0.07584468 -0.07097533 -0.013376118
0.06349561 -0.075718746 0.03227081 -0.073223524 0.048272558 0.020263204 -0.0074545005 0.024347639
-0.014214976 0.009224867 0.13303524 -0.070478834 0.031068366 0.10186434 -0.057089906 -0.046690673
-0.06886673 -0.038216922 0.07568649 -0.0065034786 -0.008319098 -0.05172541 -0.06370826 -0.04300419
0.10539466 0.04523884 -0.060426224 -0.044667676 0.0341294 0.053225186 -0.04002566 -0.07432167
0.12829798 0.08941192 -0.0018885242 0.067536056 0.03775143 -0.014931369 0.08219628 0.06307247
-0.00061199116 -0.04012969 -0.072345205 -0.010646696 0.06095089 0.039317116 -0.0667352 -0.028034182
0.03418759 -0.05301109 -0.07164691 -0.01976518 0.06581835 -0.06095389 -0.08288032 -0.07907072
-0.021801429 0.07593773 0.08029784 0.09738898 0.09899848 0.02509126 -0.031155167 -0.018641468
-0.06203734 0.028960245 -0.0059462776 0.10183361 0.06776412 -0.012808916 0.08989878 0.0965022
-0.049890276 -0.06118453 0.012539926 -0.04947609 -0.0340571 0.069515035 0.09505325 0.063723505
-0.034227528 -0.0009911725 -0.020179613 0.029723898 -0.06472225 0.0243653 -0.0334257 -0.046711966
0.06694283 0.0036017373 -0.084155574 -0.013613451 0.05453582 -0.0062840283 0.047582295 0.08285578
0.047789555 -0.039465196 -0.03222981 -0.030399788 -0.05223057 -0.03725852 -0.041977286 0.0051559005
-0.037484527 0.023724351 0.0062352833 -0.051640023 0.005573663 0.11922038 -0.06137905 0.022268161

bias f4 [3]
00000000: f7a6 99bd a7cf 9fbd 9f71 fa3c
-0.07502549 -0.078032784 0.030571757
