trained/exp_train_3_6_1111_0.0001_0.001_32_0.95/model/meta_critic_2.pth (torch, 950411 bytes, 7 tensors)

weight f4 [128, 16]
0.14353849 0.026752677 0.30030456 0.21721417 -0.025819693 -0.16821332 -0.055502445 0.2763048
-0.09893671 -0.055245563 0.14209522 0.13789605 0.2937712 -0.19175225 0.10038423 0.01841593
0.1828783 0.22732577 -0.15072703 -0.14076108 0.34972692 0.31108865 -0.04421715 0.09420368
0.017423622 -0.14492375 -0.16432112 0.11064045 0.103350796 0.33587977 0.09829541 0.11478434
0.31734326 -0.37791207 0.014798449 -0.01166344 0.09296444 -0.07603757 -0.19162183 0.28951848
-0.20668456 -0.13811554 -0.015965039 0.17879875 0.02144203 -0.27498865 0.11540752 0.23446542
-0.27527687 0.22330804 0.3187792 -0.01835748 -0.39887553 0.30040124 -0.021746393 -0.037870873
-0.12922992 0.13155681 0.19886725 -0.04234943 -0.08766858 -0.09674564 0.3012434 -0.19362482
-0.44898796 0.15100883 -0.10289178 0.118481964 -0.24867639 -0.18104118 0.26750237 0.19596842
-0.12423924 0.14977482 0.115072384 -0.06140084 -0.021246338 0.05897679 0.07557038 -0.027883207
0.025781943 0.02835822 0.021031752 0.11216478 -0.004900197 -0.011165379 -0.010930286 -0.026779916
0.059886716 -0.21017182 0.18573835 0.22243942 -0.0065286015 -0.31366575 -0.041954804 0.09934016
-0.30317873 0.033133104 -0.04777047 -0.11916249 -0.3507382 -0.011084442 0.2495104 0.13565317
-0.037108347 0.22444418 0.33999148 0.03332052 -0.22796628 0.24727727 -0.037469957 0.08318899
0.19888976 -0.3013153 -0.17730576 -0.47557116 0.07752696 -0.0037223038 0.00020212305 -0.16443086
0.008972214 0.17112173 0.09341384 -0.006189273 0.2722374 -0.14207791 -0.05055438 0.07121622
-0.12126517 -0.31041917 -0.060775317 -0.03104295 0.27476427 0.107283995 0.14070542 -0.14727053
0.19865236 -0.11704867 -0.1311869 0.33679646 0.05363358 0.034497034 0.14060357 0.049061917
-0.2917207 -0.051597144 -0.2966792 0.17075562 0.11102842 -0.30015314 0.025595972 0.048046164
-0.10176044 -0.13754386 -0.04007198 -0.22530998 0.004047496 -0.062322557 -0.18749276 -0.012476303
-0.10258733 -0.12566048 0.29824674 0.17220038 -0.2118897 -0.2053195 0.19222756 0.09490968
-0.17181681 -0.115627326 0.028611286 0.02582944 -0.10527941 -0.12303499 -0.008232099 0.29757363
0.21305726 -0.010458539 -0.30614996 0.32031232 0.18391146 -0.11109617 -0.11525102 0.19204237
0.28706276 -0.20964749 -0.26924315 0.017135711 0.19354746 0.2081496 -0.012641466 -0.17622419
0.18297014 0.11961466 0.18579014 0.26956856 0.0668308 0.40218127 0.114088245 -0.014390254
-0.10374582 -0.11577292 -0.051438205 -0.05428354 0.26409554 0.24684407 -0.23355591 0.089889
-0.30168185 0.32164735 -0.12819666 -0.13308941 -0.21785955 0.0103722485 0.07740216 -0.08287549
-0.017521713 0.25528008 0.07268246 -0.22642827 0.019834075 0.15754728 0.20100996 -0.259577
0.041428585 0.14584918 -0.2841535 0.02800189 0.3196305 -0.3105415 -0.12133155 0.20725168
0.2675844 0.048877455 -0.10964376 -0.033242173 0.24413477 -0.20889798 -0.32750064 0.25372472
-0.020057691 -0.5086653 -0.3153699 0.19914761 -0.19443212 -0.2994856 -0.03336008 0.15142904
-0.12356341 0.13884054 0.06808881 0.2255044 0.1864037 -0.16164884 0.02821133 0.11472983
00000000: c1fb 123e 6e28 db3c 85c1 993e 646d 5e3e
00000010: d283 d3bc 1d40 2cbe 8856 63bd d377 8d3e
00000020: 549f cabd 2c49 62bd 6981 113e 9f34 0d3e
00000030: 2e69 963e b45a 44be 3f96 cd3d 01dd 963c
00000040: 7344 3b3e 16c8 683e 3058 1abe ac23 10be
00000050: 680f b33e 0347 9f3e 0b1d 35bd dced c03d
00000060: fcbb 8e3c e466 14be cc43 28be 7697 e23d
00000070: 95a9 d33d 6ff8 ab3e 1b4f c93d 0d14 eb3d
00000080: d17a a23e b17d c1be 3275 723c 0318 3fbc
00000090: 2464 be3d 96b9 9bbd 8338 44be c43b 943e
000000a0: 1ea5 53be 296e 0dbe 1dc9 82bc 0517 373e
000000b0: 32a7 af3c 50cb 8cbe c75a ec3d b417 703e
000000c0: 17f1 8cbe ddaa 643e 0737 a33e 6d62 96bc
000000d0: 6a39 ccbe 31ce 993e 7e25 b2bc 7d1e 1bbd
000000e0: d954 04be d4b6 063e dba3 4b3e 9976 2dbd
000000f0: 968b b3bd 9422 c6bd 933c 9a3e 9645 46be
00000100: c0e1 e5be 0fa2 1a3e edb8 d2bd aca6 f23d
00000110: 06a5 7ebe dc62 39be 12f6 883e f2ab 483e
00000120: 2571 febd 925e 193e 12ab eb3d 727f 7bbd
00000130: cd0c aebc a691 713d a5c4 9a3d 536b e4bc
00000140: a734 d33c 7f4f e83c c84a ac3c a6b6 e53d
00000150: d591 a0bb feee 36bc f114 33bc 8e61 dbbc
00000160: c64b 753d 4837 57be 3232 3e3e 29c7 633e
00000170: e1ed d5bb cc98 a0be cdd8 2bbd db72 cb3d
00000180: 3e3a 9bbe 94b6 073d f8aa 43bd 770b f4bd
00000190: f593 b3be 859b 35bc a87f 7f3e aae8 0a3e
000001a0: ecfe 17bd b2d4 653e 5d13 ae3e 197b 083d
000001b0: fe6f 69be 4136 7d3e 197a 19bd fd5e aa3d
000001c0: c2a9 4b3e 0046 9abe a48f 35be 107e f3be
000001d0: 74c6 9e3d e5f1 73bb fef0 5339 9060 28be
000001e0: 3100 133c 893a 2f3e c14f bf3d 63cf cabb
000001f0: b362 8b3e df7c 11be 1c12 4fbd cfd9 913d
00000200: e059 f8bd 43ef 9ebe 8aef 78bd c94d febc
00000210: e7ad 8c3e b6b7 db3d 1515 103e 16ce 16be
00000220: 866b 4b3e 37b7 efbd dc55 06be 9670 ac3e
00000230: e3ae 5b3d c34c 0d3d 62fa 0f3e 26f5 483d
00000240: 6a5c 95be 8757 53bd 56e6 97be 90da 2e3e
00000250: de62 e33d acad 99be a5ae d13c 0ecc 443d
00000260: c767 d0bd 4cd8 0cbe 8422 24bd a9b7 66be
00000270: dba0 843b f045 7fbd 1afe 3fbe 6869 4cbc
00000280: 4e19 d2bd 24ad 00be ccb3 983e 4c55 303e
00000290: 9df9 58be 463f 52be 4dd7 443e 0260 c23d
000002a0: bff0 2fbe 05ce ecbd 3762 ea3c 4398 d33c
000002b0: bb9c d7bd c5f9 fbbd eddf 06bc 925b 983e
000002c0: af2b 5a3e 4b5a 2bbc b0bf 9cbe faff a33e
000002d0: 4953 3c3e 6486 e3bd ba08 ecbd c1a6 443e
000002e0: e4f9 923e d5ad 56be 3dda 89be 3160 8c3c
000002f0: 4e31 463e 2b25 553e 271e 4fbc 1d74 34be
00000300: 865c 3b3e 88f8 f43d c53f 3e3e e404 8a3e
00000310: 96de 883d b4ea cd3e 19a7 e93d 1ac5 6bbc
00000320: b078 d4bd 5a1a edbd deb0 52bd 6b58 5ebd
00000330: 8837 873e b1c4 7c3e 4829 6fbe b917 b83d
00000340: 0b76 9abe f6ae a43e fc45 03be 9748 08be
00000350: 9316 5fbe 5df0 293c 0685 9e3d a0ba a9bd
00000360: b289 8fbc 12b4 823e 8bda 943d d0dc 67be
00000370: 127b a23c 1354 213e 8ed5 4d3e 47e7 84be
00000380: 05b1 293d 7d59 153e 917c 91be 3864 e53c
00000390: 9ca6 a33e 4cff 9ebe ad7c f8bd c939 543e
000003a0: d300 893e ba33 483d e88c e0bd f228 08bd
000003b0: 77fe 793e 5ae9 55be 2aae a7be 35e8 813e
000003c0: 0750 a4bc e437 02bf 2a78 a1be 5aed 4b3e
000003d0: 3719 47be 2d56 99be 94a4 08bd 3710 1b3e
000003e0: d00e fdbd 372c 0e3e 2572 8b3d a0ea 663e
000003f0: 9de0 3e3e 4687 25be 721b e73c 79f7 ea3d

bias f4 [128]
-0.06839401 0.32533768 0.019252818 0.041442852 0.36292833 0.38460645 0.22052522 0.35645467
0.18314742 -0.060436916 0.16249377 0.17554171 0.47654012 0.18394804 0.19823678 0.37135246
0.17502058 -0.1744886 0.32366216 -0.025473941 0.35834292 0.3408001 -0.20050552 0.28086936
0.061648436 0.3333683 0.25212985 -0.17617346 -2.6209524e-05 -0.10846218 0.31268847 0.2860382
0.1602297 -0.08383971 -0.10423816 0.26922038 0.3165274 0.050600044 -0.072361164 0.39946908
0.1757226 0.42847311 -0.1576366 0.33290374 0.4460656 0.121284045 -0.19336058 -0.16128209
0.06401364 0.4054912 -0.027227957 0.11001335 0.08367102 0.2185661 -0.04208534 0.31843054
0.06607791 0.07944391 0.10595316 0.08757713 0.35585943 0.022700872 0.39645594 -0.0400045
-0.077429265 0.11248662 0.1833112 -0.13877393 0.1484612 0.03589012 0.47854534 0.21467139
0.30197406 0.12903804 0.23494191 0.28689417 0.30541867 0.116358474 -0.095080644 -0.0771714
0.33396557 0.1101207 -0.06703695 -0.09197531 0.34763938 -0.24156643 0.059883863 0.26715654
0.15749057 0.36966798 -0.09726579 0.3906548 0.31452763 0.16188857 0.082195394 0.19196016
0.24705696 0.3523615 0.12842609 0.24950309 0.14226235 0.029905697 0.22183259 0.17417915
0.22348599 -0.23181483 -0.026442446 0.49194202 0.10982257 0.0748146 0.33013466 0.21531166
0.09569252 -0.05508234 -0.005078945 0.48927474 0.41043755 0.42162648 0.3822825 0.37607807
0.14074467 0.39373022 -0.081345096 0.2862677 0.12645066 -0.06481187 -0.2439922 0.45928353
00000000: 2912 8cbd a992 a63e 16b8 9d3c fbbf 293d
00000010: bed1 b93e 23eb c43e 5dd1 613e 3a81 b63e
00000020: ff8a 3b3e b38c 77bd c464 263e 35c1 333e
00000030: 11fd f33e e05c 3c3e 95fe 4a3e e921 be3e
00000040: 9838 333e 24ad 32be 0cb7 a53e baae d0bc
00000050: b978 b73e 5a7d ae3e 5251 4dbe 1cce 8f3e
00000060: 1283 7c3d 40af aa3e 2a17 813e d166 34be
00000070: 86dc dbb7 6b21 debd b418 a03e 9973 923e
00000080: 4113 243e 27b4 abbd d17a d5bd 41d7 893e
00000090: e10f a23e fe41 4f3d 1732 94bd 3687 cc3e
000000a0: a0f0 333e d460 db3e 7d6b 21be 5c72 aa3e
000000b0: b662 e43e c563 f83d 5100 46be 2227 25be
000000c0: 9519 833d 8b9c cf3e 2a0d dfbc ae4e e13d
000000d0: b65b ab3d cbcf 5f3e ad61 2cbd 5409 a33e
000000e0: db53 873d 7db3 a23d f8fd d83d a35b b33d
000000f0: 3533 b63e 2ef7 b93c 46fc ca3e c2db 23bd
00000100: 3c93 9ebd 635f e63d eeb5 3b3e c11a 0ebe
00000110: 3606 183e 8501 133d e503 f53e d1d2 5b3e
00000120: 589c 9a3e 8c22 043e 9d94 703e cbe3 923e
00000130: d65f 9c3e 5a4d ee3d a4b9 c2bd 0a0c 9ebd
00000140: 89fd aa3e f686 e13d ab4a 89bd 8d5d bcbd
00000150: cafd b13e 315d 77be c848 753d bec8 883e
00000160: 3545 213e 1f45 bd3e 4933 c7bd e803 c83e
00000170: c409 a13e 1ec6 253e 0f56 a83d 3491 443e
00000180: 80fc 7c3e ba68 b43e 2182 033e bd7d 7f3e
00000190: 39ad 113e cbfc f43c 1528 633e 055c 323e
000001a0: 83d9 643e de60 6dbe d49d d8bc d3df fb3e
000001b0: a8ea e03d 6638 993d 6907 a93e a97a 5c3e
000001c0: 71fa c33d 059e 61bd 476d a6bb 3882 fa3e
000001d0: df24 d23e 6ddf d73e 88ba c33e 4e8d c03e
000001e0: 5f1f 103e 0297 c93e 4298 a6bd ae91 923e
000001f0: 487c 013e 16bc 84bd 17d9 79be 3627 eb3e

weight f4 [256, 786]
0.07011877 0.0022868714 0.07062707 0.16097122 0.033413436 0.018234089 -0.06702879 -0.04461488
-0.060391106 0.11571604 -0.004387446 0.051790725 0.022253025 0.07648767 0.060850393 0.09117119
0.03207008 -0.011777507 -0.03562524 0.087925926 0.10331035 -0.050401505 -0.039575268 -0.053610366
-0.008699912 0.06244486 -0.064584166 -0.011046246 0.07431075 0.112328544 0.05597019 0.07319362
-0.003418769 0.048433732 -0.02079039 0.047841683 -0.044793934 0.107875645 0.08240661 0.087212555
-0.109738365 0.07233504 0.013392362 0.09190948 0.06899453 -0.06126854 -0.07601952 0.07949564
0.10148687 0.023922822 -0.014223961 0.014733394 0.13369031 0.03960572 -0.0005084367 -0.091067955
-0.0066552316 -0.04550072 0.0019091716 0.0026792092 0.06240365 0.04031564 -0.03205724 0.08591377
-0.027814034 0.09592989 -0.0017881603 -0.06462518 -0.016125388 -0.023148958 -0.013932371 0.029076252
-0.0075168596 -0.04980594 0.09378297 0.1105545 -0.027521836 0.041208126 -0.0552919 0.032717414
0.046116948 0.013062321 0.002780201 0.02519865 0.064384736 0.0014337285 -0.031173615 0.1250813
0.058671683 0.10487778 -0.03818186 0.043747105 -0.036767647 -0.007289777 0.1273486 0.12029137
0.024752628 0.044341415 0.02050902 0.04779348 0.015121541 -0.07488631 0.055297982 0.017104032
0.011840786 -0.038850356 0.055678908 0.088898696 0.07130232 -0.043718725 -0.071101554 0.013611874
-0.025155809 -0.06990665 -0.028392904 0.03229106 0.009645533 -0.06952852 0.09680004 -0.08756252
-0.07581998 0.007031903 0.0052322787 0.055535246 0.0089399675 -0.076890424 -0.0022633476 0.029835038
-0.34130916 -0.2619151 0.40238205 -0.024801457 -0.11565802 0.09975998 0.042579427 0.15859446
0.05705991 0.019075472 -0.030934623 -0.08906739 0.009978103 0.012522019 -0.06046307 -0.06963278
-0.02361879 0.10559919 -0.053826008 -0.04026809 -0.02232517 0.07007573 0.022448791 0.11413413
-0.02086148 0.06608098 0.10850781 0.038359944 0.08988073 0.03318408 -0.1280097 -0.005932069
0.033471003 0.0054627242 -0.09509538 0.1231668 -0.01133355 0.005474326 -0.017900454 -0.027519211
0.02784346 -0.03993811 -0.14262684 0.14449087 0.053322267 0.049011853 0.07408552 0.026806295
0.1004375 -0.0014324266 -0.030636232 0.019198833 0.10161322 -0.007290785 0.0078002806 0.04623566
0.0066301534 0.07888738 -0.10262238 0.056232054 -0.1424391 -0.023225682 0.06310104 -0.010344974
0.12641954 0.018460019 -0.007122433 -0.045183692 0.0270137 0.024531757 0.002158755 0.090089425
-0.011866736 0.043405052 0.040976148 0.03882507 0.025834251 0.06647681 0.03999098 0.10446503
0.0053750696 0.08394023 -0.005879662 0.01741496 0.082810245 -0.026094075 0.05068873 0.03237208
0.053992826 -0.0016998093 0.059878208 0.067387074 -0.08239495 0.06265933 0.120301634 0.008095842
-0.0056465757 -0.15942311 -0.103447884 -0.020674005 0.07306032 -0.014552796 0.09324899 0.03762877
0.0025893415 0.0015396783 -0.0018407853 0.061684832 -0.07515029 -0.050949953 0.016660742 -0.080725916
-0.043559786 0.1479997 0.041752372 0.19458786 0.04477623 -0.020891167 0.08341004 0.114198424
0.069121994 0.10447012 0.12961695 0.005043693 0.123704806 0.045534063 0.03845507 0.021688245
00000000: 6e9a 8f3d 56df 153b eda4 903d a4d5 243e
00000010: 87dc 083d a85f 953c 6446 89bd 18be 36bd
00000020: aa5c 77bd 88fc ec3d 91c4 8fbb 8322 543d
00000030: fa4b b63c 91a5 9c3d 433e 793d f6b7 ba3d
00000040: eb5b 033d 72f6 40bc c6eb 11bd 8212 b43d
00000050: 6094 d33d cf71 4ebd ad19 22bd 8b96 5bbd
00000060: 138a 0ebc 2ec6 7f3d b444 84bd 50fb 34bc
00000070: 3c30 983d 820c e63d ff40 653d 89e6 953d
00000080: 6d0d 60bb 7362 463d 9c50 aabc a4f5 433d
00000090: d879 37bd e8ed dc3d ccc4 a83d 7f9c b23d
000000a0: 82be e0bd 6524 943d a36b 5b3c 0a3b bc3d
000000b0: 014d 8d3d b8f4 7abd 1fb0 9bbd 9cce a23d
000000c0: 59d8 cf3d cbf9 c33c 9e0b 69bc 5564 713c
000000d0: 1de6 083e 9c39 223d 9c48 05ba d681 babd
000000e0: 2114 dabb f75e 3abd 2b3d fa3a ac95 2f3b
000000f0: f89a 7f3d 0322 253d 744e 03bd 8ff3 af3d
00000100: 42da e3bc e476 c43d b460 eaba 355a 84bd
00000110: 6419 84bc e2a2 bdbc 9944 64bc 5231 ee3c
00000120: fd4f f6bb 5001 4cbd 4911 c03d 666a e23d
00000130: 7975 e1bc dac9 283d c279 62bd b202 063d
00000140: 20e5 3c3d 5803 563c 0834 363b 666d ce3c
00000150: 25dc 833d f2eb bb3a cf5f ffbc 5015 003e
00000160: b851 703d 29ca d63d 9564 1cbd 2a30 333d
00000170: ac99 16bd 15df eebb ac67 023e 525b f63d
00000180: 06c6 ca3c 589f 353d 8802 a83c 19c3 433d
00000190: 57c0 773c fe5d 99bd 2380 623d c11d 8c3c
000001a0: dbff 413c 8d21 1fbd 910f 643d 8510 b63d
000001b0: f306 923d 6812 33bd b19d 91bd 5604 5f3c
000001c0: 8e13 cebc 382b 8fbd 3c98 e8bc a143 043d
000001d0: 4c08 1e3c f864 8ebd 193f c63d fa53 b3bd
000001e0: 8147 9bbd e16b e63b 8973 ab3b ed78 633d
000001f0: f178 123c ba78 9dbd ac54 14bb 9c68 f43c
00000200: 13c0 aebe bc19 86be 0505 ce3e 6d2c cbbc
00000210: 1dde ecbd f64e cc3d c467 2e3d 9666 223e
00000220: a7b7 693d 2a44 9c3c 9b6a fdbc f768 b6bd
00000230: 337b 233c 2829 4d3c 20a8 77bd a29b 8ebd
00000240: 317c c1bc 6344 d83d a978 5cbd 27f0 24bd
00000250: 46e3 b6bc dd83 8f3d 87e6 b73c 28bf e93d
00000260: b2e5 aabc 7755 873d 5839 de3d 511f 1d3d
00000270: 6313 b83d 08ec 073d fa14 03be cd61 c2bb
00000280: e418 093d a700 b33b 5ec1 c2bd e03e fc3d
00000290: 5bb0 39bc fa61 b33b f9a3 92bc f86f e1bc
000002a0: f817 e43c 2596 23bd c50c 12be 6af5 133e
000002b0: 7368 5a3d a7c0 483d 26ba 973d e098 db3c
000002c0: 2db2 cd3d 43c0 bbba d6f8 fabc df46 9d3c
000002d0: 981a d03d 8ae7 eebb 7f99 ff3b 9a61 3d3d
000002e0: c241 d93b b58f a13d af2b d2bd 9553 663d
000002f0: 8edb 11be c943 bebc 1e3b 813d f77d 29bc
00000300: 2074 013e 7739 973c 4c63 e9bb 8912 39bd
00000310: d64b dd3c d3f6 c83c e679 0d3b ce80 b83d
00000320: b36c 42bc 7fc9 313d 9bd6 273d 0907 1f3d
00000330: 5aa2 d33c fe24 883d 95cd 233d c3f1 d53d
00000340: 5a21 b03b dbe8 ab3d 2eaa c0bb d1a9 8e3c
00000350: 6b98 a93d 3ec3 d5bc fc9e 4f3d 9698 043d
00000360: 9527 5d3d 23cc deba da42 753d 3c02 8a3d
00000370: afbe a8bd 8953 803d b460 f63d 6ca4 043c
00000380: e906 b9bb d03f 23be 7cdc d3bd 885c a9bc
00000390: a6a0 953d da6e 6ebc 54f9 be3d a020 1a3d
000003a0: f1b1 293b 08cf c93a 8146 f1ba 3ca9 7c3d
000003b0: 65e8 99bd e6b0 50bd 1c7c 883c a153 a5bd
000003c0: bf6b 32bd 3c8d 173e 8904 2b3d 0a42 473e
000003d0: 4867 373d f423 abbc e2d2 aa3d dde0 e93d
000003e0: d58f 8d3d 6ef4 d53d 4eba 043e 9045 a53b
000003f0: f258 fd3d ed81 3a3d 1083 1d3d 8cab b13c

bias f4 [256]
0.18370716 0.15753336 0.19959767 0.16551386 -0.03163238 -0.028852321 0.18706536 0.0028114347
0.18732846 0.19704321 -0.0042369966 0.19636942 0.18720861 0.22002137 0.19587612 0.166856
-0.008235137 0.17894103 0.15815765 -0.038214415 0.19144402 0.16134828 -0.04215642 0.16625844
0.17738773 -0.0024871877 0.16850653 0.17869024 0.20261383 0.20794399 0.21517609 0.1589975
0.15499243 0.21185757 0.19398174 0.19193947 0.2189066 -0.030099241 0.1777662 -0.0098119285
0.16025485 0.16923392 0.19926512 0.15481842 0.15726592 -0.027605092 0.16475892 0.027435549
0.022586158 0.16182825 0.21231484 0.20100649 0.17023303 0.15441848 0.15020591 0.18552656
-0.03708639 0.20254023 0.20076716 0.20087236 -0.0006217346 0.21786958 0.17156053 0.020623446
0.21689859 0.16215116 -0.032166846 0.19550379 0.2003266 0.21354878 0.18956468 0.19979942
0.18297127 0.16372198 -0.031042814 0.010588262 0.15743439 0.19342743 0.13930218 0.14536431
0.019124543 0.19013655 0.19966236 0.21178605 0.17052345 0.17751813 -0.04450873 0.0061728465
0.15140124 0.21218017 0.17959245 0.20177074 0.14688797 0.16879596 0.15987349 0.19216786
0.17701508 0.0006861389 -0.031813733 0.15768237 0.20754959 0.17704953 0.17674637 0.1770289
0.16108093 -0.018292733 0.16779497 0.20498098 0.02056501 0.1783608 0.21447365 0.15298899
-0.02751399 0.014323033 0.1757626 0.1812076 -0.006092346 0.21591407 0.19247733 0.025493134
-0.018020134 0.1769108 -0.026711058 -0.0007892117 -0.01132799 0.18265738 -0.03351277 0.2007091
0.150202 0.17974366 0.1738143 0.15590574 0.022074977 0.16686772 0.15328096 -0.029874828
0.20023338 -0.027008463 0.20456022 0.19385462 0.14957587 0.18506522 0.20035218 0.14440094
0.17086561 0.21950833 -0.0065235537 0.18798515 0.19757357 0.20469047 -0.015473026 0.17662677
0.21173975 -0.015324531 0.028353686 0.2138318 -0.015656719 -0.015224067 0.15747674 0.15522575
0.02315573 0.14961316 0.21789104 0.18932305 0.20796016 0.19848403 0.21399447 0.14969766
0.15504485 0.20876358 0.1857263 0.21460688 0.17894407 0.21117398 0.17224257 0.15814291
0.21152835 0.21678813 0.16711678 0.17498338 0.18231401 -0.028249104 0.18188226 0.21484841
-0.004820137 0.17592539 0.18060827 0.018521348 0.15814999 0.16089804 -0.029485174 0.206917
-0.006066193 0.17262802 0.1441482 0.001262944 0.20518364 0.19348839 0.19923323 -0.01307145
0.20005436 -0.040669654 0.16423993 -0.005928394 0.01650108 -0.005481871 0.1664355 0.023937786
0.17187679 0.17477074 0.171379 0.17334639 0.16627263 0.1938764 0.19666103 0.16167365
-0.02708319 0.21331872 -0.017867204 0.16077185 0.17660907 0.017325316 0.18427308 0.17694314
0.15983263 0.18308537 -0.021503285 0.1751461 -0.018274048 0.20355934 0.17425855 0.15891838
0.21627435 -0.003056093 -0.0144535955 0.20320562 0.15298109 -0.026458036 0.21769051 0.20380159
0.0073631043 0.18196245 0.011482411 0.17340578 0.19160539 0.16023421 0.19417787 0.17068002
0.2017839 0.16584957 0.20598382 0.20987378 0.18445726 0.011742399 0.15161741 0.21611992
00000000: bb1d 3c3e 6d50 213e 5563 4c3e 777c 293e
00000010: f490 01bd b45b ecbc 108e 3f3e 0c40 383b
00000020: 08d3 3f3e b2c5 493e 81d6 8abb 1115 493e
00000030: 9db3 3f3e 484d 613e c093 483e 4ddc 2a3e
00000040: abec 06bc 513c 373e 14f4 213e b886 1cbd
00000050: e709 443e 7c38 253e 36ac 2cbd a73f 2a3e
00000060: 21a5 353e 1600 23bb fa8c 2c3e 93fa 363e
00000070: 007a 4f3e 45ef 543e 1f57 5c3e 3ed0 223e
00000080: 56b6 1e3e 31f1 583e 26a3 463e c88b 443e
00000090: 0d29 603e af92 f6bc 5808 363e 36c2 20bc
000000a0: d919 243e a84b 2d3e 280c 4c3e b888 1e3e
000000b0: 510a 213e 1324 e2bc 90b6 283e 84c0 e03c
000000c0: 9b06 b93c 4eb6 253e 1069 593e a5d4 4d3e
000000d0: 9151 2e3e e11f 1e3e 94cf 193e adfa 3d3e
000000e0: e6e7 17bd b566 4f3e e895 4d3e 7cb1 4d3e
000000f0: e7fb 22ba 3419 5f3e 90ad 2f3e 80f2 a83c
00000100: aa1a 5e3e f40a 263e 62c1 03bd 2532 483e
00000110: 6b22 4d3e 88ac 5a3e 3e1d 423e 3898 4c3e
00000120: d25c 3b3e bca6 273e 804d febc 647a 2d3c
00000130: 7b36 213e d711 463e 3ba5 0e3e 62da 143e
00000140: 13ab 9c3c 28b3 423e 4a74 4c3e 71de 583e
00000150: b39d 2e3e 50c7 353e c94e 36bd 9745 ca3b
00000160: ed08 1b3e c245 593e 15e7 373e fd9c 4e3e
00000170: cd69 163e d9d8 2c3e e0b5 233e a7c7 443e
00000180: 7143 353e 01de 333a 1e4f 02bd 7d77 213e
00000190: e187 543e 794c 353e 00fd 343e 1047 353e
000001a0: 66f2 243e a4da 95bc 72d2 2b3e 89e6 513e
000001b0: f477 a83c 37a4 363e fb9e 5b3e 25a9 1c3e
000001c0: 0565 e1bc 28ab 6a3c 1cfb 333e 7c8e 393e
000001d0: 4da2 c7bb 9418 5d3e c718 453e fad6 d03c
000001e0: f69e 93bc 1b28 353e 26d1 dabc 1ae3 4eba
000001f0: 0999 39bc 890a 3b3e b044 09bd b086 4d3e
00000200: 8ece 193e b90e 383e 60fc 313e c1a5 1f3e
00000210: 95d6 b43c 5fdf 2a3e aff5 1c3e 0ebc f4bc
00000220: fb09 4d3e da40 ddbc 3c78 513e d381 463e
00000230: 6b2a 193e bd81 3d3e 1f29 4d3e d7dd 133e
00000240: 65f7 2e3e cbc6 603e 89c3 d5bb 2e7f 403e
00000250: ba50 4a3e 619a 513e 9382 7dbc a6dd 343e
00000260: 4ed2 583e be13 7bbc fd45 e83c b9f6 5a3e
00000270: 8542 80bc 5d6e 79bc 9541 213e 80f3 1e3e
00000280: 16b1 bd3c 3134 193e d41e 5f3e e7dd 413e
00000290: 82f3 543e 663f 4b3e 5e21 5b3e 584a 193e
000002a0: 14c4 1e3e 1fc6 553e 092f 3e3e e8c1 5b3e
000002b0: 1d3d 373e fe3d 583e 5b60 303e 37f0 213e
000002c0: e39a 583e b5fd 5d3e a920 2b3e d82e 333e
000002d0: 86b0 3a3e aa6a e7bc 583f 3a3e 3901 5c3e
000002e0: 3df2 9dbb c925 343e 60f1 383e 15ba 973c
000002f0: 12f2 213e 75c2 243e e48a f1bc 0de2 533e
00000300: eac6 c6bb 66c5 303e 969b 133e 5e89 a53a
00000310: a91b 523e d221 463e cc03 4c3e a329 56bc
00000320: 0ddb 4c3e 3995 26bd 832e 283e f942 c2bb
00000330: 462d 873c 44a1 b3bb 116e 2a3e 2d19 c43c
00000340: 7800 303e 1af7 323e fa7d 2f3e b781 313e
00000350: 5f43 2a3e 8987 463e 8261 493e c78d 253e
00000360: 91dd ddbc 3970 5a3e 3e5e 92bc 60a1 243e
00000370: 02d9 343e d2ed 8d3c 15b2 3c3e 9530 353e
00000380: 2aab 233e bb7a 3b3e a827 b0bc 8059 333e
00000390: 75b3 95bc dc71 503e d570 323e 80bb 223e
000003a0: 0677 5d3e bb48 48bb c6ce 6cbc 2215 503e
000003b0: 13a7 1c3e 86be d8bc 43ea 5e3e 5db1 503e
000003c0: 3246 f13b 5d54 3a3e b920 3c3c 4991 313e
000003d0: 3434 443e 7014 243e 90d6 463e bec6 2e3e
000003e0: 70a0 4e3e 78d4 293e 6ced 523e 27e9 563e
000003f0: 5de2 3c3e 3163 403c 9841 1b3e 8a4e 5d3e

weight f4 [128, 256]
0.10046521 0.07858805 0.08328146 0.005724183 -0.02520262 -0.005078647 0.0969638 -0.044625018
0.097601324 0.035592232 0.014025037 0.114736915 0.024937477 0.060668435 0.045129485 0.07964674
0.054434277 0.04442804 0.114258006 -0.029946858 0.024464892 0.005559649 -0.012437188 -0.00369538
0.034471724 0.024162233 0.10979117 0.010014213 0.019760419 0.06781102 0.103225105 0.0031233148
0.10903809 0.11361035 0.020297227 0.049555805 0.04968758 -0.012103155 0.042748757 0.05800632
0.0155438725 0.011453045 -0.003107532 0.09351911 0.022878438 0.007780955 0.050336804 0.033804502
-0.050560012 0.07451992 0.07842346 0.0008037996 -0.0031433615 0.10051253 0.084445424 0.063119955
0.061583556 0.08592501 0.073335975 -0.0013235651 -0.012090701 0.07820227 0.060520224 0.04038789
0.06798297 0.005327011 -0.032018553 0.39206636 0.09003538 0.016210044 -0.0027929137 0.09271327
0.072108895 0.0011070837 0.07002875 0.024208916 0.11005611 0.033909116 0.059045803 0.48223552
0.017453633 0.07552557 0.03883519 0.009539953 0.06838866 0.09571647 -0.025083806 0.0065803356
0.257646 0.049875133 0.047336716 0.47871295 0.0087656 0.10958123 0.06812405 -0.002388902
0.03418441 0.009362921 -0.0041247457 0.0292025 0.04292184 0.076117285 0.05442839 0.11023004
0.028632702 0.005597589 -0.0056476826 0.108203284 0.016096203 0.021597346 0.008065605 0.052017227
0.018760076 0.014111914 -0.002824739 -0.011305498 0.040861893 0.050909393 0.07563049 -0.0011905995
0.058323033 0.05876734 0.0406347 0.04207257 0.06543703 0.006513973 -0.04355064 0.08333476
0.057805352 0.028503478 0.07783435 0.08735273 -0.012444847 0.0952737 0.025858162 0.030044729
0.07469642 -0.009693728 0.1104031 0.089641675 0.06335958 0.06047257 0.09838573 0.59087455
0.011017082 0.11303189 -0.007391681 0.08384052 0.032017842 0.10790614 -0.015348427 0.06342518
0.09548559 -0.03244607 0.034259938 0.0705585 -0.0064949957 -0.011972744 0.028046165 0.034542974
-0.0053476375 0.051885106 0.03414652 0.026723757 0.012048166 0.06375475 0.082851805 0.077045344
0.014620934 0.10881974 0.0521318 0.056715682 0.068389274 0.06282645 0.11067523 0.05634084
0.08015569 0.07462855 0.06402268 0.065519854 -0.005953185 -0.00022510241 0.024308277 0.03265908
0.021454288 -0.0011788597 0.087816805 0.037531067 0.05061787 0.10257184 -0.030929293 0.013087745
0.054459993 0.09605637 0.028839637 0.062139843 0.019581191 0.021502694 0.027324894 -0.034892056
0.095571354 -0.008706102 0.10096147 0.043697037 -0.0054704556 -0.041780226 0.045232743 -0.030667339
0.052558627 -0.000897922 0.027853135 0.084769875 0.061899308 0.034392983 0.05895788 0.057988144
-0.04241937 0.03828702 0.03286839 0.1066415 0.080430225 -0.03124327 0.05244258 0.10660121
0.085279405 0.050186705 -0.020518495 0.042140134 0.04368706 0.10539611 0.051617235 0.10159869
0.0014975152 -0.008512571 -0.036808085 0.060512174 0.10788487 -0.03626492 0.018859606 0.03790032
-0.011016297 0.037966467 0.02881218 0.09612409 0.038709927 0.022616202 0.063140586 -0.0033573667
0.06997508 0.08554225 0.019345326 -8.78218e-06 0.10899006 0.036379192 0.11414586 0.09928821
00000000: b4c0 cd3d c6f2 a03d 788f aa3d ed91 bb3b
00000010: ba75 cebc c76a a6bb f594 c63d b9c8 36bd
00000020: 34e3 c73d 29c9 113d 45c9 653c 30fb ea3d
00000030: ae49 cc3c 777f 783d b2d9 383d d41d a33d
00000040: 7af6 5e3d 2dfa 353d 1a00 ea3d 1d53 f5bc
00000050: 996a c83c b72d b63b 59c5 4bbc 302e 72bb
00000060: 3932 0d3d e0ef c53c 31da e03d a712 243c
00000070: 9ae0 a13c 81e0 8a3d af67 d33d 87b0 4c3b
00000080: 5d4f df3d 8bac e83d 5f46 a63c 07fb 4a3d
00000090: 3485 4b3d 504c 46bc 5219 2f3d 0998 6d3d
000000a0: baab 7e3c 8da5 3b3c bca7 4bbb f286 bf3d
000000b0: 906b bb3c 62f7 fe3b f72d 4e3d 9776 0a3d
000000c0: 0418 4fbd e69d 983d 7b9c a03d 14b6 523a
000000d0: db00 4ebb 83d9 cd3d b9f1 ac3d 0945 813d
000000e0: 0a3f 7c3d 74f9 af3d 2c31 963d 7a7b adba
000000f0: 1318 46bc 8328 a03d 0ee4 773d c66d 253d
00000100: a83a 8b3d 358e ae3b e325 03bd ecbc c83e
00000110: 7864 b83d edca 843c 5109 37bb 74e0 bd3d
00000120: d4ad 933d 911b 913a 3c6b 8f3d c751 c63c
00000130: 1965 e13d 49e4 0a3d 03da 713d 93e7 f63e
00000140: ecfa 8e3c 26ad 9a3d a611 1f3d 774d 1c3c
00000150: 5b0f 8c3d ff06 c43d 8e7c cdbc db9f d73b
00000160: 2dea 833e de49 4c3d 25e4 413d dd19 f53e
00000170: 979d 0f3c 206c e03d 9f84 8b3d 208f 1cbb
00000180: f404 0c3d f066 193c e028 87bb 153a ef3c
00000190: d0ce 2f3d 61e3 9b3d 4ef0 5e3d 4ac0 e13d
000001a0: 218f ea3c fb6b b73b 3210 b9bb af99 dd3d
000001b0: 2fdc 833c ebec b03c 9925 043c 0410 553d
000001c0: bbae 993c a835 673c 421f 39bb b23a 39bc
000001d0: cd5e 273d 5e86 503d 29e4 9a3d e40d 9cba
000001e0: 22e4 6e3d 06b6 703d 9270 263d 4a54 2c3d
000001f0: d903 863d 2b73 d53b 2862 32bd 6aab aa3d
00000200: 4ec5 6c3d 2080 e93c 9e67 9f3d fde5 b23d
00000210: 79e5 4bbc dc1e c33d 7fd4 d33c 5d20 f63c
00000220: 70fa 983d 71d2 1ebc 051b e23d 0e96 b73d
00000230: abc2 813d 16b2 773d 757e c93d 8e43 173f
00000240: fe80 343c 437d e73d ea35 f2bb 94b4 ab3d
00000250: 2425 033d e5fd dc3d f877 7bbc 10e5 813d
00000260: f38d c33d 2ce6 04bd 2654 0c3d fa80 903d
00000270: f9d3 d4bb 5429 44bc 12c1 e53c ef7c 0d3d
00000280: 3c3b afbb 7a85 543d 39dd 0b3d c8eb da3c
00000290: ac65 453c da91 823d 35ae a93d f3c9 9d3d
000002a0: a48c 6f3c e2dc de3d 2888 553d b44e 683d
000002b0: ad0f 8c3d 27ab 803d b2a9 e23d a7c5 663d
000002c0: ab28 a43d dad6 983d 531e 833d 462f 863d
000002d0: ef12 c3bb 7809 6cb9 2722 c73c 87c5 053d
000002e0: e7c0 af3c f883 9aba 4cd9 b33d 2dba 193d
000002f0: af54 4f3d 2f11 d23d 6e5f fdbc fb6d 563c
00000300: 7111 5f3d 34b9 c43d 1a41 ec3c 5986 7e3d
00000310: bc68 a03c 6b26 b03c 75d8 df3c f9ea 0ebd
00000320: eaba c33d 0aa4 0ebc e3c4 ce3d aafb 323d
00000330: 8241 b3bb be21 2bbd f845 393d 123a fbbc
00000340: b747 573d 8662 6bba 422c e43c d49b ad3d
00000350: 218a 7d3d a8df 0c3d d17d 713d fa84 6d3d
00000360: efbf 2dbd dad2 1c3d 01a1 063d dc66 da3d
00000370: 9ab8 a43d e3f1 ffbc 08ce 563d bc51 da3d
00000380: f8a6 ae3d 9390 4d3d 6716 a8bc 229b 2c3d
00000390: 34f1 323d ead9 d73d 986c 533d f912 d03d
000003a0: 4648 c43a 5078 0bbc 13c4 16bd 9ddb 773d
000003b0: bef2 dc3d 868a 14bd 767f 9a3c 5e3d 1b3d
000003c0: b37d 34bc ba82 1b3d 8507 ec3c b5dc c43d
000003d0: 4d8e 1e3d 9d45 b93c da4f 813d 4407 5cbb
000003e0: 184f 8f3d c630 af3d 177a 9e3c 2d57 13b7
000003f0: 2e36 df3d 5902 153d 4ec5 e93d 9e57 cb3d

bias f4 [128]
0.105620116 0.0069185207 0.19045949 0.03309357 0.0050171185 0.13000761 0.14834738 0.20436333
-0.040648323 0.19883978 0.194157 0.09693883 0.13396907 0.018632077 0.121388584 0.10345035
0.043179322 0.14265436 0.19835174 0.13960901 -0.014135518 -0.029089319 0.113121174 0.028364237
0.08905945 0.12933962 0.184921 0.08658021 -0.014119344 -0.015183061 -0.060110684 0.051260706
0.137227 0.11735111 0.042589497 -0.01445196 0.15952933 0.092458926 0.006062598 0.0058717844
-0.029578226 0.1771987 0.1261425 0.13741979 -0.031068921 0.13266169 0.18142459 -0.06170849
0.012556924 0.2014722 0.19871482 0.080374956 0.16498408 0.0063041383 -0.0012366842 0.040167697
0.1609604 -0.028773025 0.14187197 -0.05415508 0.11321145 -0.051533964 0.23332068 0.090315446
0.21037826 0.04742097 -0.020830924 0.18610631 -0.02021675 -0.0049559176 0.13409585 0.03273092
-0.011306204 -0.050391197 0.10238755 0.013073363 0.2138311 0.12538321 0.02645307 0.18702427
0.0072160936 0.1122348 0.054343823 0.02201885 0.12986895 0.12263518 0.1939922 0.17959747
0.12720373 -0.04833112 0.11254995 0.15816538 0.13760082 0.118050136 0.20625515 0.22639604
-0.05350977 0.010859774 0.012344576 0.14861074 -0.049690954 0.18146607 0.10402768 0.160415
-0.06357635 0.20712785 0.17936802 0.029321784 -0.02876011 0.217825 0.09362453 0.1385576
-0.027369725 0.17068814 0.1214154 0.13495249 0.014002811 -0.02502268 0.1992779 -0.0058718366
0.15309003 -0.02169854 0.13907924 0.034466263 0.015591957 0.19820774 -0.024807842 0.044861265
00000000: 5c4f d83d c2b4 e23b d007 433e 208d 073d
00000010: a466 a43b b720 053e 60e8 173e 9f44 513e
00000020: db7e 26bd a89c 4b3e 18d1 463e de87 c63d
00000030: 302f 093e 4ca2 983c 949a f83d c7dd d33d
00000040: cddc 303d fc13 123e b81c 4b3e aaf5 0e3e
00000050: a998 67bc b94c eebc 13ac e73d 1e5c e83c
00000060: cd64 b63d 9b71 043e ee5b 3d3e f750 b13d
00000070: d254 67bc 60c2 78bc 9f36 76bd bff6 513d
00000080: 3c85 0c3e c755 f03d 5372 2e3d eac7 6cbc
00000090: a85b 233e 1b5b bd3d c2a8 c63b 1968 c03b
000000a0: 094e f2bc 9373 353e 802b 013e c6b7 0c3e
000000b0: 4084 febc 77d8 073e 5ec7 393e 0bc2 7cbd
000000c0: 8ebb 4d3c ba4e 4e3e e67b 4b3e a09b a43d
000000d0: 96f1 283e f292 ce3b 3c18 a2ba e286 243d
000000e0: ced2 243e 68b5 ebbc e346 113e b8d1 5dbd
000000f0: 68db e73d 4715 53bd 9eeb 6e3e 4ef7 b83d
00000100: 666d 573e 7e3c 423d 9da5 aabc a792 3e3e
00000110: 999d a5bc 4065 a2bb 6c50 093e db10 063d
00000120: a83d 39bc 0067 4ebd 90b0 d13d a931 563c
00000130: 8af6 5a3e 7564 003e 1cb4 d83c 4a83 3f3e
00000140: fb74 ec3b 5cdb e53d a197 5e3d e060 b43c
00000150: 5efc 043e 2728 fb3d e4a5 463e 66e8 373e
00000160: b241 023e daf6 45bd 9780 e63d 1bf6 213e
00000170: 3be7 0c3e 45c4 f13d 8d34 533e 5dd4 673e
00000180: 102d 5bbd 32ed 313c e840 4a3c 6a2d 183e
00000190: be88 4bbd 3ed2 393e 770c d53d d443 243e
000001a0: 5134 82bd 5319 543e 40ac 373e 3d34 f03c
000001b0: 529a ebbc 840d 5f3e 38be bf3d 0be2 0d3e
000001c0: 7936 e0bc dfc8 2e3e a3a8 f83d fc30 0a3e
000001d0: 0c6c 653c 5dfc ccbc 810f 4c3e 8968 c0bb
000001e0: a2c3 1c3e 23c1 b1bc ca6a 0e3e 7f2c 0d3d
000001f0: 6875 7f3c f8f6 4a3e d139 cbbc 72c0 373d

weight f4 [1, 128]
-0.13793486 0.05548278 -0.13617165 0.014536708 0.008984624 -0.13418725 -0.07442039 -0.11057995
-0.006504508 -0.13740455 -0.1332198 -0.13483946 -0.10254637 0.027334088 -0.08012439 -0.13335907
0.06392249 -0.08987809 -0.076526806 -0.13615473 0.0074129943 0.064301305 -0.13809949 0.06425088
-0.12049828 -0.1107638 -0.13786282 -0.14656486 0.018009597 0.006509651 0.015935523 0.0343958
-0.14658643 -0.12239222 0.017914508 -0.002960084 -0.12872712 -0.143508 0.05873232 0.019897802
0.005212764 -0.10117001 -0.13299118 -0.09821758 0.009044324 -0.091289155 -0.094618246 0.078754954
0.027965503 -0.096781604 -0.14649731 -0.14365287 -0.11616154 0.018996596 0.00049680745 0.055353995
-0.107565016 0.02476468 -0.126749 0.04670217 -0.08173754 0.007878749 -0.06427573 -0.13626473
-0.09120597 0.0026369425 0.0027389359 -0.0967103 0.06420191 0.024992978 -0.14420603 -0.00486981
0.015674796 0.013889795 -0.10717014 -0.0100722 -0.08476782 -0.10626206 0.03485842 -0.13245937
0.053257227 -0.13131921 0.03153732 0.039421227 -0.07508601 -0.10721508 -0.13250312 -0.14486635
-0.088696145 0.01024538 -0.06683496 -0.12179956 -0.12284402 -0.075486764 -0.11929849 -0.055440776
0.011645831 0.0667427 0.029131716 -0.0787733 0.06029396 -0.1158896 -0.120161615 -0.123569794
0.0054001585 -0.05990126 -0.06738769 0.080222785 0.021897644 -0.079783574 -0.13817918 -0.12730603
0.07802434 -0.11723261 -0.12424473 -0.07618524 0.048520725 0.075980514 -0.12763482 0.06961927
-0.07923257 0.069763824 -0.08553392 0.0055372613 -0.0049155713 -0.11940102 0.017075662 0.059579976
00000000: cc3e 0dbe e941 633d 9570 0bbe 5f2b 6e3c
00000010: 3f34 133c 6268 09be b869 98bd be77 e2bd
00000020: c523 d5bb c7b3 0cbe c56a 08be 5b13 0abe
00000030: d503 d2bd bdeb df3c 4218 a4bd 488f 08be
00000040: cbe9 823d 0112 b8bd 16ba 9cbd 256c 0bbe
00000050: b4e8 f23b 67b0 833d f469 0dbe f795 833d
00000060: cdc7 f6bd 22d8 e2bd e92b 0dbe 1915 16be
00000070: dd88 933c e94e d53b 378b 823c 9ce2 0c3d
00000080: c11a 16be c6a8 fabd 72c1 923c f8fd 41bb
00000090: 0bd1 03be c3f3 12be 4d91 703d b700 a33c
000000a0: d5cf aa3b 3932 cfbd d72e 08be 4c26 c9bd
000000b0: a52e 143c cff5 babd 36c7 c1bd 474a a13d
000000c0: e917 e53c 6f35 c6bd 6403 16be bd19 13be
000000d0: 1ae6 edbd c09e 9b3c 2f3c 023a dfba 623d
000000e0: 0c4b dcbd 4cdf ca3c 7dca 01be c64a 3f3d
000000f0: 0366 a7bd de15 013c fea2 83bd fb88 0bbe
00000100: 32ca babd 8ed0 2c3b b87f 333b 0d10 c6bd
00000110: 4a7c 833d 13be cc3c bfaa 13be ed92 9fbb
00000120: 6e68 803c 0692 633c 057c dbbd de05 25bc
00000130: c09a adbd ec9f d9bd b4c7 0e3d 6ea3 07be
00000140: 4024 5a3d 8b78 06be 472d 013d 2778 213d
00000150: b2c6 99bd 9493 dbbd e6ae 07be d857 14be
00000160: 53a6 b5bd 3ddc 273c c4e0 88bd 0c72 f9bd
00000170: a595 fbbd ce98 9abd c452 f4bd de15 63bd
00000180: 28ce 3e3c 66b0 883d a3a5 ee3c e553 a1bd
00000190: cdf6 763d 8757 edbd 4b17 f6bd 2912 fdbd
000001a0: d0f3 b03b 065b 75bd 8f02 8abd d84b a43d
000001b0: b062 b33c 9265 a3bd d87e 0dbe 835c 02be
000001c0: 3acb 9f3d a717 f0bd 0574 febd 0207 9cbd
000001d0: abbd 463d ac9b 9b3d b4b2 02be 8c94 8e3d
000001e0: b044 a2bd 56e0 8e3d 682c afbd ea71 b53b
000001f0: cd12 a1bb 8688 f4bd 42e2 8b3c 220a 743d
