trained/exp_train_3_6_1111_0.0001_0.001_32_0.95/model/meta_critic_1.pth (torch, 950411 bytes, 7 tensors)

weight f4 [128, 16]
00000000: a058 973e 2ec5 05be 7e78 40bd 7a30 113e
00000010: 4607 703e f29c 493e 8cff 52be dc53 243e
00000020: d9c2 4f3e 81af eebd 111b 94be 691a 22be
00000030: 48e9 a93e 2377 2b3e d57d 88be c3af 9aba
00000040: 7282 bc3e 9f8c 90be 3473 9d3e d432 303e
00000050: ce91 1fbe fccc f8bd 8db0 0e3e e2a6 79be
00000060: 93eb 2b3e 2367 a53d 0374 ff3d 574a 12bc
00000070: b556 1a3e 3bbf 01be 94d6 963e e2d7 ddbc
00000080: 4a59 173e 1d2a 9fbe a5eb 01be 28c7 8bbe
00000090: b47f 673e 2584 89bd f887 6fbe 9b24 c93c
000000a0: 7a1d 533e 1827 25be 1a37 4cbe 4532 bfbd
000000b0: 3f2b 153e 340a afbd 13cb 07be 543d 02be
000000c0: 81e8 3f3e adad b63d 0698 bdbc d185 733e
000000d0: f062 4d3e b751 b43e c32f 84bd ea43 d93d
000000e0: b832 df3b ad75 e93c 6718 193e 8160 8cbe
000000f0: b704 93ba a412 9e3e cd16 793b b635 a5be
00000100: 8c06 8dbe 224a 04bf 1acc 5f3d ff08 713c
00000110: 75ea a6bd 4080 acbe 71bd bbbd 4860 6fbe
00000120: 1aca bb3d f8a5 df3d 386b 093d 49e2 ad3e
00000130: ccb2 69be c4f2 c0be b7ed 2d3e edcc 56be
00000140: 913b a23e 571c b1be dab8 693e 38b2 1f3e
00000150: daf7 c1bd 90fd 5f3d 44d6 87bd 8fc0 c63d
00000160: b2b0 c8bd bed0 8bbe c725 cbbd 043c 913e
00000170: 9e07 0c3e 85ed 8abe 272d 15be 7592 853e
00000180: 5d7f 353e 5f82 8cbe e631 76bc d0ed d13d
00000190: 901e 0f3c 96e8 e4bd ecb6 00be 13c7 fd3d
000001a0: e24f 753d 38d3 96be 6842 53be 5a5d 843e
000001b0: 8558 ec3d f101 2ebe 8ae1 9fbb a9ae 6e3e
000001c0: 2c00 9cbd 748e 1a3e 19ab 173e a53b 40bc
000001d0: 4555 8c3e bfee 08be 8c57 2a3e 830c 4f3e
000001e0: c9ec 833e 09c0 143e 9a6d 8fbe 2107 39be
000001f0: 6371 123e 52ab 083d c807 9c3c e081 6dbd
00000200: b76b 8e3e ea64 ee3e 7a39 a9be eef1 d0bd
00000210: 1451 933e 54cc 99bd d021 a6be 02a4 6cbc
00000220: f4a7 863e bbe7 a43e 0c3d 04be 1fe2 85be
00000230: 89fe 6c3c 30e4 e9bd 3272 3f3d 7d0d 6abe
00000240: f6c0 4e3e cf26 23be 9445 35be 2694 49bd
00000250: 1960 e6bd 0cfe 82bd 471c e9bc 6d3a 483e
00000260: c6f1 473e 4d39 29be d6f6 093e b7d9 6c3c
00000270: 38af df3d 63e6 b1bd 019f c8bd 9c57 1b3e
00000280: ae7c a4be b676 6d3d e485 b03e 4faf 9fbc
00000290: 367d bbbe 47bc dabd 46fa 323e 8fb6 3d3e
000002a0: 39ca 84bb bf9c cf3d 8bf2 b3bc 8848 b23d
000002b0: acef 60bd 5e59 0c3e 1233 5d3e 50b5 8cbe
000002c0: ae93 b93e f4d9 1e3e b845 95be dbc8 6dbe
000002d0: e374 043d 22c4 553c 6250 4abc 5b08 37be
000002e0: 64bc 7f3e 3754 023e 3ef4 e13d 45bc e6bd
000002f0: 0ef5 a43d 5412 53be 6a6d 8cbe a51a da3d
00000300: 6d86 94be 44e8 d4be da47 54bc 2d89 433e
00000310: 9ba2 723d 9e91 9dbe 463d 913e 8b87 573e
00000320: aee0 81be 87fa 24be ee1d 70b8 9a13 9bbc
00000330: 98c2 0b3e ada1 1ebe fa11 e83c d580 6f3e
00000340: 97ef 65be f994 163e 6172 1fbd 2446 1fbd
00000350: 4874 71be 009e b33c eb48 513e 1300 9abd
00000360: 19f8 7ebd 3c6c 0bbe e099 263e 816d 08be
00000370: d717 78be f052 233b 658a ddbd 628e 8a3e
00000380: 032f dabe 3ef4 303d 38d4 c9be 48ae ab3e
00000390: 536c c03d a56c 25be 93b8 953e 9e54 8ebc
000003a0: 9629 5ebe 8e04 98be 06cc 66be 0a03 c73d
000003b0: 24a5 493d 5b47 453d cf17 153d a253 a7bb
000003c0: f191 0cbe d77c aabe 9f90 743e 06db 513e
000003d0: b678 743d 6a27 a6be 4fff 053d dd26 44be
000003e0: da7a 0d3e d0e7 7a3d 8a90 853e bca6 35be
000003f0: 4d67 5dbe fffe d0bb f718 d03d f889 5bbd
0.29559803 -0.130635 -0.04698991 0.14178649 0.23440275 0.19688776 -0.20605296 0.16047615
0.20289172 -0.116545685 -0.289269 -0.15830387 0.33185792 0.16744666 -0.26658502 -0.0011801649
0.36818272 -0.28232285 0.30751956 0.1720689 -0.15582964 -0.12148473 0.13934536 -0.24380067
0.16789083 0.080763124 0.12473299 -0.008928857 0.15072139 -0.12670605 0.29460585 -0.02708048
0.14780155 -0.31086817 -0.12687548 -0.27300382 0.22607309 -0.06714658 -0.23391712 0.024553588
0.20616713 -0.16128194 -0.19942895 -0.0933576 0.14567278 -0.08546868 -0.1326106 -0.12718707
0.18741037 0.08919845 -0.02314378 0.23781516 0.20057273 0.35218593 -0.06454422 0.10608657
0.006811466 0.028498495 0.14950715 -0.27417377 -0.0011216615 0.30873597 0.0038007975 -0.3226754
-0.27544057 -0.5167562 0.054638006 0.0147116175 -0.08150188 -0.33691597 -0.091669925 -0.23376572
0.09169407 0.10920328 0.033549517 0.33961704 -0.22822112 -0.37685215 0.16985212 -0.2097661
0.3168607 -0.34591934 0.22824422 0.15595329 -0.09471102 0.054685175 -0.06632665 0.097046964
-0.09799327 -0.27307695 -0.09919315 0.283661 0.1367478 -0.27134338 -0.14568006 0.260883
0.17724366 -0.27443215 -0.015026545 0.10250437 0.008735314 -0.11177175 -0.12569779 0.12391486
0.059890635 -0.29458022 -0.206308 0.25852472 0.11540321 -0.16992928 -0.0048791813 0.23308815
-0.0761722 0.15093404 0.14811362 -0.01173297 0.27408805 -0.13372324 0.16634959 0.20219617
0.2576659 0.1452638 -0.28013307 -0.18069126 0.14301066 0.03336651 0.01904668 -0.057985187
0.27816555 0.46561366 -0.33051664 -0.102023944 0.28772795 -0.075096756 -0.32447672 -0.014443399
0.26300013 0.32208046 -0.12913913 -0.2614908 0.014464983 -0.114204764 0.046739765 -0.22856708
0.20190796 -0.15932773 -0.17702323 -0.04921355 -0.11248798 -0.06396112 -0.028455867 0.19553538
0.19525823 -0.16525765 0.13473067 0.014456204 0.10922092 -0.08686521 -0.097959526 0.15170139
-0.32126373 0.05797454 0.3447715 -0.019492773 -0.36618966 -0.10680442 0.17478284 0.18526672
-0.004052427 0.10137319 -0.02196624 0.087052405 -0.05491607 0.13705966 0.21601513 -0.2748208
0.36245483 0.1551283 -0.29154754 -0.23221152 0.032338034 0.01304725 -0.012348266 -0.17874281
0.24974209 0.12727438 0.110329136 -0.11266378 0.08054553 -0.2061246 -0.27427226 0.10649613
-0.2900881 -0.41583455 -0.012956584 0.19095297 0.059237104 -0.3077516 0.2836706 0.210478
-0.2536673 -0.16111194 -5.7248333e-05 -0.018930245 0.1364845 -0.15491362 0.028328884 0.2338899
-0.22454678 0.14705266 -0.03892744 -0.03888525 -0.23579514 0.021925926 0.20437972 -0.075195454
-0.062248323 -0.13615507 0.16269636 -0.13323022 -0.24227844 0.002492126 -0.10817412 0.27061754
-0.42613992 0.043201678 -0.39419723 0.33531404 0.09395661 -0.16154726 0.2924238 -0.017374333
-0.21695551 -0.29690975 -0.22538766 0.097173765 0.049229756 0.048163753 0.03639966 -0.0051064054
-0.13727547 -0.3329837 0.23883294 0.20493707 0.05968543 -0.32451946 0.032714184 -0.1915545
0.13816395 0.06125623 0.26086837 -0.17739385 -0.21621437 -0.006378054 0.10161012 -0.053598374

bias f4 [128]
00000000: fd77 3a3e 5108 1d3e 70a7 fd3d 8da7 1abd
00000010: 3363 8a3d dad5 ab3e 51ca 93bd b993 333d
00000020: fb26 8c3e 8e16 ff3d 2d15 7a3e 3176 963d
00000030: 8eaf dd3e fbf1 8e3e d321 79bd 570a a13e
00000040: 1956 3f3e e2ca c23d 7046 fc3d 71f3 c03e
00000050: f956 d43e b712 b3bd 90d8 273e 8545 763e
00000060: 4263 d13e 71a0 d23c 3715 833e 2ac5 a6bc
00000070: 1e27 023e 31fd 803e adc6 bdbd 3582 a53e
00000080: 2eaa c73e 1128 693e 3ea3 a73e a1f1 ce3e
00000090: 9029 083c b17c 7f3e 6c94 883e 86df f03c
000000a0: 34cf 473e 7ad3 84be 7a01 d33e 3131 e23e
000000b0: 8ab1 4b3e be37 db3e dbca 7a3e 8163 893c
000000c0: 4085 693e 1abc b23e 3d24 8b3c 61bf d33e
000000d0: 1c0c c33e 5215 3b3d 2369 9b3d 97d5 1d3e
000000e0: e80d a63e b986 9c3e e31e af3e 1168 8dbe
000000f0: aea1 0ebd 5170 e43d 8fae fb3e 786a 4d3e
00000100: 69e1 1c3e 9804 5b3e 60a9 4dbe 9988 5dbd
00000110: 1629 f0bc 10bb d43e 0b48 073e 1fd2 70be
00000120: 5238 9c3e 7233 9a3e 27d4 bf3e fcd9 06bd
00000130: b3d2 83bd c769 d93e b980 9e3e 1bef d93e
00000140: 5a4a 853c f1f3 023e e6f7 13be 0549 7dbd
00000150: d23f 703e 8aba 7c3e 6850 a93e 5f4b 00bd
00000160: 06e1 833e 5dcc 1bbe dc27 643e 9997 cb3d
00000170: 7a47 193e 3574 d4bb cd5c af3e dd40 0cbe
00000180: 17fe bb3e 3e0d ba3d 567d 53bd 9a27 903e
00000190: d629 643e 6357 a43e 9ad9 a13e 2977 c63d
000001a0: 8525 7e3e 3178 d23e d224 12bc 64cb 8b3e
000001b0: 1d9d a03e 2bdb e0bc c568 debc 81d8 103e
000001c0: 1c94 66bc 13a5 e23e 803b 223e 7c3b 743e
000001d0: 0e5b 583e ebed b7bd a830 d8bd 31fa b83e
000001e0: dce5 86bd 98cb c23e 42f2 9bbb e76e 323e
000001f0: 6c18 dbbc 8cd8 16be 44f9 833d e527 353e
0.18209834 0.15335204 0.12385452 -0.037757445 0.06757202 0.33561593 -0.07216323 0.04384205
0.2737349 0.12455474 0.2442214 0.07346762 0.43298 0.2791899 -0.060823273 0.314532
0.18685187 0.09511353 0.123181224 0.3768573 0.41472605 -0.08743804 0.16391206 0.24049957
0.4089604 0.02571127 0.25602123 -0.020357687 0.12710235 0.2519317 -0.0926641 0.32325903
0.38997024 0.2276919 0.3274173 0.40418723 0.0083106905 0.2494991 0.26675737 0.02940346
0.19512635 -0.25942594 0.41212064 0.44178155 0.19891945 0.42815965 0.24491446 0.01677108
0.22804737 0.34909135 0.016985053 0.41356948 0.38095176 0.04567463 0.075884126 0.1541351
0.32432485 0.30571535 0.34203252 -0.2761846 -0.03482216 0.11154235 0.49156615 0.20060146
0.15320362 0.21388471 -0.20084143 -0.054085348 -0.029316466 0.41548967 0.13211076 -0.23517655
0.3051172 0.30117375 0.37466547 -0.03292273 -0.06436672 0.42463514 0.30957583 0.42565235
0.016270805 0.12788369 -0.14450034 -0.061837215 0.23461846 0.24680534 0.33069158 -0.03132188
0.25757617 -0.15214677 0.2228083 0.09941024 0.14968672 -0.0064835795 0.3425049 -0.13696618
0.36717293 0.09084557 -0.0516332 0.28155214 0.22281584 0.3209792 0.3161133 0.09690697
0.24819 0.41107324 -0.008919911 0.27303612 0.31369868 -0.027448257 -0.027149567 0.1414509
-0.014073398 0.44266567 0.1584301 0.23850816 0.21128485 -0.08980926 -0.105561554 0.3612838
-0.06586811 0.38045955 -0.004759104 0.17425118 -0.026745044 -0.14731044 0.06444028 0.17691

weight f4 [256, 786]
00000000: 8400 733c f40d b0bc 3f44 8d3a 7662 043d
00000010: 3820 473d bd37 7f3d 1864 b53d bccb 773d
00000020: 40fb c93d 0126 fd3c 5ba3 813d 8bac 643c
00000030: ce25 cd3d 7d0f 353d 71b2 443d 32bf 023e
00000040: f69a 903d 2b6f db3d e92f ed3c 6ee2 c03d
00000050: 9d36 43bd 1da6 c03c bb08 0a3e 2a61 213c
00000060: 4e23 ce3d 1eda 413d 538e 823c a97d 153d
00000070: e29e 933d 2602 963d ccf5 a23d 0348 433d
00000080: 451f f73d 1262 df3d ad14 353d eb99 a03d
00000090: ab8d e63d 5b9e 983c 2162 aabd 6cf6 b83c
000000a0: e10b 173d 1854 783d d50b ac3d 272a e53d
000000b0: 14e6 12bd 8c0b 813d 12ea 8f3c 0f4e 633d
000000c0: 51e1 d23c 62ba 243d eebd 223c 3932 db3c
000000d0: 1977 133e 9eb3 0d3e 50a6 d13d 937d 513c
000000e0: 5c74 7c3d 10e0 ed3c 9261 163d 3413 3b3d
000000f0: c4f4 a83d 85dc 353b f06e 543d 6c45 fbbc
00000100: ee13 eb3c ae62 97bc 2949 b9bd b1cc b3bc
00000110: eca3 0e3c c3eb c63d 9513 d93d 5f4d 92bc
00000120: c8b2 4e3d 1b33 0f3e 5ae2 503d dcde db3c
00000130: 5639 c43c ec6f d33d 0454 10bc 6d96 0f3d
00000140: b9af a43d 668a 553d 81e4 833b 6903 f93c
00000150: f750 943b fc87 f9bc e577 b23d f625 0a3e
00000160: 7fcc d13d 2caa 49bd 5c51 f43d 6ac9 013e
00000170: 0f1b f63b 5969 a8bb e94d 1b3d 2178 5e3d
00000180: 79f2 fb3c e5dc 933d d5da bc3c 592c 5a3d
00000190: 99b8 ab3d 38c2 ce3c 6cba f13d 6cc7 e6bc
000001a0: e41e 553d 3c09 533d 8d2e 933c 6790 b13c
000001b0: e58f 423d a4da 803d b130 903d a9ad 7ebd
000001c0: 019f dc3d b92f ec3d 3e3f d2bb 4ba4 763c
000001d0: a54c 0fbd 4c5b b23b 252b c23d f6bf 183d
000001e0: 35fe 3d3d b709 7d3d 4968 c83d da00 a23c
000001f0: 5d43 4fbd a75c 0f3e e037 a13d 3d18 01bd
00000200: c78e acbe a59e 94be 0866 cb3e 3e43 80bd
00000210: 141a 353d d5c5 cc3d 6adb fc3c 40e2 64bd
00000220: 42d9 9f3d 2abf 9f3d 563e f3bc ca5c b93d
00000230: e64a 1f3d 10e9 b13d 8793 9d3d b0a1 233d
00000240: 9ca3 52bd 49b8 913d df34 4dbc 1348 6abd
00000250: 212a 51bd d9c3 813c c003 9a3d 7fa0 d0bc
00000260: e186 173e 464f 5b3b 3bda 853d a066 433d
00000270: 252f 003c 3083 a23d 21e7 5d3d 3912 d83d
00000280: 1246 233e 1da4 403c 76cc 543c a0a1 38bd
00000290: a94f ca3c 2ad9 2b3b 9e4b 873c 1d35 263d
000002a0: fe6f a33d d917 e63d a62c 9e3c 62e5 b03d
000002b0: af90 f9bd 705f 503d c7fc 55bb dc45 7b3d
000002c0: 35f2 723c f842 b93d fa16 363e 0f31 fa3c
000002d0: b612 293c 6615 b3ba 5f85 d0bb 732f e43d
000002e0: 165d a13d 0b50 363d a978 523d f988 b0bd
000002f0: 5d78 b9bc d553 c33d df59 c13a 4a68 923a
00000300: 0c0b 793d 152c a83c bc1a dc3c 9a8a 42ba
00000310: 6cc8 6a3d 1f07 5fbd 3979 7fbd c9b7 cb3d
00000320: c815 e03d 5a1f fd3a 7166 f5bd 5ac9 d33d
00000330: 316b 8f3d 7c88 8e3d 5105 0b3e 728c a8bd
00000340: d255 783d c1d2 c43d 6aff 8c3d 5795 193d
00000350: fc42 30bd 6419 83bc 51cd 3ebc 4bdf 883d
00000360: f922 6c3c 8df6 5c3d 87fb 8d3d 4f2a 1a3d
00000370: c5fc 0a3e 08e5 593d 3fa4 003d 5a5b 083d
00000380: 79da f53c b49a 253e f30a 5b3c c5c0 9f3d
00000390: 15e7 713d 1d5b 953d f814 053e 1614 7abc
000003a0: 1ed4 503d 7973 723d 6cff d33d 2cf9 913d
000003b0: ed94 733d 0bf4 823d 85e5 623d 1bf5 843d
000003c0: e7ba 3c3d a752 af3b 9272 a2bc 7643 c43d
000003d0: 512e 143e 2558 dd39 c9df 183d d77e 803d
000003e0: 3bd6 31bc f9dc 953d d2e6 c63c 1970 1e3c
000003f0: 224f e7bc eb7b cb3d 8393 b93d c700 4f3d
0.014831666 -0.021491028 0.0010777785 0.032320462 0.04861471 0.062309016 0.08856982 0.06049703
0.09862375 0.03090191 0.06329986 0.013957153 0.10016976 0.044204224 0.048021737 0.12768248
0.070608065 0.10714563 0.02895351 0.09418188 -0.047659505 0.023516709 0.13479893 0.009849826
0.100653276 0.047327153 0.015937006 0.036496792 0.07208039 0.073246285 0.07957038 0.047676098
0.12066511 0.10907377 0.04420917 0.078418575 0.1125749 0.018630197 -0.08319498 0.02257844
0.036876563 0.060627073 0.08400694 0.111896805 -0.03586395 0.063010305 0.017567668 0.055494364
0.025742205 0.04021681 0.009932978 0.026757346 0.14400901 0.1383805 0.102368 0.012786287
0.061634406 0.029037505 0.036714144 0.04567261 0.0824981 0.0027749848 0.05186361 -0.030672751
0.028696027 -0.018479671 -0.09047157 -0.02194819 0.008706074 0.09712937 0.10599438 -0.017859159
0.050463468 0.13984339 0.050997116 0.026839666 0.023953121 0.10324082 -0.008809093 0.035055567
0.08041329 0.05213394 0.0040250425 0.030397134 0.0045262533 -0.03046035 0.08714274 0.13491043
0.10244083 -0.049234554 0.119295806 0.1267449 0.00751055 -0.0051395115 0.037916098 0.054313783
0.030755268 0.07219867 0.023053566 0.05326495 0.083848186 0.025239095 0.11803135 -0.028171264
0.052031413 0.05152248 0.017966533 0.021675302 0.04750051 0.062917024 0.07040537 -0.062177334
0.10772515 0.1153254 -0.0064162305 0.015053819 -0.034985203 0.0054430123 0.094808854 0.037292443
0.04638501 0.061776843 0.09785516 0.019775797 -0.050601352 0.14000188 0.078719854 -0.031517256
-0.3370268 -0.29027286 0.3972628 -0.062628254 0.044214323 0.09998671 0.030866344 -0.05587983
0.078051105 0.078001335 -0.02969281 0.09050901 0.038889788 0.08687031 0.07694154 0.03994912
-0.05142556 0.07115228 -0.0125248125 -0.05719764 -0.051065568 0.015840458 0.075202465 -0.025467156
0.14797546 0.0033463999 0.06535765 0.047705293 0.00782374 0.07935178 0.0541755 0.10550351
0.15944698 0.011757878 0.0129882 -0.045076013 0.024696188 0.002622197 0.01651555 0.040577997
0.07980345 0.11235017 0.0193084 0.08637501 -0.12185799 0.050872266 -0.0032651888 0.06134592
0.0148282545 0.090459764 0.17782202 0.030540971 0.010319402 -0.0013662993 -0.0063635553 0.11141863
0.07879083 0.04450993 0.0513846 -0.086198755 -0.022640401 0.09537474 0.0014751515 0.0011169997
0.06080155 0.020528832 0.026868217 -0.0007421166 0.057320043 -0.05445015 -0.062371466 0.099471636
0.109416544 0.0019311712 -0.1198243 0.10341139 0.07002867 0.06959626 0.13576247 -0.08229913
0.06062872 0.096105106 0.06884654 0.037495937 -0.04303263 -0.016003318 -0.011645631 0.06683215
0.014412635 0.053946067 0.06932741 0.037638005 0.13572986 0.053196937 0.031406637 0.033290245
0.030011402 0.16172296 0.01336931 0.0780044 0.059058268 0.07292769 0.1299628 -0.015263578
0.05098354 0.059192155 0.10351452 0.07127604 0.0594682 0.06394204 0.055394668 0.06492063
0.04607668 0.005350429 -0.019830022 0.0958318 0.14470793 0.00042218078 0.037322793 0.06274193
-0.010854299 0.07317538 0.024279986 0.009670281 -0.028235976 0.09935745 0.09061339 0.05053785

bias f4 [256]
00000000: cd95 633e 0786 513e 0678 ac3b 5f44 703e
00000010: 2254 563e 42f0 463e db31 473e c8b3 7a3e
00000020: 75ea 6e3e 0f97 5c3e 46b4 4c3e 050a 603e
00000030: 296f 26bd 8d48 123c 42a0 563c 9114 96bc
00000040: 840f 613e 0a41 ebbc e2c1 543e d440 4f3e
00000050: 95a3 433e 745a 5d3e 1006 6e3e 55a4 6b3e
00000060: 8d02 ccbc 3cd6 743e 6139 5a3c bbe7 aa3c
00000070: b86f 25bd 8143 4e3e b02e 4c3e 6f00 2dbd
00000080: ab72 e8bc 921b 783e 1425 483e da13 593c
00000090: 8ccb 3b3e 5c72 8dbb 42c3 a5bc fe7a 713e
000000a0: b49d 6fbc 0851 783e 2dcc 773e c592 993c
000000b0: b8ef 22bd 6bba eabc aef5 343e 2470 d73c
000000c0: 952a 4c3e b325 3e3e 6328 3b3e 5065 413e
000000d0: b7aa 713e a247 583e efee 393e 7378 623e
000000e0: 0efb 693e 7675 423e a579 3a3e ca26 703e
000000f0: ab71 a5bc 2345 5bbc be4f 793c 2466 693e
00000100: 686f 5e3e a51b 793e 2380 593e 2ea4 b0bc
00000110: 5efd 713e 2297 1abd 803c 883b 91b5 723e
00000120: 73f9 3f3e 6fc1 573e 64b6 e5bc 86e2 7c3e
00000130: 3a9e 3b3e 1adf 573e fbbc 423e 21ec 533e
00000140: e9b3 4a3e 16ad 363e 8bc8 cb3b 763b 4a3e
00000150: 1c86 583e 77ad 723e 9d86 353e 4841 7b3e
00000160: 8b13 7b3e b4e4 5b3e 809d 0abd 1718 423e
00000170: ad56 6d3e 654d cb3c aa90 5a3e fbcf 12bd
00000180: 1bbe 5e3e f9a9 433e af6a 5d3e 0431 463e
00000190: 01ce 733e b1d0 643e 1024 d4ba fb2c 503e
000001a0: 4cf3 3e3e 98b8 ba3c 9a4f 42bc 13e2 5b3e
000001b0: d489 d0bc 0bbd f3bc 7d30 b0ba b59c 893c
000001c0: 1af8 513e a1f9 08bd 4940 6f3e a3d8 4d3e
000001d0: f1ec c3bc 73f6 503e 306f 59bb efc2 b8bc
000001e0: 36ce 733e 8e3e 653e 37a9 473e 8e05 443e
000001f0: 6226 753e bbfd b73c f779 3b3e 615d 6e3e
00000200: 5a6c 33bd 14f2 333e d6fb 9abb 3dc2 3e3e
00000210: eac8 543e 8761 713e dff8 363e 9f6d 763e
00000220: 4086 593e a440 2a3c 237f 943c c1a2 f6ba
00000230: 37ba 643e f0df f0bb eab1 4d3e 2dc4 543e
00000240: 31fb 0bbd 514e 383e 5924 583e f0a7 bb3c
00000250: b77c a33c e361 4f3e de14 993c 97d5 db3c
00000260: 3584 343e 389f 0cbd 50ec 513e 8e85 613e
00000270: 5a3d dcbb d5d7 d63c 6607 2e3c 15da 833e
00000280: 2478 363e 2c72 6e3e 7162 593e 50d8 6d3e
00000290: 23f5 563e 1f18 493e 05a7 313e cd61 3f3e
000002a0: c052 4a3e 1faa 683e d9b0 353e a449 743e
000002b0: 30e6 3a3e b51c 433e ffe8 693e 3840 6b3e
000002c0: ef18 8bbc c0f6 3dbb 8eaf 533e a3ab 343e
000002d0: dde7 c5bc fdfd 523c 9267 5a3e eb07 5c3e
000002e0: 8b14 5f3e b871 6d3e 4dfc aebb e470 26bb
000002f0: ee6c ffbc bc4e 4f3e 86cb 533e ab09 763e
00000300: 040c 443e 55aa 6b3e 3015 3d3e a474 393e
00000310: 009e 8b3c 06e7 643e 3921 3a3e 3f26 633e
00000320: 045b 3b3e a460 4b3e 1e29 5b3c d133 3b3e
00000330: 9c8b 29bc e99d 443e 11ae 653e adfe 5e3e
00000340: fe99 493e f628 703e a559 373e c781 673e
00000350: 1580 743e 3618 363e 1f0a 463e 039c 6b3e
00000360: 6364 34bd 042e 173b d1c8 363e 98dd f0bc
00000370: 1a92 423e d706 543e 0ab5 683e da7c 4f3e
00000380: e9ff 703e 502b 5b3e 83cb 8b3b 624a 653e
00000390: 3d12 4e3e 8e77 483e f2d7 2dbc 4b0e 5b3e
000003a0: e8ea 6e3e c6dd 323e a8a4 6d3e 6b5b 453e
000003b0: 05a4 503e 84f5 553e 8ce7 b83b fefc 403e
000003c0: 4726 513e 274b 773e dd0e 3d3e 8bc2 313e
000003d0: cb3f 733e d3bf 393e 2c9e 553e c1cb 453e
000003e0: 34d1 2e3e 6a29 3f3e ff6f 15bc 23e3 343e
000003f0: ac46 453c 2c61 8f3c 9a48 733c 9327 623e
0.22225113 0.20461284 0.0052633313 0.23463582 0.20930532 0.19427589 0.19452612 0.24482644
0.23331626 0.21542 0.19990644 0.21878822 -0.040633354 0.00892843 0.013099732 -0.018320354
0.21978575 -0.028717536 0.20777085 0.20239574 0.1910537 0.21616536 0.232445 0.23011906
-0.02490356 0.23909849 0.013319344 0.02086245 -0.040389746 0.20142938 0.19939685 -0.04223674
-0.02837499 0.24229267 0.19545394 0.013249362 0.18339366 -0.004316611 -0.020234708 0.23582074
-0.014625002 0.24249661 0.2419898 0.018746743 -0.039779395 -0.028653344 0.17671844 0.02629859
0.19938119 0.18569069 0.18277125 0.18886304 0.23600279 0.21121076 0.18157552 0.2211626
0.22849676 0.1899012 0.18210466 0.23452297 -0.020195803 -0.013383183 0.015216766 0.2279287
0.21722186 0.24326952 0.21240287 -0.021562662 0.23631808 -0.037741788 0.004157603 0.23702075
0.18747501 0.21069883 -0.028041072 0.24695787 0.18322077 0.210812 0.19017403 0.20695545
0.19795193 0.17839465 0.006218975 0.19749245 0.21144909 0.23698984 0.17727132 0.24536622
0.24519174 0.21473962 -0.03384161 0.18954502 0.23177595 0.024817178 0.21344247 -0.035842877
0.21752207 0.19107808 0.21622728 0.19354635 0.23809053 0.22345234 -0.0016185064 0.20329659
0.18647498 0.0227931 -0.011859799 0.21472959 -0.025456347 -0.029753229 -0.0013442185 0.016798357
0.205048 -0.03344119 0.23364367 0.20102172 -0.023916693 0.20406513 -0.0033177845 -0.02255389
0.23809132 0.22387144 0.19498144 0.19142744 0.23940423 0.022459855 0.18308245 0.23277809
-0.043804504 0.17572814 -0.004729728 0.18628784 0.20779768 0.2357236 0.17868374 0.24065255
0.21242619 0.010391388 0.01812703 -0.0018816815 0.2233666 -0.007350914 0.200874 0.2077796
-0.0341751 0.17998625 0.21107616 0.022907227 0.01995693 0.20252185 0.018686708 0.026835246
0.17628558 -0.03433153 0.20500302 0.22023603 -0.006721181 0.026225964 0.010621881 0.2575232
0.17819268 0.2328574 0.21228959 0.23227048 0.2099195 0.19638108 0.17348869 0.18689652
0.19758129 0.22721146 0.17743243 0.23856217 0.18251872 0.1905392 0.22842787 0.22973716
-0.016979663 -0.0028986186 0.20672438 0.17643599 -0.024158413 0.012877938 0.21328571 0.21487395
0.2178518 0.23187912 -0.005340135 -0.0025396878 -0.031179871 0.20244879 0.20683107 0.24027126
0.19145209 0.23014195 0.18465114 0.18110901 0.017043114 0.22353753 0.18176736 0.22182558
0.18296438 0.19861084 0.013376502 0.18281485 -0.010348227 0.19200863 0.22429682 0.21776839
0.1968765 0.23453125 0.1790529 0.226081 0.23876984 0.17782673 0.19339798 0.23008732
-0.04404105 0.00230682 0.17850043 -0.02940254 0.19001046 0.20705734 0.22725311 0.20262471
0.23535122 0.21403241 0.004266204 0.22391656 0.20124145 0.19576856 -0.010610567 0.21392171
0.23331797 0.17467412 0.23207343 0.19273154 0.20375068 0.20894438 0.005642837 0.18846509
0.20424758 0.24149762 0.18462701 0.17359369 0.23754804 0.18139581 0.20861119 0.19316007
0.17071992 0.18668142 -0.00912094 0.17664771 0.012040775 0.01750239 0.0148488525 0.22085409

weight f4 [128, 256]
00000000: f882 843c 67e1 c63a f6b0 5dbd 6c79 243c
00000010: 4a71 3e3d d197 d2bb 3bb7 63bd 5a85 24bd
00000020: 7538 62bd 69cc 78bd c415 b8bc 9f2f 05bc
00000030: 3449 25bd 5875 71bd cb0d 823c 2dce bebc
00000040: 3249 dfbc 064e 9b3c 2dc4 003d 3840 09bd
00000050: d8dd 0b3d 201b da3c da4d 3a3d f22a 423d
00000060: 107b 25bd c561 62bd 3524 06bc 374b c7bb
00000070: a673 16bd 5777 88bd 6427 f73a ea8d 8cbd
00000080: 24ba 06bd 6162 f63c 48b6 13bd 597c 8bbd
00000090: 0b8e 70bd c4c8 79bd dcf9 c5bc 3630 bdbc
000000a0: 3203 1b3d c919 703c 357a 603c 7881 603d
000000b0: 6066 79bc a707 97bb 76e2 b0bb 5e5e 15bd
000000c0: 01cc 103d a33f bf3c 77cb d0b8 8d2c dabc
000000d0: a4ba 65bd 5ed8 843c 3e52 c9bc 33b6 86bc
000000e0: 601a 66bb 80c8 eb3c 86ba ac3c a522 f0bc
000000f0: f8e5 d03c b033 cfbb e8e1 17bd 86d6 e43c
00000100: 8b62 79bd f756 803c 8c39 533d 024f 1e3d
00000110: cb7f e73c a4f8 04bc 0064 603d 2a8c ebbb
00000120: a07e 12bc c89c d4bb 7235 85bd 5614 2cbd
00000130: 5ca4 133d 7e51 38bd c877 41bd 5863 e7bc
00000140: f586 433c 5b8b 8bbc 2ef5 19bd f006 22bd
00000150: 1d8f f2bc a06d 80bb c0ae d3ba c496 d9bc
00000160: 0ee1 073d 426c 4c3d 6e02 2c3d 24a5 2f3d
00000170: 06af e43a 4c07 983c b402 1b3d 2ac8 60bd
00000180: 88a9 5a3d bc70 80bd 65b7 593d c733 753c
00000190: 6fda 243d 49a6 c3bc e034 273d d2d0 17bd
000001a0: 15d7 42bd 9c6d 89bb 9054 c33c a93d 10bc
000001b0: 7e46 163d 6173 af3c da7a 2bbd ee6e 7ebd
000001c0: b640 573d a8a6 fe3c c527 9dbb 4c35 31bd
000001d0: f738 d7bb b30b 8abd b66c 03bd 74fd 51bd
000001e0: 5120 0abd ebfa bb3b f61d 3abd eb57 473d
000001f0: 483d 983b 6ac7 373d ab87 1e3d 46e7 2ebd
00000200: 50ac 6cbc 55b5 b3bb 68e9 2abd 9010 cdbc
00000210: f5fd 84bc 197a 533d bad9 7cbd df90 3dbb
00000220: dfb1 023d 6069 5c3d ebb2 d33c 99e6 48bd
00000230: 1d0c 2a3d 54e8 3a3d 9c67 ee3c 2776 8c3c
00000240: 893b f2bc 23d6 873c fe4a 71bd c590 9abc
00000250: dc47 eabc e69c 353d 6f51 bc3c e232 423d
00000260: ed30 1fbd 388e 22bd 973b 7cbd 807f 24bc
00000270: a324 173d 528f 1fbd 44dc 0b3d 34b5 f93c
00000280: 20fe c8bc dbba 523d 7feb 26bc e1ae 7ebd
00000290: 708a 60bd b0ee 1fbd b8f1 4b3d 4df7 84bd
000002a0: 3b3a b4bc f56c be3c 6cb8 a63c be51 36bd
000002b0: 8a83 86bd 1d6f 70bd 1de4 e2bc a837 75bd
000002c0: 6ea1 d2bc b614 0d3d 5095 17bd 0910 26bd
000002d0: 8adb 04bd f034 38bd d61c 92bc 2f15 443d
000002e0: a0af f2bb be25 143d 73a9 453b eb51 aabc
000002f0: fb39 32bd aa6d 24bd c256 8abd c53a 1bbd
00000300: 331f 47bd 13ec ba3c aa63 0abd 376d 073c
00000310: 77c0 4e3d 1fc4 79bd fa33 a1bc 1a32 50bd
00000320: e2ac 6b3d 2419 213d 7491 8ebc b257 513d
00000330: 8c22 233d 570b b73b 8c18 3b3d 8a7e a1bc
00000340: 7e70 72bd 8d55 39bd 7e5f 6bbd bdf7 023d
00000350: 3d87 2e3d c702 9bbb efa1 99bc 3040 533c
00000360: 4c35 e9bc 1593 673c 6cef 2bbd fa8a 03bd
00000370: 192a e6bc d861 7cbd a542 08bc 9754 0cbd
00000380: 8711 ee3c c285 58bd 92b0 243b a6ed 443c
00000390: 99f8 57bd a8f3 efbc 8ace 41bd 6ff0 d6bc
000003a0: 4bb8 61bd 987c 503d d81b 1e3d 7ecc 03bd
000003b0: f52d f1bc cd0e 14bb 6102 d2bc 28e8 a13c
000003c0: 8415 bebc 6360 78b9 b9b8 b1bc 4465 73bd
000003d0: 2a91 49bd f72b 18bd 4957 de3b 90bd 15bc
000003e0: 599e 71bc 2b2c 89bc 0d5f 1ebb 480a 32bc
000003f0: 39e0 6ebd bc44 5ebd e459 ddbc a068 14bd
0.016175732 0.0015173376 -0.05412384 0.010038715 0.04649476 -0.0064267893 -0.055594664 -0.040166236
-0.055229623 -0.060741816 -0.022471316 -0.00812903 -0.040353015 -0.0589498 0.015875718 -0.023291672
-0.027256582 0.018958103 0.031437088 -0.03350851 0.034147114 0.026624262 0.0454844 0.047404237
-0.040400565 -0.05526902 -0.008187343 -0.0060819644 -0.036731385 -0.06663387 0.0018856344 -0.068630055
-0.03289236 0.030076208 -0.03606251 -0.06810827 -0.058729213 -0.06098248 -0.024166994 -0.023094278
0.037844844 0.014654585 0.013701011 0.05481097 -0.015222162 -0.0046090665 -0.00539809 -0.03646695
0.035350803 0.023345774 -9.956111e-05 -0.026632572 -0.056086197 0.016216453 -0.024575349 -0.016444301
-0.0035110936 0.02878213 0.021085035 -0.029313395 0.025500283 -0.0063233003 -0.037080675 0.027934324
-0.060884994 0.015666468 0.051568553 0.038649566 0.028259179 -0.008115921 0.054782867 -0.0071883397
-0.008941323 -0.0064884163 -0.065043345 -0.04201158 0.036045417 -0.044999592 -0.047233373 -0.028245613
0.011934032 -0.017034223 -0.037587337 -0.039557397 -0.029609257 -0.0039193183 -0.0016150102 -0.026561148
0.033173613 0.04990793 0.041994505 0.0428821 0.001744718 0.018558167 0.037844375 -0.05487839
0.053384334 -0.062715024 0.053153414 0.014965958 0.040247377 -0.023883002 0.04082191 -0.03706438
-0.0475684 -0.0041939747 0.023844033 -0.008803763 0.03668832 0.021417322 -0.041865207 -0.06211751
0.052551948 0.031085327 -0.0047960007 -0.04326372 -0.00656807 -0.06740513 -0.032086097 -0.051267102
-0.033722226 0.005736699 -0.04543873 0.04866783 0.004645977 0.04486791 0.0387036 -0.04270103
-0.014445379 -0.005484263 -0.0417265 -0.025032312 -0.016234377 0.051630113 -0.061731078 -0.0028925461
0.031907912 0.05381143 0.02584215 -0.04904804 0.04151546 0.04563172 0.02910214 0.017146183
-0.029569404 0.0165816 -0.05890941 -0.01886786 -0.028598718 0.044339083 0.02298805 0.047411807
-0.03886502 -0.03968641 -0.061580267 -0.010040164 0.036900174 -0.03895504 0.03414561 0.030481912
-0.024535239 0.05144773 -0.010187983 -0.062178496 -0.054819524 -0.03904599 0.049791068 -0.064924814
-0.022000423 0.023245314 0.020351611 -0.04451155 -0.06568058 -0.058699716 -0.027696664 -0.05986753
-0.025711741 0.03444358 -0.03700763 -0.040542636 -0.03243593 -0.04497236 -0.017836016 0.047871765
-0.00740619 0.036168806 0.0030160814 -0.020791015 -0.043512326 -0.040143646 -0.06754829 -0.037897844
-0.04861374 0.022817647 -0.033786453 0.008265785 0.050476518 -0.06097805 -0.019678105 -0.05082903
0.05753792 0.039330617 -0.017403342 0.051109023 0.03982787 0.0055860686 0.045677707 -0.019713659
-0.059189312 -0.045247603 -0.057464115 0.031974543 0.042609442 -0.0047305557 -0.018753974 0.012893721
-0.028467797 0.014134188 -0.041976377 -0.03211496 -0.028096246 -0.06161675 -0.008316671 -0.03426036
0.029061092 -0.052861936 0.0025129658 0.01201955 -0.052727316 -0.029290989 -0.04731611 -0.026237695
-0.055107396 0.05090007 0.038600773 -0.03217744 -0.02944086 -0.002259183 -0.0256359 0.019764021
-0.023203619 -0.0002368703 -0.021694528 -0.059422746 -0.049210705 -0.037151303 0.0067853075 -0.0091394335
-0.014747226 -0.016744694 -0.0024165541 -0.010866709 -0.058319304 -0.05426477 -0.027020402 -0.03623259

bias f4 [128]
00000000: 6625 23bd 9b38 45bd 3c90 c6bc 7ff4 a2bc
00000010: 3721 6f3e 52e0 4c3e 5883 36bc 950b 0f3e
00000020: 1275 003d d78e 8dbd d866 333d 13f4 39bd
00000030: c9c3 23bd f2ac 143e 2711 283e 72f0 89bd
00000040: f939 613c 1084 bb3c d2c6 793e 0640 283e
00000050: 233c 1c3e c16e 253e d506 653e 99f8 123e
00000060: 69b2 393e 7c6f 383e 7df0 503e 0921 9c3c
00000070: 1a6e 73bc f07a 193e 4e25 4c3e db4f 02bd
00000080: c728 433e e00d f63d 31b4 ca3c b522 bdbc
00000090: 8b44 233e a066 38bd b8dc be3c f0e4 75bc
000000a0: b27e 013e d9ae 11bc d0d8 7e3e 214d 313d
000000b0: 5ad6 493d 07a1 82bd 7018 173e e87e 2a3e
000000c0: 9305 89bd e26f 62bd 8c46 6abd ab4d 463e
000000d0: c031 56bd 8a12 69bd e07d 183e 49e8 403e
000000e0: ffe9 4d3e ec4b 6a3e 0e44 4bbd 0079 473e
000000f0: fb41 533c 8e10 2c3e 5f3a 3c3e b295 80bd
00000100: 669d 8bbd 4cee 5c3e de06 66bd 6b46 8fbd
00000110: 8864 e2bc 3ce1 4a3e 04f2 703c fdcb 483e
00000120: 4b29 453e 08d1 7abc df30 1a3d eb73 133e
00000130: f2cb 113e 50f0 7ebd 529f 87bc 10f2 3abd
00000140: e632 493e b094 033d 32fa 373e 18bd 74bd
00000150: 72db 823a ab26 fd3d 9fb8 453e d87e 413e
00000160: 2285 3d3e 20fc 623e bc05 f03c 9b4f 063e
00000170: 3f81 2e3e da4f 213e 4b9f 0d3e 89cf 343e
00000180: 5f63 013e 38c7 2d3d 2164 2f3d 7565 1cbc
00000190: d238 f03d 01ad 4b3d c002 4f3e 403b 063d
000001a0: 5e09 f13d 0eb8 203e 88cb e03c 1211 6e3d
000001b0: 4ce4 0b3e fb0e 64bd 27d1 43bd c608 073e
000001c0: 7281 4a3d 08eb e63d 7a84 66bd b6a8 533e
000001d0: 6ee6 05bc ebf9 303e 36e7 45bd 034c 883c
000001e0: 8cf0 d23d f3f5 57bd 0189 3f3e c12b cebc
000001f0: f416 153e 1685 3c3e deeb fd3d a105 34bd
-0.039830588 -0.048149686 -0.024238698 -0.019891975 0.23352514 0.20007446 -0.011139713 0.13969262
0.031361647 -0.0691201 0.04379925 -0.045398783 -0.039981637 0.14519098 0.16412793 -0.067353144
0.013746732 0.02289012 0.2439225 0.16430673 0.15257315 0.1615553 0.22365887 0.14352645
0.18134464 0.18011278 0.20404239 0.019058721 -0.014857793 0.14988303 0.19936106 -0.031814437
0.19058524 0.12014365 0.024744125 -0.023087839 0.15944116 -0.045019746 0.023298606 -0.015008196
0.12645987 -0.008891785 0.24887395 0.043286446 0.049276687 -0.0637837 0.14755416 0.16649973
-0.06690516 -0.05528248 -0.057196185 0.19365565 -0.05229354 -0.056902446 0.14891768 0.1883861
0.20108794 0.22880524 -0.04962545 0.19479752 0.012894149 0.1680319 0.18381642 -0.06278552
-0.06817131 0.21575278 -0.056158893 -0.06995853 -0.027635828 0.19812483 0.0147061385 0.19609065
0.19254033 -0.015308626 0.037644263 0.14399688 0.14237955 -0.0622409 -0.016555462 -0.045641005
0.19648322 0.03212422 0.17966536 -0.059750646 0.0009983613 0.12360891 0.19308709 0.18896043
0.18507817 0.2216649 0.02929961 0.13116305 0.17041491 0.15753117 0.13830297 0.17657293
0.12635563 0.042426318 0.0428201 -0.009545674 0.117295876 0.049725536 0.20215893 0.03277135
0.11769365 0.15695211 0.027440801 0.05812175 0.13661307 -0.05567835 -0.047806885 0.1318694
0.049439855 0.112752974 -0.056278683 0.20669827 -0.0081726145 0.17282836 -0.048316203 0.016637808
0.10299787 -0.05272479 0.18704607 -0.025167348 0.14559537 0.18410143 0.12398504 -0.04395068

weight f4 [1, 128]
00000000: e056 4a3d fdfb df3c aa36 aabd 603b 5f3d
00000010: 5034 a2bd f82d 7fbd f34f a33d 2dfd 07be
00000020: 1436 263d 0d4f 333d 68c9 f13c 1112 a43d
00000030: 10d0 673c d621 10be 7284 10be 8499 203d
00000040: 0928 96ba 4f70 15bd 92ce 99bd 2cc9 a6bd
00000050: 5c99 02be 52f5 11be cfe0 d5bd bc76 dabd
00000060: ee0f 19be 5e53 17be 1b82 73bd 0987 25bb
00000070: 96cd dd3c 2040 cdbd 124d 8ebd cdca 873d
00000080: 8ac8 19be cde4 f1bd 1da6 a13d 4e10 273c
00000090: f84d b7bd 507b e13c f286 1f3d 00f1 c839
000000a0: 679c ddbd 6b62 6d3d 4e0a 84bd 2605 8c3d
000000b0: b214 133d eb87 123b 51df 14be ee71 81bd
000000c0: 8391 553d 1fd7 a1bd fcdf 8d3d 0e31 80bd
000000d0: 7c79 96bd c37c 103d 6fab 9dbd 4fdc 9fbd
000000e0: d625 0ebe a315 84bd 5c29 903d 1455 9fbd
000000f0: 460c 483a 9489 a5bd 0bad 81bd 25eb 2d3b
00000100: 880e b93c 792c febd 35e1 b9ba 1c38 8a3d
00000110: 91dd fd3b 41b8 bfbd 3669 8b3d 2e9f eabd
00000120: bb3e a1bd d3a3 5b3d 9028 843d 6db8 a4bd
00000130: c243 0ebe 214a 9c3d e86f 5d3b c0a9 6a3d
00000140: e0b2 10be 81b4 cd3c ca3b 0dbe fc6c 053d
00000150: bbdd 803d 1ec1 f9bd 5895 b2bd de9c c9bd
00000160: 0681 1cbe 3910 cfbd a8c2 1e3d a38e 93bd
00000170: 7187 86bd 7a0f 87bd 77c2 99bd 8b84 96bd
00000180: f191 0abe 6d53 843c be0b 573d 7110 9b3b
00000190: fca3 12be 754c 2f3d a5d6 d3bd e37c a13d
000001a0: a48e d1bd ac99 f6bd 1e04 1c3d f9fe e7bb
000001b0: 7840 dbbd 1961 143d e9e8 223d adfb d5bd
000001c0: 9cf7 763d 6aec e9bd 29e5 9f3d c008 05be
000001d0: 87fe 9a3c d024 18be e713 0dbc 46b3 bfbb
000001e0: 6792 16be 7873 9e3c 5856 04be b874 053d
000001f0: d642 94bd 0bf3 ebbd 249d c8bd 9df8 e73c
0.049399257 0.027341837 -0.083112076 0.054499984 -0.07920134 -0.0622997 0.079742335 -0.13280173
0.040578917 0.04377656 0.029514983 0.080112584 0.014148727 -0.14075407 -0.14113024 0.039208904
-0.0011456023 -0.03648406 -0.07510103 -0.08143839 -0.12753814 -0.14253739 -0.104432695 -0.10667178
-0.14947483 -0.14777896 -0.05945025 -0.002525749 0.02707557 -0.100219965 -0.06948294 0.06630478
-0.15017906 -0.118112184 0.07893012 0.010196758 -0.08950418 0.02752462 0.038947053 0.00038326532
-0.10820847 0.057955187 -0.06447278 0.068369195 0.03590841 0.0022358845 -0.14538313 -0.063205585
0.052140724 -0.07902359 0.06927487 -0.062593564 -0.0734739 0.035275232 -0.07698714 -0.078056924
-0.13881621 -0.064494394 0.07039139 -0.07779899 0.00076312234 -0.080828816 -0.063318335 0.0026537862
0.022589937 -0.12410826 -0.0014181497 0.06748983 0.00774736 -0.093613155 0.06807177 -0.11456142
-0.07873293 0.05362303 0.06453049 -0.08042989 -0.13893035 0.076313265 0.0033788625 0.057290792
-0.14130735 0.025110485 -0.13792339 0.03257464 0.06292292 -0.12195037 -0.08719891 -0.09844373
-0.15283594 -0.10110516 0.038759857 -0.0720494 -0.06568802 -0.06594749 -0.07507794 -0.07349499
-0.13532235 0.016153062 0.052501433 0.0047321846 -0.14320368 0.042797524 -0.103436746 0.078851484
-0.10232285 -0.12041029 0.038089864 -0.0070799557 -0.10705656 0.036225412 0.0397729 -0.10448394
0.060294732 -0.114220455 0.07807381 -0.12991619 0.018920196 -0.14857793 -0.008610702 -0.0058502285
-0.14704286 0.01934217 -0.12923563 0.032582015 -0.072393104 -0.11520966 -0.09795597 0.02831679
