trained/exp_train_3_6_1111_0.0001_0.001_32_0.95/model/meta_actor_5.pth (torch, 302079 bytes, 6 tensors)

weight f4 [512, 16]
0.090589486 -0.13904022 -0.205063 -0.17646784 0.16182315 -0.13509694 0.06290951 -0.14393157
-0.15123868 -0.08524942 0.19508897 -0.09078167 0.1789408 0.031171417 -0.11736681 -0.15792279
0.14083982 0.017651191 -0.16635376 0.09362266 0.20036125 -0.088167034 -0.20949942 0.22267407
-0.19256172 -0.03205929 0.10574513 -0.09075629 0.16493359 -0.15773357 -0.0345146 0.17809272
-0.22394396 -0.18903768 -0.16796711 0.054774906 -0.21793458 -0.041218705 -0.20906165 -0.18207534
-0.13977067 -0.10342025 -0.13654147 -0.24122624 0.15256964 0.12688416 -0.18230489 -0.22806494
-0.16608207 -0.031620156 -0.24652754 0.21955171 -0.1377804 -0.24705976 -0.0055072564 0.24330126
-0.14307782 0.24391256 -0.19578423 -0.2065328 0.10564103 -0.028256815 -0.030223636 -0.14629264
0.023243083 -0.21128863 -0.069762595 -0.07589583 0.0008431978 -0.17313623 0.09427204 0.10714399
-0.12576294 -0.18073508 0.2539567 -0.21529746 0.088669986 0.14314814 -0.18243034 0.08627033
0.07301598 0.16883916 0.24155946 0.19905964 -0.016880194 0.19574948 0.12343803 -0.22238718
0.031255353 0.13360949 -0.02843064 -0.08987404 0.21803126 0.18765934 -0.16015324 -0.046622075
0.18323678 -0.23592882 0.13741298 -0.25071925 0.11549 0.205958 -0.22808075 0.111501195
0.16988514 -0.02992217 0.20801374 0.110452354 -0.078608446 -0.09587691 -0.1877236 0.13900979
0.22180723 0.0725899 0.0074193655 0.010056117 -0.055770516 -0.06815086 0.027424578 -0.020707086
-0.11261909 -0.013734462 0.07423214 -0.19887833 0.23560964 0.0047318554 0.122256674 -0.21953681
-0.087748125 -0.09738741 0.19070205 0.07886507 0.13639764 -0.13023381 0.05760293 -0.002212215
0.1992191 0.005543011 -0.23856543 0.1630504 0.1219144 -0.19580664 0.048689947 0.04324411
0.18512458 0.05606171 -0.00580997 -0.06856205 0.055022303 -0.10133797 -0.08286169 -0.17662503
-0.014497207 0.10525233 0.22889945 0.096799396 -0.03856853 0.19137108 0.07854991 0.11841479
0.22127077 0.01713156 -0.123223 0.012078911 -0.10678701 -0.14750192 -0.12262391 -0.07802591
0.19652382 -0.17189454 -0.2275515 -0.100470796 0.029372139 -0.16523032 -0.01621249 -0.030553361
0.14382237 -0.112930775 0.20790885 -0.081815 -0.054592527 -0.22700416 0.041987795 0.20746724
0.023342026 -0.06970336 -0.121224746 0.18770239 0.1897976 -0.10286751 0.17471527 0.20511624
0.08160439 0.20980376 -0.10941031 -0.026615087 -0.016252851 0.18939179 0.08657161 0.0783339
0.22878736 0.061246067 0.06915177 0.2501906 0.07451466 -0.21994899 -0.19996296 0.21785447
0.055150487 0.16700728 -0.13769627 0.19377998 0.075394005 -0.15338458 0.10861475 -0.14424498
0.070080556 -0.19116083 0.11287672 0.0063818977 -0.1938277 -0.15973733 0.060794666 -0.1733304
-0.09480009 -0.15061407 -0.0745811 -0.23404786 0.005998642 -0.16662052 -0.17342614 -0.16760293
-0.2649514 0.06281873 -0.21211179 0.052881833 0.013632997 -0.24393643 -0.07440888 0.060467426
-0.13861045 0.062918484 0.11824611 0.15725328 0.1019664 -0.14815737 0.20976189 0.15055254
-0.038265724 -0.23712699 0.01745029 -0.098216414 0.24824072 0.081639625 -0.13904709 -0.114178665
00000000: fb86 b93d 8f60 0ebe 09fc 51be fcb3 34be
00000010: f8b4 253e da56 0abe b4d6 803d cc62 13be
00000020: 50de 1abe 3f97 aebd 67c5 473e bdeb b9bd
00000030: 423c 373e 335b ff3c 035e f0bd 83b6 21be
00000040: 5038 103e 3b99 903c a458 2abe 3dbd bf3d
00000050: 802b 4d3e eb90 b4bd 0487 56be ac04 643e
00000060: e62e 45be 9a50 03bd e790 d83d 6fde b9bd
00000070: 5ae4 283e e984 21be 2e5f 0dbd f05d 363e
00000080: 9151 65be 1893 41be 92ff 2bbe a75b 603d
00000090: 3e2a 5fbe f2d4 28bd 4214 56be f571 3abe
000000a0: 0b20 0fbe ffcd d3bd 87d1 0bbe 0304 77be
000000b0: 373b 1c3e eced 013e 22ae 3abe db89 69be
000000c0: 6b11 2abe 2384 01bd b771 7cbe 2ad2 603e
000000d0: 4e16 0dbe 3cfd 7cbe 3776 b4bb f723 793e
000000e0: fe82 12be 37c4 793e a97b 48be 567d 53be
000000f0: 535a d83d d67a e7bc 8f97 f7bc bdcd 15be
00000100: 4768 be3c 0c5c 58be b1df 8ebd 466f 9bbd
00000110: 0c0a 5d3a a04a 31be b311 c13d 4f6e db3d
00000120: 00c8 00be 9e12 39be 9d06 823e f076 5cbe
00000130: 9c98 b53d 6d95 123e 05cf 3abe 80ae b03d
00000140: 6789 953d 2ce4 2c3e 5d5b 773e 4ad6 4b3e
00000150: 5548 8abc 8d72 483e 14cd fc3d 77b9 63be
00000160: 9d05 003d edd0 083e 60e7 e8bc e10f b8bd
00000170: 9643 5f3e c529 403e 36ff 23be caf6 3ebd
00000180: 6ca2 3b3e 5397 71be fdb5 0c3e 465e 80be
00000190: 0586 ec3d a7e6 523e 008e 69be bd5a e43d
000001a0: 5ff6 2d3e 571f f5bc 8e01 553e d834 e23d
000001b0: 77fd a0bd 1d5b c4bd 9e3a 40be 9558 0e3e
000001c0: 6f21 633e 03aa 943d 261e f33b 69c2 243c
000001d0: a06f 64bd ae92 8bbd 82a9 e03c e8a1 a9bc
000001e0: d6a4 e6bd 8206 61bc 0507 983d c3a6 4bbe
000001f0: a743 713e ae0d 9b3b b561 fa3d 42ce 60be
00000200: 4ab5 b3bd 0d73 c7bd 6647 433e 0384 a13d
00000210: d3ab 0b3e 035c 05be 0df1 6b3d cffa 10bb
00000220: 1700 4c3e 25a2 b53b 7f4a 74be aff6 263e
00000230: 42ae f93d 8981 48be 1c6f 473d bc20 313d
00000240: 4c91 3d3e f7a0 653d 9061 bebb 436a 8cbd
00000250: 115f 613d 488a cfbd 64b3 a9bd 31dd 34be
00000260: b185 6dbc 898e d73d 9e64 6a3e c33e c63d
00000270: 09fa 1dbd c8f6 433e c6de a03d 7483 f23d
00000280: ce94 623e 7c57 8c3c 575c fcbd a0e6 453c
00000290: 26b3 dabd be0a 17be 3f22 fbbd 0ccc 9fbd
000002a0: 8a3d 493e 1f05 30be 4303 69be a2c3 cdbd
000002b0: d79d f03c 2332 29be 0ed0 84bc 0b4b fabc
000002c0: 2c46 133e 4048 e7bd 0fe6 543e 9f8e a7bd
000002d0: 6a9c 5fbd c773 68be 65fb 2b3d 4b72 543e
000002e0: c737 bf3c a3c0 8ebd ae44 f8bd 0e35 403e
000002f0: 4d5a 423e 33ac d2bd 8fe8 323e fe09 523e
00000300: 3420 a73d ccd6 563e 8312 e0bd e207 dabc
00000310: b324 85bc ecef 413e 754c b13d 866d a03d
00000320: 3c47 6a3e 28dd 7a3d 719f 8d3d fb18 803e
00000330: 249b 983d 4f3a 61be 17c3 4cbe 3e15 5f3e
00000340: 7ae5 613d f503 2b3e 4000 0dbe 426e 463e
00000350: 2c68 9a3d d910 1dbe 6971 de3d f5b4 13be
00000360: 6586 8f3d aabf 43be e92b e73d 3d1f d13b
00000370: c57a 46be 2f92 23be d403 793d 867d 31be
00000380: 8d26 c2bd 933a 1abe fabd 98bd 3eaa 6fbe
00000390: 4290 c43b 929e 2abe 9f96 31be 1aa0 2bbe
000003a0: b6a7 87be 1ba7 803d d533 59be 9f9a 583d
000003b0: ef5c 5f3c 79ca 79be af63 98bd b1ac 773d
000003c0: e6ef 0dbe 68db 803d 042b f23d 0107 213e
000003d0: c3d3 d03d 91b6 17be d2cb 563e 722a 1a3e
000003e0: 85bc 1cbd 6bd1 72be e9f3 8e3c b025 c9bd
000003f0: d132 7e3e ad32 a73d 5c62 0ebe 81d6 e9bd

bias f4 [512]
0.16339546 -0.18981133 0.15405238 -0.23717535 -0.12030423 0.05279673 0.14398384 -0.08575901
0.2109067 -0.028679483 -0.014732559 0.04940344 0.09301141 0.042471822 0.2527853 -0.16434516
0.12647326 0.14455116 -0.0005252355 -0.1295438 -0.15382518 -0.19866745 -0.2201355 -0.01458957
0.047193795 -0.18440305 0.087773174 -0.037352953 -0.1133421 -0.051600724 0.07292444 0.029431907
0.029991927 -0.1519523 0.23161434 -0.026407614 0.1829698 -0.09135107 -0.097404025 -0.047787495
-0.21764989 -0.16930276 0.20339872 0.0037046627 -0.17697296 0.15430677 0.25319502 0.117224336
0.06620408 0.20815603 -0.08230689 0.16717759 -0.060754295 -0.20892033 -0.1486577 0.005902104
0.25307208 -0.13078612 0.10347396 0.24980314 -0.0412035 -0.022751993 -0.14976321 -0.08583081
-0.16907121 -0.17106529 -0.2202914 0.032537293 -0.20687689 0.17972241 0.016223805 -0.0677517
0.22149959 0.2209968 0.13479733 -0.068522744 0.21048987 -0.12644094 -0.13594131 0.19794948
0.024349462 0.11475576 -0.021511659 -0.14538053 -0.111963175 0.10536322 -0.17890045 0.0059982324
0.10905863 -0.04993105 -0.10127324 -0.10634195 -0.098285384 0.18905261 0.1342508 0.17599937
0.123569734 -0.0051138746 -0.10566708 -0.030784737 -0.09563876 -0.0147490995 -0.00029936133 0.026787734
0.11303859 0.22393672 0.19037214 0.08122195 0.11967683 0.12736878 -0.188143 0.18528306
0.046847604 0.14604145 0.1101167 0.20341003 0.14919357 -0.04356073 -0.006406131 -0.14227936
-0.24047206 -0.08168999 0.15024365 -0.096822836 -0.17165582 0.096335344 0.042635676 -0.17736064
0.16744748 -0.10152906 0.059124 0.12841822 0.034752693 -0.0008980287 0.0066662296 0.04973734
0.23503579 0.14646053 -0.05287113 0.10685849 -0.08180696 0.18684483 -0.03344328 0.05231828
-0.17034906 0.037525862 -0.008927996 -0.22617286 -0.074276485 -0.23783278 0.2192737 0.01938702
0.18467821 0.23325025 -0.13188246 0.22238313 0.14220178 0.26904607 -0.21416304 -0.07387924
-0.14376181 0.026691448 0.055628277 0.17870499 -0.17376958 0.17705071 -0.24491186 -0.0937936
0.0045745834 0.17138718 0.15858643 -0.08276556 -0.06615486 0.22917342 -0.08675229 0.20262721
0.22416767 0.22644775 -0.20239706 0.2379779 0.08547165 -0.17923163 -0.049754042 0.18848336
0.27389747 -0.045623735 -0.101927534 -0.06666418 0.13614348 -0.076782905 -0.09559815 0.11725459
0.09929222 0.09856255 -0.044862065 0.24057811 0.00086434855 0.083509505 0.20500486 0.23212412
0.111671954 0.21605773 0.0330159 0.19974767 -0.09697553 0.21024638 -0.048239604 0.22023612
-0.08303158 -0.11658679 0.061843757 -0.061496407 0.25360024 0.104790404 -0.057018615 0.11001839
0.18613084 -0.20357783 -0.10662711 -0.10839963 -0.19926468 0.22798201 0.20186102 -0.13218866
0.037575107 0.07145635 0.15904891 0.21770048 0.17247583 -0.12900324 0.19134568 -0.08815641
-0.008658388 0.15937148 0.1749818 0.09519984 0.052624248 0.061923113 -0.21894512 0.19477825
-0.20429339 -0.20398155 0.1581825 0.013550732 -0.1377191 -0.10489463 0.006943592 -0.012796966
0.11212055 0.0320983 -0.14163832 -0.11669562 -0.19322857 0.042984646 0.24566743 -0.072333984
00000000: 2451 273e e75d 42be e8bf 1d3e 18de 72be
00000010: 1062 f6bd 6241 583d 8070 133e 6ba2 afbd
00000020: edf7 573e 3cf1 eabc d560 71bc 435b 4a3d
00000030: c47c be3d eff6 2d3d 136d 813e 194a 28be
00000040: 3582 013e 3805 143e f5af 09ba 21a7 04be
00000050: 5984 1dbe 7b6f 4bbe 336b 61be 1809 6fbc
00000060: 484e 413d 27d4 3cbe 6cc2 b33d 69ff 18bd
00000070: e71f e8bd 485b 53bd 6959 953d 2f1b f13c
00000080: a1b1 f53c 6299 1bbe 4f2c 6d3e c854 d8bc
00000090: 6f5c 3b3e 4516 bbbd c37b c7bd d2bc 43bd
000000a0: 9ddf 5ebe b45d 2dbe c147 503e edc9 723b
000000b0: 6638 35be 9802 1e3e c7a2 813e 5013 f03d
000000c0: 0196 873d db26 553e 8490 a8bd 9a30 2b3e
000000d0: 7fd9 78bd 36ef 55be b939 18be 7066 c13b
000000e0: aa92 813e ccec 05be 28ea d33d 65cc 7f3e
000000f0: 00c5 28bd 6362 babc 875b 19be 10c8 afbd
00000100: 0121 2dbe bd2b 2fbe 1294 61be d345 053d
00000110: 89d7 53be 2709 383e c9e7 843c 67c1 8abd
00000120: cad0 623e fc4c 623e 5008 0a3e a755 8cbd
00000130: a88a 573e bc79 01be 3334 0bbe 45b3 4a3e
00000140: 8678 c73c 1105 eb3d 3839 b0bc a2de 14be
00000150: f34c e5bd acc8 d73d ae31 37be d28c c43b
00000160: 225a df3d 8084 4cbd 5868 cfbd cfc9 d9bd
00000170: d949 c9bd 0297 413e 0b79 093e 2e39 343e
00000180: 2112 fd3d 4a92 a7bb fb67 d8bd 4630 fcbc
00000190: 41de c3bd 35a6 71bc 99f3 9cb9 f371 db3c
000001a0: c780 e73d ab4f 653e eaf0 423e b257 a63d
000001b0: 2019 f53d f66c 023e 8fa8 40be d8ba 3d3e
000001c0: 46e3 3f3d e48b 153e dd84 e13d b84a 503e
000001d0: 33c6 183e bc6c 32bd 86ea d1bb aeb1 11be
000001e0: 4f3e 76be 154d a7bd 79d9 193e 0d4b c6bd
000001f0: 8bc6 2fbe 774b c53d bfa2 2e3d 079e 35be
00000200: 5a77 2b3e 78ee cfbd 022c 723d 1180 033e
00000210: d758 0e3d b069 6bba 6370 da3b 62b9 4b3d
00000220: 39ad 703e c0f9 153e 668f 58bd a0d8 da3d
00000230: 688a a7bd 4054 3f3e d2fb 08bd b14b 563d
00000240: fc6f 2ebe b8b4 193d bb46 12bc dc99 67be
00000250: 451e 98bd 708a 73be 4989 603e 87d1 9e3c
00000260: 491c 3d3e 27d9 6e3e 320c 07be 67b8 633e
00000270: 589d 113e 68c0 893e 8e4d 5bbe 004e 97bd
00000280: 4c36 13be 06a8 da3c 7ada 633d 71fe 363e
00000290: a7f0 31be c84c 353e 2dca 7abe dc16 c0bd
000002a0: 63e6 953b 1f80 2f3e 7b64 223e fd80 a9bd
000002b0: 337c 87bd 70ac 6a3e 2fab b1bd 827d 4f3e
000002c0: 368c 653e ebe1 673e 2d41 4fbe 7bb0 733e
000002d0: c30b af3d 7f88 37be e5ca 4bbd c801 413e
000002e0: 4a3c 8c3e f4df 3abd 62bf d0bd 3b87 88bd
000002f0: 3269 0b3e 5b40 9dbd f6c8 c3bd 2d23 f03d
00000300: b859 cb3d 2adb c93d 49c1 37bd 1c5a 763e
00000310: 7395 623a 0807 ab3d cbec 513e f2b1 6d3e
00000320: 44b4 e43d 3d3e 5d3e ae3b 073d a78a 4c3e
00000330: 1b9b c6bd d44a 573e e496 45bd 9485 613e
00000340: 760c aabd 0ec5 eebd e14f 7d3d a8e3 7bbd
00000350: e4d7 813e 5a9c d63d 5a8c 69bd 5251 e13d
00000360: 1599 3e3e b576 50be 505f dabd a000 debd
00000370: 0a0c 4cbe 1e74 693e a8b4 4e3e 775c 07be
00000380: 5be8 193d b557 923d b8dd 223e e0ec 5e3e
00000390: 819d 303e 6d19 04be 1ff0 433e 598b b4bd
000003a0: e9db 0dbc 4732 233e 6e2e 333e 22f8 c23d
000003b0: 868c 573d 17a3 7d3d 2633 60be f373 473e
000003c0: 4932 51be 8ae0 50be 98fa 213e e403 5e3c
000003d0: 3c06 0dbe ffd2 d6bd 1287 e33b 5eaa 51bc
000003e0: 759f e53d 8279 033d a309 11be 1dfe eebd
000003f0: b6dd 45be ab10 303d 3e90 7b3e d723 94bd

weight f4 [128, 512]
-0.03272032 -0.0068525574 0.0008538423 0.036884524 0.007966702 0.021749917 0.0036909084 -0.02312354
-0.035133906 -0.010307489 0.008510319 0.04581674 0.03299103 0.028076844 0.015770322 0.009030555
0.04868102 -0.0027124686 0.025165189 0.01559525 0.018289644 0.04853579 0.040509593 0.011395594
0.0050992947 0.0020431117 -0.017641256 0.025545254 0.013022984 0.028723096 -0.0061388793 0.044888414
-0.031620476 0.014494727 0.045793988 0.0012932263 -0.008696997 0.009203667 0.025367593 -0.028952606
-0.029430563 0.004309428 0.0058591617 -0.012218266 0.02403942 0.046033874 0.010655635 -0.02771192
0.0057778363 0.0155418245 0.042392354 0.0040424108 -0.02983927 0.00953919 -0.008471024 0.0107370075
-0.0087523395 -0.033958323 0.052217185 0.017529646 -0.03087165 -0.02317664 -0.020053303 0.0014267465
0.028841866 -0.0035284685 -0.0069787265 -0.010473005 -0.027347334 0.048100904 0.01855063 -0.006271989
0.027003499 0.0027637836 0.038375262 -0.0066980864 0.0074097244 0.037792005 0.050096303 -0.030415265
0.031680517 -0.018529167 0.031738203 -0.015136918 0.0070701856 0.03732496 -0.023258412 0.007548508
0.016415354 -0.012662002 -0.012842111 0.01939826 0.0032378421 0.022178538 -0.034971464 0.02007907
-0.018230682 0.031988215 0.026449578 -0.027995853 -0.012868238 0.04843648 0.01305212 -0.03036479
0.006509449 0.011115614 -0.008535635 0.013659874 -0.0005476657 0.0063078306 0.014993599 -0.029146608
0.029146891 -0.024303645 -0.015063978 0.01417368 0.047398973 -0.034828067 0.0004582497 -0.015822794
0.010692606 0.03464897 0.03923613 -0.02965512 0.009968862 0.028537538 -0.037524603 -0.013335632
-0.0218564 0.008411183 0.048240364 -0.027457573 -0.020534042 0.007879473 -0.019508507 0.038704876
0.024482936 0.00022622345 0.011624626 -0.024020618 0.029974453 -0.011314704 0.03752996 0.023413459
0.016783474 0.020545904 -0.035569523 -0.005645388 0.013260258 -0.017593425 -0.009452851 0.04264217
0.032947488 -0.026965428 -0.020526271 -0.0066983383 0.0267946 0.011512732 -0.029505327 0.028045405
0.022763558 0.0031482482 0.04041086 0.02458032 -0.0159891 -0.0005893078 -0.034188338 0.013246156
0.011254293 -0.010228056 0.0077801305 -0.03010756 -0.027056057 0.019045454 0.016553245 0.019843867
0.023759883 0.007290467 0.026273645 0.019267127 -0.03565773 0.0024738288 0.025814503 0.039212473
-0.0043176375 0.040855296 0.04717299 0.038167533 0.0048684888 -0.025754936 0.005408523 -0.011474978
-0.030291934 0.016567387 -0.0049467417 -0.015824618 0.012450915 0.04043301 0.0053719357 -0.027026728
-0.00089857314 0.0013670969 0.0442104 -0.029035114 0.023816213 -0.008783318 -0.020014197 0.010725225
-0.030240763 0.015966682 0.020853642 -0.034241136 0.030180523 -0.0161254 -0.027215457 -0.02224928
0.0056924 -0.023206873 0.0019424248 -0.015697045 0.028718913 0.022261662 -0.008276616 0.007491998
0.051392335 -0.019885205 -0.012276688 -0.013139623 0.017735617 0.016381184 -0.0086798705 0.0142001
-0.007743061 -0.020816104 -0.022311326 -0.023641335 0.03283665 -0.009061086 0.021022655 -0.011448147
-0.016237516 -0.024254806 -0.0069446717 0.037175953 -0.033268712 -0.01593584 0.01333983 -0.012320217
-0.02090064 -0.03764358 0.015315105 -0.0061618546 0.051522646 0.006311635 0.038886327 0.031247191
00000000: be05 06bd 6b8b e0bb 63d4 5f3a 3a14 173d
00000010: c586 023c e22c b23c 2be3 713b 946d bdbc
00000020: 92e8 0fbd bee0 28bc dd6e 0b3c 55aa 3b3d
00000030: 9a21 073d 6901 e63c c330 813c e5f4 133c
00000040: c065 473d acc3 31bb 3a27 ce3c 3883 7f3c
00000050: 2ad4 953c 77cd 463d 63ed 253d 96b4 3a3c
00000060: fc17 a73b bae5 053b 6584 90bc 4844 d13c
00000070: 5b5e 553c b34c eb3c a728 c9bb eadc 373d
00000080: 7984 01bd 4b7b 6d3c 7a92 3b3d 7981 a93a
00000090: d97d 0ebc faca 163c b3cf cf3c 042e edbc
000000a0: 5d18 f1bc 1a36 8d3b 36fe bf3b 1f2f 48bc
000000b0: 51ee c43c 048e 3c3d f994 2e3c 1c04 e3bc
000000c0: 0154 bd3b 23a3 7e3c 9ba3 2d3d 3376 843b
000000d0: 7c71 f4bc 434a 1c3c 0dca 0abc 46ea 2f3c
000000e0: f965 0fbc e217 0bbd b0e1 553d 559a 8f3c
000000f0: 8be6 fcbc f0dc bdbc d346 a4bc ab01 bb3a
00000100: c745 ec3c e13d 67bb cdad e4bb f796 2bbc
00000110: 8407 e0bc 7405 453d 7ef7 973c 4285 cdbb
00000120: 7136 dd3c 9820 353b 612f 1d3d 9f7b dbbb
00000130: 46cd f23b cacb 1a3d c831 4d3d 6f29 f9bc
00000140: 6ec3 013d 7bca 97bc ebff 013d d600 78bc
00000150: 04ad e73b 0fe2 183d 6d88 bebc 7959 f73b
00000160: 7e79 863c 4974 4fbc b867 52bc 1ae9 9e3c
00000170: fa31 543b c4af b53c 3d3e 0fbd dd7c a43c
00000180: 8358 95bc 1306 033d c9ac d83c 8f57 e5bc
00000190: 4dd5 52bc 5565 463d 8fd8 553c 94bf f8bc
000001a0: 374d d53b 441e 363c 0cd9 0bbc aacd 5f3c
000001b0: 3991 0fba ebb1 ce3b b6a7 753c dec4 eebc
000001c0: 76c5 ee3c 7018 c7bc e7ce 76bc b938 683c
000001d0: 6d25 423d e0a7 0ebd 3c41 f039 ce9e 81bc
000001e0: 0a30 2f3c 14ec 0d3d 10b6 203d 4bef f2bc
000001f0: 7054 233c 8ec7 e93c 66b3 19bd b27d 5abc
00000200: 310c b3bc 0fcf 093c b097 453d b4ee e0bc
00000210: 0237 a8bc e818 013c 4ed0 9fbc 0189 1e3d
00000220: 7090 c83c 6536 6d39 3775 3e3c e3c6 c4bc
00000230: fc8c f53c 4f61 39bc 04b9 193d 95cd bf3c
00000240: 7f7d 893c e24f a83c 59b1 11bd f2fc b8bb
00000250: 8e41 593c 1620 90bc 21e0 1abc 8ea9 2e3d
00000260: f2f3 063d 9ae6 dcbc b626 a8bc bc7d dbbb
00000270: 5980 db3c e69f 3c3c 28b5 f1bc 7abf e53c
00000280: a47a ba3c d752 4e3b dc85 253d ab5c c93c
00000290: 93fb 82bc c77b 1aba 1209 0cbd 6806 593c
000002a0: ed63 383c 9493 27bc 77f0 fe3b 21a4 f6bc
000002b0: aaa4 ddbc 3605 9c3c ac9a 873c 9b8f a23c
000002c0: 16a4 c23c dfe4 ee3b d43b d73c 18d6 9d3c
000002d0: d70d 12bd f61f 223b f078 d33c 429d 203d
000002e0: f87a 8dbb e257 273d 7738 413d 8f55 1c3d
000002f0: d887 9f3b 04fc d2bc fb39 b13b 8c01 3cbc
00000300: ca26 f8bc 54b8 873c 4718 a2bb a1a2 81bc
00000310: ecfe 4b3c 159d 253d 1007 b03b 2867 ddbc
00000320: 398e 6bba 2930 b33a f715 353d 0cdb edbc
00000330: 381a c33c e8e7 0fbc d0f4 a3bc dbb8 2f3c
00000340: 7abb f7bc 8fcc 823c 42d5 aa3c 6f40 0cbd
00000350: 253d f73c 6a19 84bc f3f2 debc 1f44 b6bc
00000360: 5087 ba3b 571c bebc f698 fe3a 1797 80bc
00000370: ed43 eb3c 175e b63c a59a 07bc 6f7f f53b
00000380: c580 523d 4ce6 a2bc 2924 49bc 9347 57bc
00000390: 494a 913c d531 863c 0436 0ebc 89a7 683c
000003a0: 81b9 fdbb 8986 aabc 3ec6 b6bc 79ab c1bc
000003b0: b97f 063d f374 14bc b437 ac3c 0291 3bbc
000003c0: 8a04 85bc 04b2 c6bc 2190 e3bb d045 183d
000003d0: c644 08bd e18b 82bc 4d8f 5a3c bcda 49bc
000003e0: d237 abbc 2830 1abd 35ec 7a3c 62e9 c9bb
000003f0: 6909 533d d5d1 ce3b 4547 1f3d 1cfa ff3c

bias f4 [128]
0.022225589 0.009544773 0.022435207 -0.0015100187 0.01097003 0.049077988 0.054960426 -0.028684353
0.026682429 0.010268728 0.012269376 0.0056903055 0.029515686 0.016210055 -0.016280847 0.01719817
0.042683337 -0.022645887 -0.024394602 0.030714309 0.008522866 0.054486834 0.014099173 -0.038328204
0.009401276 0.03586013 -0.009392635 -0.0014395163 0.009750856 0.016627965 0.02770592 -0.0071480605
-0.0021447747 0.025619324 -0.016372057 -0.001322246 0.039088625 -0.009172992 0.00043081807 -0.02680358
-0.045869272 0.024524992 0.0340687 -0.039072014 -0.01900135 -0.042257696 -0.012894319 -0.026864158
-0.022989487 -0.026373371 0.0028213582 0.014955283 -0.018367106 0.015776793 -0.025550418 0.026757607
0.031616844 -0.011209179 0.023246227 0.03676248 -0.013682191 0.010171075 -0.02873014 -0.00096971955
0.025882266 -0.0026579425 0.029715143 -0.0070025716 -0.02381682 0.0036615848 0.02506971 -0.032084215
0.040955413 0.035594895 0.019285636 -0.0028656062 0.03642263 -0.040934313 -0.017443763 0.03301798
-0.0051807165 -0.002032461 0.019838642 -0.010081353 0.023088858 0.0021269794 0.03653995 -0.014714651
-0.010105247 -0.013399646 -0.038848914 -0.005942 0.0062468224 0.0132054305 -0.010645864 -0.034234628
-0.030864304 -0.025157964 -0.037447993 0.03427597 0.02037551 0.04272921 -0.024832873 -0.040836778
-0.029355329 -0.012114404 0.023739798 0.0016161434 0.011243261 -0.033792052 0.00670934 -0.04075123
0.009312892 0.016776105 0.012473684 -0.009387089 0.061359607 0.04037796 0.019812407 -0.026257224
0.011746757 0.013304875 -0.00092693657 -0.022172833 -0.025109427 0.009902772 0.0062529244 0.0027649803
00000000: 7012 b63c ae61 1c3c 0aca b73c d2eb c5ba
00000010: a4bb 333c 0006 493d 2f1e 613d 73fb eabc
00000020: 1c95 da3c 2b3e 283c 7e05 493c be75 ba3b
00000030: e1ca f13c f3ca 843c 695f 85bc 2de3 8c3c
00000040: b9d4 2e3d de83 b9bc 30d7 c7bc 939c fb3c
00000050: 7ea3 0b3c 962d 5f3d 3800 673c 09fe 1cbd
00000060: cf07 1a3c 12e2 123d 91e3 19bc 27ae bcba
00000070: 0ec2 1f3c 5f37 883c 87f7 e23c 473a eabb
00000080: 598f 0cbb 9edf d13c b11e 86bc 374f adba
00000090: 651b 203d 514a 16bc 6cdf e139 2e93 dbbc
000000a0: 6be1 3bbd a3e8 c83c 9f8b 0b3d fa09 20bd
000000b0: b8a8 9bbc 6816 2dbd b242 53bc 3912 dcbc
000000c0: 7354 bcbc f80c d8bc 89e6 383b 0107 753c
000000d0: 9d76 96bc 553e 813c 1c4f d1bc c532 db3c
000000e0: aa80 013d b4a6 37bc df6e be3c 4194 163d
000000f0: 452b 60bc 95a4 263c 785b ebbc c734 7eba
00000100: 0c07 d43c e030 2ebb 2c6d f33c d475 e5bb
00000110: 7e1b c3bc 33f7 6f3b fe5e cd3c bd6a 03bd
00000120: ddc0 273d f4cb 113d e9fc 9d3c e5cc 3bbb
00000130: e52f 153d bdaa 27bd 39e6 8ebc dd3d 073d
00000140: 00c3 a9bb 0a33 05bb a684 a23c 422c 25bc
00000150: d824 bd3c cb64 0b3b eaaa 153d b815 71bc
00000160: 7a90 25bc 308a 5bbc 0a20 1fbd 1cb5 c2bb
00000170: 25b2 cc3b 975b 583c fd6b 2ebc 9c39 0cbd
00000180: 23d7 fcbc 1318 cebc 1163 19bd f664 0c3d
00000190: 8bea a63c d304 2f3d 4f6e cbbc 7744 27bd
000001a0: 967a f0bc 7e7b 46bc f779 c23c c6d4 d33a
000001b0: a835 383c 8969 0abd 06da db3b c3ea 26bd
000001c0: 1a95 183c 0b6e 893c 6c5e 4c3c 4ecc 19bc
000001d0: 3654 7b3d 5c63 253d a14d a23c 6419 d7bc
000001e0: 7875 403c b1fc 593c a9fd 72ba cda3 b5bc
000001f0: 49b2 cdbc 3c3f 223c 55e5 cc3b ac34 353b

weight f4 [3, 128]
-0.066281654 -0.049404092 -0.100307114 -0.00012219536 -0.08543396 -0.100907825 -0.044882774 0.0065110824
0.04874828 -0.0991606 -0.09461398 0.03162658 0.05537157 0.08267589 0.048568662 -0.07602684
-0.09299833 0.050514832 0.070408426 -0.060267318 0.010604826 -0.06390775 -0.0825 -0.016053697
-0.07326372 0.011938145 -0.024945552 -0.05990611 -0.04566508 0.0137678655 -0.0062225754 -0.009720038
-0.015731731 -0.027960777 -0.03179587 -0.10929297 -0.08243253 -0.08798949 0.022148421 0.06262645
0.079650626 0.07102997 0.08177428 0.04861 0.048786763 0.060467027 0.047200833 0.018816983
-0.06680035 -0.053608857 0.010018915 -0.024549976 0.045488946 -0.052065745 -0.065929264 0.0056397533
-0.05340744 -0.010456331 0.047964476 -0.07247755 0.0016237606 0.07996427 0.07814225 -0.044903893
-0.01606824 -0.030051546 0.011021551 -0.04620569 -0.07685087 0.04798153 0.050563514 -0.037012454
-0.021115279 0.08268129 0.011171611 -0.06528539 0.021916999 0.010753273 -0.06740383 0.019157916
0.051532276 0.010162686 0.0413521 0.049110312 0.018778067 -0.102050304 -0.025329622 -0.048469577
0.04872131 -0.031566516 -0.06356672 -0.113755345 -0.10870695 -0.06397595 0.06460881 -0.073027074
-0.004651995 0.051650774 0.022003971 -0.0016101259 -0.06167422 -0.05917564 -0.06913062 0.0039282995
-0.062426824 0.031290554 -0.013929334 0.029767936 0.0302923 0.07690337 -0.06032016 0.049800936
0.08101393 -0.018031819 0.022255171 0.013892569 -0.09634348 -0.09653102 -0.014385962 -0.015597964
-0.05172356 -0.062418792 0.00014385437 -0.072928734 0.05229147 0.01599368 -0.0914838 -0.032176923
-0.08568632 -0.07190092 -0.06206622 0.024087472 0.053549364 -0.087911464 -0.11204879 -0.060191296
-0.124353044 -0.008314711 -0.003187442 0.07865245 -0.0336877 0.06392379 0.044325247 -0.031947117
-0.08848532 0.0015336673 0.07620851 -0.0571189 0.030507261 -0.06990633 -0.044922605 -0.004105229
0.025616871 -0.02949293 0.07674223 0.06047697 -0.08062394 -0.08420686 -0.060252745 -0.007871399
-0.1520675 0.06476015 -0.07849615 -0.11156854 0.03030368 0.039347228 -0.019326257 0.06774764
-0.068627514 0.03485948 0.054069012 -0.03890889 -0.053879842 -0.024618827 0.012303513 -0.0795062
0.060236182 -0.10820222 0.028576791 0.06999358 0.039344564 0.07467122 0.036863115 0.05931806
0.031325627 0.025113152 0.03639477 0.0022607595 -0.06397427 0.017027045 -0.058320638 0.07466654
0.07280466 -0.076249234 0.06348237 -0.09052624 -0.08372741 0.04344337 0.0784207 0.007128565
0.07729069 0.030908367 0.0042431373 -0.02539669 0.062393576 0.024415549 -0.093953624 0.0279271
0.007233096 -0.074846715 0.06929158 -0.03779497 0.036190573 0.017155431 -0.0609559 0.007688219
-0.03168657 0.08498848 0.058811896 -0.030958517 -0.055709787 -0.10149901 0.038223837 0.030126754
-0.0036041967 0.077243805 0.023535494 -0.027664632 0.036049087 -0.07987852 -0.020009015 -0.068124816
0.0006691236 -0.020483535 -0.100607656 -0.017685842 -0.11796327 0.07295271 -0.010163204 0.08323468
0.04660476 0.0005956396 0.034740694 -0.1128262 0.028380483 0.0014434487 -0.038457625 0.06255964
-0.10529942 -0.07841638 -0.098857805 -0.09915188 -0.039417513 0.065473706 -0.0061192163 0.027967066
00000000: adbe 87bd f25b 4abd d16d cdbd 9121 00b9
00000010: 00f8 aebd c3a8 cebd 00d7 37bd eb5a d53b
00000020: 47ac 473d b614 cbbd f9c4 c1bd df8a 013d
00000030: 4dcd 623d fa51 a93d efef 463d f6b3 9bbd
00000040: e975 bebd a4e8 4e3d 4b32 903d ddda 76bd
00000050: ddbf 2d3c 11e2 82bd c3f5 a8bd 0b83 83bc
00000060: 4a0b 96bd 3698 433c 9d5a ccbc 1c60 75bd
00000070: 4f0b 3bbd 9d92 613c bfe6 cbbb cb40 1fbc
00000080: d5df 80bc 000e e5bc 633c 02bd fed4 dfbd
00000090: 63d2 a8bd d533 b4bd 9b70 b53c 4c42 803d
000000a0: de1f a33d 2978 913d 4679 a73d 481b 473d
000000b0: a1d4 473d 46ac 773d a955 413d 1326 9a3c
000000c0: 9fce 88bd f694 5bbd 6026 243c 081d c9bc
000000d0: 9e52 3a3d e442 55bd ec05 87bd aecd b83b
000000e0: c3c1 5abd 0851 2bbc 6676 443d 1c6f 94bd
000000f0: 5dd4 d43a 4fc4 a33d 0b09 a03d 25ed 37bd
00000100: 8ba1 83bc a92e f6bc bc93 343c 2d42 3dbd
00000110: fd63 9dbd 4888 443d b01b 4f3d 5f9a 17bd
00000120: f3f9 acbc cf54 a93d 2209 373c 59b4 85bd
00000130: 478b b33c 7f2e 303c 050b 8abd 10f1 9c3c
00000140: 8213 533d 6581 263c d260 293d e527 493d
00000150: 76d4 993c c0ff d0bd 1180 cfbc 0988 46bd
00000160: ff8f 473d e44b 01bd 452f 82bd 90f8 e8bd
00000170: c0a1 debd d305 83bd a051 843d 388f 95bd
00000180: c36f 98bb c38f 533d ac41 b43c dc0a d3ba
00000190: 1b9e 7cbd 2862 72bd 5b94 8dbd f7b8 803b
000001a0: 45b3 7fbd 862a 003d dc37 64bc e3db f33c
000001b0: 8f27 f83c 847f 9d3d 4612 77bd 11fc 4b3d
000001c0: a2ea a53d 77b7 93bc 7a50 b63c a89d 633c
000001d0: bb4f c5bd 0eb2 c5bd 19b3 6bbc 9a8e 7fbc
000001e0: 15dc 53bd d9aa 7fbd 9dd7 1639 a95b 95bd
000001f0: 952f 563d 2e05 833c dc5b bbbd f3cb 03bd
00000200: 4f7c afbd ca40 93bd 2639 7ebd 1753 c53c
00000210: 9456 5b3d ed0a b4bd d679 e5bd 268b 76bd
00000220: cfac febd 6d3a 08bc 67e4 50bb 8914 a13d
00000230: 1dfc 09bd 7aea 823d 648e 353d fbda 02bd
00000240: cb37 b5bd 5605 c93a 3513 9c3d 82f5 69bd
00000250: 5dea f93c 0d2b 8fbd c400 38bd 2885 86bb
00000260: 79da d13c 289b f1bc 082b 9d3d b3b6 773d
00000270: 2a1e a5bd a574 acbd 95cb 76bd 0af7 00bc
00000280: 95b7 1bbe f8a0 843d 97c2 a0bd 0c7e e4bd
00000290: 6c3f f83c 8f2a 213d 1952 9ebc 46bf 8a3d
000002a0: 958c 8cbd d0c8 0e3d 7877 5d3d ee5e 1fbd
000002b0: 1cb1 5cbd 6cad c9bc ac94 493c 26d4 a2bd
000002c0: 37ba 763d 2099 ddbd e019 ea3c cb58 8f3d
000002d0: c427 213d 39ed 983d c7fd 163d 7ef7 723d
000002e0: 4d4f 003d 19ba cd3c af12 153d 4029 143b
000002f0: f104 83bd 4d7c 8b3c 9fe1 6ebd c5ea 983d
00000300: 9c1a 953d 8f28 9cbd 0b03 823d d265 b9bd
00000310: 4779 abbd adf1 313d 089b a03d bd96 e93b
00000320: 954a 9e3d 8b33 fd3c 040a 8b3b b80c d0bc
00000330: 6890 7f3d 1e03 c83c c26a c0bd 60c7 e43c
00000340: 9b03 ed3b 3c49 99bd bee8 8d3d e6ce 1abd
00000350: 913c 143d 8c89 8c3c e5ac 79bd 75ed fb3b
00000360: c7c9 01bd 710e ae3d bee4 703d b79c fdbc
00000370: f22f 64bd b7de cfbd 9990 1c3d 62cc f63c
00000380: 6334 6cbb 0032 9e3d 82cd c03c f0a0 e2bc
00000390: 35a8 133d 5997 a3bd f2e9 a3bc 0685 8bbd
000003a0: 2068 2f3a 16cd a7bc 630b cebd e6e1 90bc
000003b0: ba96 f1bd 3b68 953d 9183 26bc f276 aa3d
000003c0: a2e4 3e3d b224 1c3a 424c 0e3d 6c11 e7bd
000003d0: 307e e83c 1a32 bd3a be85 1dbd 451f 803d
000003e0: 39a7 d7bd c498 a0bd f675 cabd 2410 cbbd
000003f0: 4274 21bd 1417 863d b583 c8bb 301b e53c

bias f4 [3]
-0.00616299 -0.096385926 0.02704757
00000000: e8f2 c9bb fc65 c5bd de92 dd3c
