trained/exp_train_3_6_1111_0.0001_0.001_32_0.95/model/meta_critic_5.pth (torch, 950411 bytes, 7 tensors)

weight f4 [128, 16]
0	0xbd3c4725	-0.045966286
1	0xbe8173af	-0.25283572
2	0xbe6f8e77	-0.2339419
3	0xbe9e50b9	-0.30920961
4	0x3e7f848e	0.2495291
5	0xbe1b859a	-0.15187684
6	0x3d6bad93	0.05753858
7	0xbe617eeb	-0.22021072
8	0x3e8a3e53	0.27000675
9	0x3dd9bc5b	0.10631629
10	0xbc3d70a2	-0.011562498
11	0x3d9f1c44	0.07769063
12	0xbdf639a2	-0.12022711
13	0x3e4b38f9	0.19845952
14	0xba8dbaf1	-0.0010813159
15	0x3db761bf	0.089541905
16	0xbe8dc2f9	-0.27687815
17	0xbefc4933	-0.49274597
18	0xbe641404	-0.2227326
19	0xbeaa12ea	-0.33217555
20	0xbe040c5f	-0.12895344
21	0x3db61d59	0.08892316
22	0xbd2ca902	-0.042153366
23	0x3cafda83	0.0214665
24	0xbe67776a	-0.22604147
25	0xbdf63fcb	-0.12023886
26	0x3c623526	0.013806617
27	0xbdda392f	-0.10655438
28	0x3dbdc932	0.092668906
29	0xbd6e69fe	-0.05820655
30	0xbe0e1cc0	-0.13878155
31	0x3d0ba9eb	0.034097593
32	0xbed2d3cf	-0.41177222
33	0xbcc003b6	-0.02343927
34	0xbeabdf75	-0.33568922
35	0xbd1d26ef	-0.038367208
36	0xbe832189	-0.25611523
37	0xbdb954f3	-0.09049406
38	0xbe79a45e	-0.24379107
39	0xbe2c02be	-0.16797921
40	0x3cdab60f	0.02669814
41	0xbe2cf25d	-0.16889329
42	0x3e69e1db	0.22840063
43	0xbe86dd77	-0.2634084
44	0xbdb0b01a	-0.08627339
45	0xbdc8051c	-0.097665995
46	0x3e80628d	0.25075188
47	0xbd97c0c4	-0.07409814
48	0x3d9b0380	0.07569027
49	0x3eafc109	0.34326962
50	0xbe1a0500	-0.1504097
51	0xbe314e4f	-0.17315029
52	0x3e349fba	0.17639056
53	0x3e0d5bb7	0.13804518
54	0xbd700bbb	-0.058604937
55	0xbe240f8d	-0.16021557
56	0xba4946a1	-0.0007678066
57	0x3e4fafb3	0.20281868
58	0x3e50fbcd	0.20408554
59	0x3cb2066e	0.021731582
60	0x3e24ef92	0.16107014
61	0xbaedd95a	-0.0018146441
62	0x3e409164	0.18805462
63	0x3d39445d	0.045231212
64	0xbe5e272e	-0.21694633
65	0x3eb0a9a2	0.3450442
66	0x3e53377a	0.20626631
67	0xbec48cfe	-0.38388819
68	0xbbf975c3	-0.0076129152
69	0x3e15b1b9	0.14618577
70	0x3e14ecfd	0.14543529
71	0xbdfcbc02	-0.12340547
72	0xbe561158	-0.20905054
73	0x3d6a3568	0.05717984
74	0x3e1aa3be	0.15101525
75	0xbd97b4c2	-0.07407524
76	0x3cb9a84e	0.022663262
77	0x3e82d665	0.25554195
78	0xbc1bedeb	-0.009517173
79	0xbea13593	-0.31486186
80	0x3db65562	0.08903004
81	0x3e7ee958	0.24893701
82	0xbb9f0199	-0.0048524854
83	0xbe1718af	-0.1475551
84	0xbc96eaeb	-0.018422564
85	0x3e8ceacc	0.27522886
86	0x3d9c35d7	0.07627457
87	0xbe872578	-0.26395774
88	0x3b586b87	0.0033023076
89	0x3e83a374	0.25710642
90	0x3ccd4ee9	0.025062041
91	0xbe24fee8	-0.16112864
92	0xbdede880	-0.116166115
93	0x3ec1c432	0.37844998
94	0x3dc025b0	0.09382188
95	0xbe88e3d5	-0.26736322
96	0xbeccd78f	-0.40008208
97	0xbd8abfda	-0.06774874
98	0xbdf29466	-0.11844711
99	0xbed176fc	-0.4091109
100	0xbebf7186	-0.373913
101	0x3e4663ac	0.1937396
102	0x3e5e8fbb	0.21734516
103	0x3c03fc55	0.008055766
104	0x3d96b58d	0.07358847
105	0x3e1763c6	0.14784154
106	0x3e3d6540	0.18495655
107	0x3a10871c	0.0005513297
108	0xbe50eb37	-0.20402227
109	0x3d608258	0.054811805
110	0x3e085fb3	0.13317756
111	0xbe38ecd6	-0.18059096
112	0x3eaf19b5	0.341993
113	0xbe07e0a3	-0.13269286
114	0x3e6c4504	0.23073202
115	0x3e6bd80d	0.23031636
116	0x3e450091	0.19238497
117	0xbe582e35	-0.21111377
118	0xbe72c926	-0.23709545
119	0x3d18735d	0.037219394
120	0xbe269af2	-0.16270044
121	0xbe257410	-0.16157556
122	0xbc112b0b	-0.00886036
123	0xbda569b3	-0.08076801
124	0xbd8b48aa	-0.06800969
125	0x3cdd378e	0.02700403
126	0xbe316ed3	-0.17327432
127	0x3ed3e139	0.4138277
128	0x3e1230ce	0.1427643
129	0xbed53682	-0.4164315
130	0x3dfc50e6	0.12320118
131	0xbe7f8191	-0.2495177
132	0xbe6e0856	-0.23245367
133	0xbe479010	-0.19488549
134	0xbd5a41b3	-0.053285312
135	0xbbf6acf9	-0.007527944
136	0x3e07444a	0.13209644
137	0x3d8f9ffe	0.07012938
138	0xbc9ca4bd	-0.019121522
139	0xbd19e169	-0.037568484
140	0x3e119d28	0.14220107
141	0xbdc35a78	-0.0953874
142	0x3d99b774	0.07505694
143	0xbe3d4ad2	-0.18485573
144	0x3eab75c5	0.3348829
145	0x3e3cd34b	0.18439977
146	0xbe1d3347	-0.15351592
147	0xbd525a20	-0.05135548
148	0x3d9804e5	0.074228086
149	0x3e147f46	0.14501676
150	0xbe1acd3f	-0.15117358
151	0xbde4f425	-0.111793794
152	0x3e993db9	0.29929903
153	0xbdc3cbe3	-0.09560373
154	0xbe29ecbc	-0.16594213
155	0x3b5c0ceb	0.0033577036
156	0x3de20374	0.11035815
157	0xbd9ec16e	-0.077517375
158	0xbdf1e05e	-0.11810373
159	0x3dc4a264	0.09601286
160	0x3e012322	0.12611058
161	0xbe69f50e	-0.22847387
162	0xbe27b59c	-0.16377872
163	0x3e271a75	0.16318686
164	0x3dd22e81	0.10262776
165	0x3ce7ceda	0.028296877
166	0xbe293bd5	-0.1652673
167	0x3e5b046f	0.2138841
168	0x3e8d8687	0.276417
169	0x3e840fc2	0.25793272
170	0xbea4cb7a	-0.3218649
171	0x3d3d6b18	0.04624471
172	0x3d3e9f64	0.046538725
173	0xbe1fb3b7	-0.155959
174	0xbd650fb0	-0.055923164
175	0xbd9d63f9	-0.07685084
176	0x3cc4d7b0	0.024028629
177	0x3df8ab40	0.12142038
178	0x3d8e6ccb	0.06954344
179	0xbdfb36ae	-0.12266289
180	0x3db5a508	0.08869368
181	0x3e2c5b36	0.16831669
182	0x3d4e0ac5	0.05030324
183	0x3e0b3f89	0.13598455
184	0x3e5b5564	0.21419293
185	0x3e9b45b9	0.30326632
186	0x3e189633	0.14901046
187	0xbb97baac	-0.0046304073
188	0x3bbddfa2	0.0057944814
189	0xbbfffbd2	-0.0078120017
190	0x3e757c82	0.23973277
191	0xbe43a191	-0.19104601
192	0xbea0cf51	-0.3140817
193	0x3e929416	0.28628606
194	0xbe11758a	-0.14204994
195	0x3e61024b	0.21973531
196	0xbe341bdb	-0.17588751
197	0x3e6986c2	0.22805312
198	0xbe50574a	-0.20345798
199	0x3e8f11a1	0.27943137
200	0x3df4ea2b	0.119587265
201	0x3c11fdf5	0.008910646
202	0x3e4833db	0.19551031
203	0xbe006560	-0.12538671
204	0xbe3a7b88	-0.18211186
205	0x3e68c3be	0.2273092
206	0xbd9af1a2	-0.07565619
207	0x3de14b27	0.11000662
208	0xbe0636aa	-0.1310679
209	0x3e541352	0.20710495
210	0x3e39ef9e	0.18157813
211	0x3eb06fd7	0.34460327
212	0x3c4c9600	0.012486935
213	0x3e560310	0.20899606
214	0xbd8162fb	-0.06317707
215	0xbe08950b	-0.13338105
216	0x3ce76736	0.028247457
217	0x3e6f3aa4	0.23362213
218	0xbe3a3456	-0.18184027
219	0xbe6a4098	-0.22876203
220	0x3e8e0057	0.27734634
221	0x3e02224c	0.12708396
222	0xbe0aed14	-0.13567
223	0x3e0d07bf	0.13772486
224	0x3d0e33d5	0.0347174
225	0x3e94e5e7	0.29081652
226	0x3dfc0d7f	0.12307262
227	0xbe838e63	-0.2569457
228	0xbe5ff675	-0.2187136
229	0xbdb6c1dd	-0.08923695
230	0x3e3a9021	0.18219043
231	0xbe0b7043	-0.13617043
232	0xbec40ad6	-0.38289517
233	0xbe1e8bc8	-0.1548301
234	0x3e50dabd	0.20395942
235	0x3ddda69f	0.10822796
236	0xbdbb664f	-0.09150373
237	0xbd9153c1	-0.07096053
238	0x3e6c1dbc	0.23058218
239	0x3e2d8c0c	0.16947955
240	0xbeb220fa	-0.34790784
241	0x3c947d42	0.018126134
242	0x3ba7513a	0.0051061185
243	0x3dd2a02b	0.10284456
244	0x3bf61f18	0.007511031
245	0xbce5b27b	-0.028039208
246	0xbbf4aa78	-0.0074666105
247	0xbd9d0087	-0.07666116
248	0xbe8ba25e	-0.27272314
249	0x3e7da8ee	0.24771473
250	0x3e8e3da2	0.27781397
251	0xbe465cea	-0.19371381
252	0xbe8b6968	-0.27228856
253	0x3d986893	0.07441821
254	0x3ec60adf	0.3868017
255	0xbda26767	-0.07929879

bias f4 [128]
0	0xbe6a121b	-0.22858469
1	0x3ecdfd76	0.40232438
2	0x3e8535e9	0.26017693
3	0xbdc84fe8	-0.09780866
4	0xbd0ed619	-0.03487215
5	0x3eb24e0b	0.34825167
6	0x3cb409aa	0.021977264
7	0x3ed63261	0.4183531
8	0x3dfc243c	0.12311599
9	0x3edcde09	0.4313815
10	0x3ecc5907	0.39911672
11	0x3e3e7aa8	0.18601477
12	0x3c185a56	0.0092988815
13	0x3e9eb9c1	0.31001094
14	0xbddbf377	-0.107397966
15	0x3ea200d2	0.3164125
16	0x3c4ed32f	0.012623592
17	0xba6ccd91	-0.00090333173
18	0x3eba1571	0.36344483
19	0xbd26f845	-0.040764112
20	0x3c0a853f	0.00845462
21	0xbe1e1cff	-0.15440749
22	0x3e9e2405	0.30886856
23	0x3e106ad0	0.14103246
24	0x3d31770d	0.043326426
25	0xbd796c18	-0.0608941
26	0x3e35bd4a	0.1774799
27	0x3e363290	0.17792726
28	0x3e5e07d7	0.21682678
29	0x3ea9958e	0.33121914
30	0x3e0ebe18	0.13939703
31	0x3e435e5a	0.19078961
32	0x3f056d65	0.5212005
33	0x3ea70777	0.32622883
34	0x3e3faa57	0.18717323
35	0x3eae6e07	0.3406832
36	0x3e1117f3	0.14169292
37	0x3e9c1c2b	0.3049024
38	0x3d556bd5	0.05210479
39	0x3da8a5b4	0.0823473
40	0xbda342a7	-0.07971697
41	0x3d0edfd8	0.034881443
42	0x3e293b87	0.16526614
43	0x3e0b1a22	0.13584188
44	0xbd9cb7ec	-0.07652268
45	0x3dd016c9	0.10160596
46	0x3ed8b1b0	0.42323065
47	0x3dfc1a01	0.12309647
48	0x3d625a02	0.05526162
49	0x3ea8ea59	0.32991293
50	0x3b853ed7	0.004066329
51	0xbbb5cdd4	-0.0055482183
52	0x3f0120c1	0.50440603
53	0x3d469ad0	0.048487484
54	0x3ec2ca94	0.3804518
55	0x3e99775f	0.29973885
56	0x3dc41e1c	0.095760554
57	0xbd451f9a	-0.04812584
58	0xbc83f6df	-0.016108928
59	0x3e60ec52	0.21965149
60	0x3ec02427	0.37527582
61	0x3e98a34f	0.29812095
62	0x3ebb14cf	0.36539313
63	0x3ed1578c	0.40887105
64	0x3bba48ba	0.005684939
65	0x3ee22bd1	0.44174054
66	0xbe0e2fad	-0.13885374
67	0x3e1a3a07	0.15061198
68	0x3e80727f	0.25087354
69	0x3e6c08be	0.2305021
70	0x3db73fbc	0.08947703
71	0x3e2748e8	0.16336405
72	0x3e19df79	0.15026654
73	0x3ea31aab	0.31856284
74	0x3ed330d7	0.412482
75	0x3e800388	0.25002694
76	0x3dc9d16d	0.09854398
77	0x3e80b20c	0.2513584
78	0xbdd356bb	-0.10319277
79	0x3e8416d6	0.25798672
80	0x3eefd8a7	0.4684498
81	0x3d6d855c	0.05798851
82	0x3ecf23ec	0.40457094
83	0x3e801c97	0.25021812
84	0x3e4c67c0	0.19961452
85	0x3ebf16e5	0.37322155
86	0x3e9fcb45	0.3120977
87	0xbd183635	-0.03716107
88	0x3ef708f4	0.48249018
89	0xbd22bba6	-0.039729737
90	0x3efaadfa	0.4896086
91	0x3e6f227d	0.23353
92	0x3e54a9c6	0.20767888
93	0x3dd95ae6	0.106130406
94	0x3e70ca59	0.2351469
95	0xbcf3d769	-0.029765802
96	0x3c86a58e	0.016436365
97	0x3d671df9	0.05642507
98	0xbe41cea6	-0.18926486
99	0xbc85ca14	-0.01633171
100	0xbca1d193	-0.019753253
101	0x3cf358d6	0.029705446
102	0x3e766f44	0.24065882
103	0x3de104cc	0.10987243
104	0xbe382dc7	-0.17986213
105	0x3cd11828	0.025524214
106	0x3ebec4cc	0.3725952
107	0x3db8caa9	0.09023029
108	0x3e9ba775	0.30401197
109	0xbe172779	-0.14761151
110	0x3e363e27	0.17797147
111	0x3ecf7746	0.40520686
112	0xbdc9e95d	-0.09858964
113	0x3d819e3b	0.06329008
114	0x3dede254	0.11615434
115	0x3c6088ab	0.013704459
116	0x3ebc69c4	0.36799443
117	0xbd1ed1fa	-0.038774468
118	0x3ea12bd9	0.31478766
119	0x3bc9a811	0.0061540683
120	0x3e8560d8	0.26050448
121	0x3e6e5f96	0.2327865
122	0x3e401694	0.18758613
123	0xbddf3835	-0.108993925
124	0x3eb6399d	0.3559083
125	0x3e2d551c	0.16926998
126	0xbe430bfc	-0.1904754
127	0xbddd4023	-0.10803249

weight f4 [256, 786]
0	0x3d690536	0.056889735
1	0x3cc61e45	0.024184356
2	0x3e0a45d5	0.13503201
3	0xbd0bc3eb	-0.03412239
4	0x3d96a3c1	0.07355452
5	0x3b0a3763	0.0021090142
6	0x3d89da26	0.06731062
7	0x3d1b5d7f	0.03793096
8	0xbda2dcc0	-0.07952261
9	0x3d238bba	0.039928176
10	0x3d937e2b	0.07201799
11	0x3de2c9f6	0.11073677
12	0x3d67f6f9	0.056632016
13	0x3c6872e6	0.01418755
14	0x3d904bc6	0.07045703
15	0x3e280aa6	0.16410312
16	0x3cf8473a	0.030307401
17	0xbd219e19	-0.039457414
18	0x3de48757	0.111586265
19	0x3e20b476	0.1569384
20	0x3d9866ea	0.07441504
21	0x3b2ed7f3	0.0026679009
22	0x3d83346b	0.06406482
23	0x3dc5a212	0.09650053
24	0x3c7b6803	0.015344623
25	0x3e1e6916	0.15469775
26	0x3cd5e3c2	0.02610958
27	0xbc7fef58	-0.015621029
28	0x3d073bb9	0.03301594
29	0x3daeb786	0.08531098
30	0x3c82a44c	0.015947483
31	0xbd0c4da7	-0.034253743
32	0x3d6f00d0	0.058350384
33	0x3d839cb9	0.06426377
34	0xbd6311ee	-0.05543702
35	0x3ce53cfe	0.027983185
36	0x3e0cd6b1	0.13753773
37	0x3d4361f9	0.047700856
38	0x3df4c192	0.11950983
39	0x3afb5129	0.0019173968
40	0x3d3fb1c8	0.046800405
41	0x3de94527	0.11390143
42	0xbd0a1c91	-0.03371865
43	0x3dedbaa9	0.11607868
44	0x3d3a4e11	0.045484606
45	0x3c866669	0.016406255
46	0x3d6728cd	0.056435395
47	0x3d95365b	0.07285758
48	0xbd32174f	-0.04347926
49	0xbd98a4d4	-0.074533135
50	0xbd1d0800	-0.038337708
51	0x3d05b0a0	0.032639146
52	0x3de06b4f	0.109579675
53	0xbbf57eab	-0.0074919066
54	0xbcd4d322	-0.025979582
55	0x3d4bd5a9	0.04976431
56	0x3dedc742	0.11610271
57	0xbd242815	-0.040077288
58	0x3ddfb351	0.10922874
59	0x3deb8226	0.11499433
60	0x3d98fd91	0.07470239
61	0xbdc9bbd2	-0.09850277
62	0x3d8be5b5	0.068309225
63	0x3d83f4a4	0.06443146
64	0x3d875a51	0.06609023
65	0x3bd06e31	0.006360792
66	0x3cc22f4e	0.023704197
67	0xbd17bf6b	-0.037047785
68	0x3d46024b	0.04834203
69	0x3cc99baa	0.02461036
70	0x3c02eefd	0.00799155
71	0x3cb4164e	0.021983292
72	0x3dbf16e1	0.09330536
73	0x3d26df91	0.040740553
74	0x3cdcddbf	0.026961206
75	0xbb85d032	-0.0040836567
76	0x3cf74955	0.030186335
77	0x3e140283	0.14454083
78	0x3d9abb8e	0.075553045
79	0xbb05cec0	-0.0020417422
80	0x3db4ecdd	0.088342406
81	0x3ddc0be0	0.107444525
82	0xbd82a2d1	-0.06378711
83	0x3d498da3	0.04920734
84	0x3d853734	0.0650467
85	0x3d79a488	0.060947925
86	0x3ce467c5	0.027881512
87	0x3d921deb	0.07134613
88	0x3c58a9db	0.01322409
89	0x3c4c03d6	0.012452086
90	0x3dc55807	0.096359305
91	0x3d7c860b	0.06165127
92	0xbd5ead06	-0.054364227
93	0x3d10f716	0.03539189
94	0x3cadf82b	0.0212365
95	0x3dd4d831	0.10392798
96	0x3c46e641	0.012139858
97	0x3db8ade7	0.09017544
98	0x3dc211c2	0.09476043
99	0x3e131961	0.1436515
100	0xbd81533a	-0.06314702
101	0x3dd1d21a	0.10245152
102	0x3b2d9949	0.002648907
103	0x3cb180bb	0.021667829
104	0xbd0d830a	-0.034548797
105	0x3bc56d2c	0.006024977
106	0x3cae0de2	0.021246854
107	0x3c206cab	0.009791533
108	0xbcc1a722	-0.023639265
109	0x3b521e86	0.003206165
110	0x3d9adbd1	0.07561458
111	0x3d8dfb42	0.06932689
112	0x3cff96d8	0.031199858
113	0x3dcb7565	0.099345006
114	0xbc42942d	-0.011876148
115	0xbd2fe4b2	-0.04294271
116	0x3d4b512c	0.04963796
117	0x3d96e9e2	0.07368828
118	0x3dc71a9b	0.097218715
119	0xbc46b8ef	-0.012129053
120	0x3e0b1d5e	0.13585421
121	0x3db3ef8a	0.08785923
122	0xbd3e4515	-0.0464526
123	0x3d18cc89	0.037304435
124	0x3ddf20ff	0.108949654
125	0x3e109d06	0.141224
126	0xbcab0994	-0.02087859
127	0x3dd85f85	0.10565094
128	0xbea74831	-0.32672265
129	0xbe6d46c1	-0.23171522
130	0x3ed0d06e	0.4078402
131	0xbcd9f53b	-0.026606193
132	0x3e10c819	0.14138831
133	0xbca765fa	-0.020434368
134	0x3dacbd84	0.08434585
135	0x3dd605f5	0.10450355
136	0x3deead05	0.116540946
137	0xbcb20634	-0.021731474
138	0xbd51cf9e	-0.05122339
139	0xbc40c0c6	-0.011764711
140	0x3d1ddd00	0.03854084
141	0x3d7cb364	0.061694518
142	0x3d856e9b	0.06515237
143	0xbd853274	-0.06503764
144	0x3d52f8b8	0.051506728
145	0x3dcd7a0b	0.100330435
146	0x3e018e3d	0.12651916
147	0xbd20e374	-0.039279416
148	0x3d1b1cd8	0.037869304
149	0xbdb38ba1	-0.087668665
150	0xbdac9a79	-0.08427901
151	0x3cc4e7b4	0.024036266
152	0xbd07ee95	-0.033186514
153	0x3d9a8c94	0.075463444
154	0x3e06f625	0.13179834
155	0x3d498837	0.04920217
156	0x3bd802a2	0.0065921107
157	0x3e031466	0.1280075
158	0xbca2140a	-0.019784946
159	0x3d4b95c8	0.04970339
160	0xbb4442e4	-0.0029947096
161	0xbe0f549c	-0.1399712
162	0x3d2290f8	0.039689034
163	0x3db01136	0.08597033
164	0x3d1b572c	0.03792493
165	0x3d9fc899	0.07801933
166	0xbccb6b52	-0.024831448
167	0x3e18e274	0.14930135
168	0x3de21986	0.110400245
169	0x3dc2624c	0.09491405
170	0xbd39da20	-0.045374036
171	0x3d3a6d50	0.045514405
172	0x3da9f6ee	0.08299051
173	0xbda16fcb	-0.07882651
174	0x3d4667b9	0.04843876
175	0xbdb85a37	-0.09001582
176	0x3b93ded8	0.004512649
177	0x3e09ad7f	0.1344509
178	0x3d1ac67d	0.03778695
179	0x3d120a42	0.035654314
180	0xbcecdc67	-0.02891369
181	0xbc55d591	-0.0130514065
182	0x3d8c6144	0.068544894
183	0x3dd6eb23	0.104940675
184	0x3c8e46d8	0.017367765
185	0xbd7fde58	-0.062467903
186	0x3e07d105	0.13263328
187	0x3d864cee	0.06557642
188	0x3d98328e	0.074315175
189	0x3d854da5	0.0650895
190	0x3db61bd5	0.08892027
191	0x3dd73887	0.105088286
192	0x3c465fc1	0.01210779
193	0xbd9af0cd	-0.0756546
194	0x3d320f88	0.043471843
195	0x3d1a87a1	0.037727002
196	0x3df88190	0.12134087
197	0x3d26bcb3	0.0407073
198	0x3d2e4ec9	0.042555604
199	0x3dbbab54	0.091635376
200	0x3d61f964	0.055169478
201	0x3d960792	0.07325663
202	0x3da7458b	0.08167561
203	0x3d6d7d6b	0.057980936
204	0xbbb0b7fc	-0.0053930264
205	0x3daccc5c	0.08437416
206	0x3c1cb9bc	0.009565767
207	0xbd5b30b4	-0.053513244
208	0xbdcee745	-0.10102705
209	0x3b21037e	0.0024568732
210	0x3da87919	0.082262225
211	0x3d3dfe28	0.04638496
212	0x3dcfdbc9	0.101493426
213	0x3e1318c0	0.1436491
214	0x3d6303e4	0.055423632
215	0x3ccab083	0.02474237
216	0x3cf87869	0.030330854
217	0x3d6e896b	0.05823652
218	0x3d984e1c	0.07436773
219	0x3d8a6d3c	0.06759116
220	0x3d119d82	0.0355506
221	0x3d447754	0.047965363
222	0x3d3cb9b1	0.046075527
223	0x3d8658ca	0.06559904
224	0xbd6b4025	-0.05743422
225	0x3d138041	0.036010984
226	0x3c00952e	0.007848067
227	0xbc5be1d6	-0.013420543
228	0xbe007a71	-0.12546708
229	0xbdbb73d2	-0.0915295
230	0x3e0899d9	0.13339938
231	0x3cc63acf	0.024197964
232	0x3d3822b0	0.044954956
233	0x3d276f6d	0.04087775
234	0x3d1c3d38	0.03814432
235	0xbcb9e678	-0.022692904
236	0x3d5e7f16	0.054320417
237	0xbc9fa906	-0.019489776
238	0x3dc9a3b4	0.09845677
239	0x3e163c32	0.146714
240	0x3d133c75	0.03594633
241	0x3dc5c372	0.09656419
242	0x3ddf090c	0.108903974
243	0x3dd3a72d	0.103346206
244	0xbb912d97	-0.0044304836
245	0x3d92be83	0.071652435
246	0x3d616670	0.055029333
247	0xbd53d270	-0.05171436
248	0xbc6e03e9	-0.014527299
249	0xbbe87a2d	-0.0070946426
250	0x3c171b93	0.009222883
251	0xbca6ef30	-0.020377725
252	0xba9e19cd	-0.0012062133
253	0x3d5fc045	0.054626722
254	0xbca38d72	-0.019964907
255	0x3dba537e	0.09097956

bias f4 [256]
0	0x3e4d48be	0.2004728
1	0x3e3c2878	0.18374813
2	0x3e6ecf8c	0.2332136
3	0x3e4e0e28	0.20122588
4	0x3e2d6a5e	0.16935107
5	0x3cc7e9d4	0.02440349
6	0x3e5119ab	0.20419948
7	0x3e557ac5	0.20847614
8	0x3b1ea369	0.0024206287
9	0x3c9574ea	0.018244226
10	0x3e3607dd	0.17776437
11	0xbd22f4af	-0.03978413
12	0x3e39b427	0.18135129
13	0x3e733c5c	0.23753494
14	0x3e3c676d	0.18398829
15	0x3e4d00b6	0.20019802
16	0x3e6fab61	0.2340522
17	0x3e46d263	0.19416194
18	0x3e68da47	0.22739516
19	0xbc534178	-0.012894027
20	0xbce47b6e	-0.027890887
21	0xbd05a858	-0.03263125
22	0x3c2b9ca9	0.010474362
23	0x3e471c39	0.1944436
24	0xbc17fe6c	-0.0092769675
25	0x3e5338d1	0.20627142
26	0xbcde060e	-0.027102496
27	0x3e70a707	0.23501216
28	0x3e75d3c3	0.24006562
29	0x3e580148	0.21094239
30	0x3e5b3a69	0.21409
31	0x3e602714	0.21889907
32	0x3e5d2298	0.21595228
33	0x3c9350db	0.01798289
34	0xbc37d53b	-0.011220272
35	0x3e342d65	0.17595442
36	0x3e45ce0e	0.19316885
37	0x3e2f81a1	0.17139293
38	0x3e5763db	0.21034186
39	0x3e3785e9	0.17922176
40	0x3e417c68	0.18895113
41	0x3bf55bed	0.007487765
42	0xbccaa228	-0.024735525
43	0x3e5a5c7e	0.21324345
44	0x3e54209e	0.20715567
45	0x3e49e88d	0.19717617
46	0x3e3cbf50	0.18432355
47	0xbd284fa8	-0.04109159
48	0x3e60f376	0.21967873
49	0x3e33068e	0.17482969
50	0xbb537af0	-0.0032269321
51	0xbb34e889	-0.0027604422
52	0x3e722088	0.23645222
53	0x3e2e844c	0.17042655
54	0x3e3a2d23	0.18181281
55	0x3e5b3337	0.21406256
56	0x3cebb9e7	0.028775169
57	0xbc8cadd3	-0.01717273
58	0x3e395ed5	0.18102582
59	0xbd1238da	-0.03569875
60	0x3e4eda7b	0.20200531
61	0xbbde616d	-0.0067865164
62	0x3e72e9c7	0.23721991
63	0x3e467de0	0.19383955
64	0x3c8ce1cc	0.017197512
65	0x3e4c5984	0.19956023
66	0x3e4b175c	0.1983313
67	0x3e69ce52	0.22832611
68	0xbc1b77e8	-0.009489037
69	0x3e36484b	0.17801015
70	0xbc801552	-0.015635166
71	0x3e7191dc	0.23590797
72	0x3e60a893	0.21939306
73	0x3e53cbbd	0.20683189
74	0x3e63a65a	0.22231427
75	0x3e6c2409	0.23060621
76	0x3e34cdf0	0.17656684
77	0x3e511908	0.20419705
78	0x3e3499f5	0.17636855
79	0x3e597bde	0.21238658
80	0x3e3cc5ee	0.18434879
81	0x3e4c9c6b	0.19981544
82	0x3e6a536f	0.2288339
83	0x3e33d1b1	0.1756046
84	0x3c4ea983	0.012613657
85	0x3e3bc6b3	0.18337516
86	0xbd028b40	-0.03187108
87	0x3e3028d8	0.1720308
88	0x3e6fb4a6	0.23408756
89	0x3cd3fb16	0.025876563
90	0x3b1592e0	0.002282314
91	0x3e798697	0.24367748
92	0xbb16002f	-0.0022888293
93	0x3e51d9d0	0.20493245
94	0x3e6850af	0.22687028
95	0x3e5cadf8	0.21550739
96	0x3cbfa05f	0.0233919
97	0x3e72d3e3	0.23713641
98	0x3e616b31	0.22013547
99	0x3e3ae9e8	0.1825329
100	0x3bb46741	0.005505473
101	0x3e680b05	0.22660454
102	0x3cc0a995	0.023518363
103	0xbcd87a13	-0.026425397
104	0x3e673395	0.2257827
105	0xbc9e0687	-0.019290222
106	0xbcedb1fe	-0.029015537
107	0x3e2fb083	0.17157178
108	0x3e3b0a03	0.18265538
109	0x3e6d358f	0.23164962
110	0x3e4d94b8	0.20076263
111	0x3e5a2f29	0.21307053
112	0xbcb7a08b	-0.02241542
113	0x3e47297f	0.19449423
114	0x3e6eedd8	0.23332918
115	0x3e545509	0.20735563
116	0x3e5cd0a5	0.21563967
117	0x3e68fb9c	0.22752231
118	0xbc33f1d2	-0.010982947
119	0x3e35bdf2	0.1774824
120	0x3e2f7fb7	0.17138563
121	0x3c8c7ee3	0.017150348
122	0xbd1a2d1a	-0.03764067
123	0x3e4d3dd5	0.20043118
124	0x3b3805af	0.002807956
125	0x3e63ebe6	0.22257957
126	0x3bcdcb04	0.006280305
127	0xbcbdae32	-0.023154352
128	0x3e4a57d0	0.1976006
129	0x3e7254ce	0.23665163
130	0x3c5e324d	0.013561797
131	0x3e26d70e	0.16292974
132	0x3e63945e	0.22224566
133	0x3e59caf2	0.21268824
134	0xbc958cc9	-0.018255608
135	0x3e4a8bd9	0.1977991
136	0xbd228b0e	-0.039683394
137	0x3e4782b9	0.1948346
138	0x3e437016	0.19085726
139	0x3c800fb5	0.01563249
140	0xbbd1e1db	-0.006405098
141	0xbd0e8c91	-0.034802023
142	0x3c928b3b	0.017888656
143	0x3e5497bf	0.20761012
144	0x3e64bbe7	0.22337304
145	0x3e438f4c	0.19097632
146	0x3e4e5f9f	0.20153664
147	0x3e5fea8a	0.21866813
148	0x3e408c4a	0.18803516
149	0x3e5dd6e0	0.21664
150	0xbd1feef9	-0.03904626
151	0xbb8801fd	-0.0041506276
152	0x3c9b968c	0.018992685
153	0xbbd39869	-0.0064573777
154	0x3e6a4171	0.22876526
155	0x3e47f488	0.19526875
156	0x3e57e146	0.21082029
157	0xbd1492f4	-0.036272958
158	0xbd1ddb73	-0.03853936
159	0x3e489bc4	0.1959067
160	0x3e67b28a	0.22626701
161	0x3e491597	0.19637142
162	0x3e55d432	0.20881727
163	0x3e569938	0.20956886
164	0xbcddbd0f	-0.02706769
165	0x3e34da6a	0.17661443
166	0x3e3f1c6b	0.18663184
167	0x3e4204fa	0.18947211
168	0xbcdf4ba4	-0.027257748
169	0x3e650825	0.22366388
170	0x3e5e06e7	0.2168232
171	0x3e55774d	0.20846291
172	0x3c9d6a82	0.019215826
173	0x3c0d5484	0.008626107
174	0x3e3490e2	0.17633393
175	0x393d14ed	0.0001803224
176	0x3e4ab4be	0.1979551
177	0x3e50d1d7	0.20392548
178	0x3b03ae06	0.002009274
179	0x3e498b97	0.19682156
180	0x3e678df2	0.22612742
181	0x3e45a22f	0.1930015
182	0x3e54d3bf	0.207839
183	0x3c778123	0.015106472
184	0x3e694072	0.2277849
185	0x3e39e58c	0.18153971
186	0x3e490287	0.1962987
187	0x3e6f170a	0.23348632
188	0x3e6873f9	0.2270049
189	0x3e3b91d2	0.18317345
190	0x3e5bbbfb	0.21458428
191	0x3e3292f7	0.17438875
192	0xbc886cab	-0.01665338
193	0xbc8eb6d9	-0.017421173
194	0x3e51724b	0.20453756
195	0x3e5c18d7	0.2149385
196	0x3e726db4	0.23674661
197	0x3e47870a	0.19485107
198	0x3e5e79c1	0.21726133
199	0x3e4080f4	0.18799192
200	0x3e33cd92	0.17558888
201	0x3e4a5b88	0.19761479
202	0x3e68aa33	0.22721176
203	0x3e64b5fd	0.22335048
204	0x3e39cf2e	0.18145439
205	0x3e4c17ce	0.19930956
206	0x3ba1b940	0.0049354136
207	0xbc14d6cf	-0.0090844175
208	0xbcfb9f1c	-0.030715518
209	0x3c6dcc2a	0.014514009
210	0x3c836617	0.016039891
211	0x3e3f1e71	0.18663956
212	0x3e6a83b8	0.22901809
213	0x3e30ccf3	0.17265682
214	0x3e58d63e	0.21175477
215	0xbb997906	-0.0046836166
216	0x3e3ea5c9	0.1861793
217	0xbceba715	-0.028766194
218	0xbcf38f0e	-0.0297313
219	0x3e67aa28	0.22623503
220	0xbd28396c	-0.041070387
221	0x3e4c6b91	0.19962908
222	0x3e5ef4ba	0.21773043
223	0xbc949d7b	-0.018141499
224	0x3e48ba2d	0.1960227
225	0x3e34eaea	0.17667738
226	0x3e45a685	0.19301803
227	0xbd1718fe	-0.03688907
228	0x3e30545e	0.17219684
229	0x3e48de19	0.19615974
230	0x3e4c6f67	0.19964372
231	0x3e6b8049	0.22998156
232	0xbd05b9ac	-0.032647774
233	0x3e5c2fbc	0.21502584
234	0x3e603fe8	0.21899378
235	0x3e4913fe	0.19636533
236	0x3e5ac91c	0.2136578
237	0x3e6161b1	0.22009923
238	0x3e496428	0.19667113
239	0x3e56b102	0.2096596
240	0x3e3a1a17	0.18174015
241	0xbccff2f0	-0.025384396
242	0x3e6fc76e	0.2341592
243	0xbd0f2b1c	-0.03495322
244	0x3e6ca92d	0.2311141
245	0xbc4b789d	-0.012418893
246	0x3e3968a0	0.18106318
247	0x3e5de514	0.21669418
248	0x3e688d32	0.22710112
249	0x3e357d6d	0.17723627
250	0xbd261066	-0.040542983
251	0x3e5cbe95	0.21557076
252	0x3e504574	0.20338994
253	0x3e51ba94	0.2048133
254	0x3e55d7c0	0.20883083
255	0x3e3bacd4	0.18327647

weight f4 [128, 256]
0	0x3db62b45	0.08894972
1	0x3d86e6a0	0.06586957
2	0x3c79569e	0.015218405
3	0x3d75fd00	0.060055733
4	0x3dd0ea92	0.10200991
5	0xbc7ef3a5	-0.015561019
6	0x3ad86582	0.0016509744
7	0xbb6b64a8	-0.003591815
8	0xbd404589	-0.046941314
9	0xbd31d756	-0.04341825
10	0x3d365f4b	0.044524472
11	0x3d59dd3a	0.053189494
12	0x3d83c198	0.064334095
13	0x3da5395d	0.08067582
14	0x3d227584	0.039662853
15	0x3c757cf5	0.014983405
16	0x3d270f3c	0.040786013
17	0x3ce990e2	0.028511468
18	0x3d699c6c	0.05703394
19	0x3cec2545	0.028826365
20	0xbd31f05a	-0.043442108
21	0xbd459702	-0.048239715
22	0xbcdeae1d	-0.027182633
23	0x3c2473d6	0.010037383
24	0xbbb475ea	-0.0055072205
25	0x3de8476a	0.11341746
26	0x3cce6b91	0.025197776
27	0x3c909ba3	0.017652338
28	0x3dd52f1c	0.10409376
29	0x3d77edf3	0.06052966
30	0x3c9ba3de	0.018999036
31	0x3d0f4222	0.03497518
32	0x3d2e6f0a	0.042586364
33	0xbbdf76fd	-0.0068196044
34	0x3c1cbf10	0.009567037
35	0xbb4704ba	-0.0030367807
36	0x3d0e16b4	0.03468962
37	0x3de622da	0.11237116
38	0x3dbeccb7	0.0931639
39	0x3aeb6cf5	0.0017961549
40	0x3d6fb989	0.05852655
41	0xbd563652	-0.052297898
42	0xbba467fd	-0.005017279
43	0x3dbfe6c5	0.09370188
44	0xbbdde036	-0.006771113
45	0x3d3d4765	0.046210665
46	0x3c8c1143	0.017098075
47	0xbd4f40c2	-0.050598867
48	0x3de76b43	0.112997554
49	0x3dd3e77e	0.10346888
50	0x3d0d957b	0.034566384
51	0xbd5e2876	-0.054237805
52	0x3dc0982a	0.09404023
53	0x3dde0461	0.10840679
54	0x3c0ac0d6	0.008468827
55	0x3dea8153	0.11450448
56	0xbc6394d5	-0.013890465
57	0xbd3d99d2	-0.046289273
58	0x3d03bf81	0.032165054
59	0x3d730201	0.059328083
60	0x3d45dd06	0.048306488
61	0x3bdffd52	0.006835618
62	0x3b91b77e	0.004446923
63	0x3cdc58b3	0.026897764
64	0x3b1fa767	0.0024361254
65	0x3d243463	0.040089022
66	0x3dc96f1c	0.098356456
67	0x3d9ee35f	0.07758211
68	0x3cbbf6b4	0.022944786
69	0x3dd453ef	0.103675716
70	0x3bcb7347	0.0062088105
71	0x3d9e68ee	0.077348575
72	0x3de9aeea	0.11410315
73	0x3d19e685	0.037573356
74	0x3d6ab027	0.0572969
75	0x3c701b94	0.014655013
76	0x3c7a9a23	0.015295538
77	0x3de84a9d	0.11342356
78	0x3c584a5e	0.013201324
79	0x3d2e4ba7	0.042552616
80	0x3dd6a6d4	0.10481039
81	0x3d244dcd	0.04011326
82	0x3b89b439	0.0042023924
83	0x3cace1a2	0.021103684
84	0x3d0f301f	0.034958
85	0x3c6b64fd	0.014367339
86	0xbcb8143e	-0.02247059
87	0x3daae7c6	0.083449885
88	0x3dc0d832	0.09416236
89	0x3d3b5aef	0.045741018
90	0xbca602aa	-0.020264942
91	0x3d785a07	0.06063273
92	0xbd1770ec	-0.036972925
93	0x3d6442af	0.055727657
94	0x3c82fcbd	0.015989656
95	0x3d8a1610	0.06742489
96	0x3d38ed5f	0.04514825
97	0x3d88832b	0.06665643
98	0x3b996f2e	0.004682443
99	0x3db68b47	0.08913284
100	0xbd3b14df	-0.0456742
101	0x3b08e412	0.0020887894
102	0x3d4064c1	0.046971086
103	0x3d61360c	0.054983184
104	0x3d2f1186	0.04274132
105	0x3c93488f	0.017978935
106	0x3d287a11	0.041132037
107	0x3dd5a752	0.104323044
108	0x3dde4c66	0.108544156
109	0x3c63dc28	0.01390747
110	0x3d666c67	0.056255724
111	0x3dd3cbfb	0.103416406
112	0xbc5b2a5a	-0.013376797
113	0x3d75110f	0.05983072
114	0x3d96361b	0.073345385
115	0x3d52dc90	0.051479876
116	0x3c7ce098	0.015434407
117	0xbb9e33bb	-0.004827944
118	0xbcd9553b	-0.026529899
119	0x3d80140a	0.06253822
120	0xbafa8796	-0.0019113894
121	0x3d7242a9	0.059145603
122	0xbd2a693e	-0.041604273
123	0x3d176d85	0.03696968
124	0x3d8f1929	0.06987221
125	0x3db614b3	0.08890667
126	0xbc92ff14	-0.017943896
127	0x3d3a1f8f	0.045440253
128	0x3cdeb1d4	0.027184404
129	0x3ddded84	0.10836318
130	0xbd45391c	-0.048150167
131	0xbaaae6ea	-0.0013038788
132	0x3c41c4e2	0.011826726
133	0xbb5be3e3	-0.003355258
134	0x3d88da74	0.066822916
135	0x3dc1b0db	0.09457561
136	0x3d8df933	0.069322966
137	0x3d4c270e	0.049841933
138	0x3d3674c9	0.04454497
139	0x3cac1f0e	0.021010902
140	0xbc96fccc	-0.01843109
141	0x3d8ea8a1	0.06965757
142	0x3bebca39	0.0071957377
143	0xbb0cc416	-0.002147918
144	0x3d07dc53	0.033169102
145	0xbc09960e	-0.008397592
146	0x3d0b3faf	0.03399628
147	0x3d22984e	0.03969603
148	0x3cf12c85	0.029440174
149	0x3b77e7bc	0.0037827333
150	0xbca60410	-0.020265609
151	0x3c344d3f	0.011004745
152	0x3cba73cc	0.022760294
153	0x3a43763d	0.00074562785
154	0x3da0c1a3	0.07849433
155	0x3d78609c	0.06063901
156	0x3dd09ec6	0.10186534
157	0xbd37ee28	-0.044904858
158	0xbc2ebb8e	-0.010664834
159	0x3d7f8251	0.06238014
160	0x3cfc4a58	0.030797169
161	0x3d26100b	0.040542644
162	0x3d27f323	0.041003358
163	0xbb7732b6	-0.0037719435
164	0xbd2373fe	-0.03990554
165	0x3d61d3aa	0.0551335
166	0x3d9b83b2	0.07593478
167	0x3dcf222c	0.1011394
168	0x3d372d61	0.04472101
169	0x3bac678f	0.0052613686
170	0x3b6e1e11	0.003633384
171	0xbaa6dbf6	-0.0012730348
172	0x3d46ce30	0.04853648
173	0x3d6f5323	0.058428895
174	0xbbeadc1e	-0.0071673533
175	0xbc15af21	-0.009135992
176	0x3d80f477	0.06296628
177	0x3cd21620	0.025645316
178	0xbd24c21e	-0.040224187
179	0x3dd56f14	0.10421577
180	0xbbbd4b57	-0.0057768035
181	0x3d807467	0.06272202
182	0x3cab9f68	0.020950034
183	0x3d0184c7	0.031620767
184	0x3d8ec7ca	0.069717005
185	0x3ca77a0e	0.020443942
186	0x3d3fa6ac	0.04678981
187	0x3d0f9c11	0.035060946
188	0x3d5cfb7e	0.05395078
189	0x3cc6aca9	0.024252253
190	0x3dcb9f12	0.0994245
191	0x3bc207e7	0.005921352
192	0xbc85156a	-0.016245563
193	0x3d8c17f5	0.06840507
194	0x3d3f8d2f	0.046765503
195	0x3d10ea34	0.035379604
196	0x3de17228	0.11008102
197	0x3d098a34	0.033579066
198	0x3ea19775	0.31560865
199	0x3dc07bcb	0.09398612
200	0x3de81bf0	0.11333454
201	0x3cb9e8f6	0.022694092
202	0x3da45c33	0.08025398
203	0x3dcc3ec0	0.09972906
204	0x3d496065	0.049164195
205	0x3a41e66d	0.0007396702
206	0x3cee6971	0.029103013
207	0xbca84f6b	-0.020545682
208	0x3d5d4e66	0.054029845
209	0xbc8baa08	-0.01704885
210	0xbbb67997	-0.005568694
211	0x3d372def	0.04472154
212	0x3d4ac929	0.049508248
213	0xbb6f1b9e	-0.0036484967
214	0xbaf4061e	-0.0018617546
215	0x3cd9a3e7	0.026567413
216	0x3cb30f47	0.02185787
217	0xbcf436f8	-0.029811367
218	0x3d0b6678	0.03403327
219	0x3c9c21e6	0.019059133
220	0xbd596347	-0.053073194
221	0xbad3af3e	-0.0016150249
222	0x3deca0f6	0.11554138
223	0xbc8cbec0	-0.0171808
224	0x3ca59257	0.020211382
225	0x3da8e3d5	0.082465805
226	0x3bd2c302	0.006431938
227	0x3cbdd168	0.023171142
228	0x3da26536	0.07929461
229	0x3df17650	0.117901444
230	0x3f1d0f46	0.6135143
231	0x3d484d50	0.048901856
232	0x3cfcb924	0.03085
233	0x3ca91831	0.020641418
234	0x3bfc963e	0.00770834
235	0x3dccb24a	0.099949434
236	0x3dad6db3	0.08468189
237	0x3c528a27	0.012850321
238	0x3d2e9b78	0.042628735
239	0x3d9596c5	0.07304148
240	0xbba9e592	-0.0051848376
241	0xbce64075	-0.028106907
242	0x3d8b8ded	0.068141796
243	0x3c68e4d4	0.014214713
244	0x3d832eee	0.064054355
245	0x3d714241	0.058901075
246	0x3d7d4a64	0.061838523
247	0x3bb1fb57	0.0054315734
248	0x3da74d44	0.08169034
249	0x3dce8aa6	0.10085039
250	0xbb821110	-0.003969319
251	0x3d6689e4	0.056283846
252	0x3f01b3f8	0.50665236
253	0x3d5408e3	0.051766288
254	0x3d60c73c	0.054877505
255	0xbbe0c1eb	-0.0068590543

bias f4 [128]
0	0x3e04960f	0.12947868
1	0x3a98e670	0.0011665355
2	0x3e4aeb5b	0.19816343
3	0x3c3c099b	0.0114768995
4	0x3e5d952d	0.21638937
5	0x3e421300	0.1895256
6	0x3e0949c0	0.1340704
7	0x3dd5c03e	0.10437058
8	0x3e415b8b	0.18882577
9	0x3e66589b	0.22494738
10	0x3e4782c8	0.19483483
11	0x3e68690e	0.22696325
12	0x3e0e83f0	0.13917518
13	0x3de96800	0.113967896
14	0x3e2291e3	0.15875964
15	0x3dd4a02e	0.10382114
16	0x3e13e1b7	0.14441572
17	0x3d2f18e6	0.042748354
18	0x3d025203	0.031816494
19	0x3cb5c4fa	0.022188652
20	0xbc9c9e1a	-0.019118357
21	0xbd4a7d61	-0.049435977
22	0xbc6aac48	-0.014323302
23	0xbd421816	-0.04738625
24	0x3e23d472	0.1599901
25	0x3e74e950	0.23917127
26	0xbd96c5c3	-0.07361939
27	0x3e546753	0.2074254
28	0x3e0c2cf1	0.13689019
29	0xbcb1b928	-0.021694735
30	0x3e3c2060	0.18371725
31	0xbd2668a0	-0.040627122
32	0xbd43d07c	-0.047806248
33	0xbccf1502	-0.025278572
34	0x3e5ee44c	0.21766776
35	0x3de2d299	0.110753246
36	0x3e26966c	0.16268319
37	0xbd5a25dc	-0.05325876
38	0xbd4baa61	-0.049723033
39	0xbd2e982f	-0.042625602
40	0x3ca65c88	0.020307794
41	0x3c81bfa6	0.015838455
42	0xbd4d5458	-0.050129265
43	0x3d13f514	0.036122397
44	0x3d4cfe98	0.050047487
45	0xbbf458d9	-0.0074568805
46	0xbd036d8a	-0.032086886
47	0x3e086b58	0.13322198
48	0x3e80bed5	0.25145593
49	0x3e276e10	0.1635058
50	0x3e5ba08f	0.21447967
51	0x3e49e797	0.19717251
52	0x3e13460a	0.14382187
53	0x3df5eb93	0.12007823
54	0xbd517d97	-0.051145162
55	0x3d389c66	0.04507103
56	0xbd372d3c	-0.044720873
57	0xbd0a5f68	-0.033782393
58	0x3d0ad3a9	0.03389326
59	0x3d188f86	0.03724625
60	0xbd845a0a	-0.06462486
61	0x3e46cdde	0.1941447
62	0xbd888816	-0.06666581
63	0xbd2011d6	-0.03907951
64	0xbaab0e8d	-0.0013050601
65	0x3e24266d	0.16030283
66	0x3e37b678	0.179407
67	0x3c163eb7	0.009170226
68	0xbcbc39dc	-0.022976808
69	0x3de9cd46	0.11416106
70	0x3e090a4d	0.13382836
71	0x3e5423bb	0.20716755
72	0x3e5af186	0.21381196
73	0xbc949448	-0.018137112
74	0x3e5f34c8	0.21797478
75	0xbcb258f7	-0.021770937
76	0x3d2b44fb	0.04181383
77	0x3dc02320	0.093816996
78	0x3df827c6	0.12116961
79	0x3e01c7aa	0.12673822
80	0x3e149cd5	0.14512952
81	0x3e55a349	0.2086307
82	0x3e55d610	0.2088244
83	0xbd4bc90e	-0.049752288
84	0x3d42cc3c	0.047558054
85	0x3e0b027c	0.13575166
86	0x3cd614af	0.02613291
87	0xbd7c4f99	-0.061599348
88	0xbd0fb491	-0.03508431
89	0x3e11119c	0.14166874
90	0xbcecf1a9	-0.028923826
91	0x3e60ccb2	0.21953085
92	0x3e07c845	0.1325999
93	0xbadab8fa	-0.0016687207
94	0x3d37cae7	0.044871237
95	0x3e800898	0.25006557
96	0x3e26b101	0.16278459
97	0x3d04795c	0.0323423
98	0x3c18e7b0	0.009332582
99	0x3e55088a	0.20804039
100	0x3e1fb2fb	0.1559562
101	0x3e03a5f1	0.1285627
102	0x3e3748c5	0.17898853
103	0x3e238b10	0.15971017
104	0xbc3ea33f	-0.011635601
105	0x3e5cb4e2	0.21553376
106	0x3e41dbc2	0.18931487
107	0xbd86172d	-0.06547389
108	0xbaea8723	-0.0017893057
109	0x3cea4bb5	0.028600553
110	0xbd892e87	-0.066983275
111	0x3a8ee0dd	0.0010900755
112	0x3e3f9f8f	0.1871321
113	0x3e12613d	0.14294906
114	0x3e128bf8	0.14311206
115	0x3d1f6386	0.038913272
116	0x3e1e8326	0.15479717
117	0xbd2c13c1	-0.042011026
118	0x3e16403d	0.14672942
119	0x3e28673d	0.16445632
120	0x3df166b4	0.11787167
121	0x3ddf66b9	0.10908265
122	0x3a1f50cb	0.0006077408
123	0x3e4a02bd	0.19727607
124	0xbcf69b10	-0.030103236
125	0xbb409ba3	-0.0029389642
126	0x3e523814	0.20529205
127	0x3b83e0c6	0.004024598

weight f4 [1, 128]
0	0xbdaec50d	-0.08533678
1	0x3d444b78	0.047923535
2	0xbe124f46	-0.14288053
3	0x3d9a07d3	0.075210236
4	0xbe001ec8	-0.12511742
5	0xbe11b915	-0.1423076
6	0xbe0001c7	-0.12500678
7	0xbe1585e8	-0.14601862
8	0xbd9ce4ac	-0.07660803
9	0xbdd85b15	-0.105642475
10	0xbdf9b5d9	-0.12192888
11	0xbd88c11f	-0.0667746
12	0xbdb083ff	-0.08618926
13	0xbdba8566	-0.09107475
14	0xbe15f4c4	-0.14644152
15	0xbde8554a	-0.113443926
16	0xbe01a7bb	-0.1266164
17	0x3cceec6c	0.02525922
18	0x3c3fcaee	0.011706097
19	0x3d783c7c	0.060604557
20	0x3d05f311	0.03270251
21	0x3c658bb1	0.014010356
22	0x3ceb5749	0.028728144
23	0x3d2781fe	0.040895455
24	0xbda0938b	-0.078406416
25	0xbdaff985	-0.08592514
26	0x3b4b53c3	0.0031025268
27	0xbdb43d64	-0.08800772
28	0xbe0f9f2f	-0.14025567
29	0x3cb2106a	0.021736342
30	0xbde9f387	-0.11423402
31	0x3d73a379	0.05948207
32	0x3d7e48c5	0.062081117
33	0x3d863825	0.065536775
34	0xbdfd45d4	-0.12366834
35	0xbe19ec59	-0.15031566
36	0xbe03f271	-0.12885453
37	0x3c484802	0.012224199
38	0x3ca8f865	0.020626256
39	0x3d8fb2e7	0.07016545
40	0x3cc076c6	0.023494136
41	0x3d55efa1	0.05223048
42	0x3d6bce5a	0.05756984
43	0x3c6ada8f	0.014334335
44	0x3d4c8d12	0.049939223
45	0x3da50dbe	0.08059262
46	0x3d7c670a	0.061621703
47	0xbdbb5375	-0.091467775
48	0xbd8d6e7f	-0.06905841
49	0xbdb124d6	-0.08649604
50	0xbdca044e	-0.09864102
51	0xbda65fc7	-0.08123737
52	0xbd970ad2	-0.07375111
53	0xbdc7c128	-0.097536385
54	0x3d6457a3	0.05574764
55	0x3d68209f	0.056671735
56	0x3c8f47cc	0.01749029
57	0x3d3b5c98	0.0457426
58	0xbbc569dd	-0.006024583
59	0x3bbd3274	0.0057738367
60	0xbc089bad	-0.008337897
61	0xbe09143a	-0.13386622
62	0x3ca1a5ea	0.019732434
63	0x3c95d23f	0.01828873
64	0x3d901bdf	0.07036566
65	0xbdba0641	-0.09083224
66	0xbe02a93a	-0.12759867
67	0x3d2e07d9	0.042487953
68	0xbbdcfaaf	-0.006743751
69	0xbde82848	-0.11335808
70	0xbdd7004d	-0.10498104
71	0xbe0196bf	-0.12655161
72	0xbddda9a3	-0.10823371
73	0x3d87a20e	0.06622706
74	0xbe0a23b3	-0.1349018
75	0x3d865e9c	0.06561014
76	0x3d2d3860	0.04229009
77	0xbe1b65af	-0.15175508
78	0xbdc779d6	-0.09740035
79	0xbdc426ce	-0.09577714
80	0xbe011003	-0.12603764
81	0xbdcc8057	-0.099854164
82	0xbe04d321	-0.12971164
83	0x3d814200	0.063114166
84	0x3d9648bb	0.07338091
85	0xbd981394	-0.07425609
86	0x3d9a0dba	0.075221494
87	0xbbab37fa	-0.005225179
88	0x3d0e41d7	0.03473076
89	0xbd8c8250	-0.06860793
90	0x3d645160	0.055741668
91	0xbdd6ead1	-0.104940064
92	0xbd8f9e0f	-0.07012569
93	0x3d803e53	0.062618874
94	0x3cfac783	0.030612713
95	0xbd8c2e89	-0.068448134
96	0xbe02d7fc	-0.12777704
97	0x3d2df4ec	0.042469904
98	0x3ce3f0d0	0.02782479
99	0xbdb3ac8b	-0.08773144
100	0xbdf0d470	-0.11759269
101	0xbd9b8892	-0.07594408
102	0xbe0ce209	-0.137581
103	0xbdc9a709	-0.098463126
104	0x3d9d5c79	0.076836534
105	0xbd99294d	-0.074785806
106	0xbd9ede8b	-0.077572905
107	0x3d86a967	0.0657528
108	0x3d9403ed	0.07227311
109	0x3d1a8abf	0.037729975
110	0x3d9fa17e	0.07794474
111	0xbb4dcff4	-0.0031404467
112	0xbe01bf9c	-0.1267075
113	0xbe002511	-0.1251414
114	0xbe0dc9cf	-0.13846515
115	0xbd4728ad	-0.048622776
116	0xbdffe83c	-0.12495467
117	0x3d39e6e5	0.045386214
118	0xbe082e9c	-0.1329903
119	0xbd9d7840	-0.076889515
120	0xbda5cf9a	-0.080962375
121	0xbdc78a77	-0.09743207
122	0x3c09d3fb	0.0084123565
123	0xbdf959f1	-0.12175358
124	0x3c5f7c44	0.013640467
125	0x3d49a760	0.049231887
126	0xbdf56963	-0.119829915
127	0x3c0bf565	0.008542393
