trained/exp_train_3_6_1111_0.0001_0.001_32_0.95/model/meta_critic_3.pth (torch, 950411 bytes, 7 tensors)

weight f4 [128, 16]
0.29128486 -0.104558036 0.022721693 0.22151212 -0.12674582 -0.03349662 -0.15741114 0.049556155
0.0070225173 -0.2863935 0.013285918 0.1357869 0.14939891 -0.3126167 -0.21917953 0.29814583
0.024260115 -0.1442693 -0.14837761 0.18293162 -0.026751194 -0.1902364 0.21498995 0.16495053
-0.17434835 -0.21916592 0.19005369 0.2821948 -0.25428224 -0.113379374 0.27473906 0.08992853
0.11481539 -0.3863115 0.021211501 -0.3672371 -0.23007928 -0.102166735 -0.09947419 0.17405409
-0.00822381 -0.2686175 0.110324934 0.16041799 -0.087821625 -0.100682884 -0.15248519 -0.12230581
-0.17478843 -0.2633947 0.14473942 -0.38092047 -0.2210958 0.16869302 0.3050583 0.009561378
-0.21775056 -0.13887675 -0.13708854 -0.0017706174 -0.08922348 -0.07463613 0.2274171 0.010535039
-0.17368077 0.06202988 -0.31137246 -0.20998387 0.3009642 -0.13570549 -0.21290232 0.1803415
-0.10090442 0.24128006 -0.29819658 -0.12878165 -0.093568064 0.07131771 -0.27139494 -0.006950555
-0.11634899 -0.450744 0.13316877 -0.20550326 0.08599104 -0.1043241 -0.24002038 0.25920948
0.25078967 -0.30724698 -0.21535447 0.33326593 -0.10803305 -0.22783917 0.22824192 0.10858183
0.1700466 -0.2235062 -0.2616039 0.396177 0.0658175 -0.1989961 0.055994328 0.14444444
0.18772124 -0.25512373 -0.23515028 0.11242457 0.1076057 -0.27319187 -0.024072161 0.3280269
-0.2199752 -0.042506345 0.16234109 0.3577273 0.27661794 -0.19285113 0.24771687 -0.024564402
0.17978756 0.058010396 0.05084485 -0.16582772 -0.12168968 0.32337147 0.12918553 0.11837841
-0.28028053 0.0035662984 -0.10716862 0.010628487 -0.037969794 -0.10456554 -0.038198616 -0.16443864
-0.05024707 -0.036478728 0.28177804 -0.20035262 0.045632277 0.15596865 -0.074840315 0.042711534
-0.039199214 0.06825938 -0.05881664 -0.080830656 0.026004296 0.23825738 0.21883507 0.16464463
-0.08490639 0.20899236 -0.074044436 -0.08895667 0.1990353 0.26977742 -0.11531462 0.023823047
0.18541425 0.5562133 0.0884726 0.34861884 0.17953762 -0.182396 -0.12585796 -0.21340753
0.014746798 0.27671826 0.22404702 0.18540913 0.14444207 0.02856453 0.23456106 -0.27753907
0.3819632 0.38990602 0.0031652162 -0.02524132 -0.12867565 0.20813382 0.17414449 0.010843563
0.02281611 0.29786986 0.14023635 0.15563878 -0.17667563 0.22216323 0.11872463 -0.12197736
0.35914412 0.3043696 -0.18821837 -0.09298766 -0.009714951 0.26828545 0.04971722 0.16466327
0.065598875 0.10598679 -0.092458874 -0.30515134 0.1458717 0.25886515 0.05537203 0.04244616
0.18248032 -0.1920121 0.32957843 -0.14758715 0.26746032 0.05521935 -0.018656222 -0.0836938
-0.15809512 -0.21653782 0.18038265 -0.20297949 0.17703818 0.11433411 0.11273233 0.056997508
-0.14969224 -0.35467923 0.076718666 -0.20068397 -0.21816811 -0.1956611 -0.21507183 0.19565047
0.11449878 -0.33540225 -0.0114531815 0.31394458 -0.12156942 0.035236772 0.10846961 0.045786567
0.25082648 -0.11510867 -0.10452681 0.39696375 0.10201135 -0.23504795 -0.16984853 0.19281815
0.068825774 0.0816939 -0.018022908 -0.07677771 0.10409146 -0.14344777 -0.25876194 0.05193045
00000000: 4a23 953e 8622 d6bd d822 ba3c 13d4 623e
00000010: a8c9 01be c033 09bd 6330 21be 65fb 4a3d
00000020: 251d e63b 2ba2 92be 2ead 593c b90b 0b3e
00000030: 07fc 183e 4c0f a0be 9970 60be 92a6 983e
00000040: 26bd c63c 55bb 13be 4df0 17be 6d52 3b3e
00000050: 5225 dbbc 55cd 42be 5326 5c3e cbe8 283e
00000060: 6088 32be 086d 60be 6f9d 423e d67b 903e
00000070: 4831 82be 7233 e8bd 99aa 8c3e 732c b83d
00000080: 5524 eb3d 9fca c5be bec3 ad3c 8006 bcbe
00000090: e799 6bbe cb3c d1bd 20b9 cbbd 3c3b 323e
000000a0: 29bd 06bc 3c88 89be 0af2 e13d 9d44 243e
000000b0: d3db b3bd d432 cebd 1425 1cbe 787b fabd
000000c0: bdfb 32be acdb 86be 9236 143e 0208 c3be
000000d0: f066 62be ddbd 2c3e 9a30 9c3e 53a7 1c3c
000000e0: 01fa 5ebe b535 0ebe f060 0cbe 1014 e8ba
000000f0: cdba b6bd d4da 98bd 07e0 683e 289b 2c3c
00000100: 5fd9 31be 0b13 7e3d 366c 9fbe 0306 57be
00000110: fb17 9a3e 61f6 0abe 1103 5abe 71ab 383e
00000120: faa6 cebd 1f12 773e 39ad 98be 56df 03be
00000130: 9da0 bfbd 050f 923d 47f4 8abe 7bc1 e3bb
00000140: 6148 eebd ebc7 e6be 655d 083e 726f 52be
00000150: 121c b03d e0a7 d5bd e7c7 75be 1bb7 843e
00000160: 8167 803e 7a4f 9dbe e285 5cbe d5a1 aa3e
00000170: 6f40 ddbd ac4e 69be 40b8 693e 2760 de3d
00000180: b220 2e3e cfde 64be f2f0 85be b6d7 ca3e
00000190: 53cb 863d a2c5 4bbe 4f5a 653d 3ee9 133e
000001a0: ff39 403e 949f 82be 3ccb 70be da3e e63d
000001b0: 6160 dc3d cedf 8bbe fb32 c5bc 24f3 a73e
000001c0: 2e41 61be 221b 2ebd be3c 263e 0828 b73e
000001d0: dea0 8d3e c47a 45be 7ea9 7d3e 493b c9bc
000001e0: 3b1a 383e 4f9c 6d3d b042 503d bece 29be
000001f0: 7038 f9bd f290 a53e 3649 043e 6170 f23d
00000200: ee80 8fbe 8fb8 693b 397b dbbd 1b23 2e3c
00000210: 3786 1bbd 7526 d6bd 2776 1cbd 9a62 28be
00000220: dfcf 4dbd b86a 15bd 3645 903e 3d29 4dbe
00000230: e9e8 3a3d 3fb6 1f3e e145 99bd 4af2 2e3d
00000240: 5b8f 20bd 93cb 8b3d b8e9 70bd 8b8a a5bd
00000250: f606 d53c bef9 733e 4d16 603e 9a98 283e
00000260: 67e3 adbd 1802 563e 9ca4 97bd ea2e b6bd
00000270: e9cf 4b3e 4420 8a3e 122a ecbd 8d28 c33c
00000280: 3cdd 3d3e ff63 0e3f 1f31 b53d 2b7e b23e
00000290: b6d8 373e 04c6 3abe e9e0 00be 8187 5abe
000002a0: 8e9c 713c 04ae 8d3e 956c 653e e4db 3d3e
000002b0: 9fe8 133e 2900 ea3c c630 703e 9a19 8ebe
000002c0: ae90 c33e c3a1 c73e 846f 4f3b e2c6 cebc
000002d0: 8dc3 03be 0821 553e ef52 323e 33a9 313c
000002e0: dae8 ba3c 6682 983e 1e9a 0f3e c65f 1f3e
000002f0: 75ea 34be c27e 633e e625 f33d 44cf f9bd
00000300: bde1 b73e 55d6 9b3e 51bc 40be 5070 bebd
00000310: 752b 1fbc b65c 893e 49a4 4b3d 7d9d 283e
00000320: b458 863d 9a0f d93d 145b bdbd cc3c 9cbe
00000330: 645f 153e f989 843e c8cd 623d 06dc 2d3d
00000340: 1fdc 3a3e d29e 44be 81be a83e 1621 17be
00000350: 8ff0 883e af2d 623d efd4 98bc a867 abbd
00000360: b0e3 21be 17bc 5dbe 3bb6 383e dbd9 4fbe
00000370: 7f49 353e 0028 ea3d 35e0 e63d 3876 693d
00000380: ec48 19be 8498 b5be ad1e 9d3d 1980 4dbe
00000390: 7667 5fbe 625b 48be ca3b 5cbe 9958 483e
000003a0: 567e ea3d d8b9 abbe 20a6 3bbc 58bd a03e
000003b0: 63f9 f8bd 6f54 103d 5125 de3d b28a 3b3d
000003c0: 546c 803e 18be ebbd 2712 d6bd d53e cb3e
000003d0: 54eb d03d 69b0 70be c6ec 2dbe 1f72 453e
000003e0: 87f4 8c3d 224f a73d c7a4 93bc a23d 9dbd
000003f0: e72d d53d f9e3 12be 727c 84be 06b5 543d

bias f4 [128]
-0.03241516 0.3572789 0.4161695 -0.064221084 0.10424717 0.35479861 0.07373711 -0.27987048
0.24289408 0.106174126 -0.20469458 0.4584191 0.43812338 0.122695096 0.35786512 0.38335368
-0.006999154 -0.011879292 0.44452667 -0.15449767 0.48256552 -0.04936992 0.5515858 0.2925446
0.18361749 0.19643274 -0.103419155 0.25837454 -0.008813967 0.12304315 -0.007901489 0.22483125
0.10596345 -0.13510244 -0.02357069 0.3620392 0.0971814 0.06618589 0.091308445 0.3533491
0.28185007 0.13467027 0.30189115 0.17378092 -0.01806808 -0.05274464 -0.07978457 -0.047940597
0.21522811 0.29102567 -0.099083506 0.426338 0.35405594 0.3416534 0.12803859 0.24535644
-0.016352972 0.08819982 0.10697689 0.06362607 -0.059609197 -0.022470098 0.32629716 -0.15899985
0.25293684 -0.04277279 -0.10139162 0.15723714 -0.012812824 -0.24639982 0.048977476 0.34931698
0.19863668 0.13369742 -0.0004280419 -0.015260226 -0.095305614 0.25969017 0.06910649 0.3423368
0.15884736 0.15524827 0.0044673136 0.32707897 0.26248363 0.18508722 -0.26231793 0.2535281
0.15254168 0.14077133 0.3377658 0.07300799 0.10180196 0.24440733 -0.022218274 0.20847896
0.39391667 0.51219475 0.26343027 0.07273733 -0.06883462 0.2171499 -0.046114776 0.3170715
0.46338457 -0.007929644 -0.12170898 0.17014126 -0.052398376 -0.2123268 0.041861705 -0.038631376
0.3485683 0.5011438 0.5283437 -0.09873247 0.22600317 0.032097884 0.18743311 0.05477422
0.17532355 0.2891147 0.27951124 0.14614385 0.36680233 0.092195034 0.11205999 -0.063371256
00000000: c2c5 04bd 43ed b63e 2b14 d53e 5886 83bd
00000010: 8a7f d53d 2aa8 b53e 7b03 973d 2f4b 8fbe
00000020: 3ab9 783e d271 d93d 759b 51be e9b5 ea3e
00000030: b551 e03e 9147 fb3d 193a b73e ef46 c43e
00000040: 2959 e5bb 5da1 42bc 0099 e33e a334 1ebe
00000050: d412 f73e 1d38 4abd ba34 0d3f 68c8 953e
00000060: 3906 3c3e aa25 493e 6ccd d3bd ab49 843e
00000070: 7568 10bc 0cfe fb3d 3f75 01bc 2a3a 663e
00000080: 5e03 d93d 4b58 0abe 5217 c1bc 345d b93e
00000090: 0b07 c73d 788c 873d ecff ba3d 2cea b43e
000000a0: a74e 903e 01e7 093e 7a91 9a3e a0f3 313e
000000b0: 8303 94bc c30a 58bd 1866 a3bd 5c5d 44bd
000000c0: c264 5c3e 5101 953e 4bec cabd f948 da3e
000000d0: d246 b53e 32ed ae3e 8c1c 033e b83e 7b3e
000000e0: abf6 85bc 1ba2 b43d b316 db3d 634e 823d
000000f0: c628 74bd 3613 b8bc 6c10 a73e dbd0 22be
00000100: f080 813e 8532 2fbd 69a6 cfbd c602 213e
00000110: e1ec 51bc 3c50 7cbe 9b9c 483d add9 b23e
00000120: 6a67 4b3e fae7 083e d06a e0b9 0706 7abc
00000130: 972f c3bd 1cf6 843e b487 8d3d c546 af3e
00000140: e2a8 223e 67f9 1e3e 8b62 923b e576 a73e
00000150: 4164 863e 8187 3d3e 894e 86be 6fce 813e
00000160: e333 1c3e 5c26 103e a4ef ac3e 3785 953d
00000170: 8c7d d03d ea45 7a3e 1903 b6bc 827b 553e
00000180: 72af c93e 321f 033f 55e0 863e 4ff7 943d
00000190: 2af9 8cbd 8b5c 5e3e d9e2 3cbd 3257 a23e
000001a0: be40 ed3e 56eb 01bc 8f42 f9bd 8339 2e3e
000001b0: ae9f 56bd 326c 59be 2e77 2b3d ef3b 1ebd
000001c0: 8b77 b23e f64a 003f 8841 073f 4034 cabd
000001d0: 606d 673e 1279 033d 77ee 3f3e ef5a 603d
000001e0: 0488 333e d806 943e 191c 8f3e bca6 153e
000001f0: 84cd bb3e c0d0 bc3d b57f e53d cac8 81bd

weight f4 [256, 786]
-0.024472775 0.055164147 0.029971382 -0.05452958 0.041675918 0.05762419 0.08729003 -7.099592e-05
0.123390175 -0.010362579 -0.092431076 0.061225764 0.12699644 0.0816556 -0.01472605 0.021183345
-0.05972207 -0.012250695 -0.050051738 -0.02394791 0.0751449 -0.021987319 0.02429916 0.04545989
0.13373101 -0.015007054 0.029727964 0.03131866 0.107416384 0.033960484 -0.0020139837 0.07311848
0.042605534 0.015428425 -0.005606531 0.042856928 0.10622879 0.090638466 0.197635 -0.022545498
0.16399862 0.051274482 0.04687818 0.025328998 -0.00636008 0.05917175 0.05830559 -0.016647354
0.12578313 0.074047826 -0.013159523 0.02307749 0.103268325 0.04706552 0.02771704 0.052086838
-0.06571961 0.11071289 -0.03079221 -0.05826724 0.06504402 0.009983617 0.04737846 -0.027815271
-0.05234067 -0.036720864 0.025217446 0.025031516 0.019537415 -0.09070242 0.03952824 0.050153363
0.0029933557 0.10400249 0.07805746 0.054030467 -0.07670846 0.093330584 0.102485515 0.03827464
0.12143427 0.080719374 -0.031486653 0.050753973 0.06816731 0.060671657 -0.14681911 -0.03952819
0.019486561 0.009634057 0.0032811374 -0.01519893 0.12683505 -0.004010147 0.124470256 0.04112745
0.1691893 0.10284654 -0.0065848096 0.003183032 0.13993454 0.092343055 0.06360251 0.032483388
0.09145302 0.05847873 0.09986743 -0.0074964836 0.059080556 -0.008726357 0.018398073 0.112080686
-0.04756251 0.016317362 0.13816176 -0.0046401178 0.06487892 0.08184873 0.05451917 0.1748303
-0.0212039 0.060894955 -0.0015320712 -0.03670466 0.023249155 -0.08821657 0.0016031583 0.14122173
-0.39209267 -0.33495432 0.36295977 0.06683523 0.0858109 0.11225331 0.19314416 0.10527192
0.14853814 0.025501885 0.04038381 -0.03548979 -0.07811191 0.095624 0.040875554 0.033995405
0.0034634469 -0.014575218 0.04971409 0.07668419 -0.094826266 0.1267997 0.19636196 0.04834564
0.009743842 0.1409687 -0.040807817 0.0008768249 0.02194446 0.0590119 -0.022244949 -0.109852634
-0.0142571265 0.11088757 0.09136909 0.0064591207 -0.02152843 0.10146041 -0.0357575 0.10692231
0.068245225 0.07651116 0.05708075 0.029407362 0.13006233 0.05844226 0.03969157 -0.043548755
0.045018654 0.064126685 0.09850866 0.044183835 0.093732 -0.029322328 0.100717746 0.06667283
0.04699147 0.0952261 0.099147275 -0.03617175 0.0006228716 0.059118077 -0.02788063 -0.004336562
-0.10566407 0.041281417 -0.0013836339 -0.049059995 0.13495809 -0.0772705 0.005059376 0.046379063
-0.13951816 0.07200337 -0.1367741 0.033061586 0.032121725 -0.011479539 -0.00486088 -0.018622352
0.031018429 0.0661277 0.02394162 0.02413902 0.021902934 -0.03316195 0.018224752 0.0461503
0.051902 -0.085029125 0.037012845 0.001276658 0.06415394 0.07560189 0.14712231 0.10979446
-0.013227565 0.06763534 0.053962648 0.11107028 0.08437392 0.11448848 -0.008479228 0.030263666
-0.026151728 0.0007308658 0.1131725 0.13129464 0.08313475 -0.05447939 0.0025477584 0.06230046
0.070374615 0.021529075 -0.015257542 0.04556073 0.085165896 -0.02683015 0.098916724 -0.05475374
0.02368973 -0.07039789 0.061736807 0.07488852 0.058540013 0.008175665 -0.0037084238 0.03147286
00000000: 217b c8bc cdf3 613d 8b86 f53c 695a 5fbd
00000010: 5eb4 2a3d 5807 6c3d 1ec5 b23d a5e3 94b8
00000020: fdb3 fc3d cec7 29bc 814c bdbd dec7 7a3d
00000030: 5b0b 023e 0d3b a73d 8845 71bc b288 ad3c
00000040: 219f 74bd 24b7 48bc 0d03 4dbd 682e c4bc
00000050: 92e5 993d c01e b4bc 080f c73c 2634 3a3d
00000060: c8f0 083e 26e0 75bc 0f88 f33c ff47 003d
00000070: 1ffd db3d 261a 0b3d 0afd 03bb 24bf 953d
00000080: 2483 2e3d 81c7 7c3c feb6 b7bb bf8a 2f3d
00000090: 7b8e d93d a9a0 b93d d460 4a3e 56b1 b8bc
000000a0: 41ef 273e 3105 523d 5603 403d c27e cf3c
000000b0: 3868 d0bb 145e 723d d8d1 6e3d 0860 88bc
000000c0: 4bcd 003e 63a6 973d 0a9b 57bc 010d bd3c
000000d0: 587e d33d c6c7 403d d90e e33c 0259 553d
000000e0: 0198 86bd 71bd e23d f23f fcbc a1a9 6ebd
000000f0: cd35 853d 5392 233c eb0f 423d dadc e3bc
00000100: 2c63 56bd 9e68 16bd d194 ce3c e50e cd3c
00000110: ee0c a03c 31c2 b9bd 5de8 213d 9d6d 4d3d
00000120: 2d2c 443b 42ff d43d 97dc 9f3d 0d4f 5d3d
00000130: 5319 9dbd 1b24 bf3d ede3 d13d dec5 1c3d
00000140: 88b2 f83d 3350 a53d 26f8 00bd 66e3 4f3d
00000150: 4d9b 8b3d d882 783d c057 16be 50e8 21bd
00000160: 48a2 9f3c 2ad8 1d3c 5a08 573b ef04 79bc
00000170: 0ce1 013e 8d67 83bb 43ea fe3d 4275 283d
00000180: f63f 2d3e 35a1 d23d 63c5 d7bb 6a9a 503b
00000190: 004b 0f3e 5b1e bd3d 0842 823d 4d0d 053d
000001a0: b94b bb3d 6587 6f3d 4c87 cc3d 10a5 f5bb
000001b0: 74fe 713d fef8 0ebc 8eb7 963c 8f8a e53d
000001c0: e8d0 42bd fdab 853c 477a 0d3e 210c 98bb
000001d0: 3ddf 843d 4fa0 a73d 7e4f 5f3d b706 333e
000001e0: cdb3 adbc fd6c 793d c7cf c8ba a057 16bd
000001f0: 0375 be3c e4aa b4bd 1121 d23a 6e9c 103e
00000200: 5fc0 c8be 227f abbe ddd5 b93e e9e0 883d
00000210: a0bd af3d 10e5 e53d 95c7 453e ce98 d73d
00000220: 621a 183e 54e9 d03c 7e69 253d be5d 11bd
00000230: 23f9 9fbd 84d6 c33d 206d 273d c43e 0b3d
00000240: fffa 623b e5cc 6ebc 00a1 4b3d 9a0c 9d3d
00000250: 4634 c2bd c8d7 013e 1c13 493e 1406 463d
00000260: a3a4 1f3c 195a 103e 1926 27bd b9da 653a
00000270: dec4 b33c 76b6 713d 0a3b b6bc 6bfa e0bd
00000280: b996 69bc 0619 e33d b81f bb3d 08a7 d33b
00000290: 645c b0bc 7aca cf3d 7576 12bd 16fa da3d
000002a0: 27c4 8b3d e2b1 9c3d 81cd 693d b5e7 f03c
000002b0: 0f2f 053e 2761 6f3d a193 223d 2e60 32bd
000002c0: 7b65 383d da54 833d e9be c93d 1cfa 343d
000002d0: 90f6 bf3d 6135 f0bc 1b45 ce3d c48b 883d
000002e0: 217a 403d e705 c33d ba0d cb3d d428 14bd
000002f0: 3548 233a cc25 723d eb65 e4bc b819 8ebb
00000300: 6766 d8bd b416 293d 0d5b b5ba 22f3 48bd
00000310: 7432 0a3e ff3f 9ebd 1fc9 a53b f9f7 3d3d
00000320: d9dd 0ebe 8176 933d 820e 0cbe 966b 073d
00000330: 1292 033d ad14 3cbc 0448 9fbb e78d 98bc
00000340: 5c1a fe3c f66d 873d 3721 c43c 32bf c53c
00000350: c86d b33c d3d4 07bd 134c 953c 1908 3d3d
00000360: 3197 543d c023 aebd c89a 173d 8955 a73a
00000370: 2463 833d 2ad5 9a3d 3ba7 163e ebdb e03d
00000380: 6eb8 58bc 6684 8a3d f007 5d3d d178 e33d
00000390: 3ccc ac3d f078 ea3d 76ec 0abc 82eb f73c
000003a0: 263c d6bc 9397 3f3a fcc6 e73d 1a72 063e
000003b0: 8d42 aa3d c825 5fbd 4bf8 263b c42e 7f3d
000003c0: 9120 903d be5d b03c c5fa 79bc e39d 3a3d
000003d0: 756b ae3d e7ca dbbc da94 ca3d 7545 60bd
000003e0: f710 c23c c52c 90bd bcdf 7c3d 275f 993d
000003f0: a7c7 6f3d 39f3 053c 0709 73bb b0e9 003d

bias f4 [256]
0.18407343 0.23601142 0.23645984 0.0017548669 0.22315937 -0.015782388 0.23594539 0.24189387
0.0018816657 0.2055226 0.25125912 0.23161307 -0.0097115105 0.24348986 -0.032686673 -0.030776372
0.010918429 0.01429112 0.19562562 0.19776075 0.17774025 0.19252107 0.24530695 0.23571232
-0.03466156 0.20118399 0.1924809 0.18959317 0.24156195 0.2488461 0.1774118 0.18677448
0.0025412482 0.20749457 -0.02739904 0.2078003 0.22942825 0.22935618 0.02353412 0.22425844
0.1867379 0.25124514 -0.0021671215 0.19900727 -0.025029048 0.23517762 0.015900327 0.18681346
0.21668905 0.18652236 0.24195401 -0.03549997 0.20710188 0.22673228 -0.042037796 0.23696545
0.21753384 0.22581886 0.22273093 0.24117166 0.18953004 0.004612486 0.21864511 0.0027170205
0.23515353 0.22274578 0.023129625 0.25441453 0.23466861 -0.015848061 0.2102521 0.0038622448
0.22399756 0.17828509 0.24829157 0.23329861 0.25131863 0.19573128 0.23705015 0.18011348
0.23206034 -0.011477651 0.008618352 0.24967816 0.22120236 -0.040006768 0.00029348352 0.1846369
0.22869241 0.23318784 0.20916721 0.20916668 0.23240605 0.20780656 0.21198735 0.18764535
0.1953454 -0.041082118 -0.03471962 -0.020723864 0.21995197 0.22229594 0.20338276 0.190868
0.24621426 0.19234496 -0.018560788 0.17969087 0.022162268 -0.03004865 -0.018993452 0.22271524
0.21733306 0.20831016 0.00076541974 0.1841051 0.22440463 0.0061476487 0.24068947 -0.012243351
0.19410606 0.20542249 0.18277134 0.18280594 0.24853174 0.22677138 0.19132054 0.21176715
0.23377007 0.21664226 0.21968928 0.19752637 0.22179408 0.22109765 0.19931929 0.2437571
0.22516318 0.23868532 0.1842492 0.026722036 0.21377382 0.024797251 0.23991668 0.21119657
0.008228036 0.009224343 -0.022235576 0.22616436 0.23016074 -0.020324936 0.18666221 0.021206118
0.2269917 0.21675336 0.24665432 0.18791473 0.18545656 -0.024816038 0.249049 0.19523844
0.21320668 -0.040835083 0.014161626 0.24375945 0.18775526 0.011890543 -0.020867532 0.18981038
0.0057467967 0.003113251 0.015462426 -0.017989812 0.009617579 0.22564052 -0.0041201403 0.19327648
0.2068282 -0.041747626 -0.014365513 0.013956632 0.1836621 0.18019025 -0.012843357 0.2142295
-0.011604765 0.22160009 -0.04155425 -0.004203238 0.22312449 0.25592008 0.19687201 0.1843554
0.23014806 0.18616293 0.21476658 -0.00899398 0.18343128 0.19622707 -0.028443813 0.19125398
0.21331353 0.22805221 0.22115405 0.20353542 0.21742035 0.23819205 0.23477122 0.019378195
0.0028393355 0.0055145044 0.020446451 0.2076482 -0.0032443395 -0.006568312 0.20604536 0.18525125
0.008805473 0.20802522 0.1869068 0.22869286 0.0035482072 0.21362995 -0.04132389 0.22276595
0.2359089 0.20514382 0.24495359 0.23008825 -0.006837933 0.021140968 -0.010747669 0.20336144
0.23577398 0.22757478 -0.013454025 0.019307615 -0.020751847 0.1882462 -0.0042329226 0.24316828
0.2519689 0.19157077 0.18833536 -0.04157836 0.011244791 0.24527963 0.20837174 -0.027185528
0.22162364 0.20069128 0.2310423 0.22859335 0.21227373 0.2432575 0.24535775 0.23491867
00000000: bf7d 3c3e faac 713e 8722 723e 9003 e63a
00000010: e483 643e 114a 81bc ab9b 713e 07b3 773e
00000020: 39a2 f63a 8474 523e 09a5 803e fa2b 6d3e
00000030: 071d 1fbc 6855 793e 76e2 05bd bb1e fcbc
00000040: 36e3 323c 4d25 6a3c 1552 483e cb81 4a3e
00000050: 8a01 363e 3e24 453e bf31 7b3e 925e 713e
00000060: 48f9 0dbd 2d03 4e3e b719 453e b624 423e
00000070: 045c 773e 83d1 7e3e 70ab 353e cf41 3f3e
00000080: 128b 263b 7579 543e f473 e0bc 9ac9 543e
00000090: 3def 6a3e 59dc 6a3e a0ca c03c 01a4 653e
000000a0: 3838 3f3e 34a3 803e 4406 0ebb 90c8 4b3e
000000b0: b809 cdbc 67d2 703e 6741 823c 074c 3f3e
000000c0: bce3 5d3e b8ff 3e3e cbc2 773e 6b68 11bd
000000d0: 8412 543e 822c 683e d32f 2cbd 12a7 723e
000000e0: 31c1 5e3e 0f3d 673e 9413 643e b4f5 763e
000000f0: 2a14 423e 5624 973b 81e4 5f3e 0a10 323b
00000100: 16cc 703e 7817 643e 577a bd3c 9f42 823e
00000110: f84c 703e cbd3 81bc 544c 573e b71d 7d3b
00000120: 9e5f 653e 5e90 363e 2540 7e3e d5e5 6e3e
00000130: d6ac 803e c86d 483e 46bd 723e ab6f 383e
00000140: 3aa1 6d3e c20c 3cbc fd33 0d3c a2ab 7f3e
00000150: df82 623e 23de 23bd b1de 9939 7511 3d3e
00000160: 582e 6a3e cbc8 6e3e ee2f 563e ca2f 563e
00000170: dafb 6d3e 3ecb 543e 3613 593e 1a26 403e
00000180: a008 483e b945 28bd 2936 0ebd 18c5 a9bc
00000190: 173b 613e 8ca1 633e 9243 503e e772 433e
000001a0: 971f 7c3e 14f6 443e cb0c 98bc e200 383e
000001b0: a58d b53c 9628 f6bc 2898 9bbc 770f 643e
000001c0: 8f8c 5e3e 424f 553e 73a6 483a 0c86 3c3e
000001d0: 54ca 653e 3772 c93b 4d77 763e 5698 48bc
000001e0: bdc3 463e 465a 523e 6928 3b3e 7b31 3b3e
000001f0: 1b7f 7e3e c236 683e 88e9 433e 7dd9 583e
00000200: 6c61 6f3e 78d7 5d3e 3af6 603e 5a44 4a3e
00000210: fd1d 633e 6c67 623e 5b1a 4c3e 769b 793e
00000220: 2d91 663e ed69 743e d3ab 3c3e 2ce8 da3c
00000230: 86e7 5a3e 9b23 cb3c b8ac 753e ea43 583e
00000240: e2ce 063c b321 173c 6227 b6bc a197 673e
00000250: 42af 6b3e 7b80 a6bc 6124 3f3e 74b8 ad3c
00000260: 8370 683e 98f4 5d3e f392 7c3e b86c 403e
00000270: 53e8 3d3e 014b cbbc b306 7f3e 96ec 473e
00000280: da52 5a3e b042 27bd 2a06 683c 149c 793e
00000290: ea42 403e 8dd0 423c 63f2 aabc a75d 423e
000002a0: a04f bc3b af07 4c3b 1d56 7d3c 5f5f 93bc
000002b0: 0d93 1d3c 4f0e 673e 3e02 87bb 45ea 453e
000002c0: c6ca 533e 8fff 2abd 545d 6bbc 5caa 643c
000002d0: eb11 3c3e cb83 383e f26c 52bc fa5e 5b3e
000002e0: ea21 3ebc 22eb 623e ca34 2abd 51bb 89bb
000002f0: bf7a 643e f507 833e d198 493e a9c7 3c3e
00000300: efab 6b3e 7fa1 3e3e c5eb 5b3e 7c5b 13bc
00000310: 69d5 3b3e c0ef 483e 0003 e9bc 15d8 433e
00000320: dd6e 5a3e 8586 693e 3576 623e 976b 503e
00000330: 71a3 5e3e 9ee8 733e de67 703e 05bf 9e3c
00000340: 2514 3a3b 04b3 b43b 517f a73c bba1 543e
00000350: fc9e 54bb ff3a d7bb 8efd 523e 81b2 3d3e
00000360: d544 103c 9004 553e 7f64 3f3e 762e 6a3e
00000370: 0a89 683b cfc1 5a3e 3d43 29bd c21c 643e
00000380: 1a92 713e 3911 523e 1dd5 7a3e 419c 6b3e
00000390: bd10 e0bb d32f ad3c fe16 30bc fb3d 503e
000003a0: bc6e 713e 5d09 693e 456e 5cbc 012b 9e3c
000003b0: c7ff a9bc 9dc3 403e 54b4 8abb 1b01 793e
000003c0: 1102 813e 212b 443e fcda 403e 124e 2abd
000003d0: 123c 383c 952a 7b3e 675f 553e 2fb4 debc
000003e0: 4ff1 623e 0482 4d3e 5a96 6c3e 6014 6a3e
000003f0: 495e 593e 7e18 793e 103f 7b3e 858e 703e

weight f4 [128, 256]
-0.02990571 0.030948497 0.021828962 0.040933516 -0.02827929 0.034528013 -0.052934192 0.02914197
-0.026315758 0.010113596 0.02500197 0.045157406 -0.019131431 -0.020083895 0.04603546 -0.021720165
0.04871655 -0.027618328 -0.03825488 -0.018982694 -0.03921348 0.04400733 -0.043592814 -0.06361586
0.033680823 0.026700888 -0.023805171 -0.0062096934 -0.023896439 0.033470046 0.018345278 -0.06104159
-0.006510904 0.036778398 0.042196915 0.020165468 0.05421961 -0.05691759 0.0065283338 0.0520646
0.010370616 0.0042793085 -0.012277026 -0.033710256 0.05052162 0.027338104 0.020574482 0.03519244
-0.0525637 0.009665035 -0.04442385 -0.053056624 -0.04711175 0.04371263 0.010138941 0.010772038
-0.023935076 0.008460641 -0.069883965 -0.03977758 -0.05877795 -0.007755938 -0.044540975 0.046710923
0.049502097 0.040507972 -0.0033991698 -0.009030032 0.008832112 -0.0022111754 -0.006953761 -0.020763678
0.005923458 0.0217067 0.02573332 0.024480917 0.014231454 -0.060667843 0.050754353 -0.013921579
-0.04023527 -0.032331586 -0.057153746 0.045261916 -0.015490039 0.024071932 0.038522024 -0.067538954
0.025305446 -0.015935289 -0.05048444 0.021750119 -0.06335298 -0.018405344 0.03383063 -0.02958853
0.032770548 -0.009047187 -0.062034763 -0.009240474 0.04024702 -0.0028230222 -0.056256548 0.0371164
-0.0034218833 -0.016765052 0.043080837 0.025168383 -0.019771568 -0.019387692 0.024579497 -0.067696944
0.05067101 -0.0659078 0.046733256 -0.022696774 -0.02894114 0.050559938 -0.026903993 -0.046065357
0.05089166 -0.031512395 0.021514835 -0.011182596 -0.037741527 -0.01216204 -0.061536014 0.051508393
0.023009028 0.026716633 0.023608109 0.05313669 -0.03401424 -0.0341613 -0.03593495 0.04771533
0.03198476 0.0020453578 -0.03743932 0.01563886 -0.05742698 0.0119805625 -0.014907338 -0.02505409
0.0016021327 -0.023695555 -0.03414308 -0.019103004 0.010899639 -0.045668162 -0.05838869 0.03273669
0.026452528 0.025357734 -0.0419583 0.019706227 -0.041640155 0.0098919645 0.052746747 0.0060559744
-0.042464066 0.021622324 0.048845813 -0.05406767 -0.02991518 0.025739606 -0.021295944 -0.017536297
0.012253039 -0.038631845 0.044667058 0.03291852 0.049177364 -0.03995862 0.029591898 -0.050122496
0.016044587 0.00022645362 0.050079904 0.04301975 -0.054860942 0.049235087 0.03724716 0.02614751
0.046121903 -0.0038179548 -0.059044648 0.05197358 0.010372558 0.027906854 -0.023625094 0.0047782324
-0.051398765 0.051045403 -0.0069946726 0.052347727 -0.023879763 -0.05805651 -0.051130842 0.051798478
0.037478153 0.026732633 0.045964807 -0.0048045586 0.018523563 0.023570783 -0.005767408 0.023248987
0.040852174 0.044623677 -0.038712606 -0.014147795 0.041020855 -0.017976655 -0.054920882 0.025686027
0.032441214 -0.008372153 -0.07029946 0.019221008 -0.034869157 0.04652515 -0.013432531 0.008055448
-0.06733279 0.010434736 -0.044110656 -0.009884543 -0.05528682 0.045573566 0.026280304 -0.039731864
0.036980182 0.018651232 -0.005286154 -0.017495234 -0.0143234525 -0.038720164 -0.06672634 -0.048894595
0.012016286 1.4480662e-05 -0.05375675 0.0055077146 -0.045653373 -0.04211548 0.024045823 -0.018065292
-0.0018843535 0.042413086 -0.066927396 -0.06751601 -0.01236167 -0.020882417 -0.040679798 -0.026971636
00000000: d2fc f4bc b487 fd3c a7d2 b23c e7a9 273d
00000010: f8a9 e7bc 3f6d 0d3d 86d1 58bd 24bb ee3c
00000020: 2594 d7bc 7fb3 253c eed0 cc3c f9f6 383d
00000030: 85b9 9cbc fb86 a4bc ae8f 3c3d 7dee b1bc
00000040: 018b 473d d53f e2bc 26b1 1cbd 9881 9bbc
00000050: 509e 20bd 0841 343d 618e 32bd 0849 82bd
00000060: e7f4 093d d2bb da3c 1003 c3bc af7a cbbb
00000070: 77c2 c3bc e317 093d d648 963c bf06 7abd
00000080: 6c59 d5bb f2a4 163d acd6 2c3d 0d32 a53c
00000090: 6215 5e3d 6b22 69bd a2eb d53b b141 553d
000000a0: 84e9 293c 7139 8c3b 9425 49bc c413 0abd
000000b0: c2ef 4e3d 29f4 df3c d18b a83c f325 103d
000000c0: 094d 57bd 185a 1e3c c8f5 35bd e751 59bd
000000d0: 40f8 40bd 040c 333d cd1d 263c 347d 303c
000000e0: 7e13 c4bc 809e 0a3c 531f 8fbd d1ed 22bd
000000f0: 26c1 70bd 8625 febb 9970 36bd f453 3f3d
00000100: b6c2 4a3d b0eb 253d 9bc4 5ebb b3f2 13bc
00000110: 90b4 103c 5ee9 10bb 60dc e3bb 9718 aabc
00000120: 9119 c23b 40d2 b13c afce d23c 348c c83c
00000130: 0b2b 693c d87e 78bd cce3 4f3d 5617 64bc
00000140: bdcd 24bd 206e 04bd 0c1a 6abd 8f64 393d
00000150: efc9 7dbc 8032 c53c 45c9 1d3d dd51 8abd
00000160: 5e4d cf3c b98a 82bc c6c8 4ebd 4e2d b23c
00000170: 35bf 81bd cec6 96bc fd91 0a3d a563 f2bc
00000180: 693a 063d a73a 14bc 2a18 7ebd 5b65 17bc
00000190: 0fda 243d 7402 39bb 446d 66bd 5e07 183d
000001a0: ad41 60bb dd56 89bc 8875 303d ed2d ce3c
000001b0: fcf7 a1bc f0d2 9ebc f15a c93c b2a4 8abd
000001c0: 688c 4f3d abfa 86bd 5f6b 3f3d 96ee b9bc
000001d0: f815 edbc f017 4f3d c365 dcbc 07af 3cbd
000001e0: c673 503d 2413 01bd e13f b03c 3537 37bc
000001f0: dc96 1abd 4b43 47bc 300d 7cbd 77fa 523d
00000200: 6e7d bc3c d7dc da3c cb65 c13c dca5 593d
00000210: 8452 0bbd b8ec 0bbd 8730 13bd 2671 433d
00000220: 7402 033d 690b 063b f959 19bd 111d 803c
00000230: 8e38 6bbd 1f4a 443c e83d 74bc 3c3e cdbc
00000240: a7fe d13a 2e1d c2bc 9dd9 0bbd e77d 9cbc
00000250: 6694 323c 8a0e 3bbd fb28 6fbd e816 063d
00000260: f9b2 d83c 06bb cf3c 77dc 2bbd f46e a13c
00000270: de8e 2abd e811 223c f90c 583d 3271 c63b
00000280: cdee 2dbd 4d21 b13c 8c12 483d 1076 5dbd
00000290: ae10 f5bc dedb d23c d574 aebc 48a8 8fbc
000002a0: f8c0 483c 6d3c 1ebd cef4 363d 92d5 063d
000002b0: 346e 493d a6ab 23bd b56a f23c 3f4d 4dbd
000002c0: f06f 833c 2e74 6d39 9620 4d3d 7a35 303d
000002d0: deb5 60bd bbaa 493d 7a90 183d 4e33 d63c
000002e0: 52ea 3c3d a736 7abb cdd8 71bd 40e2 543d
000002f0: a9f1 293c ea9c e43c 6a89 c1bc b892 9c3b
00000300: 8387 52bd fc14 513d 9133 e5bb 926a 563d
00000310: 7e9f c3bc aacc 6dbd 936e 51bd a42a 543d
00000320: b182 193d 65fe da3c 9845 3c3d 8f6f 9dbb
00000330: babe 973c 8417 c13c 86fc bcbb a974 be3c
00000340: 9c54 273d 51c7 363d 1c91 1ebd 27cc 67bc
00000350: 7c05 283d c743 93bc b8f4 60bd 816b d23c
00000360: 14e1 043d 5b2b 09bc 2af9 8fbd 6075 9d3c
00000370: f6d2 0ebd 2891 3e3d 1e14 5cbc fffa 033c
00000380: c6e5 89bd 74f6 2a3c 60ad 34bd c7f2 21bc
00000390: 6f74 62bd 59ab 3a3d cb49 d73c e1bd 22bd
000003a0: 8878 173d 78ca 983c 7937 adbb 2a52 8fbc
000003b0: eaac 6abc 0999 1ebd d2a7 88bd b345 48bd
000003c0: f5df 443c f8f1 7237 0a30 5cbd 0f7a b43b
000003d0: 08ff 3abd 4881 2cbd bffb c43c aafd 93bc
000003e0: 69fc f6ba 58b9 2d3d 3b11 89bd d545 8abd
000003f0: 9a88 4abc 9a11 abbc dc9f 26bd 9ff3 dcbc

bias f4 [128]
0.05000595 0.16639191 0.22135554 0.105335176 0.20567408 -0.039242912 0.045517653 -0.0393772
0.12966934 0.14303572 0.15630102 0.13533592 0.17833698 -0.06050182 0.030945612 0.014802556
0.014605257 0.011567231 0.21154766 0.21042164 -0.04205564 0.044378474 0.14087956 0.033314943
0.15967286 0.1741045 0.20769683 -0.022974906 -0.047829375 0.10552422 -0.025970817 0.16743585
0.15307242 0.1938147 0.022631671 -0.011589097 0.053279735 0.0549978 0.25418428 0.015088679
-0.018179512 -0.011342672 0.20824584 0.19285423 -0.055734903 0.20293346 0.20324972 -0.023469895
0.046957333 0.1116587 -0.0693902 -0.04761208 -0.0084559005 -0.049535386 0.13539752 0.20703335
0.045024812 0.13777088 0.21642281 0.2205926 0.11496232 0.01630903 0.16358228 0.17894182
0.010035831 -0.053117257 0.04105188 0.22591045 0.13832918 0.20837009 -0.055004615 0.18150935
-0.03322694 -0.004075545 0.03119146 0.21790849 0.010347991 0.14721486 0.17659084 -0.05536163
0.1405847 0.054981478 0.18425828 0.22236095 0.15944055 0.0084475055 0.19210134 0.13787527
0.0076135118 0.18356971 -0.062540464 0.2044319 0.221166 0.12889889 0.22654408 0.18731672
0.17202745 0.23194933 0.23056053 0.20966177 0.20996307 0.2118179 0.11132232 0.1757142
0.12377074 0.037558597 0.14732991 0.022671115 0.037578586 0.15438809 0.17667007 -0.035452794
0.17942175 -0.0047841296 -0.039932325 0.15588723 0.1254347 0.15227002 -0.050676573 0.031169964
-0.01749751 0.018268516 0.18236504 -0.031945143 -0.05595743 0.20414299 0.16857526 0.0465438
00000000: 0ad3 4c3d a462 2a3e 07ab 623e f8b9 d73d
00000010: 3a9c 523e 2dbd 20bd b870 3a3d fd49 21bd
00000020: 0ac8 043e f577 123e 600d 203e 8095 0a3e
00000030: f89d 363e c2d0 77bd a781 fd3c 6b86 723c
00000040: e34a 6f3c 7c84 3d3c f39f 583e c578 573e
00000050: 8942 2cbd 34c6 353d bb42 103e 4075 083d
00000060: 4881 233e 7348 323e 7aae 543e df35 bcbc
00000070: bce8 43bd 151d d83d c0c0 d4bc 4e74 2b3e
00000080: 04bf 1c3e 5c77 463e 0e66 b93c 32e0 3dbc
00000090: da3b 5a3d 6045 613d 7124 823e 8236 773c
000000a0: 33ed 94bc 9dd6 39bc 663e 553e 947b 453e
000000b0: 484a 64bd cacd 4f3e b220 503e f043 c0bc
000000c0: 5556 403d 51ad e43d 731c 8ebd e204 43bd
000000d0: 9e8a 0abc 9ee5 4abd a6a5 0a3e 8d00 543e
000000e0: f06b 383d cf13 0d3e f19d 5d3e 07e3 613e
000000f0: 5d71 eb3d 849a 853c 1d82 273e 863c 373e
00000100: 536d 243c 7b91 59bd 0426 283d 1255 673e
00000110: 2aa6 0d3e f85e 553e 854c 61bd 96dd 393e
00000120: f918 08bd 268c 85bb 3c85 ff3c 6723 5f3e
00000130: 9f8a 293c 7ebf 163e 3bd4 343e e0c2 62bd
00000140: 70f5 0f3e 4234 613d 34ae 3c3e 97b2 633e
00000150: 6244 233e 6867 0a3c 37b6 443e 2d2f 0d3e
00000160: c47a f93b b3f9 3b3e 3715 80bd 9956 513e
00000170: 5779 623e 12fe 033e 2cfb 673e f4cf 3f3e
00000180: f727 303e 2084 6d3e 0f18 6c3e 93b1 563e
00000190: 8f00 573e cbe6 583e f5fc e33d 6cee 333e
000001a0: 847b fd3d 0bd7 193d a7dd 163e c6b8 b93c
000001b0: 01ec 193d e917 1e3e 00e9 343e f336 11bd
000001c0: 56ba 373e 30c4 9cbb 1490 23bd e7a0 1f3e
000001d0: f471 003e acec 1b3e 3d92 4fbd 2758 ff3c
000001e0: f056 8fbc dba7 953c e7bd 3a3e e9d8 02bd
000001f0: 9e33 65bd dc0a 513e fe9e 2c3e b6a4 3e3d

weight f4 [1, 128]
0.007929117 -0.0725787 -0.08363199 -0.1298549 -0.07020777 -0.0010145926 0.011182813 0.05785912
-0.14818916 -0.1140042 -0.07535173 -0.10208364 -0.07232299 -0.07126268 -0.0011245927 0.030931218
0.07168607 0.062027656 -0.11095922 -0.1203097 0.028565092 0.03506802 -0.068039395 0.037435025
-0.11921695 -0.0692649 -0.0793801 0.07929327 -0.083466634 -0.12446008 0.05076912 -0.13632269
-0.06363894 -0.10567452 0.033185385 0.02154658 -0.085361354 0.05754384 -0.06192147 0.017515164
0.068120174 -0.0019474963 -0.082099974 -0.104533404 0.03914374 -0.066592686 -0.099740684 0.009401898
0.028797984 -0.11601554 0.03245994 0.013781421 0.033305228 0.022125294 -0.08070059 -0.14560911
-0.06794016 -0.1089365 -0.08236759 -0.057675637 -0.11241318 0.013086114 -0.070972525 -0.11058845
0.015925469 0.067201756 0.031533256 -0.13814844 -0.10013253 -0.077823 0.041308124 -0.13808928
0.063680455 0.07088125 0.023049843 -0.1389454 -0.047651608 -0.10140514 -0.13108528 0.045873262
-0.086457275 0.072602876 -0.09299756 -0.08471672 -0.07664144 0.07487807 -0.058142427 -0.100038104
0.07099874 -0.094264485 -0.0045554684 -0.11723112 -0.084118515 -0.08980347 -0.122050315 -0.14614189
-0.07091952 -0.11086255 -0.09814997 -0.08130388 -0.054164827 -0.06576556 -0.12242593 -0.11118855
-0.1025409 0.051694337 -0.1328225 0.076037265 0.06776047 -0.07658365 -0.075100794 0.011358801
-0.056866653 0.010519685 -0.05167545 -0.115194365 -0.12580788 -0.060290683 0.07860251 0.044493742
-0.062052824 0.07769008 -0.07365597 0.050416395 0.065744534 -0.0907739 -0.114763305 0.087331645
00000000: 21e9 013c 24a4 94bd 4047 abbd aff8 04be
00000010: 17c9 8fbd 14fc 84ba 1e38 373c affd 6c3d
00000020: e6be 17be 097b e9bd 0252 9abd 3a11 d1bd
00000030: 131e 94bd 2bf2 91bd 1267 93ba 7763 fd3c
00000040: 25d0 923d b610 7e3d 963e e3bd ef64 f6bd
00000050: 5701 ea3c 7ca3 0f3d 3d58 8bbd 7855 193d
00000060: 0428 f4bd c2da 8dbd 0992 a2bd 8364 a23d
00000070: 8ef0 aabd ede4 febd 48f3 4f3d 2d98 0bbe
00000080: 2255 82bd e26b d8bd 66ed 073d 7482 b03c
00000090: efd1 aebd 17b3 6b3d 5ea1 7dbd f67b 8f3c
000000a0: 9782 8b3d 2243 ffba 0824 a8bd 9c15 d6bd
000000b0: 3055 203d bf61 88bd d844 ccbd 6b0a 1a3c
000000c0: c0e9 eb3c 8e99 edbd b7f4 043d 78cb 613c
000000d0: 106b 083d 1b40 b53c 5a46 a5bd 8e1a 15be
000000e0: 3624 8bbd 1a1a dfbd 57b0 a8bd 4a3d 6cbd
000000f0: e238 e6bd 2467 563c 0b5a 91bd 337c e2bd
00000100: 2176 823c 13a1 893d 0429 013d c976 0dbe
00000110: 4912 cdbd aa61 9fbd b532 293d 4767 0dbe
00000120: e66a 823d 302a 913d 06d3 bc3c b447 0ebe
00000130: 552e 43bd 7fad cfbd 383b 06be 9ae5 3b3d
00000140: 8310 b1bd d1b0 943d 8175 bebd f67f adbd
00000150: 30f6 9cbd ac59 993d c126 6ebd c7e0 ccbd
00000160: ca67 913d bd0d c1bd 0a46 95bb df16 f0bd
00000170: 5446 acbd e2ea b7bd 84f5 f9bd 38a6 15be
00000180: 413e 91bd e80b e3bd da02 c9bd a682 a6bd
00000190: f0db 5dbd 18b0 86bd 72ba fabd d3b6 e3bd
000001a0: f700 d2bd 71bd 533d 9f02 08be 6db9 9b3d
000001b0: 00c6 8a3d e4d7 9cbd 72ce 99bd 441a 3a3c
000001c0: 02ed 68bd c25a 2c3c a3a9 53bd 06eb ebbd
000001d0: c8d3 00be 5df3 76bd 5afa a03d 123f 363d
000001e0: 1a2b 7ebd fa1b 9f3d f1d8 96bd 6c81 4e3d
000001f0: 12a5 863d abe7 b9bd 0609 ebbd efda b23d
