trained/exp_train_3_6_1111_0.0001_0.001_32_0.95/model/meta_critic_4.pth (torch, 950411 bytes, 7 tensors)

weight f4 [128, 16]
00000000: cdd6 6bbe b4d0 7d3d d5f3 0f3e 7311 0ebb
00000010: 2ba4 c9bc 4705 4a3e 13f8 253c 89ff a5be
00000020: 817a ebbd aca2 92bc 051d 443e 6388 2b3e
00000030: ff71 aebe 7a79 893e ddd1 3b3e b7a1 3fbd
00000040: acb0 5f3e b0f5 58bc 4f76 9cbd 304c ba3d
00000050: 7178 67bd 012d 833e e7d7 6a3e b4aa e8bd
00000060: 7dd6 783d 11e0 143e 52b8 5c3e da67 413d
00000070: 35bb 303e 32bd 363e 0f95 543e 9122 fcbd
00000080: 2262 3b3e fff9 e7bd dc99 ba3d c015 ad3e
00000090: 5917 c83d f1f1 33be 3a11 46be 4b7f 633e
000000a0: fd24 c3bd b378 53be 9f11 1cbb 10ee 9b3d
000000b0: 6436 a8bb cbd5 6ebe baf1 5e3d 7e9e 2f3e
000000c0: 68ff 07be 7964 663e d485 85bd 1bf2 0abe
000000d0: 52b8 b13e 76e9 9cbd ee8e a93e a8fc dabb
000000e0: 4535 4bbe c8c7 4c3d d014 4dbe e764 823e
000000f0: 2e62 2a3d 5aa9 dfbd 3b30 73be a322 f6bd
00000100: 7255 893e 6808 ed3e d653 ae3d 29a9 a33e
00000110: cc68 b73d ba13 533e 38e5 37bc 09a7 1d3d
00000120: 23b3 c93c d550 b83d 630c c3bd 3c8f 1f3d
00000130: 4f6f d73d 7296 a93e 4fb0 d63d 5ba5 45be
00000140: 4fe1 c6be 69a1 79be 6ca0 92be 5064 713e
00000150: 3125 aebe a18d 833d 0fc3 113e 696b 61be
00000160: db8c 2a3e 5d8a 5d3c 5550 b43c cce9 2d3e
00000170: a0ad b2bd 8432 35be fb70 c53d 6b03 c8bd
00000180: 2ada 49bc 808e c73e 66f5 253e a86a 03be
00000190: 3650 26be e501 c33e 49be 2ebe cd26 73be
000001a0: bfe2 243e d556 553e ef91 243d fc0d e4ba
000001b0: 8681 efbc fdf0 8e3d b6b9 bbbd a387 2dbe
000001c0: 7b1e a33d 9f15 673e 733e 143e c5fc 0d3f
000001d0: 40da 1e3e c161 45be 04b3 22be 2bc3 003d
000001e0: ddb7 0c3e 9a94 4dbe 9ede 263e b6e7 483d
000001f0: db67 723d 6a36 c0bd cace 0cbe 02cf 43be
00000200: 0599 42be 59cb 82be 28d2 803e 8be0 0c3e
00000210: 494a a3be c20c 293d 418d d4bc 53a0 8dbd
00000220: ac88 22bd 23af 4dbe 2089 233e b85d ac3c
00000230: 9e9b 8cbe 594a 4cbe d9f5 e2bd 4064 9fbd
00000240: 3145 edbd ba40 573e 717a 763e ba6e a73e
00000250: 2377 ef3b 0dff b33d 70c7 e5bd 9635 19bd
00000260: a41e b5be 108d 153e 3805 333e 7756 983d
00000270: 9bd9 cfbd 6d80 2b3e 1914 173e bc38 5dbd
00000280: d8d1 80be d9a1 b6bd 98e4 2b3e eaf1 2ebe
00000290: 2388 92be 60ce c83e 4ae1 a93d 678b 613e
000002a0: feea 4ebd db8f 41be b14e fb3b 7f30 093e
000002b0: 08e8 2b3d 6630 57be 8fc8 213e cb59 22be
000002c0: 3824 60be 18e0 53be 11b2 f63d 5b61 793d
000002d0: 0d98 93be eafb 563e 675c 8f3e 4902 04be
000002e0: 1660 83be b5fd 903d 722a ec3c 80f2 debd
000002f0: 8bf9 723a 927f bd3a d866 a93d 7922 baba
00000300: 87ab 093e 4392 1abe 6e61 d63c 558f 09bd
00000310: 9a1a 3c3e c85c 48bd 682a c5bd 9124 2c3e
00000320: 12a3 753e 1f77 4f3e a12d 79be 5dca 50be
00000330: 8efa 663e d2fd 1dbe 7871 9bbe ac5a 653e
00000340: ee8c 4bbd 4fcd 3d3e 477a 8e3e 6ff9 d4bd
00000350: aac5 9c3d 5a9e 893e ab75 463e d54a b53d
00000360: 69aa a3be 759c 7a3e 2066 003d 6f0f 25be
00000370: 5ae7 10bd 4f1c 0c3e 9b0a 623e 037f 3f3d
00000380: 9fc6 6b3e 7082 25be d74e a4be 58a2 5d3d
00000390: da5b 9f3e bf0c d6bd fb51 72be db9d 1c3e
000003a0: 0346 223e d153 853c 5ef6 02bd fe89 c8bc
000003b0: 4604 d3bc 2a37 e2bd 99cd 963a bb42 153e
000003c0: eab9 8f3d d45f 473e eaae 4fbd cbf6 bdbe
000003d0: 7f80 ff3d 8ebb 6cbd 2b4b a3be f67f a0bc
000003e0: f621 463e 24cd 8f3e dec6 c8bd b570 11be
000003f0: 336f 9d3e 42aa 653d 3653 79be 727c b63b
-0.23031159 0.061966613 0.14057858 -0.002167788 -0.024614414 0.19728576 0.010129946 -0.3242152
-0.11497975 -0.017899834 0.19151695 0.16751246 -0.34071347 0.26850492 0.18341775 -0.046785083
0.21844739 -0.01324217 -0.07639753 0.09096563 -0.056511346 0.25620273 0.22933923 -0.11360684
0.060751427 0.145386 0.21554688 0.04721818 0.17258914 0.1784561 0.20759986 -0.123112805
0.18299153 -0.1132698 0.091113776 0.33805656 0.09770078 -0.17572762 -0.19342509 0.22216527
-0.09528539 -0.20651512 -0.0023814214 0.07613766 -0.005133437 -0.23323743 0.054429747 0.17150304
-0.13281024 0.22499265 -0.06519666 -0.13568918 0.34710938 -0.07661717 0.3311686 -0.006682951
-0.1984454 0.049995214 -0.2002747 0.25467607 0.041597538 -0.10920973 -0.23748867 -0.12018325
0.26823002 0.46295476 0.08512084 0.31964996 0.08955535 0.20612994 -0.011224084 0.038489375
0.024621552 0.089997925 -0.09523847 0.03895496 0.10519277 0.33122593 0.10482847 -0.1930136
-0.38843772 -0.2437798 -0.28638017 0.23573422 -0.3401275 0.06423498 0.14234565 -0.2201363
0.16655295 0.013521758 0.022010962 0.16983718 -0.087245226 -0.17695051 0.0964069 -0.09766277
-0.012320081 0.38975906 0.16206893 -0.12833655 -0.16241536 0.38087383 -0.17064776 -0.2374527
0.16102122 0.20833905 0.040178236 -0.0017399187 -0.029236566 0.069795586 -0.09166281 -0.16946273
0.07964798 0.22566842 0.14476947 0.5546382 0.15512943 -0.19275571 -0.15888602 0.031436127
0.13742013 -0.20076218 0.16295859 0.0490491 0.059181076 -0.09385379 -0.13750759 -0.19121936
-0.19003685 -0.25545767 0.25160336 0.13757531 -0.31892613 0.041271932 -0.025946261 -0.06915345
-0.03968112 -0.2008634 0.15970278 0.021040782 -0.27462476 -0.19950236 -0.11082048 -0.07782793
-0.11585463 0.21020785 0.24070145 0.32701665 0.0073079034 0.087888815 -0.1121968 -0.03740462
-0.3537494 0.14604592 0.1748246 0.07438367 -0.10148927 0.1674821 0.1475376 -0.054009184
-0.25160098 -0.08917589 0.1678642 -0.1708447 -0.2861949 0.39219952 0.082949236 0.22025834
-0.050517075 -0.18902533 0.007669293 0.13397406 0.04196933 -0.21014556 0.15799163 -0.15854566
-0.21888816 -0.20690954 0.12045682 0.06088386 -0.28826943 0.20994535 0.28000185 -0.12891497
-0.25659245 0.07079641 0.028828833 -0.10886097 0.0009268752 0.0014457575 0.08271569 -0.0014200947
0.13444339 -0.15094857 0.026169505 -0.033583958 0.18369523 -0.048916608 -0.09627229 0.16810824
0.23987988 0.20260285 -0.24333812 -0.20389695 0.22556517 -0.15428856 -0.30360007 0.2239787
-0.049694948 0.1853535 0.27827665 -0.10399138 0.07654889 0.26878625 0.19380824 0.08852164
-0.3196595 0.24473746 0.031347394 -0.16119169 -0.035376884 0.13682674 0.22074358 0.046751987
0.23024987 -0.16163039 -0.320914 0.0541099 0.31124765 -0.1045165 -0.23664086 0.15294592
0.1584702 0.016275318 -0.031973235 -0.024479862 -0.025758874 -0.11045678 0.0011505365 0.14576237
0.07017882 0.1947015 -0.05070392 -0.3710235 0.124756806 -0.057796054 -0.31893286 -0.019592267
0.19348893 0.28086197 -0.09803556 -0.1420315 0.307489 0.056070574 -0.24348149 0.0055690343

bias f4 [128]
00000000: d9cd b63e f403 14be 1386 2fbc d499 a63e
00000010: 0b4c cc3d 7122 ba3e 751f 813c 3e0c 9f3e
00000020: 0676 ad3c aad1 143d 32bf 103d 6084 ce3e
00000030: 80c5 533e 5c58 b5bd 3e17 c23e 766d 193e
00000040: f010 083e f998 f83e 41fe a93d a74a ba3e
00000050: f471 a03e 6944 82bc 48cd 183e 97c1 7a3e
00000060: 53b9 47be c66d 903e e610 e7bb 8d6d cabc
00000070: c521 c6bd c5b2 a13e 04ef 0cbe 9861 6b3e
00000080: 2cae afbd 703c a33e 410b b53c 470a b9bd
00000090: dd98 d9bd 3952 023e 5c08 993e 02c0 903d
000000a0: 458e 493e a11b 853e 7b13 a3bc eb82 693e
000000b0: 2a48 6a3e 639a 2d3e 90ec 963e fc54 4a3e
000000c0: 3339 933e ceb6 153f a3e4 c03e 5115 b03e
000000d0: 2a3d 09be 659d 12bd ed38 913e 68e8 29bd
000000e0: cae8 27bd ed22 a53e 8b72 a23e c2ae e03e
000000f0: 1e5b 5c3e b93b b33e 49d3 913e 0ef2 883e
00000100: 5803 c63e 8551 833d adf7 943d b317 c83e
00000110: 24d7 aa3e 9934 493d e169 543e 3fc4 223e
00000120: 6099 1f3d ee52 bb3d 3d05 af3e 0569 a43e
00000130: 8bc3 ad3e aa3b 2fbe e0fb 22be 4352 413b
00000140: 7fcb 633e 952c 4d3e c769 a13c 7d84 46be
00000150: 2a81 bc3e e435 00be 3892 a63e 2bfa db3e
00000160: 6719 6a3e 672a a6bd f64d 243e fd4e 0b3e
00000170: 7f13 9b3d df5f 813e b0bf 41bd 4c76 a73e
00000180: 3c55 9b3e 0357 0dbe 4915 843e 10df 393e
00000190: 7530 f63d 8819 3ebc e91f 7bbc 0f79 2ebc
000001a0: 6db7 353e 5512 e73e 749e 34be d191 05be
000001b0: 47fe 9e3e facd ffbd c5e3 413e 7e5d 373e
000001c0: 0427 993e 459c 17bd 8c0d 7e3e be7a 963e
000001d0: b958 953e 164f d73e ebd6 1ebe 6800 c23d
000001e0: 943e bb3b 4977 91bd 2943 edbd 7d21 863e
000001f0: 14d6 b03e e5ed c63d 901d d13e e0ad f03d
0.35703924 -0.14454633 -0.010713118 0.32539237 0.099754415 0.36354402 0.01576207 0.31064028
0.021174442 0.036332764 0.035338588 0.4033537 0.20680809 -0.08854744 0.37908357 0.14983162
0.13287711 0.4855421 0.08300448 0.3638508 0.3133694 -0.015901761 0.14922059 0.24487911
-0.1950429 0.2820875 -0.007051575 -0.024710441 -0.0967441 0.31581703 -0.13763052 0.22986448
-0.085781425 0.31882048 0.022100093 -0.090351634 -0.106248595 0.12726678 0.2988919 0.070678726
0.19683178 0.25997642 -0.01990675 0.22803847 0.22879091 0.16953425 0.29477358 0.19758981
0.28754577 0.5848206 0.37674436 0.34391263 -0.13402238 -0.035794634 0.28363743 -0.041481405
-0.04099349 0.3225321 0.31728014 0.4388333 0.21519133 0.35006502 0.2848151 0.26747173
0.38674426 0.06412033 0.07273803 0.3908058 0.33367264 0.049122427 0.20743515 0.15895174
0.03896463 0.09146677 0.34183684 0.32111374 0.3393825 -0.17112604 -0.15916395 0.0029498495
0.22245596 0.20036538 0.019703759 -0.19386478 0.36817294 -0.12520558 0.3253343 0.429643
0.22861253 -0.08113556 0.16045365 0.1360435 0.07572078 0.25268456 -0.047301948 0.3270744
0.30338466 -0.13802724 0.2579749 0.18151498 0.12020961 -0.011602767 -0.015327432 -0.01064898
0.17745753 0.45131174 -0.1763857 -0.13043906 0.31053373 -0.12490459 0.18934543 0.17906758
0.2991258 -0.037014265 0.24809855 0.2939052 0.29169253 0.42052525 -0.15511672 0.09472734
0.005714247 -0.0710283 -0.115850754 0.26197425 0.3453833 0.097133435 0.40842867 0.11751914

weight f4 [256, 786]
00000000: d3f9 853d 65cd 4dbc 1df3 86bc 613c 7d3c
00000010: d4e4 ae3d 3a0f 9e3d 884d cc3d 1d8c a83b
00000020: f192 183d a634 903c ef0c acbb 914c 5c3d
00000030: 6ffe ea3d 9be9 45bd a8c1 d43d fcd8 9b3d
00000040: 4231 043d 8bb8 98bc 8e70 133d 40ba 853d
00000050: e37c e33d dde9 9d3c f40a e43d 83d0 013e
00000060: ebbb 483c cc4f 6e3c a795 cb3d 6584 82bd
00000070: e9bb 75bc 83d7 85bc bf39 ee3d e437 b7ba
00000080: 0a29 a23d fa5e 1a3d 35ac a5bd 6a44 3d3d
00000090: a69a 393c 404f 503c 46c5 603b 4f81 6fbd
000000a0: 6cc4 c63d e1b2 343d 020e 203d 643c a63d
000000b0: 1640 ec3d 58d9 a73d 8053 b63d f1df 263d
000000c0: e55c 003d 7bef e13d 9a45 b83c 2a8c 113e
000000d0: a997 ae3b 6bf6 503d 5eba 903d c161 e0bd
000000e0: 277a 02bd 949a ab3d d74f fa3c 042b ec3d
000000f0: 86a5 7b3a 1c97 8f3d 736b e53d 56e5 883c
00000100: dc6a b63c 9549 0f3d f823 493c bc72 0ebd
00000110: 76aa a33c 0a26 48bd 3087 ad3b b3a3 973d
00000120: f7fe f03c 496a 4dbd c49c 7a3c 8707 1b3e
00000130: 538c 023e cb41 94bc d6a9 b5bb 6b02 7ebd
00000140: d445 743d 6fde 653c 4a01 893d 0436 793d
00000150: 8a1d bd3d d819 023a ef8b ad3d ef6e 2c3e
00000160: 7e12 b13c 7ab7 e93d a6f1 76bd 7a2a dcba
00000170: cb88 b23d 5b75 57bc 9e42 813c 6523 763d
00000180: c7bd 853d 59c7 303b c1a3 c43d 006d 133d
00000190: ab74 453d f726 2a3e a971 dd3d 7e22 0d3d
000001a0: 9ba0 263d d1c1 aa3d eddd 08be 317f f3bc
000001b0: 9d36 f93c 7a9e 2b3d c3e3 863d 0ae2 83bc
000001c0: fc4a 9ebc b2dd 563d 3595 27bd 6d99 c23d
000001d0: 97ba 1c3e fac6 8abc a5eb 9fbb 33af f73d
000001e0: a722 223d 3faa c23c f757 d6bd 0234 d53d
000001f0: 8dbe dc3d 3aef 033e 8a97 9f3d aa19 9e3d
00000200: 00cc c6be 6f7c afbe e00e c93e d314 6a3d
00000210: 6906 193d 9d13 cc3d 320a d73d e122 0ebd
00000220: b72b 4bbd 7fc4 293d 681c c93d 887e 5ebd
00000230: 8dc5 ec3c 8ede 5b3d 36c9 1b3e 3e42 6c3d
00000240: 65e5 7fbc d640 c5ba 617d ba3d 6555 a9bd
00000250: 0b4a b63d 5a73 a23d 4e94 58bc b11c 5a3d
00000260: 2275 ac3d facb f33d f3f0 133d 8bfd 933c
00000270: c845 c33c 078d a13d 4344 83bc 4458 763d
00000280: 2509 553c c8ec 2fbd 2f79 2c3d 63ba 513e
00000290: 06cd c63d 83f7 e13d 23c6 b23d 0b75 83bd
000002a0: f724 013e d36b 8c3c 9a0a 3c3d 2dc8 573d
000002b0: 08fb de3d 8f62 c73d 7efb 193d bfcb a2ba
000002c0: 82c8 c3bd 5c33 723d d7d3 8d3d 573d 143e
000002d0: 2768 723d e650 da3d 2937 3fbc b04a ebbc
000002e0: fb07 913d 256f 5fbd 1977 443a 9f7b 1e3c
000002f0: c2e9 063e 4a7b ad3d 500f 533d ffae 303d
00000300: af47 123e df43 763d 85e0 763c f351 403d
00000310: 8a19 9e3d a414 a73d 1bed d73d eb99 ec3d
00000320: b19a 003e 9a14 07be a214 923d 3a92 8c3d
00000330: 46d6 923d 6cd1 f63d ed90 57bb 8214 423d
00000340: 3987 e9bd fa85 4cba fa32 af3c a178 4abc
00000350: 7136 803d 7939 b1bc 50b0 a5bb 2c09 aebd
00000360: f269 b73d af37 c03d 0ab2 3e3d 666b c03d
00000370: 610b 543c c343 7a3c cb2f 92bb 032a 8d3d
00000380: d16b ce3c 7601 7cbc c498 073d aaeb 003e
00000390: cb49 6c3d 6232 6b3d 17d5 1e3d e65e 9dbc
000003a0: 225f 16bd b27b 613d 479a acbc 1218 c73c
000003b0: bf9d ef3d d98b 93bb 6022 ed3c 3bf9 cf3d
000003c0: 1293 bfbd 3aed fd3d 412d 0d3d 9301 483d
000003d0: eedf c8bc e6f5 363d 451a fcbd ee89 063e
000003e0: 5396 2e3d f08b b0bd 62f9 573a 369c a6bd
000003f0: c1b1 26bc fd2f 0b3c 5167 023d 976f 883d
0.06541791 -0.012561177 -0.016473347 0.01545629 0.08539739 0.07717748 0.099757254 0.005143656
0.03724951 0.01760323 -0.0052505652 0.053783957 0.114743106 -0.048318487 0.103884995 0.07609746
0.03227354 -0.018642684 0.035996012 0.06529665 0.111078046 0.019276554 0.11134902 0.12677197
0.012251834 0.014545392 0.09940653 -0.063729085 -0.014998415 -0.016338116 0.11632108 -0.0013978449
0.07917984 0.037688233 -0.080894865 0.046207823 0.011328375 0.012714207 0.0034297272 -0.058472928
0.09705433 0.044115905 0.03907586 0.08116987 0.11535661 0.08195752 0.08902645 0.04074091
0.03133859 0.110320054 0.022494126 0.14213625 0.005328138 0.051016252 0.07066797 -0.10956145
-0.031854775 0.08379093 0.030555649 0.11531642 0.0009599555 0.07011244 0.11202135 0.016710918
0.022267751 0.034982283 0.012276642 -0.034777388 0.019978743 -0.048864402 0.0052956566 0.0740427
0.029418452 -0.05015019 0.015296165 0.1513959 0.12748842 -0.018097779 -0.0055439277 -0.062014025
0.059636906 0.014030083 0.06689699 0.06084253 0.0923415 0.00049629575 0.08473956 0.16839193
0.021615263 0.114119485 -0.060289048 -0.0016797327 0.087174974 -0.013150538 0.015778836 0.06009235
0.06530338 0.002697429 0.09601546 0.035992622 0.048206966 0.16616426 0.108126946 0.034456722
0.04068051 0.08337749 -0.13365908 -0.029723736 0.03042155 0.041899182 0.06586411 -0.016098995
-0.019322865 0.05245752 -0.04091378 0.0950192 0.15305553 -0.016940583 -0.004880386 0.120939635
0.03958383 0.02376282 -0.10465997 0.1041031 0.10778532 0.12884226 0.07792576 0.07719739
-0.38827515 -0.34274623 0.3926916 0.057148766 0.03735963 0.099646784 0.104999915 -0.034701232
-0.049602237 0.04144716 0.09819871 -0.05431989 0.028902793 0.05367904 0.15213475 0.05768036
-0.015618657 -0.001504923 0.091059454 -0.08268241 0.08900841 0.07932158 -0.013218952 0.05325002
0.08420779 0.1190414 0.03611846 0.018065235 0.023836985 0.07888227 -0.01602376 0.06014277
0.0130026685 -0.04295042 0.042107757 0.20481257 0.09707074 0.11033537 0.08729198 -0.064188085
0.12611757 0.017141258 0.045908548 0.052681137 0.10887724 0.097355954 0.037593357 -0.001242034
-0.09559728 0.05913101 0.06925171 0.14476524 0.05918136 0.106599614 -0.011670866 -0.028722137
0.070816 -0.054549355 0.00074945536 0.009673028 0.13175109 0.08470781 0.051528275 0.04313564
0.14285158 0.06012332 0.015068178 0.046953153 0.07719715 0.08158234 0.10543271 0.11552795
0.1255901 -0.13191453 0.07132842 0.06863828 0.07169776 0.12051663 -0.003289278 0.04738284
-0.11402745 -0.00078019465 0.021386612 -0.012357862 0.06260384 -0.02163385 -0.0050564185 -0.08497843
0.08955754 0.09385621 0.04655651 0.093954846 0.012942166 0.015274945 -0.004461264 0.06892779
0.025197895 -0.015381208 0.033104673 0.12589899 0.057687562 0.057421096 0.038777437 -0.01921029
-0.03671182 0.055049606 -0.021069659 0.02430347 0.117000096 -0.004502755 0.028947055 0.10154959
-0.09354223 0.12398763 0.034466986 0.048829626 -0.02452084 0.0446681 -0.12309698 0.13138554
0.04262383 -0.08620441 0.000823876 -0.081352636 -0.010174216 0.008495328 0.03183681 0.06661909

bias f4 [256]
00000000: 15ea 593e aa97 2a3e 4992 503e b845 eabb
00000010: 0afd 473e de3d 393e d7ba c3bc c025 99bc
00000020: 60ef 593e a92d 433c 51cf 7e3c 49fa 253e
00000030: 6986 383e 15ea 30bc 125f 403e bbbd 333e
00000040: cc29 463e 0506 463e 0ecc 643e 415b 07bd
00000050: d5b4 533e 62bc 13bd 3276 3b3e 1e98 4a3e
00000060: c82e 3f3e 1e60 5b3e 6478 563e e8e1 c33c
00000070: 7295 c93c 9e46 bebc e77f 553e 69b3 373e
00000080: 8d15 393e 6943 353e 154b 4b3e 2bf4 703e
00000090: 0465 2c3e 8a3d 5d3e 2d47 723c 5e7f c33c
000000a0: c80d 693e 107d 3d3e 45e3 6a3e 41d6 503e
000000b0: 9b83 2b3e 2581 663e ec4f 02ba 1fcd 593e
000000c0: 4026 443e 3a59 303e ff26 423e 2fb7 583e
000000d0: 1686 553e 79b7 1f3e f2d0 24bc ec51 5a3e
000000e0: 8cd8 10bd 511d 453e 595b 553e d7d1 cbbc
000000f0: 83e5 983b 7020 543e a6ad 813c 52c6 c4bb
00000100: 497a 463e ba12 683e ff75 2ebc e092 be3b
00000110: 1b09 5e3e 14d9 06bd 9815 4a3e e71c 3d3e
00000120: b00b 923c 5ab2 d03c 1d76 6a3e 16b3 293e
00000130: 3b6f 69bb 428f 453e b805 693e 0e47 f03b
00000140: 2a70 2c3e 1b6e ad3c 93bf 38bc 1364 6a3e
00000150: 1025 363e 80af 0cbd 4343 3c3c 499d 693e
00000160: c5ef 113c a6b1 493e bd5f 503e 64db d93c
00000170: bc5a 5c3e d0eb 7abc 596c f73a f393 2a3e
00000180: d07d fcbb 22f7 71bb d59c 4cbc 2de5 d3bc
00000190: e2f6 5d3e 377f 02bd f633 573e af4c 3e3e
000001a0: b602 3a3e 97c4 3d3e eb54 633c bed6 413e
000001b0: 621d 3a3e 1095 223e 74cf 2e3e c24d ba3c
000001c0: 40de 353e 6b8c 683e f98c 1a3c d2bb d2bc
000001d0: 98de 493e af14 363e 1aa0 603e 677f 3e3e
000001e0: 8b7d 573e 8692 473e 0947 453e b127 b1bb
000001f0: 3d62 323e e883 2b3c 896c 2b3e 097e 993b
00000200: 52ee 783c f051 4b3e 571e 553e 5b6c 423e
00000210: a446 673e 51de d33b c48f 18bd 9d26 353e
00000220: 01cd 353e 01f0 4d3e a079 2b3e d794 683e
00000230: f5d7 5a3e 32b9 4b3e efeb 053b 4514 253e
00000240: 2e06 503e 12f2 2a3e 63a7 333e e560 703e
00000250: b83c e73b de2c 5c3c fa52 40bc 122e 473e
00000260: c2cc 633e 55f4 80bc c9c2 703e 4196 453e
00000270: 3ef4 0dbd f261 5a3e f1ad 493e 1355 bb3c
00000280: 0d6a 743c cdb5 453e 4466 453e a00e 353e
00000290: fdba d93b bb70 583e 831b 5d3e cbb5 673e
000002a0: 2ec7 5d3e 99f2 1abd e8a8 ca3c 2d6c 3e3e
000002b0: a7d0 4d3e f25e 473e 0481 523e 5fe9 4b3e
000002c0: 68f6 703e ef88 603e 36af 343e fab3 543e
000002d0: d981 abbc fb89 2b3e e43e 5dbc 8ace 683e
000002e0: cdba c23c fc6b 423e 6b75 493e 05f3 bcbc
000002f0: 96c2 2b3e cc0a 75bc 34a0 4c3e 7aa7 6d3e
00000300: 3a50 4b3e bb0b 18bd 399f 293e 62ed 103c
00000310: 9e3a 42bc 0b99 653e b502 3e3e e5a9 663e
00000320: 940f b83a 7564 693e 8a3d 683e b62a 393e
00000330: 5a8c 28bd e742 663e 4508 5e3e 16c8 543e
00000340: 814e 4c3e 1b1b 363e e194 393e 9ac1 4c3e
00000350: 7c19 673e 264a 903b 29bb 4c3e 88da 3e3e
00000360: d0f1 4b3e a44f 403e 4d57 533e 6dca 303e
00000370: 8280 513e c553 643e d9c4 563e 5f74 13bd
00000380: 6669 3e3e 6a14 63bc 1bc9 3b3e 71eb 4cbc
00000390: 4acd 593e d594 683e 1689 283e 3da2 623e
000003a0: 7dba 06bd 7abf d93c 4b9d 543e 31f4 15bd
000003b0: 1d8e 333e b56a 613e 626b 2d3e 5399 633e
000003c0: 3672 473e fb1e 20bd 1414 dabc 613b 343e
000003d0: a8e5 253e 2a2d 523e 7791 fe39 4d49 203b
000003e0: 07ed 5b3e 0342 05bd 107a 6b3e f2c9 6b3e
000003f0: d1f2 3abd 82cb e73c ca4a 463e 3710 5c3e
0.21280701 0.16659418 0.20368303 -0.0071494244 0.1953012 0.18090007 -0.023892803 -0.018694758
0.2128272 0.011912742 0.015552358 0.16208757 0.18020023 -0.010797997 0.18786266 0.17552845
0.19351882 0.19338234 0.22343466 -0.03304601 0.2067445 -0.036068328 0.18306807 0.1978459
0.1867019 0.21423385 0.20944363 0.023911431 0.024607394 -0.023227032 0.20849572 0.17939533
0.18074627 0.17701496 0.1985286 0.23530643 0.1683541 0.21605507 0.014787477 0.023864444
0.22759163 0.18504739 0.22938259 0.20394231 0.16749422 0.22510202 -0.0004971016 0.21269654
0.19155216 0.17221537 0.18960188 0.21163629 0.20851931 0.15597333 -0.010059582 0.21320313
-0.035362765 0.19249465 0.20835628 -0.024880333 0.004666032 0.20715499 0.015829872 -0.006005087
0.19382586 0.22663394 -0.01064825 0.0058158487 0.21683161 -0.032921866 0.197348 0.18468057
0.017827839 0.02547567 0.22896619 0.16572222 -0.0035619277 0.1929293 0.22756088 0.007332689
0.16839662 0.021170666 -0.011276144 0.22889738 0.17787576 -0.034347057 0.011490646 0.22813906
0.008907263 0.19696674 0.20349021 0.026593871 0.21518987 -0.015315011 0.0018876895 0.16658
-0.0077054277 -0.0036920984 -0.012488564 -0.025866115 0.2167621 -0.031859603 0.21015915 0.1858394
0.18165097 0.18532024 0.0138752265 0.18929574 0.18175271 0.15877175 0.17071325 0.022742156
0.17760563 0.22709815 0.009433025 -0.025724325 0.19713819 0.17781328 0.21936074 0.18603288
0.21043985 0.19489488 0.19265379 -0.005406343 0.17420287 0.010468461 0.16740622 0.004684214
0.015193539 0.19855475 0.20812355 0.18986647 0.22585541 0.006465711 -0.03724648 0.17690511
0.17753984 0.20111085 0.16745615 0.22713028 0.21371444 0.19894865 0.0020434817 0.16121013
0.20314857 0.16693905 0.17544322 0.23474462 0.007056799 0.013438432 -0.011738533 0.19451168
0.22246078 -0.015741507 0.23511805 0.19295599 -0.034656756 0.21326426 0.1969526 0.022867715
0.014917863 0.19307633 0.19277292 0.1768136 0.006644605 0.21136753 0.21592526 0.22627942
0.21658012 -0.037829015 0.024738744 0.18595953 0.20099126 0.19469813 0.20557028 0.19913243
0.23531497 0.21927236 0.17644963 0.2077178 -0.02093594 0.16751854 -0.013503764 0.22735038
0.023770714 0.18986505 0.19673698 -0.0230651 0.16773447 -0.014956187 0.19982988 0.23208418
0.19854823 -0.037120562 0.16564645 0.008845659 -0.011854796 0.22421663 0.1855572 0.22525747
0.0014042729 0.22792228 0.22679725 0.18082699 -0.041149475 0.22486459 0.21682842 0.20779452
0.19951822 0.17783777 0.18123199 0.19995728 0.22568315 0.0044033704 0.19993271 0.1863805
0.19916463 0.1878038 0.20638771 0.1726472 0.20459178 0.2229758 0.20973529 -0.035999652
0.18594894 -0.013859848 0.18338434 -0.0125073055 0.21269718 0.22713025 0.16458544 0.22132201
-0.032892693 0.026580561 0.20763128 -0.036609832 0.1753468 0.22013362 0.16935495 0.22226457
0.19477162 -0.039092045 -0.026620902 0.17600776 0.16200888 0.20525041 0.00048555035 0.0024457753
0.21477138 -0.032533657 0.22995782 0.23026255 -0.045641724 0.028295282 0.19364467 0.2149056

weight f4 [128, 256]
00000000: bda8 c63d 3da8 783d 352d 6c3d 7166 843d
00000010: 84ca 263d b787 e43d 8c6a 37bc 82cf ec3c
00000020: 54cb ab3d b83d 00bd 3a25 11bd faff e43d
00000030: ba72 fb3a 194a 953c 4310 8e3d 2507 cb3d
00000040: d43d df3d 3c9c f23d 7924 cb3d 2a4e 12bd
00000050: 330c 983b e715 cfbc caa8 c43c 1bdb 553d
00000060: cf02 ba3d 27f6 c63b 9c93 2a3d 02c0 1fbd
00000070: 643d 393d 7001 25bd d251 dab8 12e8 c73d
00000080: 81ea 363d 2ed9 f53e d3b0 553d 4435 833d
00000090: b53d e63d 37ef d63d 61bd 133c c020 28bd
000000a0: 6374 dc3d b7c5 cb3d 0f51 e23d 642d db3d
000000b0: 9e34 9b3d 9f65 dd3d d737 abbc cbb3 f23d
000000c0: b5d5 e53d e127 c53d e630 b53d 4d5a 843c
000000d0: 868f 49bb 6ae5 a93e deea 2f3c 3237 e73d
000000e0: 502b 57bd bbea b73c 3fc1 ab3d bc0d 9bbc
000000f0: f2fd 8c3d 6ca3 7a3d c35a a5bc 3e29 cf3b
00000100: 9897 d03d 13dd f23d 19d8 cf3c 58a2 383d
00000110: 5c2a e13d ba10 c63c c6b1 f43c e176 a63c
00000120: 42b9 293d a270 8c3d 8852 8d3d 0536 233d
00000130: fe21 9a3a 71c4 6a3d 3fe6 753d 2731 8c3d
00000140: 068a bb3d 8329 d23c 22c6 84bc 59f7 943d
00000150: a45b 8c3c 88f3 c5bc 9420 0e3d ca38 8d3b
00000160: f00b 33bd cb84 023c 8548 ae3c 5c04 263c
00000170: 6ef0 913d 2208 91bb af3e 44bd 2424 a63d
00000180: 0bbc 893d 5f6f a7ba 6320 63bc 644c 9abc
00000190: 5ff1 a63d 1c4b f9bb 397c b93d edbe 3b3d
000001a0: 7c2e 2e3c 3e8f a03d 3e88 42bd fbe4 d93d
000001b0: 04d1 a63d 0d5a e33d f9a0 623d 8d0d 653d
000001c0: 0e8c ea3d 46a3 9a3d 36a1 0ebd 33e3 0cbd
000001d0: a616 903d fb82 093a d415 29bc 40d2 b93d
000001e0: 8929 6c3d 014a e63d 3ef6 ef3d f18a 7ebc
000001f0: 74ce 903c 3484 833d 99bb 103d 3d8c 1f3d
00000200: 5876 0fbd e089 a63d cbb4 a63d c6bd cf3c
00000210: cf7f 723d 8847 d63b 391f 643c a52c 233d
00000220: 50b3 2a3d 70e0 bc3c 8a4f 263d c9d5 693d
00000230: cc72 d13c a08a ef3c 7fdf 1a3d fc4f ce3d
00000240: b0ca f63d db5e d63d 668f e93d 7609 02bb
00000250: 92c7 11bd a871 3d3c 4a34 ef3c 8174 cb3c
00000260: bb88 643c 1df4 f1bc b6b0 cd3d 1d4c 973c
00000270: 3b7c b3bc da2e 9c3d feee cb3d f6f2 603c
00000280: 62f0 b5bb 25f7 4a3c cadf 1f3c 2c99 e83c
00000290: 09ea d83c bf2f 9e3d d9d4 3d3c 5e45 b73d
000002a0: a5e0 b83d 3c07 b1bc b2a7 cf3c eae4 1e3d
000002b0: db6e 163d 6207 173c b119 803c c912 413a
000002c0: e3e7 ad3d 4c4d 4e3d 4967 ef3d 15c4 4a3c
000002d0: eb62 613d 5352 163d 12d3 39bc a451 513d
000002e0: 689c f7bc 36fc 113d 378d 933d 2be6 bc3c
000002f0: 1762 6b3d e66a a13c ebfe e63d 6116 f23d
00000300: 8b8a ebba 8329 693d 1651 ff3c a0be 7f3d
00000310: b3aa c43c 53de b93d 8e2b 223c 08d0 f13d
00000320: f964 86bc b10d bf3d 806a 833d 99bf 1f3d
00000330: 9af5 f43b 1a4d bc3d 5389 023c c76d da3c
00000340: af9f b73c 4d1c 103d ce19 f23b 93df af3d
00000350: 2e94 833d 81f2 003b 4d53 bfba dc7b ba3d
00000360: 47ba e63d db76 383d 31a5 ceba 3753 d3bb
00000370: 668c b73d ba97 653d 09b6 e33d 45de 95bc
00000380: db2a 9f3d 517c 7e3d 5265 7a3d ae60 08bd
00000390: c65a 103d d934 a03d 5c49 a43d 9e47 6f3d
000003a0: 5bd9 883d a4d7 9fbc 47a7 d93b e7c7 b43c
000003b0: b0c0 f03c 8df2 c23d c685 833d 15b0 9a3d
000003c0: d59e c93d f7ed 703b d949 c43b 262d c03c
000003d0: 0471 c93d 9033 253d 7ecb 5bbd 5bb8 683d
000003e0: db2f e53c cd97 263d 3504 b53c 8695 e03d
000003f0: 2d80 4f3d 67ea 253d 7a68 f23d 12a2 ad3d
0.09700153 0.06070732 0.0576603 0.06464852 0.040720478 0.11158698 -0.011194836 0.028907541
0.08388391 -0.03130886 -0.035435893 0.11181636 0.0019183971 0.01822381 0.069366954 0.09913472
0.10900465 0.118462056 0.09919066 -0.035719074 0.004640126 -0.025278999 0.024006266 0.05221091
0.09082567 0.006071824 0.041644678 -0.039001472 0.045224562 -0.040284574 -0.0001041029 0.09761061
0.044657234 0.48017257 0.052170586 0.06406644 0.112422384 0.10494845 0.009017319 -0.041046858
0.107643865 0.099498205 0.11050617 0.10702017 0.07578395 0.10810398 -0.02090065 0.11850699
0.11222402 0.09626747 0.08847217 0.01615634 -0.0030755713 0.33182842 0.010737149 0.112898245
-0.05253154 0.022450795 0.08386468 -0.018927447 0.06884374 0.061191007 -0.02018488 0.006322055
0.10185164 0.11858573 0.025371598 0.045076698 0.109944075 0.024177898 0.029869925 0.020320358
0.04143644 0.068574205 0.06900507 0.03984644 0.0011759398 0.057316247 0.060034033 0.068453126
0.09157185 0.02565456 -0.016207758 0.0727374 0.017133541 -0.024163976 0.034699038 0.0043097483
-0.043712556 0.007966231 0.021274814 0.010132875 0.071259364 -0.0044260183 -0.047911342 0.08112362
0.067253195 -0.001277428 -0.013862702 -0.018835254 0.08151507 -0.0076078307 0.09056897 0.045836378
0.0106312 0.07839821 -0.047493212 0.10639378 0.08145335 0.1110116 0.055329297 0.055921126
0.114524946 0.07550673 -0.03482171 -0.03439636 0.0703557 0.0005245653 -0.010320146 0.09073305
0.0576568 0.11244584 0.11716889 -0.015536056 0.01767657 0.064217 0.035335157 0.0389521
-0.03502497 0.08131766 0.08139952 0.025359046 0.05920392 0.006539289 0.01392346 0.0398375
0.041674912 0.023056239 0.040603198 0.057088647 0.025567435 0.029240906 0.0378108 0.100738496
0.12050378 0.10467311 0.11404304 -0.0019842065 -0.035590716 0.011562742 0.029199738 0.024835827
0.013948615 -0.029535348 0.100434706 0.01846891 -0.021909824 0.07626124 0.099576935 0.013729801
-0.0055523375 0.012388025 0.009757945 0.02839335 0.026478784 0.077239506 0.011586391 0.089487776
0.090272225 -0.021609895 0.025348518 0.03879253 0.036726814 0.009218069 0.01563725 0.0007365165
0.084914945 0.050366685 0.11689622 0.012375851 0.055025976 0.036699604 -0.011341827 0.05110325
-0.030225947 0.035640918 0.07204669 0.023058971 0.057466593 0.019704293 0.112790905 0.11820675
-0.0017970366 0.056924354 0.031166594 0.062437654 0.024007177 0.09075608 0.00989808 0.11807257
-0.01640557 0.09328783 0.06416798 0.03900108 0.007475567 0.091943935 0.007967311 0.026663674
0.02241501 0.03518324 0.00738833 0.08587565 0.064247474 0.0019675794 -0.0014596969 0.091056556
0.11265998 0.045035224 -0.0015765784 -0.006449129 0.08962326 0.0560529 0.11118705 -0.018294463
0.07771846 0.062130276 0.061131783 -0.033295326 0.03524282 0.0782258 0.08021805 0.05841791
0.06682082 -0.019512005 0.0066422555 0.022067977 0.029388756 0.09518919 0.06422 0.07553116
0.09844748 0.0036762932 0.0059902486 0.023459028 0.09836009 0.040332377 -0.053660862 0.05681644
0.02797692 0.040672112 0.022096733 0.10966019 0.050659347 0.040506747 0.118363336 0.08478178

bias f4 [128]
00000000: e09e 193e 65bc b6bc e122 103e 3c2f 043e
00000010: ed1b c4bc 5c28 62bc f490 da3c 3bea 433e
00000020: 2eac 3f3e 59c3 c53c aee0 133e 3dc1 18bd
00000030: aca7 cb3b 892a 1d3c 26ae 183e 5e1b 163e
00000040: 9c2f 1b3e ace7 b83a f3d0 43bd 908a 103e
00000050: da0d 193d 73a8 f43d 9796 7b3c 457c 143e
00000060: 40be 59bd c162 0a3c 98e2 123e f563 d53c
00000070: 0a02 163e f53f 0d3e 0c72 263e d41c fe3d
00000080: d423 1d3e c882 66bd 68d7 8ebc 078e 0f3e
00000090: af38 603e 31e3 473b 2d16 13bd 9425 b83c
000000a0: d587 0e3e c71d 4b3e d34a 593e 3a3c d2bc
000000b0: 4906 11bd fe6a 09bd b359 2e3e ee78 6abd
000000c0: a7ee 473d 259b 283e 1832 c23d bd34 033e
000000d0: f097 413e 81c6 d73b c6c0 f1bb cdd7 563e
000000e0: be55 223d e221 52bd 673c 903c 71a8 503e
000000f0: ba25 413e 7cf6 2c3e d04d 1db9 8a77 db3d
00000100: 44d9 f63c deb3 3c3e 8397 5b3d 8fc0 93bc
00000110: d750 543e c513 1b3e 3373 383e 46de 453e
00000120: 2db8 333e be7f e53c b578 5d3e 8166 623e
00000130: 436f 21bd 096d 4b3d 8533 4b3e 2f5c 5e3e
00000140: b520 213d 70eb 193e 5e77 4b3e f1c3 443e
00000150: 780e d23d f574 9ebc 5e0e 2b3e 1695 f13d
00000160: f955 fe3c 30ef 0f3c a6f1 343e a1cb 113e
00000170: 4a6c 173d ad7b 203e 7233 063e 5f86 493e
00000180: 04e2 023e 3397 80bc ec63 303e d5cc f93d
00000190: 56e8 123e b72f 543e 9a26 213e e9de d43c
000001a0: 1293 f53c 139d ce3d 2c27 58bd 02de cdbc
000001b0: 9e75 373d 951c 2b3d 2a3b ab3c efbb 2fbd
000001c0: 720d 0cbc 726b 8abb ca74 2e3d 81a0 71bb
000001d0: 7f6a 543e 9658 5c3e 84ed 1d3c 1423 2e3d
000001e0: 0d2f f43d 4fda 743e 1859 5ebc 8076 793e
000001f0: 31f3 593e 0e76 743e d1cc 473e 5794 113d
0.15002012 -0.02230663 0.14075805 0.12908643 -0.023939097 -0.013803568 0.026680447 0.1913232
0.18718025 0.024141 0.14441177 -0.03729366 0.0062150564 0.009592661 0.14910182 0.14658877
0.1515488 0.001410713 -0.04780669 0.14115357 0.037366726 0.11946192 0.015355728 0.1450053
-0.053159952 0.008446396 0.14344251 0.02604864 0.14649215 0.13793929 0.16254443 0.12407842
0.15345699 -0.056277066 -0.017436698 0.14019023 0.21896623 0.0030500407 -0.03590982 0.022478856
0.13919003 0.19835578 0.2121995 -0.025663484 -0.035406385 -0.0335493 0.17026405 -0.057244234
0.04881158 0.16465433 0.09482211 0.12813087 0.18905616 0.006584943 -0.0073777167 0.20980759
0.03963255 -0.051301844 0.017606927 0.20376755 0.18862048 0.16890901 -0.00015001674 0.1071616
0.030132897 0.18427989 0.05361129 -0.018036155 0.20733963 0.1514426 0.18012695 0.19323072
0.17550726 0.028015014 0.21628077 0.22109415 -0.039412748 0.04966453 0.19843872 0.21714853
0.039337832 0.15031219 0.19869754 0.1921537 0.10256666 -0.019342879 0.167047 0.11796014
0.031046854 0.008785054 0.17670307 0.14237835 0.036968507 0.15672179 0.13105562 0.19680165
0.1278153 -0.015697097 0.17225617 0.12197272 0.14346442 0.20721327 0.15737382 0.025985198
0.029977355 0.10088553 -0.052771732 -0.025130276 0.044789903 0.041775305 0.020902235 -0.042903837
-0.0085481275 -0.0042242343 0.042591847 -0.003686935 0.2074375 0.21518168 0.009639148 0.04251392
0.11923037 0.23911403 -0.013571046 0.2436161 0.21284176 0.2387316 0.19511725 0.03554186

weight f4 [1, 128]
00000000: cdd7 a7bd a879 9e3d b852 acbd e74e 9abd
00000010: d232 823d 2e00 613d 4a67 9e3c db97 cfbd
00000020: 6f93 8abd 9042 f33c 51e2 81bd 06b1 3d3d
00000030: 63db eb3c 1dff 983d c15b 02be 22a4 e1bd
00000040: 19ab fabd a03c 653d 8d02 11bc 0acb e0bd
00000050: 3fa8 213d 964e 0abe b1c0 123d cedb e1bd
00000060: 4ca9 243d 20f7 c137 8f25 04be 1bf8 bdbd
00000070: fb92 a5bd e838 b1bd 2ee1 84bd 428a 0ebe
00000080: 3808 08be 6007 56bc d534 55bd 1ec1 7ebd
00000090: 0a1d a9bd 673e 853d e054 413c 9ca0 9dbb
000000a0: 229b 0fbe 07de f1bd f47c e1bd bd54 123d
000000b0: a574 493c d081 023d d63d 89bd 3137 633d
000000c0: 2196 d6bb eea5 babd ce04 fbbd a01a 7fbd
000000d0: 19ae d6bd 6981 a73d 6857 6b3d 8e04 91bd
000000e0: 45bb 423d e7bf b33c 7c9b 413d d4ae f7bd
000000f0: 3000 7bbd 7128 96bd 91fb 9a3d 8bd8 14be
00000100: 0f3d a43d 64cf 15be 7306 8c3d d37d 9b3d
00000110: ef93 96bd 3261 03be 9689 f9bd 505f 18be
00000120: b587 0cbe 4aca 943d f62c f3bd a703 6abd
00000130: 92d2 143d cf61 6a3d 737c b4bd 287c c8bd
00000140: 3661 d13c 17c9 78bd 2305 f5bd db2d 0fbe
00000150: 96fa e2bd daf8 903d dbca febd 238e c2bd
00000160: 49bb 5e3d 8f72 da3b e257 92bd 4dee f4bd
00000170: 5bf0 11bc fb8f a0bd 2ce0 c0bd f1d4 a8bd
00000180: d847 15be d605 333d cab3 01be 1506 15be
00000190: fa5f d2bd 89da 93bd a1c4 08be c265 253d
000001a0: 9dfd e73c d4f1 e0bd 7da5 47bb d23c a03d
000001b0: b6ba 7b3d e24d 833c bfc3 073d e152 043d
000001c0: 5e60 953d 3afa 0d3d 2741 093d ea0c 8b3d
000001d0: 1149 73bd a8ab d5bd 215b 8e3d 72aa 13bb
000001e0: 8e04 8fbd da54 7bbd 4429 833d 0a6f 89bd
000001f0: 8e4c ebbd 91f8 78bd ad67 bcbd 379a 3e3d
-0.081954576 0.07738048 -0.08414215 -0.07534581 0.063573495 0.054931812 0.019336361 -0.10136386
-0.06766402 0.029694825 -0.063419946 0.0463114 0.028791135 0.07470534 -0.12730314 -0.11017634
-0.122396655 0.05596602 -0.008850706 -0.10976227 0.039467093 -0.1350654 0.035828296 -0.110282525
0.040200517 2.312247e-05 -0.12904952 -0.09275838 -0.08084675 -0.08653432 -0.06488262 -0.13919929
-0.13284385 -0.013063282 -0.052052338 -0.06219589 -0.08257492 0.06506043 0.011800021 -0.004810406
-0.14024022 -0.118099265 -0.11010161 0.035725344 0.012295877 0.03186208 -0.067012474 0.055472557
-0.0065486585 -0.0911368 -0.12256776 -0.06228125 -0.10482425 0.0817898 0.057456404 -0.07080947
0.047541875 0.021942092 0.047267422 -0.12093893 -0.061279476 -0.07331932 0.07567514 -0.1453573
0.080194585 -0.14629894 0.068371676 0.075923584 -0.07352435 -0.12830046 -0.121844456 -0.14880109
-0.13723643 0.07265146 -0.1187381 -0.05713239 0.036333628 0.057222184 -0.08812799 -0.09789306
0.02555905 -0.06073865 -0.119638704 -0.13982336 -0.11082952 0.07078715 -0.12441035 -0.09499767
0.054377828 0.0066664885 -0.071456686 -0.11959515 -0.008907403 -0.07839962 -0.094177574 -0.0824374
-0.14578187 0.043706737 -0.1266624 -0.14553101 -0.10272212 -0.07219417 -0.13356258 0.040380247
0.028319174 -0.10983625 -0.003046363 0.078241006 0.06145736 0.016028348 0.033145662 0.032305602
0.07293771 0.034662463 0.0335094 0.067895725 -0.059395853 -0.104331315 0.06950975 -0.0022532013
-0.069832906 -0.061360218 0.06404355 -0.06710632 -0.11489211 -0.060783926 -0.09199462 0.04653379
