trained/exp_train_3_6_1111_0.0001_0.001_32_0.95/model/meta_actor_4.pth (torch, 302079 bytes, 6 tensors)

weight f4 [512, 16]
0	0xbe4d44a4	-0.20045716
1	0xbe192528	-0.1495558
2	0x3e18b378	0.14912212
3	0x3e3e065d	0.18557115
4	0xbd75e183	-0.060029518
5	0xbe49de0b	-0.19713609
6	0x3db2249d	0.0869839
7	0x3ded80d6	0.11596839
8	0xbe01d267	-0.12677918
9	0xbe73e495	-0.23817666
10	0xbdafff23	-0.08593585
11	0xbd46476c	-0.048407957
12	0x3e3275d0	0.17427754
13	0xbe452054	-0.19250613
14	0xbe38dd48	-0.18053162
15	0x3e70f23f	0.2352991
16	0x3e2245d2	0.15846947
17	0x3e6c31f9	0.23065938
18	0x3e34da0f	0.17661308
19	0xbcd1b753	-0.025600111
20	0xbe153c2a	-0.14573732
21	0xbdbf2ef1	-0.09335125
22	0xbe3d4f70	-0.18487334
23	0x3da39676	0.079876825
24	0x3d904197	0.0704376
25	0xbc97ddf1	-0.018538447
26	0xbdb650fc	-0.08902165
27	0xbda87506	-0.082254454
28	0xbd7bfd54	-0.06152089
29	0xbe60b6f6	-0.21944794
30	0x3e663ddf	0.2248454
31	0x3cfa9f6d	0.030593598
32	0x3e5e5458	0.21711862
33	0xbe7c9b8c	-0.24668711
34	0x3e7850b5	0.24249537
35	0xbe23a830	-0.15982127
36	0x3de8e21d	0.11371253
37	0xbd5ffc87	-0.05468419
38	0x3dd60eb8	0.10452026
39	0x3c1aa9b0	0.009439871
40	0xbdb12354	-0.086493164
41	0x3c506e4b	0.012721608
42	0x3e15d5d4	0.1463235
43	0x3dcfe9b6	0.10151999
44	0x3e2370a5	0.15960939
45	0x3d924df8	0.071437776
46	0xbe7e6b78	-0.24845684
47	0xba941637	-0.0011298124
48	0xbe1bedd9	-0.1522745
49	0xbdb20f82	-0.08694364
50	0xbe2a7ba7	-0.16648732
51	0x3e80d147	0.25159666
52	0x3dae58b2	0.08513011
53	0xbe5100f1	-0.20410515
54	0x3e538406	0.20655832
55	0xbcf5ecf5	-0.030020216
56	0x3e0217c3	0.12704377
57	0xbe2ed069	-0.1707169
58	0x3e6283e6	0.22120628
59	0x3d25b7f8	0.04045865
60	0x3e6b30dc	0.22967857
61	0xbde189cc	-0.11012611
62	0xbd12188c	-0.03566794
63	0x3e0fd9e8	0.14047968
64	0xbe2cb8cc	-0.1686737
65	0x3e64d79d	0.22347875
66	0x3b26fdc1	0.002548084
67	0x3e0d553e	0.13802049
68	0xbd227056	-0.039657913
69	0x3dd3c520	0.10340333
70	0x3dbc2cc0	0.09188223
71	0x3d8518ec	0.06498894
72	0xbda100b3	-0.078614615
73	0x3d18c28e	0.037294917
74	0xbdedae22	-0.11605479
75	0xbdb02ddf	-0.08602499
76	0x3e525194	0.20538932
77	0x3e62c307	0.2214471
78	0xbe54bcc5	-0.20775135
79	0xbe0aa318	-0.13538778
80	0x3db0d7cf	0.08634912
81	0x3e04aced	0.12956591
82	0xbdaaee8e	-0.08346282
83	0x3e0ecf7d	0.13946338
84	0x3e2a5c8a	0.16636863
85	0x3e143216	0.14472231
86	0xbd87dfc5	-0.066344775
87	0x3d9e44ce	0.07727967
88	0xbe13772c	-0.14400929
89	0x3ddb941c	0.10721609
90	0xbe5025e0	-0.20326948
91	0xbe31b395	-0.17353661
92	0x3d4f4522	0.05060304
93	0x3c08f931	0.008360193
94	0x3dbab77f	0.0911703
95	0x3b51ec0b	0.0032031562
96	0xbe1f0f30	-0.15533137
97	0xbe0be3c6	-0.13661107
98	0x3d9cb23f	0.07651185
99	0xbe71a31e	-0.2359738
100	0xbe2b2874	-0.1671465
101	0xbe73df28	-0.23815596
102	0x3d1ef981	0.038812164
103	0x3d0724ef	0.032994207
104	0x3c873312	0.016503844
105	0x3de77b34	0.11302796
106	0xbe10b64d	-0.14132042
107	0x3e05a6f9	0.13051976
108	0xbda1c02e	-0.078979835
109	0xbe1dbae7	-0.15403329
110	0x3e5dbf18	0.21654928
111	0x3d5d62b2	0.0540492
112	0xbcac16d3	-0.021006977
113	0x3dbb6f9f	0.091521494
114	0x3e480d3b	0.19536297
115	0xbcf638aa	-0.030056316
116	0x3e1c3fd5	0.15258725
117	0x3d8c5bae	0.06853424
118	0xbe7fde6f	-0.24987195
119	0xbe228171	-0.1586969
120	0x3e44dd99	0.19225158
121	0xbdb2d388	-0.08731753
122	0x3e19de20	0.1502614
123	0xbdadee3a	-0.08492704
124	0xbcd73d70	-0.026274413
125	0xbe7a3790	-0.24435258
126	0xbe63d32e	-0.22248527
127	0xbc31a127	-0.010841644
128	0x3ddc6d0f	0.10762989
129	0x3dbb381f	0.091415636
130	0xbe597969	-0.2123772
131	0x3db86a34	0.09004632
132	0x3e731f94	0.23742515
133	0xbe6d6623	-0.23183493
134	0x3e092601	0.13393404
135	0xbd860fc0	-0.06545973
136	0xbe1753e9	-0.14778103
137	0xbe4663aa	-0.19373956
138	0xbe7be330	-0.24598384
139	0xbe039025	-0.12847956
140	0xbd28af14	-0.041182593
141	0xbe495ac0	-0.19663525
142	0xbe1f28f1	-0.15542962
143	0xbd9d497b	-0.07680031
144	0xbe2399b9	-0.1597661
145	0x3e7744e0	0.24147367
146	0x3e4a1355	0.19733937
147	0x3c8bff75	0.017089585
148	0xbe602809	-0.21890272
149	0xbe40a07a	-0.18811217
150	0xbdd09d61	-0.10186268
151	0xbcae0be5	-0.021245906
152	0xbca869a2	-0.020558182
153	0x3d555fce	0.05209332
154	0x3e09ae31	0.13445355
155	0xbd9d6de5	-0.07686976
156	0xbdce16b9	-0.10062928
157	0x3e704f86	0.23467836
158	0xbe09c2e1	-0.13453247
159	0x3dbb07aa	0.09132321
160	0xbe6dd1ef	-0.23224615
161	0x3dce9518	0.10087031
162	0x3e28a0b6	0.16467556
163	0x3e5a9f3c	0.21349806
164	0xbe3f96ae	-0.18709823
165	0x3d8dc0c7	0.06921535
166	0x3e7f2081	0.24914743
167	0xbd304b0a	-0.043040313
168	0xbe11a10a	-0.14221588
169	0xbe3df776	-0.1855143
170	0xbe50d4ce	-0.20393679
171	0x3d90128f	0.0703479
172	0x3da71b39	0.08159489
173	0xbd9ddee3	-0.07708528
174	0x3e77952f	0.24178003
175	0x3c58f358	0.013241611
176	0xbd0c55a6	-0.03426137
177	0xbe64401e	-0.22290084
178	0x3b04d4f9	0.0020268543
179	0xbe61f41e	-0.2206578
180	0xbe3d931f	-0.18513153
181	0xbd815a96	-0.06316106
182	0x3dd4bcaa	0.10387547
183	0xbc1ace5d	-0.009448615
184	0x3d0a4813	0.03376014
185	0xbd0d1d1a	-0.03445158
186	0x3e50509d	0.20343252
187	0xbdaf95c0	-0.085734844
188	0xbb591d72	-0.0033129123
189	0x3dfc6f77	0.12325948
190	0xbc97cf95	-0.0185316
191	0x3e4221d1	0.18958212
192	0x3df1947d	0.117959
193	0x3e7b9e7c	0.24572176
194	0xbde6dc40	-0.11272478
195	0xbe1c69b7	-0.15274702
196	0x3de657b2	0.11247195
197	0xbc1cec06	-0.009577757
198	0xbe1f153d	-0.15535446
199	0x3e016a0e	0.12638113
200	0x3cc383d0	0.023866564
201	0xbd83da28	-0.064380944
202	0x3dbc7513	0.09202018
203	0x3e4dbd74	0.20091802
204	0x3d8b826d	0.06811986
205	0x3d4198a8	0.047264725
206	0x3e0af86d	0.1357133
207	0x3dcad86c	0.099045604
208	0x3d81f949	0.063463755
209	0x3cb50414	0.022096671
210	0xbe6299e2	-0.22129014
211	0x3e00dd7e	0.12584493
212	0xbe6d6938	-0.23184669
213	0x3dce3be8	0.1007002
214	0x3c835e20	0.016036093
215	0xbc72b7e4	-0.014814351
216	0x3e0be62f	0.13662027
217	0x3d8b140e	0.067909345
218	0xbe5a8c5c	-0.21342605
219	0x3e39617a	0.1810359
220	0x3c76df98	0.015067957
221	0xbe1bb038	-0.15203941
222	0x3e4bc3c7	0.19898902
223	0xbd9b5226	-0.07584028
224	0x3e6b01dc	0.22949928
225	0x3959728e	0.00020737408
226	0x3e4df542	0.2011309
227	0xbe507464	-0.203569
228	0xbe38ceec	-0.18047684
229	0x3d6586ec	0.056036875
230	0x3defa8e3	0.117021345
231	0x3d19c4bc	0.037541136
232	0x3d9c4b55	0.07631556
233	0x3e78c0ed	0.24292345
234	0x3e2db092	0.16961887
235	0x3e75758b	0.2397062
236	0x3c83ebfc	0.016103737
237	0x3dc366f8	0.09541124
238	0x3e5c58da	0.21518269
239	0x3cbf8d35	0.023382762
240	0xbd1eff45	-0.038817663
241	0xbdac0abc	-0.08400485
242	0xbe33f2ad	-0.17573042
243	0xbdf083b4	-0.117438704
244	0xbd5ad09c	-0.0534216
245	0xbdd71edc	-0.10503933
246	0xbe6b3943	-0.22971062
247	0xbe563d1f	-0.20921753
248	0x3c3f88a6	0.011690294
249	0xbe15a3f2	-0.14613321
250	0xbca42137	-0.02003537
251	0xbdab6230	-0.08368337
252	0x3e7c40de	0.2463412
253	0xbe6e402a	-0.23266664
254	0xbe4416db	-0.19149344
255	0xbe6d67c3	-0.23184113

bias f4 [512]
0	0xbdaa1d0f	-0.08306324
1	0xbe213a90	-0.15744996
2	0x3d961aed	0.073293544
3	0x3e0584f2	0.13038996
4	0x3d69e2b9	0.057100985
5	0x3e27c5fd	0.1638412
6	0x3d054dbf	0.032544848
7	0x3e4b740f	0.19868492
8	0x3e1bbb07	0.15208064
9	0x3e8048b1	0.2505546
10	0xbd98b7ca	-0.0745693
11	0x3e76ddde	0.24108073
12	0x3d48ae56	0.048994385
13	0xbe454029	-0.19262756
14	0xbce72888	-0.028217569
15	0xbd8c21a5	-0.06842355
16	0xbd9157b8	-0.07096809
17	0x3e0def7e	0.1386089
18	0xbdb9d67c	-0.09074113
19	0x3e29e3d3	0.16590814
20	0x3e198222	0.14991048
21	0x3ddb30d7	0.10702675
22	0xbd199012	-0.03749091
23	0x3e5a8b3e	0.21342179
24	0xbdccf31e	-0.100073084
25	0xbb4145ed	-0.0029491142
26	0xbdad6d4e	-0.08468114
27	0x3e6a24d3	0.2286561
28	0x3dd2c55f	0.10291552
29	0x3dc17d3c	0.09447715
30	0xbd174b23	-0.03693689
31	0x3e258be4	0.16166645
32	0x3d86ab30	0.0657562
33	0x3dcf74b8	0.10129684
34	0x3db575cb	0.08860358
35	0x3d869fc6	0.06573443
36	0xbdcf1442	-0.10111286
37	0xbd71a6bb	-0.058996897
38	0xbe6626d0	-0.22475743
39	0x3deaf6fe	0.11472891
40	0xbe15f018	-0.1464237
41	0x3e091e46	0.13390455
42	0xbe24646c	-0.16053933
43	0xbb855613	-0.0040690987
44	0x3be24def	0.006906263
45	0x3e19ba20	0.15012407
46	0xbc0e086c	-0.008669
47	0xbd280ec1	-0.041029695
48	0x3df6221d	0.12018225
49	0x3902d330	0.0001247644
50	0x3e05904d	0.13043328
51	0xbc203d72	-0.009780275
52	0x3cfa3d44	0.030546792
53	0x3e7472b1	0.23871876
54	0xbd1e584c	-0.038658425
55	0xbe47ca50	-0.1951077
56	0xbe1024fb	-0.14076607
57	0xbcbdef24	-0.02318532
58	0x3e4893b0	0.19587588
59	0xbd9ce565	-0.07660941
60	0x3e1bb0cc	0.15204161
61	0x3e45dcbb	0.19322483
62	0xbda3ccde	-0.0799806
63	0xbe497ef3	-0.19677334
64	0x3ddd5b61	0.10808445
65	0x3e5c902d	0.21539374
66	0x3ce40718	0.027835414
67	0x3e1f6921	0.15567447
68	0x3c21ec4a	0.009882996
69	0x3da1a844	0.07893422
70	0xbe227d4a	-0.15868106
71	0xbe0f5a90	-0.1399939
72	0x3d4b19cf	0.04958516
73	0xbdd00185	-0.1015654
74	0x3d4a396b	0.049371164
75	0x3c650a56	0.013979515
76	0xbc9d7657	-0.019221468
77	0x3e13893b	0.14407818
78	0xbe5f64ff	-0.2181587
79	0xbe6a065b	-0.22853987
80	0x3d8e1871	0.069382556
81	0xbdaa5049	-0.083160944
82	0x3e104758	0.14089715
83	0xbe492c7f	-0.1964588
84	0xbe5d3bf5	-0.21604903
85	0xba3911af	-0.0007059825
86	0x3e4e5e65	0.20153196
87	0xbe19dca7	-0.15025578
88	0x3e6bc6b9	0.23025025
89	0x3dde85c8	0.108653605
90	0x3e0a1271	0.13483597
91	0xbdc39633	-0.095501326
92	0xbdfadd41	-0.12249232
93	0x3d385862	0.045006163
94	0xbccaf0c9	-0.024773018
95	0x3e334b3d	0.1750917
96	0x3df9164d	0.12162457
97	0xbab15d3b	-0.0013531813
98	0xbe2870ec	-0.16449326
99	0x3d9501d4	0.07275739
100	0xbe48dc01	-0.19615175
101	0xbe0f6a37	-0.14005361
102	0x3df5561d	0.119793154
103	0x3e3a9acc	0.18223113
104	0x3d89d651	0.06730331
105	0xbd949636	-0.07255213
106	0xbd67071e	-0.05640327
107	0xbd3e1979	-0.04641101
108	0x3cfef841	0.031124236
109	0x3dd5780d	0.104232885
110	0xbe18d014	-0.14923126
111	0x3d8260dd	0.063661315
112	0x3df63b90	0.120230794
113	0xbd16e65f	-0.036840793
114	0xbe1ff36c	-0.15620202
115	0x3e6dfd32	0.23241118
116	0x3e88590f	0.26630446
117	0x3e5310a2	0.20611814
118	0xbe66a2fa	-0.22523108
119	0x3e6d3893	0.23166113
120	0xbe216b28	-0.15763533
121	0xbd3d5b7a	-0.046229817
122	0x3e7959a4	0.24350601
123	0xbe39e9bd	-0.1815557
124	0x3e2b514e	0.16730234
125	0xbe398950	-0.18118787
126	0x3bb2e411	0.0054593165
127	0xbe4829ee	-0.19547245
128	0xbe1dd291	-0.15412356
129	0x3de7732f	0.113012664
130	0x3e6bb5b6	0.23018536
131	0x3e59e920	0.21280336
132	0x3d86d5c2	0.0658374
133	0xbe3435ae	-0.17598602
134	0x3e37d880	0.17953682
135	0xbdd03edc	-0.101682395
136	0xbe618149	-0.22021975
137	0x3dbac556	0.0911967
138	0x3e6078de	0.21921107
139	0x3e839151	0.25696805
140	0xbe1cbcd3	-0.15306406
141	0xbe2870ef	-0.16449331
142	0x3d87b373	0.06626024
143	0xbdccf4f6	-0.1000766
144	0xbdf2fd86	-0.11864762
145	0xbe22b31b	-0.15888636
146	0xbd8d26c8	-0.068921626
147	0xbdb90c07	-0.09035497
148	0x3c25a4ef	0.010110124
149	0x3be04682	0.0068443427
150	0x3d8a8bb5	0.06764928
151	0xbd3ee119	-0.04660139
152	0xbda975d2	-0.082744256
153	0x3ca27b4e	0.019834187
154	0x3d6cfa60	0.057855964
155	0xbe32fb24	-0.17478615
156	0x381ba010	3.710395e-05
157	0x3e7e61f7	0.24842058
158	0xbe61ca74	-0.22049886
159	0xbd2e17af	-0.042503055
160	0x3e1fa36a	0.15589681
161	0x3e36e7cb	0.1786186
162	0x3e541b53	0.20713548
163	0x3e762831	0.2403877
164	0xbe75973b	-0.23983471
165	0xbe592374	-0.2120493
166	0x3e3a547b	0.18196289
167	0xbdfe56b9	-0.12418885
168	0x3e4bdc32	0.19908217
169	0xbda8181b	-0.08207723
170	0xbe2acaa4	-0.16678864
171	0x3e85c8b8	0.261297
172	0x3d465178	0.04841754
173	0xbda68a8a	-0.08131893
174	0x3e05e718	0.13076437
175	0x3e0dc68f	0.13845275
176	0x3e348472	0.17628649
177	0x3e128b67	0.1431099
178	0xbd4f3755	-0.050589878
179	0xbd6787cb	-0.056525987
180	0x3e55b1d1	0.20868613
181	0x3d98be20	0.074581385
182	0x3d3a3165	0.045457263
183	0xbe395fd0	-0.18102956
184	0xbd6713e8	-0.05641547
185	0xbd9488db	-0.072526656
186	0x3d269a7c	0.04067467
187	0x3e740c73	0.23832874
188	0x3e608cd5	0.21928723
189	0xbe142bff	-0.14469908
190	0x3e1231ac	0.14276761
191	0x3d42b9df	0.04754054
192	0xbce4278b	-0.027850887
193	0xbd64924b	-0.05580358
194	0x3e56e2c3	0.2098494
195	0x3e6cf691	0.23140933
196	0x3e355834	0.17709428
197	0x3de6be71	0.112667926
198	0xbe3a20f1	-0.18176629
199	0xbd979e77	-0.07403272
200	0x3e3dd977	0.18539988
201	0xbcf90e9b	-0.030402472
202	0x3d9f8393	0.07788768
203	0xbd40e676	-0.047094785
204	0xbde77da7	-0.11303263
205	0xbc096c7a	-0.008387679
206	0xbe2758b6	-0.16342434
207	0x3e644e96	0.22295603
208	0x3e69bbf4	0.22825605
209	0x3da25703	0.079267524
210	0xbe6640ca	-0.22485653
211	0x3e5b1718	0.21395528
212	0x3d6a6dc0	0.057233572
213	0xbe3d837b	-0.18507187
214	0x3e833b29	0.25631073
215	0xbe6bdbdd	-0.2303309
216	0x3e192937	0.14957128
217	0x3e53ef46	0.20696744
218	0xbe223685	-0.1584111
219	0x3d55edd2	0.052228756
220	0x3e5238ab	0.2052943
221	0x3cb235d4	0.021754183
222	0xbd85b2e5	-0.06528262
223	0x3e55f71d	0.20895047
224	0x3e66fc58	0.22557199
225	0x3d75a581	0.05997229
226	0xbe68e5fc	-0.22743982
227	0xbe4f92cf	-0.20270847
228	0x3db100be	0.0864272
229	0xbd8514da	-0.06498118
230	0xbd44b1d3	-0.04802115
231	0xbcd41ab8	-0.025891647
232	0x3e6c4b56	0.23075613
233	0x3c99e4e3	0.0187859
234	0xbd740d68	-0.059583098
235	0x3d1e8b4c	0.038707063
236	0x3dfec286	0.12439446
237	0xbd4c6419	-0.049900148
238	0x3d637553	0.05553181
239	0xbb9db965	-0.0048133605
240	0xbe42a608	-0.19008648
241	0xbe0571d5	-0.13031705
242	0x3e08f98c	0.13376445
243	0xbe2cfac1	-0.1689253
244	0x3e699331	0.22810055
245	0xbd7bf4e7	-0.061512854
246	0x3e75723a	0.23969355
247	0xbe0c8143	-0.13721184
248	0x3d250140	0.040284395
249	0xbda3907b	-0.07986542
250	0x3d6aa6ad	0.05728786
251	0xbcc98cd7	-0.02460329
252	0xbe1ed616	-0.15511355
253	0xbdd7a6e4	-0.10529879
254	0xbca9035a	-0.020631481
255	0xbdca01d3	-0.09863629

weight f4 [128, 512]
0	0x3a99cc66	0.0011733889
1	0xbc5d821f	-0.013519793
2	0xbbf39b2b	-0.007434269
3	0xbc882f56	-0.016624134
4	0x3aad21bf	0.001320891
5	0x3c021e75	0.007941832
6	0x3d1f3f74	0.038878873
7	0x3d1e8c57	0.038708057
8	0xbbc89cd8	-0.006122213
9	0xbc929390	-0.017892629
10	0x3cd2e5dc	0.025744371
11	0x3ce1c7bc	0.027561061
12	0x3cacf5bb	0.021113267
13	0x3b523c6b	0.003207947
14	0xbce430b2	-0.027855251
15	0xbc4a9e08	-0.012366779
16	0xbc9f6ae2	-0.019460145
17	0x3bf2c57b	0.0074087954
18	0x3cce3ad8	0.025174543
19	0xbc72660f	-0.0147948405
20	0xbca9fedb	-0.020751407
21	0x3b8b6611	0.0042541106
22	0xbc99ed4e	-0.018789914
23	0x3c286e1b	0.010280157
24	0x3c75d494	0.015004296
25	0x3d13a726	0.036048077
26	0xbce36984	-0.027760275
27	0x3d3acfac	0.045608208
28	0x3ccae09f	0.02476531
29	0x3b4a8175	0.0030899916
30	0xbc725f41	-0.014793218
31	0xbcf493d1	-0.02985564
32	0x3d41ca3d	0.04731201
33	0x3c31e703	0.0108583
34	0x3c3630e1	0.011120052
35	0xbcc2d7eb	-0.023784598
36	0x3bd92660	0.006626889
37	0x3d0aff89	0.033935104
38	0xbcfb611d	-0.030685956
39	0x3c7cf44e	0.015439106
40	0x3d2afd83	0.041745674
41	0xbc8ad857	-0.016948862
42	0x3d09f411	0.033680025
43	0x3cdb8c29	0.026800232
44	0xbc3abf2c	-0.011398118
45	0x3c1d6f13	0.009609002
46	0xbc181f70	-0.009284839
47	0xbbed40ce	-0.0072403913
48	0x3a0a53d9	0.00052767765
49	0x3c9b492a	0.018955786
50	0xbcfa62e0	-0.030564725
51	0xba8ebed9	-0.0010890617
52	0x3c0c1ee1	0.008552284
53	0xbd10d561	-0.035359744
54	0x38f648b9	0.0001174374
55	0x3d389b2a	0.04506985
56	0xbd0c67fb	-0.03427885
57	0x3cf7a629	0.030230599
58	0xbd0cf0b7	-0.03440925
59	0x3c9a15e4	0.018809266
60	0x3d1fc451	0.03900558
61	0xbd116acb	-0.035502236
62	0xbc8ed276	-0.01743434
63	0xbd1cef91	-0.038314406
64	0x3d220d6c	0.03956358
65	0xbca51d64	-0.020155616
66	0x3d4306d5	0.047613937
67	0xbc0d2d93	-0.008616823
68	0x3c8d82ef	0.017274348
69	0x3d41b6cf	0.04729348
70	0x3c188b86	0.009310609
71	0xbca5571f	-0.020183144
72	0x3c8936ab	0.0167497
73	0x3b6570ce	0.0035009864
74	0xbc901786	-0.017589342
75	0x3d11748b	0.035511535
76	0xbd0ec4da	-0.0348557
77	0xbc92d63e	-0.017924424
78	0x3ce350d4	0.027748503
79	0x3bc2a009	0.005939488
80	0x3c77a681	0.015115381
81	0xbd148296	-0.03625735
82	0x3cef9cdc	0.029249601
83	0xbd15bff3	-0.03656001
84	0xbce0d9a6	-0.027447533
85	0xbb243a4e	-0.0025059166
86	0xba65d222	-0.0008766969
87	0xbbcb5245	-0.0062048757
88	0x3d2faa76	0.042887174
89	0x3d1e82fd	0.03869914
90	0x3d0fd024	0.035110608
91	0xbcc010fd	-0.0234456
92	0xbd082157	-0.03323492
93	0xbc637cc6	-0.013884729
94	0x3c9e9ee9	0.019362884
95	0xbc868826	-0.016422343
96	0xbcd71992	-0.02625731
97	0xbc999813	-0.018749272
98	0xbd186d95	-0.03721388
99	0x3cb005d6	0.021487158
100	0xbc3fb8cd	-0.011701775
101	0xbb8df915	-0.0043326714
102	0x3d12e77e	0.0358653
103	0x3c9ef15b	0.019402197
104	0x3cb77732	0.022395704
105	0xbc3e809d	-0.0116273435
106	0xbcdfb894	-0.027309693
107	0x3c98c845	0.018650183
108	0x3c55db95	0.013052841
109	0xbd0e3787	-0.034720924
110	0xba98e1f3	-0.0011664018
111	0x3b21d2e0	0.0024692342
112	0xbd16fe28	-0.036863476
113	0x3d018ec6	0.0316303
114	0xbbde6db5	-0.0067879804
115	0x3d3f4f14	0.046706274
116	0xbce9f64e	-0.02855983
117	0x3c7b5034	0.015338946
118	0x3cc254ab	0.023722013
119	0xbcdee05d	-0.027206594
120	0xbc1db4c7	-0.00962562
121	0x3b6fa020	0.0036563948
122	0x3c437f14	0.011932153
123	0xbc096ba1	-0.008387477
124	0xbd0653e8	-0.032794863
125	0x3b170003	0.0023040778
126	0x3cb13097	0.021629615
127	0xbd1edb88	-0.03878358
128	0xbd0197ff	-0.031639095
129	0xbcc9daef	-0.024640528
130	0x3c5ab587	0.013348944
131	0x3d3aac8d	0.045574713
132	0x3d2042a5	0.039126057
133	0xbd20f13a	-0.03929255
134	0x3d170590	0.03687054
135	0x3cbdb7cd	0.023158932
136	0xbc024834	-0.007951785
137	0x3d473f9c	0.048644647
138	0x3c92dd02	0.01792765
139	0xbc96a0aa	-0.018387157
140	0xbbd23435	-0.006414915
141	0xbbfe7c29	-0.007766266
142	0xbc254c63	-0.010089013
143	0xbaf2d29a	-0.0018525899
144	0x3ca72794	0.020404615
145	0xba0ac1fd	-0.0005293189
146	0x3c57cddd	0.01317164
147	0xbc40dcb1	-0.011771367
148	0x3d21e55a	0.039525367
149	0x3d3599b9	0.044336054
150	0xbd088417	-0.033329096
151	0xbd0efdc7	-0.03490999
152	0x3cebe178	0.028794035
153	0x3aa914da	0.0012899891
154	0x3d11169b	0.03542195
155	0x3c975f99	0.018478202
156	0x3d244ec5	0.040114183
157	0x3cd9b8d5	0.026577393
158	0x3d13a5a2	0.03604663
159	0x3cf6d2ab	0.030129751
160	0x3ba44876	0.005013521
161	0x3d47ed53	0.048810314
162	0x3a87f473	0.0010372534
163	0xbca9b6bb	-0.020717015
164	0xbc70b787	-0.014692194
165	0x3d475cc6	0.04867246
166	0x3ce67700	0.028132915
167	0xbcd07ed1	-0.025451096
168	0xbcf7cb49	-0.030248301
169	0x3d15a5bc	0.03653501
170	0x3cdacc78	0.026708826
171	0xbbe7f86c	-0.0070791747
172	0xbc3ed851	-0.011648254
173	0x3d34430c	0.044009253
174	0xbacfff6d	-0.001586897
175	0x3d0594dc	0.032612666
176	0xbd04d029	-0.03242508
177	0xbbcb6265	-0.006206798
178	0x3d2aef40	0.041732073
179	0xbcd4588c	-0.025921129
180	0x3d382739	0.04495928
181	0xbb87eeb4	-0.0041483287
182	0xbd057540	-0.03258252
183	0xbc7a7350	-0.015286282
184	0x3d3b1c66	0.04568138
185	0x3d163165	0.0366682
186	0x3d15b2a2	0.03654731
187	0xbc4face1	-0.012675495
188	0xbd17e568	-0.037084013
189	0x3cd83c80	0.026396036
190	0x3be8b51f	0.0071016694
191	0x3c1c50a6	0.009540712
192	0x3d2bb63d	0.041921843
193	0xbd0dbda0	-0.03460467
194	0xbd0b94e7	-0.03407755
195	0xbcf5e0e3	-0.03001446
196	0x3d275224	0.04084982
197	0x3ccebd12	0.02523664
198	0xbb669ca4	-0.003518858
199	0xbb8dd3c3	-0.0043282225
200	0x3d44ce69	0.04804841
201	0x3d44d551	0.048054997
202	0xbbbdeea6	-0.0057962714
203	0xbc18b559	-0.00932058
204	0x3a095963	0.0005239455
205	0x3c31bc01	0.010848046
206	0xbcd7f0b5	-0.026359895
207	0xbcb12bc1	-0.021627309
208	0xbaf41277	-0.0018621226
209	0x3c912c7f	0.017721413
210	0x3d29ec7a	0.041485287
211	0xbc968b8d	-0.01837709
212	0x3cc6fd39	0.024290668
213	0x3d23d5f5	0.039998967
214	0x3d0c0b06	0.0341902
215	0x3d14fb1e	0.036372297
216	0x3c15666c	0.009118658
217	0x3d1eb0f7	0.038742986
218	0x3d378a5e	0.04480969
219	0x3c9caaa7	0.019124342
220	0xbd12019b	-0.035646062
221	0xbc8ce17c	-0.017197363
222	0xbcf25d61	-0.029585542
223	0x3ca4b071	0.020103665
224	0x3c1e8f13	0.009677666
225	0xbd214351	-0.03937084
226	0x3c86047d	0.016359562
227	0xbd1e9e38	-0.038725108
228	0x3c93937d	0.018014664
229	0x3cc27835	0.02373896
230	0x3d2dc962	0.04242838
231	0x3c096537	0.008385948
232	0x3c560868	0.013063528
233	0x3c869f61	0.01643342
234	0x3d22df98	0.039764017
235	0xbd0440a3	-0.032288205
236	0xbd0bc4bf	-0.03412318
237	0xbae9bfc7	-0.0017833643
238	0xbcc45798	-0.02396755
239	0xbbd878ab	-0.0066061816
240	0x3cfb0aaf	0.030644743
241	0xbcd4d310	-0.025979549
242	0x3aae0199	0.0013275623
243	0x3cf43ed8	0.029815122
244	0x3d180a7a	0.037119366
245	0xbcd07e3f	-0.025450824
246	0x3d509e61	0.050932292
247	0x3cc49cea	0.024000604
248	0x3cf7a9a8	0.030232266
249	0xbc9074f2	-0.017633889
250	0xbd04fd50	-0.03246814
251	0x3b7ec2a4	0.003887334
252	0xbbc89743	-0.0061215474
253	0x3c0ef430	0.008725211
254	0x3cc88dd5	0.024481693
255	0xba773a53	-0.0009430993

bias f4 [128]
0	0x38c6bbc5	9.4763505e-05
1	0xbcc77d9f	-0.024351893
2	0x3b429fcf	0.0029697304
3	0x3af3a977	0.0018589933
4	0x3c2d47d0	0.010576203
5	0x3d4497ee	0.047996454
6	0xbd1171bf	-0.035508867
7	0xbd2f0dc2	-0.04273773
8	0x3b8f2b0e	0.004369146
9	0xbcd8ab36	-0.026448827
10	0xbc3c950f	-0.011510148
11	0x3d8723c7	0.06598621
12	0x3c95b3b5	0.018274168
13	0x3d600f49	0.054702077
14	0x3d3f75f7	0.04674336
15	0x3d13a203	0.03604318
16	0x3c9668c7	0.018360509
17	0xbc945de7	-0.018111182
18	0x3c6bf72c	0.014402192
19	0xbc192ab8	-0.009348564
20	0xbb47c478	-0.0030482095
21	0x3d3c9ed9	0.046049926
22	0xbd32315f	-0.043504115
23	0xbd2c80b1	-0.042114917
24	0xbd347801	-0.044059757
25	0x3cd568ea	0.026051003
26	0xbba9acb3	-0.005178058
27	0xbc30226a	-0.010750392
28	0x3d21b887	0.03948262
29	0x3cf70726	0.030154776
30	0xbbab2a6d	-0.0052235634
31	0x3d1aa9c5	0.03775956
32	0x3cb42061	0.021988096
33	0x3d229e4f	0.039701756
34	0x3c53518b	0.012897859
35	0x3c439a3d	0.011938629
36	0x3cbc8331	0.023011776
37	0x3c43376e	0.011915071
38	0x3c0f1060	0.008731931
39	0xbd1f6b0e	-0.038920455
40	0xbd15a516	-0.03653439
41	0xbcf74666	-0.030184936
42	0xbcbde9bc	-0.023182742
43	0xbb981d4f	-0.0046421657
44	0xbd1a6515	-0.037694056
45	0x3cb94d87	0.022619976
46	0xbcbaf136	-0.022820096
47	0xbd24fa8c	-0.040278003
48	0xbcd91527	-0.026499344
49	0x3c658090	0.0140077025
50	0x3cbeb8ed	0.023281539
51	0x3cf2dfe6	0.029647779
52	0xbcd7e852	-0.026355896
53	0x3d2cf5ba	0.04222653
54	0x3c73fdd6	0.014892062
55	0xbbe4490b	-0.006966715
56	0x3ccbe72f	0.02489051
57	0xbb1c8fdf	-0.0023889465
58	0x3d14f946	0.03637054
59	0x3c84bc72	0.016203139
60	0x3d130768	0.035895735
61	0xbc7df1a0	-0.015499502
62	0x3c9fe3a1	0.019517722
63	0x3d6a0c3c	0.057140574
64	0xbbb3e118	-0.0054894798
65	0x3a99d8b5	0.0011737557
66	0x3c1482cb	0.009064387
67	0x3c7df68c	0.015500676
68	0x3c42a036	0.011879018
69	0x3ccd66e1	0.02507347
70	0xbb398dbf	-0.0028313247
71	0x3cf1e2b1	0.02952704
72	0x3c18ee6b	0.009334187
73	0x3c756eca	0.014980027
74	0x3c0737d2	0.008253055
75	0x3c9f786c	0.019466601
76	0xbd050b8f	-0.032481726
77	0xbc046751	-0.008081273
78	0x3d01ec29	0.03171936
79	0x3ce5c541	0.02804816
80	0xbd0b8d7e	-0.034070484
81	0x3ca24391	0.019807609
82	0x3ce8a07d	0.02839684
83	0xbd1c3b23	-0.038142335
84	0xbc906a14	-0.017628707
85	0xbc958b91	-0.018255027
86	0xbcacb14d	-0.021080637
87	0x3bea7637	0.0071552056
88	0xbcf20fdc	-0.029548578
89	0x3c0e6642	0.008691372
90	0xbc78a8e0	-0.015176982
91	0xbc56e332	-0.013115691
92	0xbb6baf92	-0.0035962802
93	0x3d77623d	0.06039642
94	0x3c129ae0	0.008948058
95	0xbd37c010	-0.0448609
96	0xbd21cc83	-0.03950168
97	0x3b911dcd	0.0044286014
98	0xbd157992	-0.03649289
99	0xbc322283	-0.010872486
100	0xbc3640b1	-0.011123822
101	0x3c837deb	0.016051253
102	0x3c087f41	0.008331121
103	0x3ced7f4a	0.02899136
104	0xbc3f5f30	-0.011680409
105	0xbba104dd	-0.00491391
106	0x3c467db3	0.01211493
107	0xb94f3681	-0.00019761363
108	0x3b3d9543	0.0028928078
109	0x3c461156	0.012089094
110	0xbc14f7a1	-0.009092242
111	0x3ccc7438	0.024957761
112	0x3d1e589e	0.03865873
113	0x3c3bcf2b	0.011462967
114	0x3bfc0fab	0.0076922975
115	0xbd4312e6	-0.047625445
116	0xbd2b0ac9	-0.041758332
117	0x3c9a495c	0.018833809
118	0x3ccf2fac	0.025291286
119	0xbcdbadd2	-0.026816282
120	0xbbee343d	-0.007269411
121	0x3d0e6f13	0.034773897
122	0xbd3d4dc1	-0.04621673
123	0x3cfdd657	0.030985994
124	0x3c122bde	0.008921592
125	0xbbac17f1	-0.0052518775
126	0x3d186e97	0.03721484
127	0xbd17bdb0	-0.037046134

weight f4 [3, 128]
0	0x3d16a7d8	0.036781162
1	0x3d9d058d	0.07667074
2	0x3bfed039	0.007776287
3	0xbd810d75	-0.06301395
4	0xbd823ab1	-0.06358851
5	0x3c06978d	0.008214843
6	0xbd01a61c	-0.031652555
7	0xbd4a3083	-0.04936267
8	0x3dd2e123	0.10296848
9	0xbd1f394f	-0.038873013
10	0x3db9c5e8	0.09070951
11	0x3d6f2db1	0.058393184
12	0xbd2a2fc8	-0.041549474
13	0x3db8d777	0.09025472
14	0x3d91e60a	0.071239546
15	0xbd699d42	-0.05703474
16	0x3b5b5d73	0.0033472448
17	0xbd6388cb	-0.055550378
18	0xbdabfea0	-0.08398175
19	0x3d7f315c	0.062302932
20	0x3dc3d701	0.09562493
21	0xbc337726	-0.0109537
22	0x3d5ab2ce	0.053393178
23	0x3da4e3f8	0.08051294
24	0xbcf5a723	-0.029986924
25	0xbd893f95	-0.067015804
26	0xbd4195ec	-0.047262117
27	0x3cedb2a5	0.029015848
28	0x3dfbced0	0.12295306
29	0x3bb7e66b	0.0056121848
30	0x3cdcbadd	0.026944572
31	0x3dbcd4ca	0.09220274
32	0xbd037d40	-0.03210187
33	0x3d87f36a	0.066382244
34	0xbd7b5c88	-0.06136754
35	0x3d406b2d	0.04697721
36	0x3d992c04	0.074790984
37	0x3d8e8fbd	0.0696101
38	0x3cdbcbda	0.026830602
39	0x3d3a5d0d	0.045498896
40	0xbc754060	-0.0149689615
41	0xbcdea54c	-0.027178429
42	0x3d3a3a0b	0.04546551
43	0x3d9ab86c	0.07554707
44	0xbda4634e	-0.08026753
45	0x3daaba91	0.08336366
46	0x3d0c4208	0.03424266
47	0x3c8cfb79	0.017209755
48	0x3dcb8328	0.099371254
49	0x3ccf40d2	0.025299463
50	0x3dcd87b8	0.10035652
51	0x3bde8604	0.0067908783
52	0xbd9482b0	-0.07251489
53	0x3c839867	0.016063882
54	0x3d9f2dbe	0.077723965
55	0xbda95a52	-0.0826918
56	0xbd550960	-0.052010894
57	0xbb8b3652	-0.004248419
58	0xbd2c9c13	-0.04214103
59	0x3cb71b95	0.02235202
60	0xbd80dd6a	-0.062922314
61	0xbda8de7a	-0.08245559
62	0x3d872628	0.065990746
63	0x3dfd6066	0.12371902
64	0x3d7a30d9	0.06108174
65	0xbdab24e1	-0.083566435
66	0x3d84889b	0.06471368
67	0x3da5edda	0.08102007
68	0xbda33147	-0.07968383
69	0x3da507b8	0.08058113
70	0xbda1a1b5	-0.07892171
71	0x3da6cb7b	0.081442796
72	0xbd773010	-0.06034857
73	0x3d4431c6	0.04789903
74	0xbc5c3ca4	-0.013442192
75	0x3da420f6	0.08014099
76	0xbd959778	-0.07304281
77	0x3cc1b65c	0.023646526
78	0xbd7af6bd	-0.061270464
79	0x3c39f73c	0.011350449
80	0xbd2c53a1	-0.042071942
81	0x3d0bffca	0.034179486
82	0xbd848780	-0.06471157
83	0xbc3a8547	-0.011384315
84	0x3dbdb74a	0.09263475
85	0x3ddbe43e	0.10736893
86	0xbd410ff4	-0.047134355
87	0x3d7730e0	0.060349345
88	0x3d1c9685	0.038229484
89	0xbc17ee3c	-0.009273108
90	0xbd850560	-0.06495166
91	0x3d79afa8	0.060958534
92	0xbc197705	-0.009366755
93	0x3d88971a	0.06669445
94	0xbcae86ca	-0.021304507
95	0xbd69327a	-0.056932904
96	0xbb9179da	-0.0044395747
97	0x3d1d1e2d	0.038358856
98	0x3cbb496c	0.022862159
99	0xbd9b69a5	-0.075885095
100	0xbd6c26c9	-0.057654176
101	0x3d85b42f	0.06528508
102	0x3d854028	0.065063775
103	0xbd920732	-0.07130279
104	0x3d8f2444	0.06989339
105	0x3d7d0b4f	0.061778363
106	0xbcb96841	-0.02263272
107	0xbc906881	-0.017627956
108	0xbb742896	-0.0037255636
109	0xbbfb90b3	-0.0076771616
110	0xbd80f3af	-0.06296479
111	0x3d7e8ee2	0.062147982
112	0xbd5bbb71	-0.053645555
113	0x3d115ccc	0.03548889
114	0xbc8a1048	-0.016853467
115	0xbd103bb1	-0.035213176
116	0x3db85e01	0.09002305
117	0xbd17ac95	-0.03702982
118	0xbc232892	-0.009958403
119	0xbd955cf8	-0.07293123
120	0x3dadb30e	0.084814176
121	0x3a84b775	0.0010125475
122	0xbd2ee5e0	-0.042699695
123	0xbd0195dd	-0.03163706
124	0x3d487125	0.048936028
125	0x3c5e4fd5	0.013568838
126	0x3dc5c5f6	0.09656899
127	0x3dac994a	0.08427675
128	0xbd3ac79c	-0.04560052
129	0xbcedd86c	-0.029033862
130	0x3ce39ea0	0.0277856
131	0xbdbe401e	-0.09289573
132	0x3d55bf82	0.05218459
133	0xbba6b7b6	-0.005087818
134	0xbc1c6ab8	-0.009546928
135	0xbd9e0a6a	-0.0771683
136	0x3d12a27f	0.0357995
137	0xbd896771	-0.06709183
138	0xbdba6c1a	-0.0910265
139	0xbdb8fdf5	-0.090328135
140	0x3d0fca8d	0.035105277
141	0x3d3c550e	0.045979552
142	0xbcca22ee	-0.024674859
143	0xbdc858d2	-0.09782566
144	0xbc8b68ee	-0.017017808
145	0x3c052b90	0.008128062
146	0xbd89af1c	-0.067228526
147	0xbd5579ff	-0.052118298
148	0x3d914d1c	0.070947856
149	0xbdda095a	-0.10646315
150	0x3ceb5d93	0.028731143
151	0x3d8ce02f	0.06878697
152	0xbda2361c	-0.07920477
153	0xbd01e2fd	-0.031710614
154	0x3c850c47	0.016241206
155	0xbc828b14	-0.015935458
156	0x3d4625a3	0.048375737
157	0xba74e234	-0.0009341568
158	0xbd0a60e9	-0.033783827
159	0x3d13283c	0.035927042
160	0x3da88636	0.08228724
161	0x3d973e58	0.07384938
162	0xbd91b02f	-0.071136825
163	0xbcf7bff6	-0.030242901
164	0x3d5ac7df	0.05341327
165	0xbd98b7be	-0.07456921
166	0xbcf1b05e	-0.029503044
167	0x3cb30221	0.021851601
168	0x3c2be729	0.010492125
169	0x3d1128a6	0.035439156
170	0xbd02dc34	-0.031948283
171	0xbdb130a7	-0.08651858
172	0xbc38a712	-0.011270301
173	0xbd929463	-0.07157209
174	0x3d1b72d9	0.037951324
175	0x3ca3130a	0.01990654
176	0xbbf63d77	-0.0075146514
177	0xbdcd8d3f	-0.10036706
178	0x3d9b5a12	0.07585539
179	0x3daa4bac	0.083152145
180	0x3d2636e1	0.04057968
181	0xbd9d9fb5	-0.07696477
182	0xbccbdc0e	-0.024885204
183	0xbda3b142	-0.079927936
184	0x3c7e5e02	0.015525343
185	0x3c213c5e	0.009841053
186	0x3c8a61a1	0.016892256
187	0x3da524f6	0.0806369
188	0xbdaf6e43	-0.08565953
189	0x3d99d327	0.07510977
190	0xbcab6fdf	-0.020927368
191	0xbcba11ef	-0.02271363
192	0xbd95aa83	-0.07307913
193	0x3d62b06b	0.055344027
194	0xbcc19029	-0.023628311
195	0x3dab3a1b	0.08360692
196	0x3dafa67d	0.08576677
197	0xbc1e1109	-0.009647616
198	0xbd2e5ce2	-0.04256905
199	0xbd7c24f6	-0.061558686
200	0x3cf85799	0.030315207
201	0xbde0a3cf	-0.10968744
202	0xbdc64346	-0.096808
203	0xbde4f41f	-0.11179375
204	0x3b250ee8	0.0025185887
205	0x3d97a02f	0.074035995
206	0xbdb9cef2	-0.09072675
207	0xbdbdcbe3	-0.09267404
208	0xbd799b1f	-0.06093895
209	0xbd959b66	-0.073050305
210	0xbdb88129	-0.0900901
211	0xbcc4c350	-0.024018914
212	0xbd9cbbee	-0.07653032
213	0x3d73a148	0.05947998
214	0x3d9efcc1	0.07763053
215	0x3d4ffef5	0.050780255
216	0xba8b3191	-0.001061963
217	0xbd84fd0b	-0.064935766
218	0xbdac3386	-0.08408265
219	0xbc4359c1	-0.0119232545
220	0x3cb71e79	0.022353398
221	0xbdbf7d3a	-0.09350057
222	0x3d0e24a0	0.034702897
223	0x3d4ce416	0.050022207
224	0x3c837480	0.016046762
225	0xbdac1fcc	-0.08404502
226	0xbdb26875	-0.0871133
227	0x3d91e814	0.071243435
228	0x3d638eae	0.05555599
229	0xbdac1181	-0.08401776
230	0xbda80b11	-0.08205236
231	0xbc6b5d84	-0.014365558
232	0x3cc0bec1	0.023528459
233	0xbdbf3686	-0.093365714
234	0xbdbdb5be	-0.0926318
235	0xbdaa3330	-0.083105445
236	0x3dadca89	0.08485896
237	0x3d79fe24	0.061033383
238	0xbd9de42c	-0.07709536
239	0x3d3dfe7f	0.046385285
240	0x3d1943af	0.037418064
241	0xba9b0270	-0.0011826288
242	0xbcecccb4	-0.028906204
243	0x3d6b0663	0.057379138
244	0xbd9a14f1	-0.075235255
245	0xbc39e78b	-0.011346708
246	0x3da7e1ca	0.08197363
247	0x3da466dc	0.08027431
248	0x3d1c24e4	0.03812112
249	0xbdf51cae	-0.11968361
250	0x3d6f4023	0.058410775
251	0xbd53023f	-0.051515814
252	0xbd9981b0	-0.07495439
253	0xbdce4ec2	-0.100736156
254	0xbd8620b5	-0.06549207
255	0xbc95bdc5	-0.018278966

bias f4 [3]
0	0xbbbd5cbc	-0.005778877
1	0xbd8eac8d	-0.06966505
2	0xbd96a5ae	-0.0735582
