trained/exp_train_3_6_1111_0.0001_0.001_32_0.95/model/meta_actor_2.pth (torch, 302079 bytes, 6 tensors)

weight f4 [512, 16]
00000000: 50ed 3abe f2a6 e1bd d24f 05be 6143 643e
00000010: 27e5 24be a872 6c3e 6e9e cb3d ce15 813e
00000020: 5161 b33d d23d 76be 258e 62bd 9d00 59bd
00000030: ddda e23d 100e 813d 75fa 3e3e 7ded cc3d
00000040: ccb7 bd3d 96db 123e 2411 2fbd a4a0 13be
00000050: 372d 99bd cc01 c93d de7e bb3c 4f02 ccbd
00000060: 1007 7d3e cc11 e43d a8b1 333e ea7f b5bd
00000070: 2fe7 123e b729 a93d c284 7f3e 6570 4fbe
00000080: 1dac 06be 5f90 733e 09a6 3ebd 3202 723e
00000090: 0525 1f3e de5b 0fbe 1623 b6bd 2dba 80bd
000000a0: 18e9 693e db7e 2c3e 7f5c 7bbd a9f2 683c
000000b0: 9d4c 83bd b901 55be c4c6 fabd 6cd9 a83b
000000c0: 86a8 6c3e 8a85 0cbe 9d63 f43d 9474 083e
000000d0: b8fa 9cbd 8ff8 f63c 0d99 31be b6e1 7c3e
000000e0: 795b 76be 8d91 98ba ec16 80be fa11 d1bc
000000f0: a450 7dbe f9c8 2a3e 6195 59be ed64 263e
00000100: c833 f63d ee63 9cbd 28af 223d 8de7 0cbe
00000110: 5d74 983d 1fce 1fbd abc0 37be 9338 393e
00000120: aa20 863e 2329 69be 36cb 1bbe 05e6 7e3e
00000130: 1392 df3d 452f 2d3d 46c8 f83d f2c4 453e
00000140: 6a7b 07be 5541 f93d 61df ce3d f53b 0bbe
00000150: 2298 6b3e f60c 103e 3dbb 7a3e 1e4d 403e
00000160: b95d 203e 6c89 5d3e 5ff8 1a3c 531a 0b3e
00000170: a940 1fbd 12e0 9cbd 0633 a23c 3935 43be
00000180: 95c4 1d3e 5316 053e ec73 4c3e 5e77 17bd
00000190: 66ac 73be 6bf8 2fbc c3ff 233e 565e 893d
000001a0: 8eff 6b3e e981 39be 212b 8ebd 331e 33be
000001b0: e359 5fbe 461f ef3d 4d0e 313e c895 a0bd
000001c0: 3bf1 3c3e d326 febd 241d 80be 9027 7bbe
000001d0: 0dad 7b3e 1a09 533d 83b8 6f3e 9b0c 103e
000001e0: 4eeb 353e 5f99 15be fcb4 6dbe 5c12 213e
000001f0: 369e 193e 54ed 4e3e 5a2f 10be aac8 60be
00000200: ca06 5f3e 44cc de3d 667a 55be 4816 043e
00000210: b640 4fbd 37ea f8bd 67ad 543e f862 193e
00000220: 9615 c9bd cce5 efbd b8ce 47be 9a94 4ebe
00000230: f5f2 c5bc fb2f 283e 41a8 813e 1cb3 4bbe
00000240: e55c af3d 2112 bbbd b74d 483e 6a2b 22bd
00000250: a643 14be ddae 25be c869 09bd 1e8d b8bd
00000260: 0951 3cbe 2f3a da3d 0592 8ebd e0bf 0f3e
00000270: 9eee 2ebc ccaf 0b3e 11ad 53be 0acb 203d
00000280: ff77 f6bd b569 5bbe ec64 293e 5dea 8e3d
00000290: ca89 66bd 8cb9 24be d195 a43c 6a1d 093e
000002a0: b324 493e 86a8 14be ad08 ba3d 1880 cfbd
000002b0: ffec 653e b7ad 21be f5af 373d 7355 5ebe
000002c0: 7837 3fbe 3b7f 813e 49f2 b93d 14d9 6e3e
000002d0: 746c 7c3e e9ad b6bc eb05 08be 400f 7e3e
000002e0: 52cd 6bbe 4b0c b53c e661 7b3e 3e09 2fbe
000002f0: 25e0 0c3e cb34 6d3e 05fe 723e 8b77 48be
00000300: bc56 473d 88bc 62bd b650 363e 478f 7bbd
00000310: ca87 423e d2f4 c13c 8e2e 1fbe 0bcc 25bc
00000320: 6923 623b 6c9a 44be 7f32 5abe 2a75 4fbe
00000330: 9cc1 5b3e 107f e33d e5c7 683e 502a 533e
00000340: 4a81 5dbd dfca 71be 1b27 633e cb76 d33c
00000350: e6d6 593e cde1 67be 5f74 bdbd f3ea 08be
00000360: 3881 28be 222a f73d a2bf 783d 0e20 0cbe
00000370: 46b4 4abe b9cb c6bc c92a a0bd bf81 49be
00000380: a0b1 10be 9ce3 c6bd 5536 a43d a5fa b6bd
00000390: 4e59 063e b516 233e 575e d1bc efdf 173e
000003a0: 564a 33be 8ebe 803e cb7d 703e efd9 6dbe
000003b0: d307 f3bd 5714 2abe 0f90 713e 3a5e 8fbc
000003c0: f42f 2cbe 5770 6e3c 5a36 e0bd 1e74 173e
000003d0: e467 323e f1c9 4f3e 2932 7cbd 2359 69bc
000003e0: 64db 67be 72ab 753e 6362 8abd a714 553e
000003f0: 47dc 02be 4356 3abe 3eed 413d b72a ab3c
-0.1825459 -0.110181704 -0.1301873 0.22291328 -0.1610304 0.23090613 0.099423274 0.25211948
0.08758796 -0.2404702 -0.05531134 -0.0529791 0.11076901 0.0630151 0.1865023 0.10006235
0.09263572 0.14341578 -0.042740956 -0.14416748 -0.07479327 0.09814796 0.022887643 -0.09961378
0.24709725 0.11136207 0.17548239 -0.08862288 0.14346002 0.082599096 0.24952987 -0.20257719
-0.13151594 0.23785542 -0.046545062 0.2363365 0.15541466 -0.13999888 -0.08893411 -0.0628551
0.22842824 0.16845267 -0.061367508 0.014218011 -0.06411097 -0.20801438 -0.12244943 0.005152872
0.23111162 -0.13722816 0.11933062 0.13325721 -0.07665008 0.030147819 -0.1734354 0.24695477
-0.24058332 -0.0011640057 -0.25017488 -0.025521267 -0.24737793 0.16678227 -0.2124839 0.16249438
0.12021595 -0.076362476 0.039717823 -0.13760205 0.074440695 -0.03901493 -0.17944591 0.18087988
0.26196796 -0.22769599 -0.15214238 0.24892433 0.10916533 0.042281408 0.12147574 0.1931341
-0.13230672 0.12170664 0.101012 -0.1359709 0.23007253 0.14067444 0.24485488 0.18779418
0.15660752 0.21634454 0.00945863 0.1358426 -0.038880024 -0.076599255 0.01979972 -0.19063272
0.15407021 0.12996797 0.19966096 -0.03697907 -0.23796234 -0.01074038 0.16015534 0.06707446
0.23046705 -0.18115963 -0.0694182 -0.17491989 -0.21811633 0.11675887 0.17290612 -0.078410685
0.18451397 -0.12409749 -0.25022233 -0.2452681 0.24577732 0.05152235 0.2341023 0.14067309
0.17765543 -0.14609288 -0.23213571 0.1572966 0.15001759 0.20207721 -0.14080563 -0.21951547
0.21779934 0.10878804 -0.20847473 0.12899125 -0.050598823 -0.12154048 0.20769273 0.1497916
-0.0981857 -0.11713752 -0.1951245 -0.20173874 -0.024163703 0.16424553 0.2532368 -0.19892544
0.0856264 -0.09134317 0.19560896 -0.039592184 -0.14478931 -0.16179986 -0.033548146 -0.09011291
-0.18390287 0.10655629 -0.06961445 0.14038038 -0.010677008 0.1364128 -0.20671488 0.039256133
-0.12034606 -0.21427043 0.16542405 0.06978295 -0.05628375 -0.16086406 0.02009097 0.13390127
0.19642906 -0.14517412 0.09083686 -0.10131854 0.22453688 -0.15788923 0.04484554 -0.21712284
-0.18673503 0.25292382 0.09079415 0.23324996 0.24650747 -0.022299724 -0.13283508 0.24810505
-0.23027542 0.022100588 0.24549064 -0.1709337 0.1375738 0.2316467 0.23729713 -0.19576852
0.0486667 -0.05535558 0.17804226 -0.061415937 0.18997112 0.02367631 -0.15545103 -0.010119448
0.003450597 -0.19199532 -0.21308325 -0.20259538 0.21460575 0.111082196 0.22732504 0.2062161
-0.054078378 -0.23612545 0.22182886 0.02581348 0.21273383 -0.2264473 -0.09250712 -0.13370876
-0.16455543 0.12068583 0.06072963 -0.13684103 -0.19795331 -0.024267064 -0.078206606 -0.196784
-0.14130259 -0.09711382 0.080181755 -0.089345254 0.13120005 0.15926631 -0.02555768 0.14831518
-0.17508826 0.25145382 0.23485486 -0.23227666 -0.11866727 -0.16609322 0.2359011 -0.017500985
-0.16815168 0.014553151 -0.10947867 0.14790389 0.17422444 0.20291878 -0.061571274 -0.014242443
-0.22642285 0.23991182 -0.06757047 0.2080866 -0.12779342 -0.18196969 0.047345392 0.020894391

bias f4 [512]
00000000: 255c c0bd 7771 853d 46ff 2abd 99fe 43be
00000010: f065 0e3e 46f6 13be c29b 54be 7670 023e
00000020: 683f 18be 10c4 36be 40b6 a1bd f86f 6dbd
00000030: 99b7 c7bd d4e5 7ebd e671 173e 6f1c 55bd
00000040: 95a8 e23b bc1f 0f3d 6472 c93d 3956 6c3e
00000050: 7212 073c 2e6b 973d d8ba 20be fdc8 18be
00000060: 698d c1bd ca46 333e c8b4 e03d f412 5f3e
00000070: 8b59 44be d1b8 803e 99dd 22be 9144 393d
00000080: 0eb0 28bd f69e 663d f1bc b93d 2055 493e
00000090: 2af9 70bd 0f01 84bd 2be9 333e 0f47 25bc
000000a0: 9331 2fbe 43d0 1d3d 732a 54be b14c 8d3d
000000b0: a2a5 823d 1a02 753e 357d 6bbe 7dc7 c8bd
000000c0: 73cb 48be 6138 6cbd 4cb9 88bd 14c5 edbd
000000d0: 43df b93d 1466 33be 80d4 c53c 105c ff3d
000000e0: e6f3 b3bd f7f3 9ebd 04ae e6bd 2fa0 f73c
000000f0: 0d60 5f3e c259 8239 1131 43be c732 4cbe
00000100: a64d 8e3d c7b1 5fbe 7f3b 30be ac62 1d3e
00000110: b6e2 2dbd 8f99 bebd fb2f 1e3d 1605 22bd
00000120: 9c6c 0d3e 386e 4ebc 1664 f03c 1479 873b
00000130: a83c a43d ef0a 823e 157b ce3d 70cb 4cbe
00000140: a379 9fbc feca 2dbe e38c 6b3e fb74 35be
00000150: 3e83 a23d 8f25 65be 4788 d1bd 0a96 113e
00000160: f785 5f3d 1ce8 413d 1898 e0bc 5986 cd3d
00000170: a83a 713e 877f 0e3e 1062 a3bd 0285 7c3e
00000180: e4a9 823c d6b4 083e 0893 513e b632 ec3d
00000190: 7a17 bcbd 5743 0dbe 709b 20be 4275 d63c
000001a0: db7d 323e 83f3 78be 4b41 023e f464 56be
000001b0: 86a2 043d f315 753e 3c77 603c 4012 13be
000001c0: b5f0 cb3d ce26 c1bd 52da 113e e06c 0bbe
000001d0: 2550 163e ab7a 79bd 4082 083b b98f 1bbc
000001e0: 7b1a 6bbe 38dc ad3c 9007 42be 376a 7f3d
000001f0: 9a3f 273b e4ab f0bd 6a6a 8ebd 6140 7a3b
00000200: aba4 be3d d5fa 683e ca41 2b3c 9d8a 363c
00000210: cc52 d23d 67e9 f1bd 32ed 47be 7735 78bc
00000220: 5aee f7bd c424 9d3c dafa 813e 6ab8 443c
00000230: 9216 86bd 5268 2abe bf73 28be a388 08be
00000240: b8ce 593e 66e8 763d a0c3 373e e255 313e
00000250: 4227 5bbe 0dd7 703e a130 f83d e313 4fbe
00000260: 2418 1dbd 0473 dbbb 6c61 16bc 925c f4bc
00000270: d54f bbbd 2ce0 00be 5bdf 503e 43c9 e8bd
00000280: 4183 363e 9a28 093e 0bd7 743e e9ad 5abe
00000290: 3a45 03bd 5c43 a43d 1739 143d e7a0 ef3d
000002a0: f6f9 f63d 8e96 a93c d6e7 ef3d bd26 3fbe
000002b0: bfd8 a93d c2c7 b03d 13ce 9a3d 5646 f53d
000002c0: 29fe dabd 1125 3d3e cfac 673e a347 3cbe
000002d0: f380 703d 547a e03c ac13 753e 84b3 763e
000002e0: 00e1 6ebe fa44 28bd 4755 0cbe 6a99 3f3d
000002f0: 648e fd3d 3bca 773e 848f 023e 9e60 993c
00000300: 6c97 8bbd 3df8 33bd 02a2 1ebe 2280 a5bc
00000310: b168 4abe 6ae8 0b3e 9af6 3bbe 54a4 113d
00000320: 52e5 c63d 40de 0cbe e874 b4bd e27d aabd
00000330: 7bf4 1b3c 3a41 5a3e 673a dfbd 41b8 0bbd
00000340: 7e08 1bbe 60b6 6b3e b7d1 5bbd 8bc6 5dbe
00000350: f5b9 b2bd 6271 8fbc a382 95bd 56b1 8a3d
00000360: 2b2d 05be 5aba 05be 84a7 ce3d 82a9 28be
00000370: a51e c33d 1024 6abd 79de c9bd 0b45 183d
00000380: 3eed 37be 12ba 983d 27c3 433e 7890 813d
00000390: dda9 50be 820e 9fbd 10b6 583e 4a43 eebd
000003a0: 1208 f63d a99a b43d 4dae debc 6662 663e
000003b0: a72c 63be fc41 3a3e 182a c23d dd4b 0f3e
000003c0: f3c0 d1bc 90d6 7b3d 50dd 24be 6983 23be
000003d0: 2ef1 813e e341 253e 564c bfbd 03ed 25be
000003e0: 2f05 10be 252f 67be 9309 b63d 7f29 533d
000003f0: 3261 7f3e a93c 173e 6785 80bd a131 813e
-0.09392575 0.06515782 -0.041747354 -0.1914009 0.13906074 -0.14449415 -0.20762542 0.12738213
-0.14867938 -0.1784823 -0.078960896 -0.05796811 -0.09751815 -0.0622309 0.14789543 -0.05202907
0.006917069 0.034942374 0.098362714 0.23079766 0.008244144 0.0739349 -0.15696275 -0.14920421
-0.094508 0.17507473 0.10971981 0.21784574 -0.19174783 0.25141004 -0.15904845 0.045231406
-0.041183524 0.05630394 0.09069241 0.19661379 -0.05883137 -0.064455144 0.17569415 -0.0100877425
-0.17108755 0.038528692 -0.20719318 0.06899393 0.06379248 0.23926583 -0.22996981 -0.09803674
-0.1960886 -0.057670955 -0.066759676 -0.11609855 0.09075787 -0.17519408 0.02414918 0.124687314
-0.08786754 -0.07761376 -0.112636596 0.030227749 0.21813984 0.00024862407 -0.19061686 -0.19941245
0.06948404 -0.2184516 -0.17210196 0.15369672 -0.042452537 -0.09306633 0.038619976 -0.03955563
0.13810962 -0.01259952 0.0293446 0.0041343067 0.08019382 0.25398967 0.1008207 -0.1999948
-0.01946718 -0.16971967 0.23002963 -0.17720406 0.07935189 -0.22377609 -0.10231071 0.14217392
0.05457112 0.047340497 -0.027416274 0.100353904 0.23557532 0.13915835 -0.07977688 0.24660113
0.01595015 0.13350233 0.20466244 0.1153311 -0.09184165 -0.1379522 -0.15684295 0.02617896
0.17430823 -0.24311642 0.1272022 -0.20936948 0.032381557 0.23934154 0.013700303 -0.1436243
0.099580206 -0.094312295 0.14243439 -0.13615751 0.1467901 -0.060908 0.0020829588 -0.009494715
-0.2295932 0.021223173 -0.18948197 0.062357154 0.0025520087 -0.117515355 -0.069538906 0.0038185345
0.09308752 0.22751935 0.010452697 0.011141446 0.102696985 -0.11812096 -0.19524077 -0.015149466
-0.12106009 0.01918257 0.25386697 0.012006858 -0.06547274 -0.16641358 -0.16450404 -0.13333373
0.21270263 0.060280226 0.17945719 0.17317918 -0.21401694 0.23519535 0.1211865 -0.2022243
-0.0383531 -0.0066970605 -0.009178501 -0.029829297 -0.09146086 -0.12585515 0.20397703 -0.113665126
0.17823507 0.13394395 0.23910157 -0.21355404 -0.03204844 0.0802066 0.036187258 0.117006116
0.12059395 0.020701673 0.11714141 -0.18667121 0.08293294 0.08631851 0.07558837 0.11976306
-0.106930085 0.18471171 0.22624515 -0.18386702 0.058716726 0.02740208 0.23933285 0.24091917
-0.23328018 -0.041081406 -0.13704406 0.046777166 0.123806745 0.24198239 0.1275006 0.018722828
-0.06815991 -0.04393791 -0.15491489 -0.0202027 -0.19766499 0.13662878 -0.1835579 0.035557106
0.09711708 -0.13756657 -0.088113606 -0.083247915 0.009518738 0.21313944 -0.10899811 -0.034111265
-0.15139958 0.2301879 -0.053666797 -0.2165777 -0.08726875 -0.01751012 -0.073003076 0.067721054
-0.13005511 -0.13059369 0.10090545 -0.16470912 0.09527329 -0.057163298 -0.098568864 0.03717522
-0.17961594 0.07457365 0.19117413 0.06326383 -0.20377298 -0.07766439 0.21163201 -0.11633928
0.12013258 0.088185616 -0.027182722 0.22498474 -0.22185002 0.18189234 0.09480685 0.13993783
-0.0256047 0.06148392 -0.16100049 -0.15968098 0.25379318 0.16138415 -0.09340732 -0.16203694
-0.14064477 -0.22576578 0.08888545 0.051553246 0.24939421 0.14769234 -0.062754445 0.25233176

weight f4 [128, 512]
00000000: d905 11bd 1739 01bd fa62 903b cf1b 1bbd
00000010: 3dc9 f93c a6ca c43c d09f ffbc 2929 b4bc
00000020: ae0b 2dbd dac7 67bc 36e4 2c3c 4614 913a
00000030: 1f9c bebc 0340 8c3c 310b 2c3d ef08 dd3a
00000040: 9483 163d 0a9f 8cbb d370 123c c4a2 24bd
00000050: 381f 9d3c bd05 1dbd 9ba4 4e3c 6723 39bd
00000060: 5d39 78bc 7b4b 0ebd a12d f4bb c9cd 113d
00000070: 7244 4bbc 6c5f 3c3c 4985 edbb ec66 b1bc
00000080: ee48 213d 31a9 e8bc 0899 95bc 5408 b63c
00000090: 3e7b 7e3c 5d4c f5bc ffd8 cc3c 27f3 30bd
000000a0: 333c 69bc ff17 1a3c 230d e43c 88f3 073d
000000b0: 4f29 5abc c030 12bb 239e dbbc bbc9 d7ba
000000c0: de4c 223c 24d8 1dbd 67a5 d43c eee7 c4bc
000000d0: 7fba da3c 27e3 ba3c dd29 a6bc 8e53 2ebd
000000e0: e65f 36ba bfc0 06bc 450d 40bc b23e 0bbb
000000f0: e57b a3bb 30a9 c9bc 772c f5ba 1d03 a03b
00000100: d259 36bd 441d 943c 7d24 20bd be64 dc3c
00000110: c08b 21bc 0e26 0f3d 68ad 2c3c f467 a6bc
00000120: 816a 3b3b 8854 203c 8b86 c5ba 0bcf 1e3d
00000130: 30dd 91bc 7f2a ff3a c651 28bc f0b1 113c
00000140: 89c9 f3bc 17ba 063d 92dd f5bb db1a 943c
00000150: 8af8 8ebc 54ca 11bd cdca f33c 9cec 3dbb
00000160: c215 183d db19 803c 584d cebc 423d e8bc
00000170: 4cfd 253d f8e3 8b3c b336 98bc b02f 34bd
00000180: 91aa 093d f0e9 1cbd fbcf 9cbc c6b1 c73c
00000190: dac5 b1bc 068a 12bd 4fb3 27bd 3ff3 37bd
000001a0: 3122 9a3c 291b f13c 229c 983c c4e1 1b3d
000001b0: cdda adbc c91a 043d 14eb 8abc c252 ce3b
000001c0: e023 26bd f719 30bd a386 49bc 57a3 07bd
000001d0: 2de8 12bd 5db3 503c 6f9d 943c 19a9 1dbb
000001e0: 1a01 0bbc 2b50 fcbc 5948 bb3b 7d69 ddbc
000001f0: 4800 09bd 3caf 0ebd a206 21bb c5f7 19bd
00000200: 2403 f63c eda5 03bd a30b 25bd 352c 193d
00000210: 288a b8bc 78d2 b6bb 23ce e53a 2430 173d
00000220: 1774 ca3c f795 d7bc 5173 623c a6a3 f83c
00000230: 452f 753c d0ec 0c3d 90fe 963c 899e 86bc
00000240: 144e 22bd edb0 073d 151d f13c 9133 f63b
00000250: 3756 bc3c 3a25 0e3d 89f0 daba 04e8 2dbd
00000260: 9a51 ce3c c2f6 33bd 21b1 1a3d da14 25bd
00000270: cdb8 013d 1652 7239 7c0c 69bc e9ed 19bc
00000280: 6bbd 083d 6b37 02bd 7382 e03c 3f31 37bd
00000290: 7e8b 85bc 9ef2 0fbd fd6d 34bd 9cac d4bc
000002a0: 951c e4bc 85df e6bb 4254 d8bc 3121 c53c
000002b0: 0afa 2abb b87e d9bc 5708 3cbb 4289 0a3d
000002c0: d2cf 2fbd 51fa 123c 940e cfbc fa67 97bc
000002d0: 60fc 91bc 4668 fd3c 6fe0 dbbb 1ffa f2ba
000002e0: c044 8c3b f02c e4bc 469b 0bbb 7845 09bd
000002f0: 9f51 233c 88fe e7ba 1e29 06bd 17f2 50bc
00000300: 220a 053c 3573 943c cba6 74bc 957e febc
00000310: d572 aebc ade2 c0ba 68a2 cf3c b2fe aa3b
00000320: 2d44 0e3d 1140 fbbb 0498 863b 467f 33bd
00000330: 4810 0a3c 5889 2cbd ea4c 613c 01b0 cebc
00000340: cf1d 0b3d 957b a7bb cd6c 8f3c 0eec e33c
00000350: b779 12bc 6510 91bb 7bb4 203d 7f7a 11bd
00000360: 61fc 34bd 1078 06bd 4eaa 913c 13c1 35bd
00000370: 2b2f ec3b 2c8b 00bd cf1b b6bb 11ed b43c
00000380: 7aa2 cebc e1bd aebc 6da8 50bc 9e24 c03c
00000390: a20d 04bc e775 1d3d 5e07 f13c fa85 b13c
000003a0: b3dd c83c 989e 0bbd 75c4 903c f14e 30bd
000003b0: f2b0 533b 6066 043c 7365 38bd fe63 1abd
000003c0: bc46 153d 7df6 16bd 220e 843c 23f2 fc3c
000003d0: ca12 c3bb 5cec 933c 16ac b0bb 6417 0abd
000003e0: d8e8 99bc 5f01 33bd ca33 d9bc 9ccd 8bbc
000003f0: 98c1 1d3d db14 c43c eb18 d53c 65e4 2dbd
-0.035405967 -0.031548586 0.00440633 -0.037868317 0.030491466 0.024022412 -0.031204134 -0.021992283
-0.042247467 -0.014146769 0.010552457 0.0011068664 -0.023267804 0.017120367 0.04200286 0.0016863624
0.036746576 -0.00429142 0.008938032 -0.040194288 0.019179925 -0.03833555 0.012612487 -0.045199778
-0.015150395 -0.034739953 -0.0074517285 0.035596643 -0.012406455 0.01149736 -0.007248555 -0.021655522
0.03937619 -0.02840099 -0.018261448 0.022220768 0.015532313 -0.02994364 0.025005816 -0.04320064
-0.014235544 0.009405135 0.027838295 0.033191234 -0.013315513 -0.002230689 -0.026808804 -0.0016463319
0.009906022 -0.038536206 0.025957776 -0.024036374 0.026700256 0.022813393 -0.020283634 -0.042560153
-0.0006957039 -0.008224665 -0.011721914 -0.0021247086 -0.0049891346 -0.024616808 -0.0018705268 0.0048831836
-0.044519253 0.018080361 -0.039097298 0.026903506 -0.009859979 0.0349484 0.01053939 -0.02031324
0.0028597417 0.009785779 -0.0015070004 0.03877167 -0.017805666 0.0019467621 -0.010273403 0.008892521
-0.029759185 0.032892313 -0.00750322 0.018079212 -0.017452497 -0.035593346 0.029759789 -0.0028980142
0.037130125 0.015637329 -0.025183365 -0.028349523 0.040524766 0.017076477 -0.01858077 -0.04399079
0.03360993 -0.038309038 -0.019142142 0.024376761 -0.021700788 -0.03577616 -0.040942486 -0.044909712
0.018815132 0.029431896 0.018629137 0.038057104 -0.021222496 0.032252107 -0.016957797 0.0062964866
-0.040561557 -0.042993512 -0.012300166 -0.033114757 -0.03586595 0.012738076 0.018141476 -0.002405709
-0.008484149 -0.030799946 0.0057154116 -0.02702784 -0.033447534 -0.034835085 -0.0024570604 -0.037589807
0.030030794 -0.03214066 -0.0402943 0.037395675 -0.022526816 -0.005579289 0.0017532747 0.036911145
0.02471356 -0.026316626 0.013821439 0.030351471 0.014964883 0.03440553 0.018431932 -0.016433017
-0.039625242 0.033127714 0.029432813 0.0075134714 0.02299033 0.03470347 -0.0016703765 -0.042457595
0.025185395 -0.0439365 0.03776658 -0.04030309 0.03167038 0.00023109498 -0.014224168 -0.009395101
0.033383768 -0.031791132 0.027405953 -0.0447247 -0.016301867 -0.035143487 -0.044050205 -0.025961213
-0.02784566 -0.0070456886 -0.026407365 0.024063678 -0.0026088976 -0.026549682 -0.0028691494 0.033822306
-0.042922802 0.008970813 -0.025275506 -0.018482197 -0.017820537 0.03093351 -0.006710104 -0.0018537677
0.0042806566 -0.02785346 -0.0021302267 -0.033513516 0.00996819 -0.0017699758 -0.032754056 -0.012753031
0.008120092 0.018121341 -0.014932345 -0.031066218 -0.02129499 -0.0014715992 0.025345996 0.0052183503
0.034732986 -0.0076675494 0.004107477 -0.04382255 0.008426733 -0.04212317 0.013751248 -0.02523041
0.033963975 -0.0051111677 0.017507935 0.02782252 -0.008940152 -0.004427003 0.03923462 -0.035517212
-0.044186 -0.032829344 0.017781403 -0.044373583 0.0072077713 -0.031382725 -0.0055575143 0.022085698
-0.02522396 -0.021330776 -0.012735468 0.02345496 -0.008059891 0.03844252 0.029422458 0.02167033
0.024519777 -0.034086794 0.017671803 -0.043044034 0.0032301513 0.008081049 -0.045018625 -0.037693016
0.03644441 -0.036856163 0.01612002 0.030877179 -0.0059531676 0.01805704 -0.005391608 -0.033713713
-0.018787786 -0.04370248 -0.026513953 -0.017065816 0.038514704 0.023935726 0.026012858 -0.042454142

bias f4 [128]
00000000: 1d13 88bc 905e febc 8d09 153d aef8 33bc
00000010: 635b ad3c d163 a13c 5722 c0bc 1a3a 063c
00000020: 0723 4339 fba5 563a 1ea5 1c3d d2de 423d
00000030: 9c2c 3c3d 76e6 24bd 8181 163d c5f7 e0bc
00000040: 3847 273d c304 053d ea3c 34bc 2b98 f3ba
00000050: 72f7 37bd 1c5f 43bc 9a2a 863c 28a0 b33c
00000060: 1e97 e13d 1f6e 58bc bbd8 adbc 50ca 2c3d
00000070: 1487 0d3b 887a 723b db9e f8bb be43 c1bb
00000080: 86a9 163d 43c8 293c 09a8 123d 37e0 0fbd
00000090: bfc0 16bd 6af6 cdbc 5b99 d6bc 20b4 b4bc
000000a0: 72e5 f4bb f889 cfbc c2eb 05bb 86a7 853c
000000b0: 8cb2 a13c 9417 163d 1df7 3abd bc7b 0abc
000000c0: 5cde 263b 5b46 66bc 63a6 19bd 473d 09bc
000000d0: bed1 1e3d 7ce9 163b bca7 91bc ad67 8b3c
000000e0: 357c c03c e3cb 273d b37b d5bc 0cad 293c
000000f0: ab78 0dbc 6573 e1ba 1458 e5bc b53a 4a3b
00000100: f4fd 1b3c 7799 c9bc a941 ac3c 9f65 b3bc
00000110: f540 803c 802b 48bc 8566 f53a dca9 07bc
00000120: fa29 f0bc f4bb 42bd 4271 1dbd b8ac b5bc
00000130: 2fa6 9a3c 0978 4dbc 19c1 d4bc edc3 cb3c
00000140: fa79 8f3c 004e 04bd 899a edbc 0ac9 fbbb
00000150: e7cc 22bd 8709 17bd d47e ad3c fb04 cbbc
00000160: 182d f2bc be43 ab3b e9e0 a9bc 296c 2cbb
00000170: 83c2 e93c 2833 1a3d f6b1 523d 1d78 893b
00000180: e03d 2b3c ee6b 10bd 7787 75bc 382e 8dbc
00000190: 491a 12bd b492 12bd c934 3cbc 8fea 0d3d
000001a0: e1d5 b83c f468 0c3d 31bc 1b3d 1786 0e3d
000001b0: 318d 943c 3c85 a2bc 417d 33bd 35b4 10bd
000001c0: bae5 b6bc 6ce0 a23c e967 733c 8797 dabc
000001d0: 8fee 243d 16e0 20bc 88de 00bd c910 e3bc
000001e0: 2a75 b33c bb2b 403d f306 6bbc 6540 a23c
000001f0: 0677 d73c fdb4 d1bb f9ae 5b3c da93 193d
-0.016610676 -0.03105095 0.03638606 -0.010984583 0.02116174 0.019700916 -0.023453875 0.008192563
0.00018609698 0.0008188185 0.038243406 0.04757578 0.04594098 -0.040258847 0.0367446 -0.027461896
0.040839404 0.032475244 -0.011000851 -0.0018584778 -0.044913717 -0.011924531 0.016377736 0.021926954
0.110151514 -0.013209849 -0.02122151 0.042185128 0.0021595405 0.0036999304 -0.0075872964 -0.005897968
0.036782764 0.0103626875 0.035804782 -0.035125937 -0.03680491 -0.025141913 -0.026196172 -0.022058547
-0.007473641 -0.025334343 -0.0020434712 0.016315233 0.019738458 0.03664358 -0.04564582 -0.008452352
0.0025462126 -0.01405486 -0.037512194 -0.008376426 0.038774244 0.002302735 -0.017780177 0.01701721
0.023496727 0.040965926 -0.026059961 0.010356199 -0.0086347265 -0.0017200528 -0.0279961 0.0030857746
0.009520996 -0.02460931 0.021027403 -0.021899043 0.015655974 -0.012217402 0.001872257 -0.008280244
-0.029316891 -0.047542527 -0.03843809 -0.022177085 0.01887807 -0.012540826 -0.025970982 0.024873698
0.017514218 -0.03230095 -0.029004352 -0.007683878 -0.03974619 -0.03687432 0.02117864 -0.024782648
-0.029562518 0.0052265814 -0.020737128 -0.0026309586 0.028535133 0.037646443 0.051439248 0.004195227
0.010451764 -0.03525918 -0.014985911 -0.017233953 -0.0356696 -0.03578444 -0.011487194 0.03464752
0.022562923 0.03427978 0.03802127 0.034795847 0.018133732 -0.019838922 -0.043820623 -0.03532811
-0.022326339 0.019882403 0.014856317 -0.026683582 0.04026657 -0.009819051 -0.031462222 -0.027717965
0.021906454 0.046916705 -0.014344919 0.019806096 0.026301872 -0.0063997493 0.013408416 0.037494518

weight f4 [3, 128]
00000000: e40b d6bc b5ee 503d ffa2 dc3d e058 37bd
00000010: a1c7 f6ba 9827 44bd 89d1 f6bc 3cfa 94bd
00000020: e783 89bd 65fa b03d 3121 2239 3a7e a33d
00000030: d0f9 b53d 1879 7b3c 8cae a8ba fac5 8f3d
00000040: 4fa0 353d 320e d53b 396f 243d 3a36 1e3d
00000050: 4e2d db3b beff 8fbd c6fa aabc 0c61 b3bc
00000060: 8b3f 183e 4b49 d93d 977f 9b3d 7ee1 38bd
00000070: 4cee 70bd 4003 853a 8f8f c43b eb60 793d
00000080: 1bd5 90bd 6a19 31bd 21e1 673d 5bc6 743d
00000090: 9b74 20bd 0909 f43b 5658 aa3d 07ab 903b
000000a0: a5ee 6abd 66c4 1b3d 9896 093e e9fd 19bc
000000b0: dcd9 0cbd b53e 98bd a2ad 5dbc 1033 833d
000000c0: 1c45 2d3d 22be 0b3b 9c29 e53b 49a8 45bd
000000d0: 593c 943c 88f7 55bd a568 b13d 9556 b4bd
000000e0: 253c 6a3d 21fe bb3d 009c 4e3d c0c1 afbd
000000f0: 3a73 a23d e3ce 4d3d b2d4 31bd 40e6 483d
00000100: e0a2 a6bd f5f6 9e3d 234a 733d 8349 43bd
00000110: fa16 2abd c2cc afbd 9895 ee3c 1bb0 07bd
00000120: e760 5fbb e614 c33c 1a93 7fbd e741 503d
00000130: c938 87bd 344d 1f3c 9462 4e3d 5a34 753d
00000140: 0b4a a8bd f378 8f3d 48e0 373d 13d4 a63d
00000150: b68f 493d d2ff 0d3d 0e6c bd3b 6ec1 a83d
00000160: df8a 14bd 8518 a13d 8b3a abbd e11a 8bbd
00000170: 795d 913d e86a a53d ba5c 6d3d 1701 3abd
00000180: 962c a13d e869 76bd d03a 27bd 060c b63d
00000190: 39b0 cd3c 6f96 863c 7143 5dbd 6783 35b9
000001a0: 8a23 dcbc 9349 6dbd 7823 a7bd 14c0 82bd
000001b0: a0ae 823d 23cc d9bc c9d3 b0bd cced 64bd
000001c0: 19ec adbd 61d7 89bd 0085 c43c 1e43 fcbc
000001d0: 9a4f 1dbc 43f5 6c3a c71d 48bd 6748 b6bd
000001e0: f380 15ba a94a 943d 929a 373d cd24 99bd
000001f0: fa69 d2bc 3ce9 1c3d 10b5 b83d bcaf 903b
00000200: e6e3 96bd 9af6 7abd 985a 4fbd 80ce 243c
00000210: 388f febc 5744 1b3d 1f4d a43d 67d6 68bd
00000220: 85e7 393c db82 60bc 3f4c 7e3d 32b6 fa3c
00000230: 4a41 8c3b 0155 bfba 5925 21bd 36b2 5abc
00000240: 0c4e 4fbd adfb 973d d7d5 36bd 4ea0 11bb
00000250: 7872 5bbd 521b 573d 0e3c 0b3d a87c 80bc
00000260: e63c 37be 8cf7 76bd 002d f6bc eadb 88bc
00000270: 1d5f a73b 5130 a1bc 9b01 933d 3745 acbd
00000280: 8c85 e63c 2a5a 0abc c844 d6bd 3d6d 69bd
00000290: b557 a7bd 5ae3 73bd d5f4 d2bc 376c 5bbd
000002a0: d964 623d af12 cdbd b008 89bb a733 8ebc
000002b0: 421d 61bc a033 c8bc 7213 ed3c 18ed c0bd
000002c0: afe9 803c e93b c1bd 50ed 773c 8bfe eb3b
000002d0: 2a6f f83c 66f5 3c3d 8192 e0bb 35e4 9e3d
000002e0: cc07 16bd 9480 583d a9b0 483d ad17 573b
000002f0: d472 8fbd c6be cbbd 6c80 3fbd be08 86bd
00000300: 87d3 a83d 430a cdbd 9ba6 e7bb 1f7f e43c
00000310: 90d1 bbbd 6f07 f13c d9c2 b3bd fae7 483d
00000320: 7f6f 6d3d 408d 503d d3be 463d 0609 c43c
00000330: 2d45 673d f451 a1bd 5046 c0bd 5af0 c3bd
00000340: 0556 97bd d73a 7abd dacb dbbc dd1e 2d3b
00000350: 5aef edbb 1a76 a83d 83b2 ef3c 9885 e63c
00000360: 5b79 9b3d d9a0 013d 7249 6c3d 0d8a 3f3d
00000370: 2c04 c6bd 824f 7a3c 1260 e3bb dbbf 483d
00000380: 80f2 a2bc b31b 7cbd 4183 6bbd 48f3 bc3c
00000390: 54cb 3ebd 8071 9abd 7b43 913d b329 c4bd
000003a0: 7f5e 6f3c 5572 933b 2eaf d43c 394e 00bd
000003b0: c394 bc3c 05b9 483d 816a af3d c16e 95bd
000003c0: b6fc 703c 51a2 9bbc 56f6 913d dae8 82bc
000003d0: 9836 8abc 06f1 05bd 82e6 213d 243f a0bc
000003e0: fe8e 15bb 17e9 40bc 9290 07ba 034d 343d
000003f0: 0c39 b3bd 0f02 9fbd 59e8 92bd fece 51bd
-0.026128717 0.0510089 0.107732765 -0.044762492 -0.0018827805 -0.047889322 -0.030129211 -0.07274291
-0.067146115 0.08641509 0.00015461889 0.0798306 0.088855386 0.015348695 -0.0012869402 0.07020183
0.044342335 0.0065019364 0.040145133 0.038625933 0.0066887503 -0.07031201 -0.020871531 -0.021896861
0.1486799 0.10609683 0.07592695 -0.04513692 -0.058821008 0.0010148063 0.005998559 0.060883444
-0.07071897 -0.043237127 0.056611184 0.05975948 -0.039173704 0.007447366 0.0831763 0.0044149193
-0.057356495 0.038029097 0.13436353 -0.009398916 -0.034387454 -0.074338354 -0.013530167 0.06406224
0.042302236 0.0021323045 0.0069934856 -0.048256192 0.018095182 -0.052238017 0.086625375 -0.08805577
0.057186265 0.091793306 0.050441742 -0.08581877 0.07932134 0.05024613 -0.043415733 0.04904771
-0.08136535 0.07761947 0.059396874 -0.047677528 -0.04152582 -0.08583976 0.029124066 -0.03312693
-0.0034084858 0.023813676 -0.062396146 0.0508441 -0.06602628 0.0097229965 0.05038698 0.05986438
-0.082172476 0.07005491 0.044891626 0.08145919 0.04920932 0.034667797 0.0057807034 0.08240019
-0.03626525 0.07866005 -0.083607756 -0.06792236 0.070979066 0.080770314 0.05794976 -0.045411196
0.07869832 -0.060159594 -0.040827572 0.08889012 0.025108444 0.016429154 -0.054019395 -0.00017310456
-0.026872415 -0.057931494 -0.08161062 -0.06384292 0.06380963 -0.026586598 -0.08634145 -0.055890843
-0.08492298 -0.067305334 0.0239892 -0.030793723 -0.009601498 0.00090392324 -0.048856523 -0.089005284
-0.0005703114 0.07240803 0.044825144 -0.07477722 -0.0256853 0.038308367 0.0901891 0.0044154804
-0.07367687 -0.061270334 -0.050623506 0.010058999 -0.031074151 0.03790697 0.08022522 -0.056845095
0.011346702 -0.013703073 0.062084433 0.030604456 0.004280244 -0.0014597477 -0.039342258 -0.013348153
-0.05061154 0.0742105 -0.044637527 -0.0022220793 -0.053575963 0.05251629 0.03399282 -0.01568444
-0.17894325 -0.060294673 -0.030050755 -0.016706426 0.005107774 -0.01967636 0.071780406 -0.08411639
0.028139852 -0.008444348 -0.10462338 -0.056988943 -0.08171026 -0.05954299 -0.02575151 -0.05357
0.055271957 -0.10013329 -0.004181944 -0.017358614 -0.013739886 -0.02443868 0.028939936 -0.09420222
0.015736429 -0.09435255 0.015132263 0.0072019747 0.030326445 0.046132468 -0.006853402 0.07758371
-0.03662853 0.052856997 0.0489966 0.0032820508 -0.070043236 -0.099484965 -0.046753332 -0.06544636
0.08243471 -0.10011723 -0.0070694215 0.027892647 -0.0917083 0.02942249 -0.087773986 0.049049355
0.05796766 0.050915956 0.048521828 0.023930084 0.056462456 -0.078769594 -0.09388411 -0.09567328
-0.07389454 -0.06109127 -0.026830602 0.00264161 -0.007261199 0.08225651 0.029259926 0.028139874
0.07591506 0.031647537 0.05768723 0.046762515 -0.096687645 0.015277745 -0.0069389427 0.049011093
-0.019891024 -0.061549854 -0.05749822 0.023065224 -0.046580628 -0.0754118 0.07092949 -0.09578266
0.014609932 0.0044997134 0.025962438 -0.0313246 0.023020154 0.049004573 0.08565236 -0.07296515
0.0147086885 -0.018998297 0.07127063 -0.015980173 -0.016871735 -0.03270056 0.03952647 -0.019561358
-0.0022820826 -0.011774323 -0.0005171384 0.044018757 -0.08751115 -0.077640645 -0.07173223 -0.051222794

bias f4 [3]
00000000: 3cba 8d3d 786f 1abd 4105 33bd
0.06920287 -0.03770396 -0.043706182
