trained/exp_train_3_6_1111_0.0001_0.001_32_0.95/model/meta_actor_1.pth (torch, 302079 bytes, 6 tensors)

weight f4 [512, 16]
00000000: 23c5 c73c c198 6a3c f82c c5bc 3bcc 623e
00000010: 7309 6f3e cb28 c73d 9333 f23d 5b0f 7c3e
00000020: d97d c6bd a4da 833e c843 ba3d 1071 0fbe
00000030: f0c0 f7bc 915e 143e e950 0f3e 1fee 463e
00000040: e7a1 27be 7e0a ea3d b55e 22be 3196 be3d
00000050: 1004 d53d 1f08 0e3e b3dc 643e 0428 d7bd
00000060: 554e 6e3e 112a 0c3e 6c87 18be a619 11be
00000070: 25a6 7c3e 5fd9 b8bd 0e03 65be 153c b43d
00000080: f0bd 4ebe 8a97 b63d 6e33 d03a 76dd 2bbe
00000090: e7d9 eabd 8ee6 49be 4d97 b3bd 4681 5b3e
000000a0: 1e28 743e 3563 8c3d 1112 d73d 6f75 46be
000000b0: 9d8b df3d 1ba8 043d 358c c8bb 37cd 2f3e
000000c0: 1cb1 68be f8ee 333e d193 25bd 027c 3f3e
000000d0: c0ee ad3d 9277 d7bd cd2a 15be b97f af3d
000000e0: ce1b 0a3e c662 823d 9eeb 3c3e 77eb 6cbe
000000f0: 62e7 083e b27b c73d 9214 923b df7f a13d
00000100: ef01 68be 4ae4 563e 9f6e c6bd 53e0 4b3e
00000110: cf1c 4e3c 524d 5dbe f729 82bd 7bcb e03d
00000120: dc84 803d a4ad 703e ff24 16be 7ed5 e23d
00000130: 6a80 f83d 2c13 f9bb 22d3 173d 3ff4 283e
00000140: cbfe 31be 9a6d 6ebd 4fec 183e b856 ce3d
00000150: 6cd4 563e 2227 1e3e c2de 01bd 5efa 0fbe
00000160: ff94 153e b50b 59bd 225f fb3b 581e 7d3c
00000170: e966 58bd 5974 783e cd48 44be 2dd2 223e
00000180: e0c0 2bbe 222f dbbd 8494 263e 1ce6 61be
00000190: 77d3 0abe 40d7 38bc 64d9 393b 56ce 1bbe
000001a0: 7c9e 32be 3e6a dfbd ae74 ce3d d8e9 3b3e
000001b0: 69dc 3c3e f773 44bd 8b16 7d3e 8a81 263e
000001c0: c145 6ebd d065 c03d 071b 18be 9d5f 5fbe
000001d0: c3fd 3abe be7b 8c3d d5fc 67be 2504 083c
000001e0: 7bfa 453e e818 b33d 5e06 1dbe b2ad 7dbe
000001f0: c1aa 763e 9ae8 9d3d 547b 673e 3740 ecbc
00000200: 2fbb 50be 5d0d 73be 16cd 61be abba 103e
00000210: e426 0abe 80e3 69be a90d 29be 0d35 d9bc
00000220: 309f 5a3d 8ee2 343e 4d80 fabd 5455 0abc
00000230: bae2 56be 3dea 263e f75c 323c 05a4 57be
00000240: ee30 58bd 6213 c23d 5f21 813e a4c3 6abd
00000250: 8463 d13d e92a 953d 2f0b 613d 1d73 4e3e
00000260: a4c6 45be 1af3 0e3e b02c 373d 5c9f 4b3e
00000270: bc42 1c3e b83a b63d ac8c 723e 3480 43bd
00000280: 54c3 80bd be24 353e 37b5 a33c ba04 7ebc
00000290: 6013 b5bc 6f38 943d bf16 33be e0f9 693e
000002a0: 1399 0abe a9f9 28be 5849 593d 814b 37bd
000002b0: 77bc debc 3825 033e 2d6b 17be 352e 25bd
000002c0: 024a 2abe eba6 6abe 12b1 523e dfb9 3ebe
000002d0: 2c49 613e cb89 683c 030f 7a3e 0be1 8ebc
000002e0: 161e 7d3d 6cfa 643e a87f afbb 6027 33bd
000002f0: 3672 103d 62da 59be 2746 1e3e 8a59 653e
00000300: d387 9a3c 5a3a 80be 3e39 6e3e 296c 84bd
00000310: 981a e03d 6cda b33d cea2 693d cb58 07be
00000320: 861c 093e 00e8 0bbe 2ad5 0e3e f265 b8bd
00000330: 81e2 3fbe f1fe cf3d f0a1 1c3e 09f3 3fbb
00000340: 36f9 873d 7fcd 64bd c0a4 57be 7ce8 593e
00000350: 9db7 09be ff89 783e b7ee 193e 2938 123e
00000360: 4136 5fbe f08d 1bbe f5de 2b3d 8c49 66be
00000370: 0a0a 3d3e 7a80 35be da7d 523e eda7 58be
00000380: 638f 1dbe cf5b 293d a174 55bd 6cbc 063d
00000390: 45b5 ac3d 335b b33d fc94 cb3d 0d02 7fbe
000003a0: 95ec 3ebe e9ee 223e 07c3 a4bd 23b4 da3a
000003b0: 8d9e 7a3d 8c5d 6cba 0b6a 33be f6f3 453e
000003c0: e471 0ebc 0c67 cdbc e521 3ebe f392 abbc
000003d0: 8fcc 3f3e dc2b 0c3d da6f e6bd 2123 e2bd
000003e0: e0d6 f2bc 41dc 093e 35af 723d 5133 653e
000003f0: c73c 083e 50e7 2ebe 8bfa cabd bdf3 583e
0.024385994 0.014318646 -0.024069294 0.2214822 0.23343448 0.097245775 0.11826243 0.24615233
-0.09691972 0.25752747 0.090949595 -0.14007974 -0.030243367 0.14489199 0.13995709 0.19426773
-0.16370355 0.114277825 -0.1585644 0.093059905 0.104011655 0.13870285 0.22349815 -0.10505679
0.23272069 0.13687922 -0.1489541 -0.1416994 0.24672754 -0.09025835 -0.22364447 0.08800522
-0.20189643 0.089156225 0.0015884468 -0.167837 -0.11467343 -0.19716856 -0.08769093 0.21436033
0.23843428 0.0685486 0.10501493 -0.19380735 0.10915301 0.03238688 -0.0061202296 0.17168127
-0.22723812 0.17571628 -0.04042417 0.18699649 0.084928036 -0.10520853 -0.14567108 0.08569283
0.13487169 0.06366496 0.18449256 -0.23136698 0.13369516 0.0974039 0.0044580186 0.078857176
-0.22656988 0.20985523 -0.09689068 0.19909792 0.012580111 -0.21611527 -0.063556604 0.10976311
0.06275341 0.23503739 -0.1466255 0.11075877 0.12133868 -0.0076011624 0.037066586 0.16499422
-0.17382352 -0.058209993 0.14933895 0.10075134 0.2097947 0.15444615 -0.03170658 -0.14060351
0.14607619 -0.05298968 0.007671253 0.015449129 -0.052832518 0.24263133 -0.19168396 0.15900488
-0.16772795 -0.10702349 0.16267592 -0.22060436 -0.1355723 -0.011281788 0.0028358335 -0.1521543
-0.1744327 -0.10908936 0.10080849 0.18350923 0.18443455 -0.047962155 0.2471563 0.16260353
-0.05817199 0.09394419 -0.1485406 -0.21813817 -0.18260865 0.068595394 -0.22655042 0.008301769
0.19333832 0.08744985 -0.1533446 -0.24773291 0.24088575 0.07710381 0.2260564 -0.028839214
-0.20383905 -0.23735566 -0.2205089 0.14133708 -0.13491398 -0.2284069 -0.16509117 -0.026514554
0.05337447 0.17664549 -0.12231503 -0.008443195 -0.20984927 0.16300292 0.010886422 -0.21058662
-0.052781038 0.09476353 0.25220773 -0.057315484 0.10224059 0.07283575 0.054942306 0.201611
-0.19314057 0.13959923 0.04472035 0.1988501 0.15259832 0.088979185 0.23686475 -0.047729686
-0.06287256 0.17689797 0.01998387 -0.015504057 -0.022103965 0.07237326 -0.17489146 0.22849226
-0.13534956 -0.16501488 0.05304846 -0.04474974 -0.027189476 0.12807167 -0.14786978 -0.04032727
-0.16629794 -0.22915237 0.2057536 -0.18625592 0.22000569 0.014193009 0.24419789 -0.017441293
0.06179627 0.22361153 -0.005355794 -0.043738723 0.03526517 -0.21274713 0.15456448 0.22397438
0.018863594 -0.2504452 0.23264024 -0.064659424 0.10942572 0.08781895 0.05704003 -0.13217466
0.13389787 -0.1366272 0.13948503 -0.090038195 -0.18738748 0.10156048 0.15296149 -0.0029289147
0.0663933 -0.05586004 -0.21058941 0.21280092 -0.13448949 0.24271391 0.15032469 0.14279236
-0.2179804 -0.15190864 0.041960675 -0.22488993 0.18460861 -0.17724791 0.20555821 -0.21157809
-0.15386729 0.04134732 -0.05211318 0.032894537 0.08433012 0.08757629 0.09940526 -0.24903126
-0.18644936 0.1591145 -0.08045011 0.0016685765 0.061186362 -0.0009016625 -0.17520921 0.19331345
-0.008694146 -0.02507355 -0.18567617 -0.020944094 0.18730377 0.034221515 -0.11251803 -0.110418566
-0.029643476 0.13462926 0.05924912 0.22382857 0.13304435 -0.17080426 -0.099110685 0.21186729

bias f4 [512]
00000000: e638 c73c 86db 243d c93e 5bbe 81e5 45be
00000010: dedb c93d 58f2 5b3e 412a 7b3e 0d3a 373e
00000020: dd8e a4bb 6f61 06be 5536 573e 02b4 693e
00000030: 2009 613d f5ea 44be d4df d63d 4e14 0d3e
00000040: ad7d 58be 9787 fcbb f453 1c3e 338e 893d
00000050: 913e 4bbd 00e2 4c3e 6ccd b43d ff65 533e
00000060: 042a 7a3e 354f d03d 816a 003e c815 293e
00000070: 8f2e e1bd c43c 73be d924 683d b9b4 43be
00000080: 5091 00be 86f2 463e 3bb3 863e 3e1f e739
00000090: 3c06 63be 113f 00bc 061f 513e 174b 5e3e
000000a0: 10ad 263e a1b4 533e ac4e 883d 12f5 4cbe
000000b0: 4e85 233e 5d02 7ebe 9b9f 73be ab7d 1dbe
000000c0: f1e0 e7bd 7b46 2dbe 795c 053e 3361 04be
000000d0: 4a8d 74bb 0328 f3bd 9af7 20bd ec7e 29be
000000e0: 2ebf 393d d8f9 b5bb 84e6 473e aada 283e
000000f0: 883f e63d 0177 063d a217 58be b85e d4bd
00000100: 0a9e 513e 13f2 9fbc fd85 bd3d a725 8fbd
00000110: 2fea 393e 21d3 4dbe 95bb 87bd 1dd0 10be
00000120: a57b bc3d a845 263e 30eb 1dbe 6dbb 46bd
00000130: 3876 08be aa9a 0d3e 337f 65be fba9 09be
00000140: aec2 aebd 57c1 683e 4255 163e c044 a0bd
00000150: 810a 89bd 33bc 60be 0fe6 5a3e 6a2b 1cbe
00000160: ac68 56be 4b76 fa3a 2dae 2bbe e308 aebd
00000170: 1df7 c0bd 382e 8dbc 025d 2d3d de17 bc3c
00000180: 4baf 173e e7a9 5dbd 0fbc 9fbd 18d4 d3bd
00000190: b6d4 2ebe 4cdd f63d 789c c1bc bbdb 4abe
000001a0: c13c 2c3e 068e 1a3e 6032 593e 8795 07bd
000001b0: e6b0 fabd 1090 c23d f00b a3bd 7df3 71bd
000001c0: 0bf3 edbc 21d2 733e 87da 2cbe 7db1 07be
000001d0: 9fa4 69be b998 413d 1fe9 e33b 5657 6abe
000001e0: 07bc 6e3e da9c f73d 114b 51be 7ee2 0abe
000001f0: 0fd6 94bd 70b1 86bd 2657 d73d bb0b 59be
00000200: 03cc 413e 1da8 fd3c f2c6 8e3d 28d7 1d3e
00000210: 77ec 5a3e 7c83 a5bd 8625 ddbd ef2d 683e
00000220: 500a 383d cc9d 1bbe 4bfd 0a3d 95b9 443e
00000230: 811f 2dbe f061 8cbc b2ed 023e 89c8 263e
00000240: 219c bdbd e68b bdbd c845 5eba ff8b e6bc
00000250: e67a 01be 20be 53be 7f08 71bd d1c9 8bbd
00000260: 03bb 5cbe f092 3c3d 1e98 333e d8ec 173e
00000270: 8037 4cbd 69a1 603e 13f8 28bd 2233 23be
00000280: 253c 06be 6841 5d3d 003b 12be de94 893e
00000290: 2b36 193e 66ee e8bd 5854 2a3c d5ea 423e
000002a0: da6c b33d 4dd9 15be 6c30 28bb 4bea 763e
000002b0: 6621 0e3e 257c 003d dd77 6ebe 784e 093e
000002c0: 5995 473e 1a91 b7bd bf00 70be e52a 763e
000002d0: 753d 9fbd 4b3b 6d3e cc6d 7abe 5d6f 18be
000002e0: 17f8 a6bd 988f 31bd 5a17 6a3e 9933 613e
000002f0: 1010 8bbc aae0 adbd e207 4e3c 4637 813e
00000300: 2d00 b4bd c365 2a3d b8a7 1bbe 3bc4 c63d
00000310: 8a28 333e 2142 6c3e f5cb 28be 599a 6abc
00000320: c384 1bbe 21eb 5a3e 973a 803d 587a 3cbc
00000330: b80b 193e 9804 203e 5e5a debd 57dd 55be
00000340: 9503 ab3d 851a fcbd 3ebf 43be e578 313e
00000350: 5c60 6d3e 1712 44be 61f6 b0bb af2d fc3d
00000360: fc27 0c3e 10dc 4abe 7501 29bc 8160 39be
00000370: f5de bf3d 4024 b23d 2e73 70bd f036 873e
00000380: 1283 f8bc 8c50 c13c 7c27 653e 2c56 b4bb
00000390: 4598 8bbc c50a 023c 581a 373e 0c86 25bd
000003a0: a199 73bc 1a9b 973d 7aa9 93bd 255f a6bd
000003b0: 2978 a6ba e3de 183e c66a 5a3e d4f6 39be
000003c0: 38ce 8b3c 6e97 0b3e 97a9 dfbd 4606 1bbe
000003d0: 1b37 3c3e b061 93bc b9a4 e9bd 8fbf 333e
000003e0: 9719 23be 0417 973d 81a5 6bbb 93df 61be
000003f0: 341b 07be 6e74 01be 70b5 4d3e f617 803e
0.024319123 0.040248416 -0.2141067 -0.1932583 0.098563895 0.21479166 0.24527837 0.17893238
-0.0050219134 -0.13123105 0.2101682 0.22822574 0.054940343 -0.19230254 0.104919106 0.13777277
-0.21141692 -0.0077065933 0.152664 0.067165755 -0.049620215 0.20008087 0.088282436 0.20644377
0.2443009 0.101713575 0.12540628 0.16512215 -0.109952085 -0.23753649 0.056675766 -0.19111909
-0.12555432 0.19428453 0.26308617 0.0004408303 -0.22170347 -0.007827536 0.20421991 0.21708332
0.16276956 0.20674373 0.066556305 -0.20015362 0.1596882 -0.24805589 -0.23791353 -0.1537997
-0.11322201 -0.16921417 0.13023557 -0.12927704 -0.003731566 -0.11872866 -0.03929863 -0.16552323
0.04534834 -0.0055534653 0.19521528 0.16489664 0.112425864 0.032828335 -0.21102765 -0.10369629
0.20470443 -0.01952461 0.09254072 -0.069896035 0.1815574 -0.2010007 -0.06627575 -0.14141889
0.09203271 0.16237509 -0.15421748 -0.048518587 -0.13326347 0.13828531 -0.22411804 -0.13443749
-0.08533226 0.22730003 0.14680961 -0.07825613 -0.066914566 -0.21946792 0.21376823 -0.15250936
-0.20938367 0.001910874 -0.16765662 -0.08497789 -0.09422133 -0.017233953 0.042325027 0.0229606
0.14812963 -0.05411711 -0.07799541 -0.10343188 -0.1707333 0.12053928 -0.02363418 -0.19810383
0.16820051 0.1509324 0.21210623 -0.033101585 -0.12240772 0.09500134 -0.07961261 -0.0590701
-0.029046556 0.23810627 -0.16880237 -0.132513 -0.22816704 0.04726479 0.0069552804 -0.22884879
0.23313914 0.12090464 -0.20438792 -0.13562962 -0.07267391 -0.06576812 0.10514669 -0.21195881
0.1892548 0.030963952 0.069715396 0.15414107 0.21379267 -0.08081719 -0.10798173 0.22673772
0.04493171 -0.15196913 0.033932965 0.19211419 -0.16906549 -0.017136544 0.12785986 0.16287436
-0.09258295 -0.09255199 -0.0008479026 -0.028142927 -0.12644538 -0.20677996 -0.058845993 -0.06825603
-0.21555714 0.046038568 0.17538497 0.14836442 -0.049857616 0.21936573 -0.041252207 -0.15937474
-0.13108881 0.054017454 -0.14280319 0.2687139 0.1496207 -0.11373596 0.010396086 0.19034894
0.08760996 -0.14633675 -0.0025663627 0.24112813 0.13879928 0.031368393 -0.23287912 0.1340884
0.19490565 -0.08963223 -0.23437785 0.240398 -0.07775394 0.2316715 -0.24455947 -0.14886232
-0.08152788 -0.043349832 0.2286047 0.21992339 -0.016975433 -0.08490117 0.012575122 0.25237483
-0.08789096 0.041600954 -0.15200698 0.09705397 0.17495933 0.23072101 -0.16484053 -0.014319026
-0.15187363 0.21378757 0.06261175 -0.011503778 0.14945877 0.15626752 -0.1085708 -0.20885216
0.083502926 -0.12309746 -0.19115922 0.17331274 0.2318129 -0.19147526 -0.0054004644 0.12313401
0.13687128 -0.1981051 -0.010315289 -0.1810322 0.093686976 0.086983204 -0.058703594 0.264091
-0.030335937 0.023597978 0.22378343 -0.0055034366 -0.017040381 0.007937138 0.17881143 -0.04041104
-0.014868171 0.0740263 -0.072100595 -0.08123616 -0.0012700605 0.14928775 0.21329793 -0.18160564
0.017066106 0.13631985 -0.109210186 -0.15139112 0.18380396 -0.017990917 -0.114083715 0.17553543
-0.1592773 0.07377437 -0.0035956802 -0.22057943 -0.13193971 -0.1264207 0.20088744 0.2501828

weight f4 [128, 512]
00000000: 1516 b63c 61b8 80bc c9f3 ebbc bf22 3abd
00000010: d4a3 16bd ee8c d03c 1b30 c53b eb8f c43c
00000020: 70dc da3c 9f0b 0cbd 92a3 07bd 094d 8439
00000030: 5ade 963c 0de3 2d3d 09b9 19bd 4085 443b
00000040: 717a 9abc 88b5 07bd fa1e e03c dd65 b83c
00000050: aa5c cdbc cd9f fb3c aabe 38bd 3835 df3c
00000060: 0db2 adbb 30a9 fb3a b91e cebb ad2b eb3c
00000070: 0219 133d 8b81 53bc 465b 3bbd 7b25 173d
00000080: efa5 16bd b2bb 0fbd 1cb4 2a3d e73c 5bbc
00000090: b123 c9ba 225b 343d 51d8 2fbd d174 c2bb
000000a0: 2e6c d7bc ab76 933c 204d 243c e7c2 48b9
000000b0: 70e2 e8bc 7a90 7dbb 63a2 1fbd cc69 93ba
000000c0: c112 4abc ce32 a9bc d5bf 073d 33cb 2bbc
000000d0: 92cd 83bc 0be1 bbbb 3936 213c c47d a7bc
000000e0: f63a 8cbc e090 6a3c 9f1f afbc caec 99bc
000000f0: 7e7f e4bc d0fa ca3c 0f23 263d 25b4 d73c
00000100: 042d 0dbd f8f4 2dbd 8845 ed3c a090 fc3c
00000110: 7a47 163d be12 013d bec8 b4bc 69ec 953b
00000120: d990 d93c 183b 0c3d 2d50 e63c 6abb 0f3d
00000130: b4e7 3f3b 2603 1b3b 2087 e63c 1c30 9f3c
00000140: 986e 593c caee 203d d911 11bb 4c33 3f3a
00000150: 207e d7bc b9d1 dc3c 9765 d5bc 4d5c 23bd
00000160: 525c 4dbc d768 823c 5001 2fbd cd66 453b
00000170: 0545 94bc 847b 53bc 6156 ff3b 8e20 133d
00000180: c003 343c 7756 b8bc 4d78 d13c efa7 f53c
00000190: 9864 253d f5b6 4cbc 5359 c4bb 5657 ae3c
000001a0: 3199 1d3b 521b b13c aca2 803c 86f2 cbb9
000001b0: 5937 b83c 4c4b 013d a670 d1bc ac5c 293d
000001c0: d864 f0bc 1e95 f0bc 4b3a f1bb ef27 48bc
000001d0: 1f88 1ebd b4ff c2bc 2032 dfbc 44f8 e5bc
000001e0: d15d 9f3c 7c95 353c c143 4b3c 4191 babc
000001f0: 3511 f73c e514 ccbc 7423 a6bc 8b5b 0ebd
00000200: c869 9bbc a8a4 98bc 12c0 893c 7e79 9bbc
00000210: 9c7d 1b3d 2b33 a53b d790 c9bc d8e7 9bbb
00000220: 36c7 1bbb 2d00 d5bc 122f cf3c dfbe ddbc
00000230: 8281 4b3c 192f 0fbb 744a 3abd 0d98 46bc
00000240: d849 243d 1d42 95bc 9f1f 39bd d872 dd3c
00000250: db83 f53c 09e6 1dbd 9268 3dbd bd66 eabc
00000260: 58ad 3ebd a071 e03c ff65 84bc a9dc dfbb
00000270: a189 a13c 2bed e7bc 9291 0dbd 41e3 0ebc
00000280: 3da8 e739 154b 2ebd ba64 41bd f49d 213d
00000290: aca8 9ebc 7b41 0f3c c227 e73a 5add b9bc
000002a0: e2e6 cdbc 658e 3ebc 89e0 043d 44bd 843c
000002b0: 429d b23b 6688 373c 67a2 e53c 009c 06bd
000002c0: 5581 d2bc 19a7 a43c dd40 273d aace 6abc
000002d0: 2671 efbc 2a29 5fbc 961c f4bc e77b 253d
000002e0: 2b48 053d de99 df3c 5b5f debc 2ae4 c33b
000002f0: 8060 303d 9d3e 423b b893 50bb ac70 a43c
00000300: 4121 d13c fde1 79b8 adea 263d edb1 22bd
00000310: 193c 2fbd cfbe 273c 82bb a33c fefa 5f3c
00000320: 871a d13c 8314 ccbc 7904 2cbd 1a80 b53b
00000330: a3d6 85bc 2fdd f13c f0c8 083c 0727 053d
00000340: 9476 d2bb 3a7b 103c 92a9 04bd ca3f 9ebc
00000350: dc73 643c 137c f43c 3fa1 66bc fabb d43c
00000360: 1e40 1abd cd1b 1f3d 3877 3bbc af9b 33bc
00000370: 42ac 35bd 50f6 aabc 239c 753b 865f eabc
00000380: cf00 a0bb 652a ff3c 87fb 063d a4e9 90ba
00000390: 3825 b4bc f581 fd3c 0155 20bc fd43 abbb
000003a0: 863a 263d 870c 2bbd d67f 273d c7ce c6bc
000003b0: 547d 123d 9173 ac3c dc54 a43c 3c81 d1bc
000003c0: 5c15 033c 1785 acbc 03d1 56ba 37f2 173c
000003d0: 5887 6f3c 7cd2 e239 3ec4 ccbb b7f4 20bd
000003e0: c0ba 1f3d 6734 c63b 73a3 cabc e68c dfbc
000003f0: 126a b6bc 2ba6 4cbb d7cd 133d f23a 83bc
0.022227326 -0.015712919 -0.02880277 -0.045443293 -0.036777332 0.025457826 0.0060176975 0.023994407
0.02671644 -0.03419077 -0.033114977 0.00025234398 0.018416572 0.04245286 -0.03752998 0.002998665
-0.018857213 -0.033132106 0.02735852 0.02250951 -0.0250686 0.030715847 -0.045103706 0.027247056
-0.0053007663 0.0019200202 -0.0062902835 0.02870735 0.03591252 -0.012909303 -0.045741342 0.03690098
-0.03677934 -0.03509111 0.041675672 -0.0133812195 -0.001534572 0.044032224 -0.042930905 -0.0059343358
-0.026296701 0.018000921 0.010028154 -0.00019146093 -0.028428286 -0.003869085 -0.038973223 -0.001124674
-0.012333573 -0.020654108 0.03314193 -0.010485458 -0.016089235 -0.0057336143 0.009839588 -0.020445712
-0.017117959 0.014316767 -0.021377383 -0.018789668 -0.027892824 0.0247778 0.04056078 0.026331017
-0.03446676 -0.04246995 0.02896382 0.030830681 0.03668926 0.031512015 -0.022068378 0.0045753014
0.026558327 0.034236044 0.028114403 0.03509084 0.0029282393 0.0023653 0.028140604 0.01943212
0.0132709965 0.039290227 -0.0022135882 0.00072937156 -0.026305258 0.026955472 -0.026049418 -0.039882947
-0.012534218 0.015919132 -0.04272586 0.0030121088 -0.018099317 -0.012907866 0.0077922796 0.03591972
0.010987222 -0.022502167 0.02557006 0.029987304 0.040379137 -0.012494792 -0.0059920936 0.02128188
0.0024047608 0.021619473 0.015702568 -0.0003889987 0.02248733 0.03156595 -0.02556641 0.041348144
-0.029344961 -0.02936798 -0.0073616854 -0.012216552 -0.038704034 -0.02380357 -0.027245581 -0.028072484
0.019453915 0.011083003 0.0124062905 -0.02277434 0.030159572 -0.024912307 -0.020280577 -0.03475527
-0.018971339 -0.018633202 0.01681522 -0.01897883 0.037961587 0.0050415 -0.024605198 -0.0047578625
-0.0023769862 -0.02600106 0.025291 -0.027068553 0.012421014 -0.002184814 -0.04548116 -0.012121213
0.040109485 -0.018220002 -0.04519617 0.0270323 0.0299701 -0.038549457 -0.046242304 -0.028613443
-0.046552032 0.02739793 -0.016161917 -0.0068317247 0.019718947 -0.028311333 -0.034562655 -0.008721174
0.000441851 -0.042552073 -0.0472152 0.039457276 -0.019367538 0.008743639 0.001763575 -0.022688556
-0.025134508 -0.011630629 0.032440696 0.01620353 0.0054508755 0.0112019535 0.028031541 -0.032863617
-0.025696436 0.02009921 0.040833343 -0.014331499 -0.029228758 -0.013620654 -0.029798787 0.040401366
0.032539528 0.02729505 -0.027145078 0.005978127 0.04306078 0.0029639371 -0.0031826328 0.020073257
0.025528552 -5.9576694e-05 0.040751148 -0.039720464 -0.042781923 0.010238363 0.019986872 0.013670681
0.025525345 -0.024912124 -0.041996453 0.0055389525 -0.016337698 0.029524414 0.0083486885 0.032507923
-0.006422827 0.008818442 -0.032388277 -0.019317526 0.013943639 0.02984432 -0.01407653 0.02596854
-0.037658803 0.038844872 -0.011441998 -0.010962411 -0.04435373 -0.020869404 0.0037477098 -0.028610002
-0.004882909 0.031148145 0.03295472 -0.0011055958 -0.021990404 0.030945757 -0.0097858915 -0.0052266107
0.040583156 -0.041759994 0.0408934 -0.024268521 0.035764053 0.0210512 0.020059995 -0.025574319
0.008000698 -0.021059556 -0.00081945973 0.009274057 0.014619671 0.00043262902 -0.00624898 -0.03929588
0.038996458 0.0060487273 -0.024736142 -0.027288865 -0.022267375 -0.0031226974 0.036084976 -0.016019318

bias f4 [128]
00000000: c308 b6bc 99d9 f53c 6796 a43c e387 ecbb
00000010: b463 a8bc 3d3f 00bd 5f42 dabc b76c 64bc
00000020: ead5 213d acfb f9bb 90b3 2a3c 02ea f93c
00000030: b467 283d 64d7 17bd a606 42bd 38bb a73a
00000040: 5c86 a93c d15c f53c 906d c33b a5f5 44bd
00000050: 0bb0 cdbc 52a1 9bbb 2549 c13c e07e 1a3d
00000060: 7ad4 4f3c 8943 103d 98d9 373d 50d0 4f3d
00000070: fa9a 82bc 2811 2c3d 22c7 c0bb d930 fd3c
00000080: 502e a1bc 683e 8b3a 1d15 3f3c 8a1c 00bd
00000090: dbce 283d b9ed f33c 4a55 5a3c 3e24 a3bb
000000a0: e889 de3c e2c4 64bc 5348 adbc 4bf5 06ba
000000b0: e590 43bd 5d16 ad3c 10a8 f3bc 34a8 4f3c
000000c0: 3449 fc3b 390a 16bd 1625 3b3d 1fc9 983c
000000d0: cffb 893b 0a0b 09bd 0afc 643d eeed 59bc
000000e0: 50a6 d13c ab47 f53c dc9b 38bc ec15 a43a
000000f0: be57 713b 8351 dc3c 9528 953c e8cc 773d
00000100: 568b 9d3c b014 283d 7620 563c 7a2c 37b9
00000110: 52f1 093d 5d93 15bd 25f9 c93c bf05 9d3c
00000120: 6317 bc3b 5175 673c df4c 17bd 57dd 2dbc
00000130: f819 09bd f90a 7c3c e8d0 723c 5bd4 b93c
00000140: 2250 533c 17eb 243d ebf1 c3bc de56 1e3d
00000150: b1b4 8abb 35f8 003d 2d99 eb3c 8f76 053a
00000160: 6159 1c3c 7d66 b13c 9638 5cbb 0fee f9bc
00000170: 6a05 4b3d e8c2 90bc a4a4 6abc 790d 053d
00000180: b4b2 9fbc 8ce0 173d 3679 253d 201d 1e3d
00000190: 2c3e 1c3d 482b fbbc e59c 043d 869f e1bc
000001a0: ecb9 ca3c 2202 1e3c eaa2 a6bb b766 1b3d
000001b0: 6c82 20bc 74c2 80bc 7f11 073d 1878 0e3c
000001c0: 1c75 8cbc 4389 ce3c 2c94 c03c d882 c1bc
000001d0: 82ba c83a 7b87 553d d0ec bd3c f6db 423c
000001e0: be16 eabb d77e cdbc e2f9 453c f9ed 523d
000001f0: eded ccbc 687b a3bc 57e0 84bc cac1 663d
-0.022220975 0.030010985 0.020091249 -0.0072183474 -0.020555355 -0.03131031 -0.026642976 -0.013941935
0.039510645 -0.0076288786 0.010418788 0.030507091 0.041114524 -0.037070647 -0.04736962 0.0012796884
0.02069395 0.029951485 0.0059639886 -0.048085827 -0.025108358 -0.0047494555 0.023594448 0.037718654
0.012684936 0.035220657 0.044885248 0.05073577 -0.01594304 0.04200855 -0.0058831135 0.030907081
-0.019675404 0.0010623457 0.011662749 -0.031277217 0.041212898 0.029776441 0.013325999 -0.0049786856
0.027165368 -0.013962956 -0.021152651 -0.0005148246 -0.047745604 0.021128828 -0.029743224 0.01267438
0.007699156 -0.036630843 0.045689665 0.01865059 0.004210926 -0.033457793 0.055904426 -0.013301356
0.025592 0.0299414 -0.0112676285 0.001251874 0.003682598 0.026894337 0.018207828 0.06049815
0.01923148 0.041035354 0.013069263 -0.00017468809 0.033677407 -0.03651749 0.024654934 0.019167779
0.0057400926 0.0141270915 -0.036938544 -0.010611854 -0.03347203 0.015383475 0.014820315 0.022684267
0.012897523 0.04026326 -0.023919066 0.03865706 -0.004232966 0.03148671 0.028759563 0.0005091214
0.009542794 0.021655316 -0.0033603064 -0.030509023 0.04956571 -0.017671064 -0.01432148 0.03248355
-0.019494392 0.03707938 0.0403988 0.038601995 0.03814523 -0.030660287 0.03237619 -0.027541887
0.024746858 0.009644063 -0.005085339 0.037939753 -0.00979672 -0.015717722 0.03297567 0.008695625
-0.017145686 0.025211936 0.023508154 -0.023621961 0.0015314373 0.052131157 0.02318421 0.011893263
-0.0071438244 -0.025084896 0.0120835025 0.05149648 -0.025015796 -0.019956306 -0.016220255 0.056337155

weight f4 [3, 128]
00000000: fc4c b0bd f80f 88bd 2266 813c 6d3e 163d
00000010: 3285 b4bd c87e a63d 4161 47bd 7ae2 a8bd
00000020: 7855 fa3c af1d 543d d729 1d3d fd30 90bd
00000030: 4350 f0bc 16f3 933d 8059 913d 84d3 56bd
00000040: 02d2 24bc d565 99bd eb10 f3ba 1a03 4f3d
00000050: c53f 923d 1387 3f3d 0c89 90bd 758e 523d
00000060: fc56 d83c bc58 c2bd 1286 77bd 641b 4fbc
00000070: 0e7c 9bbd ad36 bdbd c6f9 2d3d 575c e13c
00000080: f6b2 a23d 5d3d a5bd f497 54bd 6aa3 253d
00000090: 52f9 8f3d cd6f 393d fed5 e1bc 60ec 84bd
000000a0: d9e4 3b3d c4f3 313c 46e6 95bc 1e97 7bbc
000000b0: 74c9 5b3c de12 113d 7505 7bbc c0bb 69bd
000000c0: 506c 59bd 3c5e 703d e06b c5bc 65fc 533d
000000d0: d814 d73c cfc5 a33d a1ed f43c 385a bb3c
000000e0: b002 82bd 44c2 473d 7408 aebd afcb d6bc
000000f0: 64c0 e2bc 2752 a13d b0ce 403d bdab 803d
00000100: 87ec 293d 2791 50bd 7fd4 55bd cec6 acbd
00000110: 739b 8cbd 3f52 8f3d 8b0b 68bd ca80 6cbd
00000120: 3171 97bd a7a8 edbc ba17 ac3d 281b 9a3d
00000130: 0e5c 5c3d 93ca e43c 8fab a6ba d1da b0bc
00000140: 39ad 723c 0ddc 6f3d 2335 1b3c 2299 303d
00000150: bacf a13c 1d23 c9bd 44d5 6cbc e397 443d
00000160: 816e 5abd 6af7 c1bd 67d1 ab3d 556a b6bd
00000170: 45ec 9ebd 117a 9bbc fde6 a13c 920b 5c3d
00000180: 07f0 e3bc 58f3 983d caba b5bc 29ae 2fbd
00000190: 56ba d73c dfc8 97bc a31d 823d 068a 713d
000001a0: 2b16 983d b99e 9fbd 14fe 443d 2a4d 703d
000001b0: 19e0 cf3c aae2 4c3d 8dc4 813d 42ea e63c
000001c0: e821 853d 7284 f9bd 5982 933d 4150 443d
000001d0: 4194 423c cf5d 18bd 9c35 943d 5623 27bc
000001e0: 825b 7dbd 7872 febc 57c5 cdba ba67 20bd
000001f0: a2c8 37bd d124 c8bd d697 ab3d 532c 4dbd
00000200: c2a3 a0bd 2ef5 4c3d 8a87 913c 3ee6 e0bc
00000210: d50f 793d bb98 34bd c436 30bd 82f9 b83c
00000220: 5c5d 8d3d fe37 b53d d7e3 a13d 1427 5dbd
00000230: 75b3 b43d 938d aabc aa0b afbc 3462 6fbd
00000240: 1966 ba3d 3c60 b4bc 5029 68bd afaa 2bbd
00000250: 403b a4bd 0527 04bc 333a 3c3d 964c 4bbd
00000260: 353f 01bd 8309 953d fd5c a03d b957 cd3d
00000270: d04d a73d 95ca d83c 4c1a 413d 8c14 0ebd
00000280: 027d 243c d527 c93b 4421 013d d552 2dbc
00000290: ff61 483d b7f9 123d 3d50 05bd 96df 1ebb
000002a0: 6a62 aebd fa86 6c3d f2c4 e2bb f4b8 a63c
000002b0: d53c d13b 8f80 7ebb cc14 5ebd 0740 a1bd
000002c0: bba7 843d 85c2 27b9 73d7 2abd d663 423d
000002d0: ddb3 b5ba 7739 823d 2363 bc3d 76e6 9a3c
000002e0: fa3c 823d 4320 c33c c151 113d 7240 cb3d
000002f0: b1a8 473d 02c7 a1bd eaf8 9cbd cc2c 633d
00000300: 0d92 5ebd ede1 8f3d 1055 4fbd 5462 ea3c
00000310: 6d45 373d 0118 a8bc 20f5 e8bc 5c4c ab3d
00000320: c4af 1c3d e57e 703c 0c24 07bd b178 9a3d
00000330: 49a1 72bd f7e1 c03d 651e abbd 4bde 473a
00000340: 8b2e 5bbc 66fb b73d 841d 813d 7a96 b4bc
00000350: 4bf3 6ebc 2850 b93d 6ce3 65bd 5062 81bd
00000360: 23d8 7cbc cbf0 683d 8b2e 5b3d 3c10 e03c
00000370: a0d1 4dbc d250 e23b 88d8 9f3d 6927 dbbb
00000380: d142 8cbd 2ea7 7fbd 1758 60bd eb5a a9bd
00000390: bd99 61bd 40c4 bbbc a9ba bb3d b9ac 5cbc
000003a0: 13f5 72bd 7a11 033d 8a53 86bd 84dd 1d3c
000003b0: fbc2 03ba 69a4 553b cc20 28bd 048d d13d
000003c0: b98d 2e3c 6d89 dd3c 65b8 2b3d 74c9 25bd
000003d0: 36bb 8a3d fa1f cf3d bfc5 5bbd 7250 6dbc
000003e0: eeca 293d 8e5f c13d f4fe 03bb a30c f03c
000003f0: c7b5 1fbb e816 2b3d 357e 663c 766b 9e3d
-0.086084336 -0.06643671 0.015795771 0.036680628 -0.088144675 0.0812965 -0.048676733 -0.08246322
0.030558333 0.05178612 0.03836998 -0.07040594 -0.029335147 0.07224099 0.07097149 -0.05244781
-0.010059835 -0.07490126 -0.0018544471 0.050540067 0.07141069 0.046759676 -0.070573896 0.05140539
0.026408665 -0.09489581 -0.060430594 -0.012640808 -0.07592021 -0.09238944 0.04247453 0.027509851
0.0794429 -0.08068345 -0.051902726 0.040439047 0.07029976 0.045272637 -0.02756786 -0.064903975
0.045872543 0.010861341 -0.01829828 -0.015355853 0.013414729 0.035418384 -0.015321125 -0.057063818
-0.05308181 0.05868362 -0.02409929 0.051754374 0.026255056 0.07996713 0.029898467 0.022870168
-0.06348169 0.04876925 -0.08497706 -0.02622017 -0.02767963 0.078769974 0.047072113 0.062827565
0.041485336 -0.050919678 -0.052204605 -0.084363565 -0.06865587 0.06998109 -0.056651633 -0.05774001
-0.073946364 -0.029011084 0.08402963 0.07524711 0.053798728 0.027928626 -0.0012715923 -0.021588715
0.014811807 0.058559466 0.009473118 0.04311479 0.019752372 -0.098211505 -0.014455143 0.047996413
-0.05332804 -0.094710186 0.0838955 -0.08907 -0.077599086 -0.018979104 0.019763464 0.05372197
-0.027824415 0.07468289 -0.022183795 -0.0428907 0.02633397 -0.0185284 0.06353309 0.05896952
0.07426103 -0.07793946 0.04809387 0.05866734 0.025375413 0.05002085 0.06336317 0.028187875
0.06500608 -0.12183465 0.07202596 0.0479281 0.011876167 -0.037198838 0.07236788 -0.010201296
-0.061854847 -0.031060442 -0.0015699071 -0.03916142 -0.044869073 -0.09772647 0.0837857 -0.0500911
-0.07843734 0.05003851 0.017764825 -0.027453538 0.060806114 -0.044090968 -0.04302098 0.022579912
0.069025725 0.0884857 0.07904785 -0.053992346 0.08823291 -0.020819461 -0.021367867 -0.058443263
0.09101505 -0.022018544 -0.056680024 -0.041910823 -0.080191135 -0.008065944 0.04595394 -0.049633585
-0.03155442 0.07277205 0.07830236 0.100264974 0.081691384 0.026463786 0.04714422 -0.034687564
0.01003957 0.0061387816 0.031525865 -0.010578831 0.04892158 0.035882678 -0.032547224 -0.0024242154
-0.08514865 0.05774591 -0.0069204504 0.020351864 0.0063854256 -0.003883395 -0.054219052 -0.0787354
0.064773045 -0.00015998825 -0.041709375 0.047458492 -0.0013862808 0.06358617 0.09198596 0.01890872
0.063592866 0.023819095 0.035478357 0.09924401 0.04874486 -0.07899286 -0.07664664 0.055462644
-0.054338504 0.07025514 -0.05061823 0.02861134 0.044743944 -0.020519258 -0.028437197 0.08364174
0.03825356 0.0146786915 -0.03299336 0.07542551 -0.059235845 0.094180994 -0.08355407 0.0007624372
-0.013377796 0.08983497 0.06304458 -0.022044409 -0.014584373 0.09048492 -0.05612509 -0.0631758
-0.01543239 0.056870263 0.053511184 0.027351491 -0.0125621855 0.006906607 0.07804972 -0.0066880477
-0.06848682 -0.062415294 -0.05477151 -0.08269294 -0.055078257 -0.022920728 0.09166462 -0.013468915
-0.059315752 0.03199909 -0.065589026 0.009635333 -0.0005026308 0.0032599217 -0.041046903 0.10231975
0.0106539065 0.027043069 0.0419239 -0.040475324 0.06773989 0.10113521 -0.053655382 -0.014484512
0.041453294 0.09442054 -0.0020140978 0.0293029 -0.0024369822 0.041769892 0.014068176 0.0773534

bias f4 [3]
00000000: 6f46 873c aaeb f23c e56a f8bb
0.016513078 0.029653389 -0.007581102
