trained/exp_train_3_6_1111_0.0001_0.001_32_0.95/model/meta_actor_3.pth (torch, 302079 bytes, 6 tensors)

weight f4 [512, 16]
000000 42 db 69 3d cc 1c b0 bd cf 33 38 3b b9 43 66 be
       0.057093866 -0.085992426 0.0028107052 -0.22486772
000010 1d dc c5 bd 25 fa 13 3e a1 36 e0 3d bd 58 53 bd
       -0.09661124 0.14450891 0.1094792 -0.0515983
000020 53 3f 65 be 5c de 2e be 7b ef 4f be 84 19 19 3e
       -0.22387438 -0.17077011 -0.20306198 0.1495114
000030 f9 da ce 3c ed c5 f7 3d e3 c4 d6 3d 35 c4 e5 3d
       0.025250899 0.12098298 0.10486772 0.11219064
000040 09 29 52 be 01 54 32 3e 0b fc 91 3d 3f db 0b bc
       -0.20523466 0.17414857 0.071281515 -0.008536159
000050 16 a9 2e be 3e 27 2d 3d 23 62 1d 3e ab b7 57 bd
       -0.17056689 0.042273752 0.15369467 -0.052665394
000060 15 26 b1 3d 0f 24 2d bd b1 ec b6 3c 64 79 69 be
       0.08649842 -0.042270716 0.02232966 -0.22800213
000070 09 0d e5 3d 43 a0 e0 bd 30 05 80 be db f8 93 bd
       0.11184127 -0.109680675 -0.25003958 -0.072252
000080 32 25 54 be 09 23 e2 3c 85 c2 07 3e 64 dd c2 3d
       -0.20717314 0.027604597 0.13257797 0.09514883
000090 3d 40 69 be aa f5 4b 3e 6d 53 70 bd 4e 43 71 be
       -0.22778411 0.19917932 -0.05867331 -0.23560831
0000a0 59 3a a4 bc 4d 30 cf bd d9 84 ef 3d 24 17 a4 bd
       -0.020047354 -0.101166345 0.116952606 -0.08012226
0000b0 63 c9 6a 3e 27 4c 07 3d de b8 40 3e 7d 79 19 3e
       0.22928385 0.03303161 0.18820521 0.1498775
0000c0 29 33 6d be 55 35 0f 3d ce d9 6e be d3 0c 61 be
       -0.23164047 0.03496297 -0.23325273 -0.21977548
0000d0 13 8f f1 3d 04 03 54 3e e5 af 78 3e ce e5 24 3e
       0.11794867 0.20704275 0.24285848 0.16103289
0000e0 65 e8 59 3e b1 83 a9 3d 1f 49 34 3d 32 e3 c8 bd
       0.21280058 0.08277071 0.044015046 -0.09808959
0000f0 1f 67 18 be ca 43 70 bd d7 39 77 3d e5 08 94 bd
       -0.14883088 -0.0586584 0.060357895 -0.07228259
000100 a0 f3 d4 3c 79 d3 4b be 5f 19 3e 3e 9e aa 45 be
       0.025995076 -0.19904889 0.18564366 -0.19303367
000110 df 0b 43 be 09 ba 6d 3d d5 b3 7a 3d d4 3b 06 be
       -0.19047497 0.058038745 0.061206657 -0.1310876
000120 b0 d9 07 3e 49 fa 09 be 13 16 25 3e 7c 61 36 be
       0.13266635 -0.13474382 0.16121702 -0.17810625
000130 d7 b4 0e 3e 3a 62 0e be 4f b1 54 3e 07 c1 ee 3d
       0.13936172 -0.13904658 0.20770763 0.11657911
000140 ed e0 66 3e 67 d2 59 be ee 62 41 3d 5f 96 6e 3e
       0.2254674 -0.21271668 0.047213487 0.2329955
000150 53 a3 b5 bc e5 14 89 3b 80 78 0d bb eb ad 10 3e
       -0.022172606 0.004183399 -0.0021586716 0.14128844
000160 62 fc 11 bd 4e cf 07 bd 56 78 8a 3d 33 34 e5 3c
       -0.03564108 -0.033156686 0.067612335 0.027978992
000170 35 c5 23 be bc 00 04 be a8 2a 47 3e 4b 9f 72 bd
       -0.15993197 -0.12890905 0.19449866 -0.059233945
000180 60 42 2d 3e 5d da e5 3d fd c2 ff bd f9 b1 95 bd
       0.16919851 0.1122329 -0.12488363 -0.07309336
000190 4e 7e 3d 3e 24 2e 12 be 3f 7d fe bc 12 c3 b8 bd
       0.18505213 -0.14275414 -0.031065581 -0.09021582
0001a0 2d b7 8c bd cb db cc bd db cd 69 be 17 55 db bd
       -0.068708755 -0.1000286 -0.22832434 -0.10709589
0001b0 0a dc f0 3c 24 b7 42 3e 80 c9 1d be f7 61 20 3d
       0.029401798 0.19015175 -0.15408897 0.039155927
0001c0 92 60 2a 3e bc f5 9a 3c 55 8b 34 3e 67 ec 1d be
       0.16638401 0.018916003 0.17631276 -0.15422212
0001d0 08 ee d4 bd 14 d7 2e 3e 05 d0 06 be 4b 24 ef 3c
       -0.10396963 0.17074233 -0.1316529 0.02919211
0001e0 06 7e 4e 3e d5 02 70 be 9f a5 1d 3e f1 c5 52 bb
       0.20165262 -0.2343858 0.1539521 -0.003216144
0001f0 43 c9 09 bd 0e 21 bb 3c 05 84 5d be 54 20 5f be
       -0.033639204 0.02284291 -0.21632393 -0.21789676
000200 cf 38 46 3d 66 07 86 3e e7 7b 35 3d ec ff 4c 3e
       0.04839402 0.2617752 0.044307616 0.20019501
000210 93 38 0d 3d 2a 74 bf 3d b6 5c 6a 3e 9f 61 21 be
       0.03447778 0.093483284 0.22886929 -0.15759896
000220 4f 5b 73 be 96 00 5c 3e 16 fe 56 bd d8 5d c9 3c
       -0.237653 0.21484599 -0.05248841 0.024580881
000230 cc d0 5b bd 77 32 12 be dd 4c c7 3c c2 95 69 3e
       -0.05366592 -0.14277063 0.024328643 0.22811034
000240 96 ec 7f 3e 84 4f 6a 3e dc f4 c8 bd 18 5d 44 3e
       0.24992594 0.22881895 -0.09812328 0.19176137
000250 92 c2 49 be 7a bc 4b be 04 41 65 be 72 bf 48 3d
       -0.19703129 -0.19896117 -0.22388083 0.0490107
000260 e5 eb a1 3d d7 04 51 3d b1 fe 90 3b 76 c9 6e be
       0.079063214 0.051030006 0.004424893 -0.23319039
000270 bd 53 1a 3d 79 4d 69 be 89 55 5b be 04 cb e8 bc
       0.037677515 -0.2278346 -0.21419348 -0.028417118
000280 ec 21 d9 bd 89 33 97 3d ea 1b 7c 3e 74 14 88 3e
       -0.10602173 0.073828764 0.24620023 0.26578104
000290 2d 99 1a be 90 ea 2b be b8 f4 e7 bc 75 77 09 3e
       -0.15097494 -0.16788697 -0.028314933 0.13424475
0002a0 b9 24 9b bc 2c 21 90 3d 58 22 5d bd f1 a6 8a 3d
       -0.01893841 0.07037577 -0.05398783 0.06770123
0002b0 c5 dd 7a be aa 98 01 be 59 82 33 3a 5a 06 9f bd
       -0.24498661 -0.12655893 0.00068477314 -0.07764883
0002c0 43 14 3d bd 66 e4 4a be b2 88 53 be 3c f0 fa bd
       -0.0461619 -0.1981369 -0.20657614 -0.12252852
0002d0 32 1d 0d bd de d5 63 be 8f 15 72 3e da 10 1a 3e
       -0.03445167 -0.22249553 0.23641036 0.15045491
0002e0 a2 a6 4f be 15 51 2f be 78 f1 63 bb 8f a4 ea bd
       -0.20278409 -0.17120774 -0.0034781378 -0.11457168
0002f0 2a 7f cb bc ba 0f 5e be 23 e0 2e be 5b 08 82 bd
       -0.02484091 -0.21685687 -0.17077689 -0.0634925
000300 bc a7 b4 bd fc 68 2e bd db 69 24 be f1 50 11 3e
       -0.08821055 -0.04258059 -0.16056006 0.14191033
000310 3a 9e 87 3d ca a3 46 3e a6 07 bd bd df 77 18 3e
       0.06621976 0.19398418 -0.092299744 0.14889477
000320 52 22 1a 3e 42 1c 3e 3d d3 c8 5c be d6 de f5 ba
       0.15052155 0.046413668 -0.21560983 -0.0018758427
000330 31 a7 bc bd b6 2e 33 3e 78 35 a5 3d c9 e1 d3 3a
       -0.09211577 0.17498288 0.08066839 0.0016165312
000340 81 d4 28 be f0 a9 20 3e d6 ce ba 3d 1d 9b b4 bd
       -0.16487314 0.15689826 0.09121482 -0.08818648
000350 6b 43 67 3e 83 64 cc bc 9f 04 26 be 1d 0e bd bd
       0.22584312 -0.024950271 -0.162127 -0.092312075
000360 9a c1 5d 3e 23 21 3a be 7b 28 b8 bc 13 c1 01 3e
       0.21655884 -0.18176703 -0.02248024 0.12671308
000370 ba ce 62 3e d6 08 94 bd 6c 68 3c 3e c6 a9 92 3c
       0.22149172 -0.07228248 0.18399209 0.01790322
000380 f1 01 d3 3d 22 a1 6e be 0a 10 7a bd 7c bb 83 3d
       0.10303105 -0.23303655 -0.061050452 0.06432244
000390 8e 4e 81 be a2 23 05 3e 83 f2 60 be c5 ff 0c be
       -0.25255245 0.13001874 -0.21967511 -0.13769443
0003a0 53 66 80 be e8 1b 44 be 7a d5 7a bd d6 e9 12 3d
       -0.25078067 -0.1915127 -0.061238743 0.035867535
0003b0 90 64 e9 3d 14 75 18 be d4 60 41 3e 34 49 50 bd
       0.11396134 -0.14888412 0.18884593 -0.050851062
0003c0 af 80 c0 bd 32 4b 62 3e b6 0c 8a 3d 69 76 a8 bb
       -0.093995444 0.22098997 0.06740706 -0.0051410687
0003d0 4b f4 d3 bd 20 27 47 3e 1f e5 7d be 07 9b 28 be
       -0.103493296 0.19448519 -0.24794434 -0.16465388
0003e0 a6 62 25 be d0 5c bd 3d c6 20 c1 3d 3c 2b 55 3d
       -0.16150913 0.09246218 0.09430079 0.052043185
0003f0 09 4c 60 be bb 57 a6 3d f9 81 ad bd 0c 80 3f 3d
       -0.21904005 0.08122202 -0.08472056 0.046752974

bias f4 [512]
000000 de 36 f4 3d 6f e4 93 3d 01 91 12 bc a0 7f 16 3d
       0.119245276 0.072213046 -0.008945704 0.036742806
000010 08 14 7d bb 3b c9 c3 bd b1 68 ef bd 4f 4a 68 3e
       -0.0038616676 -0.09559866 -0.1168989 0.22684596
000020 44 d1 24 3e de 82 fc 3d 0e 82 f7 3d 1d 2f 83 3e
       0.16095454 0.123296484 0.12085353 0.25621882
000030 d0 d4 90 3d 40 82 a7 3d 7b b2 81 3e 58 e9 cb bd
       0.07071841 0.0817914 0.25331482 -0.09956616
000040 1a 44 b4 3c f5 d1 57 bd 49 1e 60 be 66 18 70 3e
       0.02200513 -0.052690465 -0.21886553 0.23446807
000050 21 56 0b 3e 73 b0 2d be f3 f7 10 3e 20 41 f8 bd
       0.13607074 -0.16961841 0.14157085 -0.121217966
000060 18 30 5e be df 55 1d 3e e3 f8 04 3e 26 f9 08 3e
       -0.21698034 0.15364788 0.12985568 0.13376293
000070 8c 87 25 be c9 7a 40 be 1b 87 c4 bd 82 73 00 bc
       -0.16164988 -0.18796839 -0.09596082 -0.007840039
000080 ef 27 06 be 87 a3 5f 3e bd e7 26 be 2d c9 42 be
       -0.13101171 0.21839724 -0.16299339 -0.19022055
000090 ad 8c 61 3d 70 f4 20 3e 72 a1 47 bb 7f 8a ef bd
       0.0550658 0.15718246 -0.003046122 -0.11696338
0000a0 5a 43 66 3e c4 8f aa bc c5 5a a3 bd 41 80 61 bd
       0.2248663 -0.020820506 -0.07976297 -0.055053953
0000b0 32 25 42 3e 1f 2c b7 bd 3d 91 66 3e 6a 69 b2 3d
       0.18959501 -0.08943962 0.22516342 0.087115124
0000c0 e9 c4 32 3d 9d 65 5b 3e 3b 98 5e 3e 6d 7b 89 3d
       0.04364482 0.21425481 0.21737759 0.06712995
0000d0 57 25 71 bd c1 c2 29 3e ee e5 61 3e a1 a8 71 be
       -0.0588735 0.16578199 0.22060367 -0.23599483
0000e0 04 a9 7c be 3f b5 55 3e 1e be 38 3d 55 11 6b 3c
       -0.2467385 0.20869921 0.045103185 0.014347394
0000f0 b7 f2 fc 3c 46 e3 2e 3d 9b 59 5f 3d cd 4f 55 bb
       0.030877454 0.042697214 0.054528814 -0.0032548786
000100 1a 86 fd bd a4 ef bf bd 85 ea 19 3e 10 97 1c be
       -0.123790935 -0.0937188 0.15030868 -0.15292001
000110 6e 9b df bd 77 50 c3 bd 36 38 4b be db c2 17 bd
       -0.10918318 -0.09536832 -0.19845662 -0.037051063
000120 84 db 70 3e 9d 72 67 be ff c8 c4 bd 74 ce 13 be
       0.23521239 -0.22602315 -0.096086495 -0.14434224
000130 b1 d1 cf bd 47 f3 41 be b6 78 11 3e e4 b3 cb 3d
       -0.10147417 -0.18940459 0.14206204 0.09946421
000140 81 40 60 3e 48 8a 9f bb 72 bf 63 bc 06 21 e7 bc
       0.21899606 -0.0048687793 -0.013900625 -0.028213989
000150 87 a6 ac bc 24 72 39 3e 12 7b 69 bc d9 5f 31 3e
       -0.0210755 0.18109947 -0.014250534 0.17321719
000160 20 00 95 bd c3 22 a3 3d 20 bf b6 bc 94 d6 a5 3d
       -0.072754145 0.07965615 -0.022307932 0.08097568
000170 fe a2 53 3e aa e5 ea 3d aa e0 2b 3e 26 7a da 3d
       0.20667645 0.11469586 0.16784921 0.10667829
000180 0b a0 80 3e 31 e9 3c be 1c f8 c3 3d 8d 9d 3b be
       0.25122103 -0.1844833 0.095688075 -0.1832182
000190 2f ff 8f bc 26 2e f9 3d 36 e9 75 39 16 be 66 bc
       -0.017577736 0.12167005 0.00023451899 -0.014083406
0001a0 c1 7f 59 3e 3a ce e6 3d 31 33 85 3e 16 02 39 be
       0.2124014 0.11269803 0.26015618 -0.18067202
0001b0 be ec 11 3e 64 37 42 3e b5 71 f4 bc 0f f6 40 bd
       0.14250466 0.18966442 -0.029839376 -0.04710966
0001c0 33 1f 7e bd 95 64 91 3c 57 32 12 bc dd 2c 72 3e
       -0.062041473 0.017748157 -0.008923135 0.23649926
0001d0 5d 69 2d be 54 63 ce bd 88 22 a5 3d 42 56 3a 3e
       -0.16934724 -0.10077539 0.08063227 0.18196967
0001e0 01 33 25 be d5 95 68 3b 90 73 5b 3c 0c 3a da bd
       -0.16132738 0.0035489697 0.0133942515 -0.10655603
0001f0 07 fe 06 3e a2 7f 0f bd 87 33 69 be 03 92 3c 3d
       0.13182841 -0.03503383 -0.22773562 0.046037685
000200 79 bb 5d be 91 15 32 3e d5 b9 c9 3d 7f 54 80 3e
       -0.21653546 0.1739104 0.09849898 0.25064465
000210 13 0b 38 bd 8b 24 a3 3d 74 ea 11 be 87 13 86 3e
       -0.044932436 0.079659544 -0.14249593 0.26186773
000220 46 c3 13 3d d4 cb 33 be f4 79 b2 3d af 05 9c bd
       0.0360749 -0.17558223 0.08714667 -0.076182716
000230 f6 d5 28 3c ef ce 1d 3e ef 8b a8 bd 0f b0 59 3d
       0.0103049185 0.1541097 -0.08229815 0.05314642
000240 47 da 91 3c f6 2f 79 bd 1e 70 59 be 4e 28 67 3e
       0.017804278 -0.060836755 -0.21234176 0.22573969
000250 3d 92 2c bc bf 74 1f 3c 0d 2f 25 bd b6 d1 18 3e
       -0.010532913 0.009732424 -0.040328074 0.14923748
000260 aa ad ad bd bd ed 76 3e a3 16 b4 bb f1 a6 19 be
       -0.084803894 0.24114127 -0.0054958626 -0.1500509
000270 9f 99 50 be a6 17 33 be 99 7d 4d bb b8 a0 32 3d
       -0.20371102 -0.1748949 -0.003135538 0.043610305
000280 ae d3 be 3c 50 be 59 be e6 07 17 3e 69 f6 70 be
       0.023294296 -0.21264005 0.14749107 -0.23531498
000290 0d 08 56 be dd f2 14 3e 94 2c 46 be b4 a1 90 3d
       -0.20901509 0.1454577 -0.19352943 0.070620924
0002a0 90 49 5c 3e 2b e9 08 3e 60 71 38 be 71 03 19 3e
       0.21512437 0.13370197 -0.18011999 0.14942719
0002b0 30 f1 fa bd 0a f5 2f bd d5 23 35 be 82 66 5b be
       -0.12253034 -0.042958297 -0.1768945 -0.21425822
0002c0 54 d3 8c bc 03 d3 e0 3d 5c 6e 53 be 6d df d7 bd
       -0.017190613 0.10977747 -0.20647568 -0.10540662
0002d0 38 3e d3 3d 4a db e2 3d e8 f6 d5 3d 61 53 e4 bb
       0.10314602 0.11076982 0.10447484 -0.0069679474
0002e0 34 c8 40 bb 74 7d e2 3d 48 c7 2d be ee a9 15 3e
       -0.0029416205 0.110590845 -0.16970551 0.14615604
0002f0 6e eb 0e 3e da 6f 9d 3d 30 20 44 be 9f 47 32 3d
       0.13956997 0.076873496 -0.19152904 0.043525334
000300 9e b2 ed bd e4 bb a7 bd b8 73 a4 3d 94 18 70 3e
       -0.11606334 -0.08190134 0.08029884 0.23446876
000310 ba a1 29 be ea 5f 2d bd 3c 21 0b be b0 91 7d 3e
       -0.165656 -0.0423278 -0.13586897 0.24762607
000320 85 e5 95 bd f7 35 27 be 80 4a 45 3e dd f9 43 be
       -0.07319168 -0.1632918 0.192667 -0.19138284
000330 0b 2c 62 be dc 72 e1 bd 6d 0b 89 3d b5 c2 4a bd
       -0.22087114 -0.11008236 0.066916324 -0.049502093
000340 a1 1e 46 be a5 65 5f be 9d 4b 57 be e7 8f 0b bd
       -0.19347622 -0.21816118 -0.21024938 -0.034072783
000350 19 8c 6d 3e a1 24 ee 3d 0b eb 04 3e 57 9f 66 3d
       0.23197974 0.1162808 0.12980287 0.056304302
000360 6f 28 8c 3d 06 de a4 bc f8 e2 5c be cc 32 55 3e
       0.068436496 -0.0201254 -0.21570957 0.20820159
000370 a0 74 3a 3d 0a d5 64 3d 24 2c d7 3d b1 61 30 bd
       0.04552138 0.055867232 0.10506466 -0.043061916
000380 c7 fd 70 3e 5f 8a 1d be 93 b1 82 3e ae 68 d3 3d
       0.23534308 -0.15384816 0.25526103 0.103227004
000390 40 11 26 be 0a 46 95 3d 59 a7 c9 3d fe 17 0a be
       -0.16217518 0.072887495 0.09846372 -0.13485715
0003a0 20 12 18 bd 66 82 25 3d 58 8a 51 bd e2 d8 f0 3d
       -0.03712666 0.04040756 -0.051157326 0.11760117
0003b0 45 38 3e be 1c 44 13 3e 1d c6 ac 3d 61 99 fe 3d
       -0.18576153 0.1438145 0.084362246 0.124315985
0003c0 a6 c6 24 3e 5e a5 5c 3e 28 17 3c be a4 3a 09 3d
       0.16091403 0.21547458 -0.18368208 0.03350319
0003d0 2a cd fc 3d b7 8c a0 bb 5d 95 50 3e a3 9c ac 3d
       0.123438194 -0.004899587 0.20369478 0.084283136
0003e0 66 ca 52 3e f1 90 3f 3e 92 7f 05 be 0d 62 b5 bd
       0.20585021 0.18707635 -0.13036945 -0.08856592
0003f0 43 53 3a 3e 0c 74 00 be ec 2d 88 bd 6e f7 d2 3d
       0.18195824 -0.12544268 -0.06649384 0.103011

weight f4 [128, 512]
000000 ae 83 34 bd f9 d5 11 3d 14 d6 0c bd 4b 1c 10 bc
       -0.044070892 0.03560445 -0.03438385 -0.008795808
000010 91 04 94 3b 93 ed 26 bd 7f 01 bc bc 11 3f 06 bd
       0.004517146 -0.040753912 -0.022949932 -0.03277499
000020 95 61 a9 3c 03 aa a7 3c 5b 82 8f 3b 17 72 00 bd
       0.020676414 0.02046681 0.0043795533 -0.031358805
000030 4f 8b 77 bc c5 47 06 3d 6d f0 f3 bc 09 f8 ea bb
       -0.015108897 0.03278329 -0.02977773 -0.0071706814
000040 cf 75 c1 bc ef 0f 47 bd 2c f9 c4 3c bf a8 19 3d
       -0.023615746 -0.04859918 0.024044596 0.037514444
000050 c4 d9 90 3c e7 d5 ac bc 53 e8 e9 3c d5 38 3d bd
       0.017681964 -0.02109809 0.028553164 -0.046196777
000060 66 e0 b8 3c 2e 74 22 3d 00 21 32 bc b0 d8 8b 3c
       0.022567939 0.03966158 -0.010872126 0.017071098
000070 f8 5c 08 bd 8b 49 ca bc 9d 56 8c bc 13 df 48 bc
       -0.033291787 -0.024693271 -0.017131144 -0.012260216
000080 58 3f fd 3a b1 47 15 3d 4f 38 88 3c 83 3f 7b bc
       0.0019321246 0.036445323 0.016628413 -0.015334967
000090 9e d9 a5 3c 93 d0 21 bd 1f 38 a2 3c 37 24 8b 3b
       0.02024537 -0.039505553 0.019802151 0.0042462605
0000a0 e1 c0 14 bd 48 38 90 ba 12 34 03 bc e2 b5 90 3c
       -0.036316756 -0.0011003101 -0.00800802 0.017664853
0000b0 23 31 97 3c 5f 20 34 bd a6 90 00 bd ef 32 38 3c
       0.018456047 -0.043976184 -0.031387947 0.011242612
0000c0 bc 5b 9f 3c 5b 2f 12 bd 5d 6b 41 bd 27 2a 86 bc
       0.019452922 -0.035689693 -0.04722153 -0.016377522
0000d0 7d b4 37 3b 27 5f 0f bd dc 06 df 3c 63 34 8f bc
       0.0028031163 -0.035002854 0.02722495 -0.017481035
0000e0 4b e7 31 bd f6 08 82 3c 08 f8 1a bd e8 38 16 3d
       -0.04343347 0.015873414 -0.037834197 0.036675364
0000f0 1d ce d9 bc 2e 95 af bc c9 4b 11 3c b5 19 fd b9
       -0.02658754 -0.02143344 0.008868166 -0.00048275074
000100 f6 14 c6 3c 92 87 2f 3b cf 59 8e bc 2d 6b 46 bc
       0.024179917 0.0026783687 -0.017376808 -0.012110514
000110 de ac e3 bc 28 68 20 bd 2b 7f b8 3b d0 48 95 3b
       -0.02779239 -0.03916183 0.005630394 0.004555799
000120 41 52 ad bc 20 56 ed bc a0 0d e7 bb e1 35 ef 3c
       -0.021157386 -0.028971732 -0.007051185 0.029200496
000130 bc f6 d3 3c ce b0 2b bd eb f9 8f 3b 9e a9 47 bd
       0.025874488 -0.04191666 0.004393806 -0.048745744
000140 30 c2 15 3d fa 7c fe 3c a7 10 14 3d c3 a0 35 3c
       0.036562145 0.031065453 0.036148693 0.011085692
000150 20 5f 90 bc e6 bd 1e bd e1 af 2b bd 3d 76 f0 bc
       -0.017623484 -0.03875532 -0.041915778 -0.029353255
000160 32 c8 03 3d 4b 4e 1d bd 1d 1b 78 bb ae e0 31 bb
       0.032173343 -0.038404744 -0.0037857958 -0.0027141976
000170 e5 cb 96 3c 75 fb 23 3c c3 c7 16 3d 2c 66 80 bb
       0.018407771 0.0100086825 0.0368116 -0.00391843
000180 22 cc 25 3a ab f9 3c bc e4 e2 d2 bb 70 30 6a bc
       0.00063246686 -0.011534135 -0.006435739 -0.014293775
000190 01 2d 0a 3d 1c 72 cc 3c 87 cc 0b 3b 02 47 18 3d
       0.033734325 0.024956755 0.0021331625 0.037177093
0001a0 eb 9d 8a 3b 31 70 0f bd b7 bf 24 bd 87 48 0c bc
       0.004230251 -0.035019103 -0.040221896 -0.008562214
0001b0 f2 c7 56 3c ac 68 aa bc a2 e6 cd 3c e9 ac 22 bd
       0.013109194 -0.020801865 0.025134388 -0.03971568
0001c0 7c 44 74 bb ca 5f 4a 3c be 7c 24 39 39 37 64 bc
       -0.0037272265 0.012351939 0.00015686729 -0.013929182
0001d0 76 5d b2 3c c4 d2 11 3d 4e 87 57 3b b8 37 a0 3c
       0.021773081 0.035601392 0.0032887044 0.019557819
0001e0 70 40 1e bd ce d8 e3 bc 8b 3b 1c 3d 07 4f 17 3c
       -0.03863567 -0.027813341 0.038142722 0.00923515
0001f0 c8 f1 a1 bc f9 20 c3 3c 56 66 0b 3d b9 3e ae bc
       -0.01976861 0.023819434 0.034033142 -0.021270143
000200 06 14 1a bc dc cf 1c 3d 8e a9 8d bc 70 92 d4 bc
       -0.009404188 0.038284168 -0.017292764 -0.025948733
000210 c7 d9 c9 bc fa 59 a4 3a f5 6c 8a 3c d8 60 ae 3c
       -0.024639977 0.0012539022 0.016897658 0.021286413
000220 2e b7 da 3c d8 9c 3e 3c 0b d2 a6 bc b6 33 54 3c
       0.026698675 0.011634074 -0.020363828 0.012951782
000230 91 55 41 bd 79 28 fb bb de ab c6 bc f0 63 31 bd
       -0.047200743 -0.007664737 -0.024251875 -0.0433082
000240 e0 85 1c bd 7b 16 a8 3c 85 91 04 bd 9b 64 47 3c
       -0.03821361 0.020518532 -0.03236534 0.012169982
000250 95 92 b5 3c b6 97 d3 bc 07 69 9b bc 3e 6e 12 3d
       0.022164622 -0.025829177 -0.01897098 0.035749666
000260 97 51 09 3b e8 42 7f 3a 89 87 46 3c 29 c1 64 3b
       0.0020953172 0.0009737448 0.012117275 0.0034905171
000270 75 f4 cd bc b0 4a 9f bc 87 97 26 bd 4a e2 f7 3c
       -0.02514098 -0.019444793 -0.04067185 0.03025927
000280 b3 58 92 bc f7 ba 4e 3c 18 e4 01 bc fc 57 4d 3c
       -0.01786456 0.012617818 -0.007927917 0.012533184
000290 5c b5 dc bc 56 d6 10 bd 18 08 8a 3c 5e 0a bd bb
       -0.026941948 -0.035360657 0.016849563 -0.005769058
0002a0 a4 56 c0 bb 6e 83 fb 3c 1e 4e 2c bd 30 1a a1 3b
       -0.0058697034 0.030702319 -0.042066686 0.004916452
0002b0 4e 7a 1d bd c6 d3 e5 3a 93 df f0 3c a3 c0 40 3c
       -0.038446717 0.0017534427 0.029403483 0.011764678
0002c0 00 df d8 3c e2 5f 36 3c 79 70 e0 3c 8e aa 41 bd
       0.026473522 0.011131259 0.027397381 -0.047281794
0002d0 0b 37 56 bc 65 1c 25 bd 98 7b ac 3c 32 63 20 bd
       -0.013074647 -0.040310282 0.021055028 -0.0391571
0002e0 de da 43 bc 94 ab a3 bc ae b2 82 bc 0a 62 00 bd
       -0.0119540375 -0.019979276 -0.015954342 -0.031343497
0002f0 cd 85 d1 bc ce c5 8c bc dc 80 2a bd 9d 11 00 bd
       -0.025576496 -0.017184164 -0.041626796 -0.031266797
000300 21 e5 75 3c 6d 4a 41 bc 16 f6 8d 3b 74 fb fa bc
       0.015008242 -0.01179753 0.0043323142 -0.03063748
000310 c2 f6 07 bd 27 a9 82 3c 6b a8 15 bc 6b 41 3a bd
       -0.03319431 0.015949799 -0.009134392 -0.045472544
000320 16 b2 a7 3c 03 44 e5 bc 62 6c 1e bd 96 0c 37 bd
       0.02047066 -0.027986532 -0.03867758 -0.044689737
000330 84 b2 10 bd a4 de 38 bb d3 4f b6 3c c2 4d ca bc
       -0.035326496 -0.0028208876 0.02225486 -0.024695281
000340 d5 ca db 3c bc ca b0 bb b5 b7 1f bd 02 8b 97 bc
       0.026830116 -0.0053952616 -0.038993556 -0.018498901
000350 79 fa 0a bc 36 92 06 3d a7 93 9a ba ff 6c 1a bd
       -0.008482569 0.03285428 -0.0011793271 -0.037701603
000360 5f 6f a8 3b 3c fd d1 bc d0 ef 0e bc 5c ed 44 bd
       0.0051402296 -0.025633447 -0.008724168 -0.048077926
000370 c0 ee 2d bd 47 0e db bc cb e4 0d bc e8 75 2b bd
       -0.042464018 -0.026740206 -0.0086605055 -0.04186049
000380 11 41 fb 3c 28 2e 06 bd d1 d6 07 3d 3d 88 ca 3c
       0.030670675 -0.03275886 0.03316385 0.024723167
000390 e4 2e 93 bc a2 b3 c0 3b 3c da 03 bc d6 7a 18 bd
       -0.017966695 0.005880789 -0.008047637 -0.03722652
0003a0 26 de 9d 3c 75 1f ad 3b 69 2d 08 bd 1c 8e c7 bb
       0.019270968 0.005283291 -0.03324643 -0.006089939
0003b0 df e0 55 bc ed 9e 11 3d 02 0b 0f bd 4f be df bc
       -0.013054102 0.035551954 -0.034922607 -0.027312426
0003c0 11 21 9a bc 24 bc ba 3a 73 bc 2d bd a2 39 4a 3c
       -0.018814595 0.0014246744 -0.042416047 0.012342842
0003d0 70 a0 b5 3b e8 0f 94 bb d7 a4 08 3d 6b 35 83 bc
       0.0055428073 -0.0045184977 0.03336033 -0.016016683
0003e0 d4 32 ba 3b d1 16 6f bc 55 33 41 bd 48 d2 b5 3c
       0.0056823287 -0.014592842 -0.047168095 0.022194996
0003f0 2a d0 02 bc a0 e2 08 bd cf b1 b6 bc 21 51 19 bd
       -0.0079842005 -0.03341925 -0.022301583 -0.037430886

bias f4 [128]
000000 b9 dc 06 bd 3d c8 fd bb 10 2c 43 bd 8d 82 d1 3c
       -0.03292534 -0.0077448175 -0.047649443 0.025574947
000010 c6 2f 79 3c d8 8a 21 bd f2 fe 2b bc c4 8c 32 bd
       0.015209144 -0.039439052 -0.010497795 -0.043591276
000020 ad 5e 50 3b ee d9 9d bc d1 65 75 3c 2f 57 07 3d
       0.0031794712 -0.019268956 0.014977888 0.03304213
000030 a1 ae 1a 3d c1 07 34 bd d5 1b 1f bd 31 b8 f7 bc
       0.037764195 -0.043952707 -0.038844902 -0.030239196
000040 45 11 01 bd 50 0b 0f 3d 9f 09 e3 bc 60 f1 fc 3c
       -0.03151061 0.034922898 -0.027714549 0.030876815
000050 ef 2d dc 3c de 39 94 bc 1a 5c f8 3c 43 c9 75 3c
       0.026877372 -0.018094 0.030317355 0.015001598
000060 33 c6 a2 3c d3 cc 00 3c 54 90 4a 3c 96 f3 c1 bc
       0.0198699 0.007861334 0.012363512 -0.023675721
000070 67 e6 c1 bc bb 37 d7 bc 8b 70 d5 3b 90 44 1d 3d
       -0.023669435 -0.026271692 0.0065136603 0.038395464
000080 d4 a7 1a 3d 10 a4 88 3a fa 63 8f 3b 98 68 a4 3c
       0.03775771 0.0010424871 0.004375932 0.020069405
000090 be e5 c3 bb 36 73 13 bc e4 dc e3 3b 4d 5f c0 bc
       -0.005978315 -0.008999636 0.0069538224 -0.023482943
0000a0 38 5a e8 bc b2 d9 77 bc c8 c1 82 bc cc ec 8e 3c
       -0.028363332 -0.015127586 -0.015961543 0.017446898
0000b0 08 f4 67 bb 9b dd 34 bd 86 15 82 3c e6 9c 70 bc
       -0.0035393257 -0.044156652 0.015879404 -0.014685845
0000c0 ba b4 d7 3c 9d 0e dc bc c6 44 4c 3d ac 36 4a 3d
       0.026331294 -0.026862437 0.049870275 0.049368545
0000d0 42 73 98 3c 94 58 80 3c 29 9f 0f bc 22 e2 92 bc
       0.018609647 0.015667237 -0.008765974 -0.017930094
0000e0 1d 50 a7 3c fb b0 02 3d c8 8f 4c bc 55 9c 25 bd
       0.020423943 0.031907063 -0.012485452 -0.040432293
0000f0 7f 25 d4 bc 56 63 5d 3d c4 5f 40 3c 35 d3 57 bc
       -0.025896786 0.054049812 0.011741582 -0.013172914
000100 01 19 0d 3d f8 c9 0a 3c 25 9e a5 3c 26 12 45 3d
       0.034447674 0.008471005 0.02021701 0.04811301
000110 6b 2a 07 3d d4 07 74 3c 2a 55 97 bc 6d 64 a9 3b
       0.032999437 0.0148944445 -0.018473227 0.0051694424
000120 ba c1 dd 3a 9e bd 41 bd 86 78 4b 3c 16 91 af 3d
       0.0016918697 -0.047299974 0.012418872 0.08572595
000130 ce 70 27 3c d7 75 fe ba 7f 24 31 3d 9d d3 bc 3d
       0.010219766 -0.0019413781 0.043247696 0.092200495
000140 06 26 88 bc 40 32 7a bb 91 4a b5 bc 5f 18 c6 bc
       -0.016619693 -0.0038176924 -0.022130283 -0.024181543
000150 b3 8e 92 bb 80 54 2b bd 60 05 1a bd c0 7e cd 3c
       -0.0044725775 -0.041828632 -0.037602782 0.025084853
000160 a5 05 ac bc 0a e0 da bc 99 5f 92 bc f1 33 63 3c
       -0.020998785 -0.026718158 -0.01786785 0.013867364
000170 6c 27 73 3c 9c 23 f8 3b 97 eb 51 bc e3 74 ab bb
       0.014840942 0.0075726043 -0.012812517 -0.00523244
000180 d8 42 9b 3c 26 f4 04 3d 0a b9 14 3d 36 0d 43 bc
       0.018952772 0.0324594 0.03630928 -0.011905005
000190 a7 37 4e 3d cc 88 ed 3c 90 2b 04 bd f5 ed 0a 3d
       0.050346043 0.028995894 -0.032268107 0.03391834
0001a0 1a bb 18 3d e6 7b a9 bc 3a 24 0b 3c 5d 70 01 3d
       0.03728781 -0.020688962 0.008492524 0.0316013
0001b0 69 88 7d bb 48 0d 0a 3d e7 e2 3c 3c 95 92 0a 3d
       -0.0038686043 0.033704072 0.011528707 0.033831198
0001c0 46 77 2f bc a6 d0 41 3d 8d f1 c7 bc a3 ab 76 bc
       -0.010709589 0.047318123 -0.024407173 -0.01505557
0001d0 58 6c d5 bc 58 05 d8 3c 20 d3 69 3b 51 9f cc 3a
       -0.026052639 0.026369736 0.0035678819 0.0015611445
0001e0 5f 6a 30 3c 9d 4a a7 3c 5e fd 0b bc bf 3a ab 3c
       0.010767548 0.02042132 -0.008544294 0.020902036
0001f0 a7 f6 0e 3d 5e 8a 9f bb 6f 9a e1 3c 39 59 f2 3c
       0.034903195 -0.0048687896 0.02753946 0.02958356

weight f4 [3, 128]
000000 2c 20 eb ba ec 2a 90 bc 96 7d a7 3c c5 86 d3 bc
       -0.0017938665 -0.017598592 0.020445626 -0.025821099
000010 05 a7 b4 bc 3d 44 a2 bd 60 4d 0f bc 64 f6 d2 3c
       -0.022052297 -0.07923172 -0.008746475 0.025752254
000020 6a a8 78 3d 0a 66 5b 3d 88 52 d6 bd 72 da 09 bd
       0.060707487 0.05356411 -0.1046496 -0.03365559
000030 51 aa 57 bd a6 77 b1 bd fe 4c b5 bd 9c 4f 33 bd
       -0.05265266 -0.08665399 -0.08852576 -0.043777093
000040 24 db 55 3d c8 a1 8a 3d 5f 02 d4 3a 8c f9 80 3d
       0.052210942 0.067691386 0.0016175023 0.06297597
000050 d9 14 e3 3c bd 9e 8a 3b 6d 21 c7 bd 71 14 31 3c
       0.027719902 0.004230349 -0.09723172 0.010808096
000060 3d 35 ba bd e2 09 a1 3d de 45 15 3d 38 4e 61 3c
       -0.09092186 0.07863213 0.036443584 0.013751559
000070 88 8f a3 bc ed 11 bf 3c 73 a2 09 3c 18 57 3b bd
       -0.019965902 0.023323977 0.008400547 -0.045737356
000080 10 fc 80 3d bd 70 97 bd aa c8 4a 3b f8 69 aa 3d
       0.06298077 -0.0739455 0.003094236 0.08320993
000090 e8 11 a3 3c 10 cd a7 3c 15 0f 5f 3c f7 53 9f bd
       0.019906 0.020483524 0.013614436 -0.07779687
0000a0 90 56 39 3c 63 a0 d7 bd 9d 29 02 bd 7a 0b 53 3d
       0.011312142 -0.10528638 -0.031777967 0.051524617
0000b0 c5 e5 a1 3d 3e 44 db bb 13 19 70 3d cd 1e 9a 3d
       0.07905153 -0.0066914847 0.058617663 0.07525406
0000c0 df 65 f0 3c fd 15 32 bd d1 2d b5 bd 72 9a 40 3d
       0.02934545 -0.043478 -0.088466294 0.04702229
0000d0 0c f7 6a 3c 37 87 85 3d d9 e4 d9 bb a0 c6 a3 bd
       0.014341127 0.06519931 -0.006649595 -0.07996869
0000e0 32 ac 8d 3d ba a5 26 3d 10 05 97 bc e5 92 bd bc
       0.06917609 0.040685393 -0.018435031 -0.023141334
0000f0 95 2a c6 bd bd 1c aa bd 30 0c 91 3d cd f1 fb 3c
       -0.09676091 -0.08306263 0.07082403 0.030754948
000100 65 41 3a bd 9e 96 dc bd 11 d6 9d bd c0 1c 10 bd
       -0.04547252 -0.107709154 -0.077068456 -0.035183668
000110 e5 9b d1 bb f6 ea 87 3d fc 34 9e bd 1b fd 15 bd
       -0.006396758 0.06636612 -0.0772495 -0.036618333
000120 5a 68 20 3c e8 da 0a bb 7a 35 76 bd 7d 5f 3e bd
       0.009790504 -0.0021187607 -0.060109593 -0.046477783
000130 ef 97 e0 bc 68 02 30 bd 47 ef 16 be 27 66 ca bd
       -0.027416198 -0.042971045 -0.14739715 -0.09882765
000140 e6 2c ce 3c 52 1e f2 ba ef f8 30 bc ef a0 b1 3c
       0.025167894 -0.0018472171 -0.010801538 0.021683184
000150 ec e0 77 3d be 89 04 3d e7 07 a5 3d ed ee 76 3d
       0.060517237 0.032357924 0.08058148 0.06028645
000160 10 4b 7c bd 49 0c ca bc 0a ea d7 3c a0 97 1e bd
       -0.061595023 -0.024664061 0.026356716 -0.03871882
000170 0b c4 b3 bd 20 5e 80 3d 23 55 92 bc fa 1a 9f bd
       -0.087776266 0.06267953 -0.017862862 -0.07768817
000180 21 a8 6f bd 1d a1 fd 3c d4 b8 d3 3c 22 db 4a 3d
       -0.05850995 0.030960614 0.025844969 0.049525388
000190 64 2f 2b bd d1 e3 97 bd c3 a9 fd 3b 11 be cb bd
       -0.041793242 -0.074164994 0.0077411844 -0.09948362
0001a0 9c 1f a3 bc 0c b1 ae bd 53 d7 17 bc f8 97 6f 3d
       -0.019912533 -0.08529863 -0.009267646 0.058494538
0001b0 2f 89 c0 bd e6 a7 19 3d 67 37 98 bd dd 0e 65 bd
       -0.09401166 0.037513636 -0.07432442 -0.055922378
0001c0 0f bd 4e 3d cf c4 df bd a3 2a c9 bd 45 6d 92 3b
       0.05047327 -0.1092621 -0.098225854 0.0044685923
0001d0 26 9f 7b 3c a5 0a 31 bd 5f ad 39 bd f2 00 d2 bd
       0.015357768 -0.043223042 -0.045331355 -0.102540866
0001e0 a0 fb 9a 3d ca 15 31 3d 51 a3 8a bc 4b b3 01 3d
       0.07567525 0.04323367 -0.016923578 0.031665128
0001f0 19 f9 1a bd 2d c8 70 3d 41 1e da bd 56 bd 32 3d
       -0.037835214 0.058784653 -0.10650302 0.043637596
000200 93 a9 d3 bc 7c c5 13 bc 64 ed 68 bd 40 71 2b 3d
       -0.025837695 -0.009019252 -0.05686702 0.04185605
000210 36 9d 09 bd 79 f7 53 bd 93 39 8b bd a4 23 95 3d
       -0.033597194 -0.05174968 -0.06798091 0.072821885
000220 1e 20 8e bc 70 63 75 3d 16 94 4a 3d 59 c5 89 bd
       -0.017349299 0.059909284 0.049457632 -0.06727094
000230 20 10 a0 3d 32 60 43 bd 4b a0 41 bd 47 73 36 3d
       0.078155756 -0.04769916 -0.047272008 0.04454353
000240 88 73 51 3c 68 c8 b7 3c be 3c a1 3d 96 37 5d bd
       0.012783892 0.022434428 0.07872914 -0.05400809
000250 32 af 3e bd 92 9a b1 3c 89 f4 08 3d 4d 68 8e bd
       -0.046553798 0.02168015 0.033436332 -0.069534875
000260 12 c0 9d 3d 99 e4 89 bd fc c3 a2 bc 79 30 8c 3d
       0.0770265 -0.06733055 -0.019868843 0.06845183
000270 be 92 a8 bd de f9 90 bd b5 80 29 bd 09 bc 93 bd
       -0.08231114 -0.070789084 -0.04138251 -0.07213599
000280 13 90 af bc 38 ba 3c 3d a8 1e 96 3d 31 1e a0 bc
       -0.021431005 0.04607603 0.07330066 -0.019545646
000290 ce 73 8d 3b e0 5a 06 3d 6b 57 25 bd eb bb 12 3c
       0.0043167835 0.03280151 -0.04036657 0.008955936
0002a0 c8 9c 36 bd 4b 9b 38 3d 44 8d 0e 3d 8a b6 ab bc
       -0.044583112 0.045069974 0.03480269 -0.020961065
0002b0 db 41 6b bd 65 23 d2 3c 46 8c 47 3d 97 80 6d bd
       -0.05743585 0.025651643 0.04871776 -0.05798396
0002c0 bd 4d ef 3b ec 98 da 3c b4 7e a7 bc ca 8a 5e 3d
       0.0073029683 0.026684247 -0.020446159 0.05433158
0002d0 a3 c9 ad 3d 82 22 3a 3d 8c 34 24 3b 32 3e 35 bd
       0.08485725 0.045443065 0.0025055734 -0.044248767
0002e0 27 00 c5 3c bf f0 0a bd 42 a0 ac bd b4 f9 36 3d
       0.024047924 -0.033921 -0.08429004 0.04467173
0002f0 19 ca 06 3d 7b ae b1 3c e9 bb 6c 3d 09 21 92 3b
       0.03290758 0.021689644 0.057796393 0.0044595045
000300 d0 dc a7 bc 3f 98 9e 3d 9e aa 3c 3d 84 56 52 3d
       -0.020491034 0.077438824 0.04606115 0.05135204
000310 17 ca 7e bd a8 79 66 bd 6c ca 71 3d 54 41 af bd
       -0.062204447 -0.056268364 0.059030935 -0.08557382
000320 f2 c6 c6 bc b5 67 ab bd ee 26 7e bd 97 72 28 3e
       -0.024264786 -0.0836939 -0.062048845 0.16449963
000330 ea a1 f9 bc 12 d8 34 3d ef f7 d5 3d 7c 2a dc 3d
       -0.030472714 0.044151373 0.1044768 0.10750291
000340 ba 25 29 bd 32 45 16 3c c0 5b 87 bd 22 79 e0 bb
       -0.041295744 0.009171771 -0.06609297 -0.0068503777
000350 4c 09 08 bd 1e a9 d1 bc d8 71 9a bc ac a9 95 3d
       -0.03321199 -0.025593337 -0.018853113 0.07307753
000360 c0 9b 82 bd 6e 2e ac bd 28 3c f4 3c 53 20 32 3d
       -0.06377363 -0.08407293 0.029813841 0.043487858
000370 65 32 0e 3d d0 a7 a5 3c a5 7c d9 bc 3b 35 74 bd
       0.03471603 0.02022162 -0.026548693 -0.059621077
000380 74 21 b8 3c 37 b2 83 3d 53 f2 be bc b9 f2 98 3d
       0.02247689 0.06430476 -0.023308909 0.07468171
000390 07 c0 0a 3d a1 fe 88 3d 22 49 88 3d 79 3a 37 3b
       0.033874538 0.066891916 0.06654574 0.0027958436
0003a0 04 a6 89 bd 82 ca 72 3d a0 fe 9a bd 03 c5 8e 3d
       -0.06721118 0.059275158 -0.07568097 0.06971171
0003b0 ae ee a5 bd d3 6b 33 3d 25 40 a3 bd c9 e8 a1 3d
       -0.08102165 0.043804 -0.07971219 0.07905728
0003c0 7c 54 87 bd 5b 5c a4 3d 57 71 45 3d 80 08 a9 3d
       -0.06607911 0.08025428 0.048203792 0.08253574
0003d0 48 de 82 3d e1 74 d1 bc bc 07 23 3e 19 24 92 3d
       0.06390053 -0.025568428 0.15920919 0.07135791
0003e0 45 14 3f 3d e9 2a 43 bd a6 fa b5 3d 1c 88 56 3d
       0.04665019 -0.047648344 0.08885698 0.052375898
0003f0 8e 79 72 bd 16 d0 a3 3d 43 41 d5 3c 96 ca 91 bd
       -0.059197955 0.079986736 0.026032096 -0.07118718

bias f4 [3]
000000 31 8c d8 3b 6b ed 86 3c db c4 2d bc
       0.006608509 0.016470632 -0.010606016
