trained/exp_train_3_6_1111_0.0001_0.001_32_0.95/model/meta_critic_0.pth (torch, 950411 bytes, 7 tensors)

weight f4 [128, 16]
000000 b3 86 eb 3d d0 5d db 3d 6c af e4 3d 93 99 72 bd
       0.11500301 0.10711253 0.111662716 -0.05922849
000010 81 59 30 3e 0c 2c 26 3e 44 4e 1c ba e3 89 6d 3e
       0.17221643 0.1622774 -0.000596259 0.23197131
000020 89 05 1b 3e ae 4f 33 3e d3 b5 a1 3d 8b 60 76 3c
       0.1513883 0.17510864 0.07896008 0.015037666
000030 55 4d e0 3c c9 63 62 3d fa 59 d5 3d b2 59 8a 3d
       0.027380625 0.055270944 0.10417552 0.06755389
000040 65 b6 82 be d8 c5 a5 bd 9a df 32 3e 4a 1d 8c 3d
       -0.2552978 -0.08094376 0.1746811 0.06841524
000050 a9 45 1a 3d c2 7e b4 bd fa 27 f8 3d 1f 1c 09 3e
       0.03766409 -0.0881324 0.12117 0.13389634
000060 56 e9 63 be ea 2e 86 be b6 7a 85 3e 11 53 8b 3d
       -0.2225698 -0.26207668 0.26070184 0.06802953
000070 e0 76 a2 be 52 d8 3d be 1d c9 4c 3e 21 00 78 3e
       -0.3173132 -0.18539551 0.19998594 0.24218799
000080 eb 10 99 be b3 7a d8 be 87 27 f7 bd 7e af 14 bf
       -0.2989572 -0.42281112 -0.12068086 -0.5808028
000090 a7 5f 46 be b5 7b 99 3d 4b e9 51 3d 4a 5e b5 3d
       -0.19372426 0.07494298 0.051247876 0.08855875
0000a0 0b ca 1b be 73 d4 01 be ac c9 49 be e3 df 20 3e
       -0.15213792 -0.12678699 -0.19705838 0.15710406
0000b0 0e d2 28 be 02 3a 3b bd 09 47 8d 3e 36 ca 89 3d
       -0.1648638 -0.045709617 0.27593258 0.06728022
0000c0 32 80 9e be f2 39 26 be fe 09 c3 3d 82 ce 9c 3e
       -0.3095718 -0.16233042 0.0952339 0.30626303
0000d0 fc 0f d3 bd 3d 69 8e bd e7 43 3c 3c 83 7f 14 3e
       -0.10305783 -0.06953666 0.011490799 0.14501767
0000e0 70 8b 39 be 67 d7 27 3e 56 4d c6 3d 84 29 27 3e
       -0.18119597 0.16390763 0.096827194 0.1632443
0000f0 7b 86 5b be d1 4f ba bd a9 98 35 3e 4b 04 20 be
       -0.21438019 -0.09097255 0.17734016 -0.15626638
000100 41 78 78 bd 66 e5 99 3e 5a b5 14 3e 6c e7 8f be
       -0.060661558 0.3005783 0.14522305 -0.28106248
000110 27 ab cd bd 28 a7 ea bc 2f 2b 8b be c4 8e f1 bd
       -0.1004241 -0.02864416 -0.27181384 -0.117948085
000120 c0 85 1c 3e bb d2 90 3d 80 d0 76 3e 2d 40 47 be
       0.15285397 0.07071444 0.24102974 -0.19458075
000130 8a 07 15 3c b9 fd 92 3e 7e d4 01 3e 71 86 69 be
       0.009096036 0.287092 0.12678716 -0.22805192
000140 c6 b7 ea 3d d7 6b a9 be 95 e5 64 be f1 61 ca 3d
       0.11460833 -0.33090088 -0.22353204 0.09881962
000150 7b 89 eb 3c 5b aa 27 be 75 ac e2 3d 0a 53 b4 3e
       0.02875208 -0.16373579 0.1106805 0.35219604
000160 d2 e2 0d be 9a de 8b be 75 7f 0e bd 32 24 90 bd
       -0.13856056 -0.2731827 -0.03478952 -0.07038154
000170 af 17 ac 3e 41 ca ad bd 8a 22 15 be 09 bb ac 3d
       0.3361182 -0.084858425 -0.14563957 0.084341116
000180 ac fc 3c 3e 29 65 23 3e 86 d0 f4 bb 38 d6 05 be
       0.18455762 0.15956558 -0.007471147 -0.13069999
000190 b7 96 3c 3e d1 f7 d2 3e ea 96 5f be 19 00 8b be
       0.18416868 0.41204694 -0.21834913 -0.27148512
0001a0 20 bd fe 3d 7e 16 e6 3c f4 c2 27 be 36 10 37 be
       0.124384165 0.028086897 -0.16382962 -0.17877278
0001b0 61 da d1 3d a4 5a 7d 3e a6 c2 2e be d8 2e 89 be
       0.102467306 0.24741608 -0.1706644 -0.2679355
0001c0 d5 91 7d be e3 00 80 3e fe 16 81 3e eb fc ac be
       -0.24762662 0.25000677 0.25212854 -0.3378671
0001d0 c6 d8 c7 bd ee cd c3 3d 22 45 c1 3d 0a 08 08 be
       -0.09758143 0.09560762 0.09437014 -0.13284317
0001e0 6c 28 ec 3d 6e 02 a9 bc 37 48 81 3d 32 1c 77 bd
       0.11531147 -0.020631041 0.06312602 -0.060329624
0001f0 89 98 3f 3d 6d 1c 91 3e e0 05 39 be f9 78 38 be
       0.04677633 0.28342 -0.18068647 -0.18014897
000200 5f 16 ce 3b 4b 82 9a 3d 29 04 3a be 76 61 cc bd
       0.006289288 0.07544383 -0.1816565 -0.09979527
000210 07 0c 4b 3e 14 cf 16 3d 71 4a a6 be 48 a5 ac bd
       0.19828807 0.03681858 -0.3247867 -0.084299624
000220 4d 19 81 3e 18 52 b6 3e c2 b6 4f be 33 90 fe bd
       0.25214615 0.35609508 -0.2028456 -0.124298476
000230 92 30 b1 3e e3 13 55 3e e1 b5 79 be a7 37 49 be
       0.3460737 0.20808367 -0.24385788 -0.19650136
000240 5a 30 c6 bd 20 10 8e 3e d1 32 26 3e 85 41 b0 be
       -0.09677191 0.27746677 0.16230322 -0.34424987
000250 52 9f 45 3e 38 f6 9a 3e fa 6f 91 bd 03 24 87 be
       0.19299057 0.30265975 -0.07101436 -0.26394662
000260 1c 77 44 be 81 6a b8 3e 5c 87 17 be c6 ad 01 be
       -0.19186062 0.36018756 -0.14797729 -0.12663946
000270 46 b4 b7 bd 21 5e 9e 3d 62 1c 38 3e 17 d3 4d be
       -0.08969931 0.077327974 0.17979577 -0.20100056
000280 b2 2b bc 3e c9 5d a6 be e6 20 84 be 9f 5a 82 be
       0.36752087 -0.32493427 -0.2580635 -0.25459763
000290 1b bf 40 3e 34 74 00 3e 60 4d 07 be 80 7b 31 3e
       0.18822901 0.12544328 -0.1321311 0.17332268
0002a0 2d c4 62 3e 59 5d 01 3e 49 b5 5e be ce d0 9c bd
       0.22145148 0.12633266 -0.21748842 -0.07657014
0002b0 33 8d 1f 3e da 19 32 bc f8 49 6c be 0b a2 23 3d
       0.15581207 -0.010870421 -0.23075092 0.039949458
0002c0 fc f2 ae 3e 9c 4c 1d bd 30 fa 80 3e 33 b6 90 be
       0.34169757 -0.03840314 0.25190878 -0.28264007
0002d0 78 47 67 bd cb 9d a2 3d 34 fc 8f be cd 44 06 be
       -0.056464642 0.07940253 -0.28122103 -0.13112183
0002e0 b8 4b 1a bc 50 ca 03 be b7 f3 c8 3d 24 8d 38 be
       -0.009417467 -0.12870145 0.0981211 -0.18022591
0002f0 2c ac 81 3d 24 5b 13 be 2c 74 0f 3e 43 fb 49 3e
       0.06331667 -0.14390236 0.1400916 0.19724755
000300 ee 2d aa bd ba 08 a9 3e 56 4c d5 3d 97 90 fb 3e
       -0.08309542 0.3301447 0.104149505 0.4913375
000310 9d 23 ff bd 82 fa 30 be 94 f5 87 3e 19 37 36 be
       -0.124579646 -0.17283061 0.2655455 -0.17794456
000320 4c 62 a0 be 77 d2 29 3e 82 f8 f3 3c 73 13 2c be
       -0.31324995 0.16584192 0.029781584 -0.16804294
000330 40 f9 45 be de 01 35 3e 7b 13 3e 3e 09 2f b3 3c
       -0.19333363 0.17676494 0.18562119 0.021873014
000340 b9 7f 90 be 06 00 75 3d 90 36 81 be 4b a8 92 3e
       -0.28222445 0.059814475 -0.2523694 0.28644022
000350 18 a8 37 3e 71 76 0c bc d1 72 4f 3e c9 bf bd bd
       0.17935216 -0.0085731605 0.20258643 -0.09265096
000360 27 2f 45 be 7e cc 83 3d d1 48 54 3e fb 42 32 be
       -0.19256268 0.06435488 0.20730902 -0.17408364
000370 86 21 8e be 80 ab 22 bc 8f 21 ce 3d 45 f3 10 be
       -0.2775995 -0.009928584 0.100649945 -0.141553
000380 f7 4a b7 be e6 5b c3 be fa 39 61 3e 0d 7b 9c bd
       -0.3579938 -0.3815605 0.21994773 -0.076406576
000390 57 ea dc be 52 f6 36 3e 5b 85 09 3e 31 1a 15 3e
       -0.43147537 0.17867401 0.13429777 0.14560772
0003a0 7c 8d 34 be c2 54 3f bc b7 6d 61 3e f7 a4 2b 3e
       -0.17632097 -0.011677923 0.22014509 0.16762148
0003b0 e0 88 da 3c 3a 63 3b be 46 da 43 be 2d 02 20 bd
       0.026676595 -0.1829957 -0.19126233 -0.039064575
0003c0 e0 91 80 3e 45 59 89 3e ae 82 6b be 97 7b 89 3e
       0.25111294 0.2682592 -0.22999069 0.26852104
0003d0 9a 0d 89 3e ba 6f d8 3b 10 57 a7 bd 31 69 2b be
       0.2676819 0.0066051157 -0.08170903 -0.16739346
0003e0 03 46 de 3d e2 7d 09 3e 23 c0 9d be 1d 2e 3b 3e
       0.108531974 0.13426927 -0.3081065 0.1827931
0003f0 af 2f f4 3d bc 53 71 be a4 7f cd 3c 96 4a 02 3e
       0.119231574 -0.23567098 0.025085278 0.12723765

bias f4 [128]
000000 da 59 86 3e 00 e7 32 3e 33 de 30 bd 12 8b ba 3d
       0.26240426 0.17470932 -0.043180656 0.09108557
000010 0d 7d 5f 3d 81 08 27 3e ac 58 22 3d 03 10 56 3d
       0.054562617 0.16311838 0.039635345 0.052261364
000020 c9 11 87 3e 88 1e 1f bc 32 6b 4c 3e b8 61 a9 3e
       0.26380756 -0.009711869 0.19962767 0.33082366
000030 0a ed 67 3d 3d 7c 90 3e 02 3f dc 3d 63 6e e8 3d
       0.056622542 0.28219786 0.10754205 0.113491796
000040 09 86 cf 3e 24 13 8e 3e 44 d4 eb 3d 8c bf 4e bd
       0.40531948 0.27748978 0.11515096 -0.050475642
000050 bc 50 85 3e 0d 31 c1 3d a9 80 c9 bd f9 1d f1 3e
       0.26038158 0.09433184 -0.09838993 0.4709318
000060 de 86 ee 3e 9f 91 06 3e eb 84 d9 3d d6 bc 00 3c
       0.4658727 0.13141488 0.10621055 0.007857522
000070 c8 87 28 3e 4d 68 8a 3e 4d cc 08 be 94 6d a7 3e
       0.16458046 0.270327 -0.13359185 0.3270079
000080 a7 86 47 3e ef 31 ab 3e c8 60 b3 3a 80 bf 9f 3e
       0.1948496 0.33436534 0.0013685459 0.3120079
000090 66 5c 51 3d 1c 85 98 bd 06 03 79 3d df 3b 52 be
       0.05111351 -0.074472636 0.0607939 -0.20530652
0000a0 97 37 b8 3d ec b1 ac 3e a0 81 a1 3e 00 da d7 bd
       0.08994978 0.33729494 0.3154421 -0.10539627
0000b0 09 6e 86 3e 02 96 e5 3e 05 21 43 3e 37 ce fb 3d
       0.26255825 0.4484101 0.19055565 0.12295192
0000c0 38 dc cd 3e 1c 40 5d 3d d6 b4 5f 3e f9 4e a7 3e
       0.40207076 0.054016218 0.21846327 0.3267744
0000d0 f8 16 47 3e 80 ea a8 3e f0 41 a4 3b 07 77 ae 3e
       0.19442356 0.3299141 0.005012743 0.34075186
0000e0 60 88 b2 3e 9d a8 7c 3d 04 dc 52 bd 78 cc eb 3e
       0.3486967 0.06168424 -0.051479355 0.46054435
0000f0 10 c0 3f 3e ba dc 10 3e 75 0c c1 3e 1e ac 96 3d
       0.1872561 0.141467 0.37704816 0.073570475
000100 9c e6 57 3d 65 42 da 3e 89 48 ae bd 37 91 1e bd
       0.05271016 0.4262878 -0.08509929 -0.038712706
000110 43 1e bf 3e 2d 47 cd 3d de 05 e3 3e e3 d7 3e 3e
       0.37327775 0.10023341 0.44340414 0.18637042
000120 40 1e af 3e 09 e5 50 3e e0 b8 49 3e 18 a1 02 3e
       0.34202766 0.2039987 0.1969943 0.12756765
000130 68 1e 23 be d5 fe 82 3e 38 24 32 be 90 9d 7b be
       -0.15929568 0.25585046 -0.17396629 -0.24571824
000140 2b ce 53 3e 7f 3e 06 3e 54 c6 05 be 40 ce a0 3b
       0.20684116 0.13109778 -0.13063937 0.0049073994
000150 d5 67 b7 3e 99 bd f5 3e d8 fb 2b 3d 51 bd bf 3e
       0.35821405 0.47996214 0.041988224 0.37449124
000160 8f 63 83 3e d4 2f 2a bd 30 ff 22 3e 60 df 6b 3d
       0.25661895 -0.04154952 0.15917659 0.057586074
000170 64 9d de 3e d4 d0 0c bd 77 43 a8 3e de 8f b0 3d
       0.43479455 -0.03437884 0.32863972 0.086211905
000180 ed f2 d1 3e c4 59 c5 3e b8 bf 8c 3e 81 fa 8a 3d
       0.4100565 0.38545048 0.2749002 0.06786061
000190 89 d1 54 3c 8e 0f 79 3e 44 49 96 bd e3 16 12 bd
       0.01298941 0.2432234 -0.07338193 -0.035666358
0001a0 70 f9 a3 3a 9f ce 50 3d 1c 93 5d 3d d8 2b a0 3e
       0.0012510251 0.0509783 0.054095373 0.3128345
0001b0 cd 93 c0 3c 97 07 a4 3e 2c b0 9c 3e 08 15 d9 3a
       0.023507977 0.3203704 0.30603158 0.0016562054
0001c0 72 a2 f5 3e b4 91 0a 3e e1 7e 84 3d 24 67 84 3d
       0.47975498 0.13532144 0.06469513 0.06464985
0001d0 d4 05 24 3e 69 87 d3 3d 6c f5 e6 3c 17 0f 27 3d
       0.16017848 0.10328562 0.028193198 0.040785875
0001e0 7e 13 99 3e 69 1c dd 3d 1c 8d 6e bc 3f 0a b9 3e
       0.29897684 0.107964344 -0.01456001 0.3614063
0001f0 e9 e8 a6 3e 8b 9f 1e 3e 86 6a ce bd e7 f4 bf 3e
       0.3259957 0.15490548 -0.100789115 0.37491533

weight f4 [256, 786]
000000 e1 a6 2b 3c 17 79 00 3e 66 1f 58 bc cb 35 ca 3d
       0.010476799 0.12546192 -0.01319108 0.098735414
000010 05 9d 62 3d 3f 8e ce 3d cf e2 e4 3d 15 ed 23 3d
       0.055325527 0.10085725 0.11176073 0.04002102
000020 95 d7 3a 3e 48 63 4c 3d 61 73 a5 3d d5 3e ab bc
       0.182463 0.04989937 0.080786474 -0.020903984
000030 ac cd 22 3d 2b ee 7f 3c be b4 23 3d 95 ab 77 3c
       0.039746925 0.0156207485 0.03996729 0.015116592
000040 20 4a f7 3d 2a 9f 19 3e ca c3 b9 3d 33 d8 c0 3c
       0.12074685 0.15002123 0.09070547 0.023540592
000050 ff 27 fe 3d 44 30 c9 bd 27 96 80 bd f1 5d 09 3d
       0.124099724 -0.09823659 -0.06278639 0.033536855
000060 8a 4d 05 3e cd 28 21 bd 91 31 58 3c cc 88 89 bc
       0.1301786 -0.03934555 0.013195411 -0.016788863
000070 b8 7d 26 3e 55 78 80 3d b2 bb 8d bd 50 79 a2 3d
       0.16258895 0.062729515 -0.06920566 0.07933295
000080 90 9c 5c bd 1e cb c5 3d 09 57 0f bd 33 ab bd bc
       -0.053860247 0.09657882 -0.034995113 -0.023152923
000090 83 19 91 3c 9e af 8f 3d 95 cb f3 3c ae ff 59 3d
       0.01771236 0.07015918 0.029760161 0.05322235
0000a0 e7 bc 87 bd b6 65 3f bd d7 80 93 bd 3a a2 cf 3d
       -0.06627827 -0.04672786 -0.072023086 0.10138364
0000b0 f7 87 af 3c e2 62 73 bc 32 2f 47 3d a7 ec 25 3d
       0.021427138 -0.0148551185 0.048628993 0.040508892
0000c0 58 20 93 3d f2 22 12 3e b5 34 38 3c cc 7a 56 3c
       0.071839035 0.14271143 0.011243035 0.0130908005
0000d0 be a1 74 3d 39 ec 26 3d 53 4d c6 3d c0 89 7d 3c
       0.059724562 0.040752623 0.09682717 0.015474737
0000e0 5f 5b 8d bd bf 6f c7 3d 9c 38 19 3d 70 72 b6 3d
       -0.06902193 0.09738111 0.037407503 0.08908546
0000f0 30 db 91 3a 48 7a ac 3b 58 29 11 3e 27 d5 78 3d
       0.0011127945 0.0052636005 0.14175928 0.060750153
000100 69 09 c4 3d 93 49 a3 3d 51 b1 48 bc a2 34 ef bb
       0.09572107 0.079730175 -0.012249307 -0.0072999755
000110 f5 74 60 3d 71 b5 2e 3d 4b 89 43 3d 04 a1 27 3d
       0.05479904 0.042653505 0.047738355 0.04092504
000120 a6 be dc 3d 6a 39 1a 3d eb 91 5c 3d 3a bc 58 3d
       0.10778551 0.03765241 0.053850096 0.05291388
000130 5a 0b ca bd 5e ce 60 3d a0 4f 82 bc bf d5 21 3e
       -0.098654464 0.054884307 -0.015907109 0.15804194
000140 fe 56 68 bd f4 31 61 3c 51 0f a3 3d 49 54 8a 3d
       -0.056723587 0.01374482 0.07961906 0.06754357
000150 58 d5 fe 3d 6b f7 53 3d 7b 29 75 3d 78 c7 5e 3d
       0.12443036 0.051749628 0.059854012 0.054389447
000160 70 f0 b7 3d 9f 11 4d bd 7e 41 24 3d da 19 3b bc
       0.08981407 -0.050065633 0.04010152 -0.011419738
000170 d0 3c 3c 3d 2c 8c db 3c f0 c0 28 bc 87 8f 1b 3e
       0.045956433 0.026800238 -0.010299906 0.1519147
000180 49 d1 79 3d 80 07 4c 3d 41 e9 16 3d d0 03 08 be
       0.060990606 0.04981184 0.036843542 -0.13282704
000190 96 6b 40 bc 48 ab 9f 3c 60 f9 5e 3c a0 b6 7e 3d
       -0.0117444005 0.019490853 0.01360926 0.062185884
0001a0 5b 56 48 bd 6e eb ea ba 28 10 1d 3e f1 ef ed 3c
       -0.04891048 -0.0017922947 0.15338194 0.029045077
0001b0 1f 7e 65 3a 0e 1f fa 3c 88 16 23 3e 14 84 70 3d
       0.000875445 0.030532386 0.15926564 0.05871971
0001c0 5b da ea 3c a9 07 92 bb 70 10 a6 3d bf 62 09 3d
       0.028668573 -0.0044564796 0.08108604 0.033541437
0001d0 9e cd bc 3d cb da 4c bd ee 49 19 3d 5c e4 f4 3d
       0.09218906 -0.050013345 0.03742402 0.119576186
0001e0 f3 0a 25 3e 6e f5 8e 3d ff d1 c9 3c 5e 5b db 3b
       0.16117458 0.06980406 0.024636267 0.0066942414
0001f0 21 5e 10 bd 60 ff 52 3e e9 73 c9 3d 30 e8 7f 3d
       -0.03524602 0.2060523 0.09836561 0.06247729
000200 03 0d b9 be 61 00 9f be cc 57 e5 3e 5d ad 98 3b
       -0.3614274 -0.31054977 0.44793546 0.0046593384
000210 c4 55 92 3d 01 c3 32 3e 9e e5 a2 3c d9 b2 f8 3d
       0.07145265 0.174572 0.01988488 0.121434875
000220 81 4e 69 3d 09 f4 b7 3d 63 22 d8 3d 2c bd b9 3d
       0.056959633 0.08982093 0.10553434 0.09069285
000230 5f 89 9c 3d 34 90 3e 3b 5a 79 99 3d 78 10 b9 3d
       0.07643389 0.002907765 0.07493849 0.09036344
000240 a0 c7 4a 3b 9f df 08 3c 26 5e 85 3d 5f ba be 3d
       0.003094174 0.008354097 0.06512098 0.09312891
000250 86 0d 21 3e c8 30 b7 3d 66 67 55 3d 97 a5 02 bc
       0.15727815 0.08944851 0.05210056 -0.00797405
000260 b0 60 8f 3d 97 f9 27 3c 6e ea c4 bb 4a 0c 23 3e
       0.070008636 0.010252378 -0.0060093915 0.15922657
000270 f3 75 c7 3d 31 69 17 bb 36 8f 91 3d 3e 92 2a bd
       0.09739294 -0.002310347 0.071073934 -0.041643374
000280 38 a8 98 3d f4 d6 e3 ba 2b f1 c8 3c b1 07 15 3d
       0.0745396 -0.0017382787 0.02452906 0.03638429
000290 1d 1e ad 3c d7 51 1d 3b 8a 69 6e 3d 79 3a 41 bd
       0.021132523 0.002400508 0.05820612 -0.047174904
0002a0 56 4e 65 3d 1e 46 b7 3d 5b a1 d0 3d a5 c9 af 3c
       0.05598291 0.08948921 0.10187026 0.021458456
0002b0 73 b0 d3 3d d0 03 c3 3b 69 17 2f 3e 10 f4 87 3c
       0.103363894 0.005951382 0.17098774 0.01659587
0002c0 93 d1 5c 3d cb 7b d2 3d 30 c6 be 3d 1c c0 24 3e
       0.053910803 0.10277518 0.09315145 0.16088909
0002d0 87 a2 9a 3d ed 4a ae 3d 52 fa 85 3d ae 06 2e 3e
       0.07550531 0.08510385 0.065418854 0.16994736
0002e0 91 19 ca bc 46 16 cc bc 58 64 c8 3d 4f ad c8 3d
       -0.024670394 -0.024912965 0.09784764 0.09798681
0002f0 9f a6 a1 bc b8 bd 18 3d a8 1c 2d 3d 87 8e 88 3d
       -0.019732771 0.037290305 0.042263657 0.0666781
000300 6a 95 e1 3c fe f0 ec 3d 20 f2 c0 3d 42 b1 99 3c
       0.027537066 0.11569403 0.09421182 0.01876128
000310 a4 03 3b 3e 94 e1 35 be 84 6e 3f 3d 3e 31 9f bd
       0.18263108 -0.17761832 0.046736255 -0.07773064
000320 a0 3b a4 3d 37 f7 36 3e 07 47 f6 bb 6c be e6 3d
       0.08019185 0.17867742 -0.0075157913 0.11266789
000330 51 83 a1 3c fd 0f ad 3d ac 29 0b 3e ba b9 09 bb
       0.019715937 0.08450315 0.13590115 -0.0021015243
000340 e6 f5 c2 bc 9e 64 25 bd 47 31 0a bd e2 db ba 3c
       -0.023798894 -0.04037916 -0.0337384 0.022809926
000350 0d ad 89 3d be 41 4b bc e1 21 ef 3d c7 2a a0 3d
       0.0672246 -0.012405811 0.11676384 0.07820659
000360 1d 5c 90 3d 0f e0 7b bc 5c 8a e2 3d e3 a7 15 bd
       0.07048819 -0.015373244 0.11061546 -0.036537062
000370 dc 93 7f 3d fe 6a b7 3c 9b 05 28 3e f9 49 e2 3d
       0.06239687 0.022389885 0.16408388 0.110492654
000380 8f 11 b4 3d ee 87 3e 3d 77 ea 1f 3d 18 c7 e7 3d
       0.087924115 0.04651635 0.039041962 0.11317271
000390 00 ec 30 3d 7c 46 22 bc 83 67 36 bd b1 1d cd 3d
       0.043193817 -0.0099045 -0.04453231 0.10015429
0003a0 94 b8 65 3c 49 fd 12 bd d8 54 2b 3e f6 94 df bd
       0.014021058 -0.035886083 0.16731584 -0.10917084
0003b0 76 5c 95 3d e6 43 03 3e cc 39 92 3d 2e 96 4b bd
       0.07293026 0.1281887 0.0713993 -0.04970377
0003c0 be dd 3f 3c cd 5c 2a 3e 7f 56 e6 3d 54 40 92 3d
       0.011710582 0.16636963 0.112469666 0.07141176
0003d0 04 5e 37 3d 8e c6 8e 3d 1f 03 e9 bd c3 35 35 bc
       0.044767395 0.06971465 -0.113775484 -0.011060181
0003e0 46 a9 26 bd fe f6 b3 3d d8 26 57 bd 74 7e 58 3c
       -0.040688775 0.087873444 -0.05252728 0.0132137425
0003f0 17 90 54 3d 63 d2 cd bc 78 d7 8f 3c a9 d8 b8 3d
       0.051895227 -0.025124734 0.017558798 0.090257

bias f4 [256]
000000 5c a9 46 3e 91 19 76 3e d8 52 21 3b 7c aa a6 3a
       0.19400543 0.2403319 0.002461603 0.0012715603
000010 c4 9f 46 3e 98 21 5b 3e 5c 5b 66 3e 67 69 26 bd
       0.19396883 0.21399534 0.22495788 -0.040627863
000020 b7 14 ad 3c d5 a7 54 3e d1 51 69 3e 3e 3a 73 3e
       0.021128042 0.20767148 0.22785117 0.23752686
000030 fe d2 38 3e 73 75 68 3e 94 7c 3a 3e 5d bc 49 3e
       0.18049237 0.22701053 0.18211585 0.19700761
000040 31 a1 70 3e b1 d7 89 3c d9 c7 97 bc ea 46 69 bc
       0.2349899 0.016826482 -0.018527912 -0.014238099
000050 c6 b8 42 3e 10 08 60 3e 3e a7 5a 3e f4 98 48 bc
       0.19015798 0.21878076 0.2135286 -0.012243498
000060 e8 42 bc bc c4 07 5b 3e a0 61 8a bc c2 6d 39 3e
       -0.022981122 0.21389681 -0.016892254 0.18108276
000070 58 77 74 3e de dc ab 3c 4d af 78 3e ed ba 57 3e
       0.23873651 0.020979341 0.24285622 0.210674
000080 6b 80 7d 3e 57 d5 4f 3e 5f de 44 3e 85 a6 4b 3e
       0.24756019 0.20296226 0.19225453 0.19887741
000090 5a 28 69 3e 38 e7 62 3e 19 5e c3 3b 09 cb 53 3e
       0.22769299 0.22158515 0.005962145 0.2068292
0000a0 bf 64 3d 3e 39 d9 65 3e e5 a1 14 bc 58 5d 4a 3e
       0.18495463 0.22446145 -0.009071802 0.1976217
0000b0 53 18 6d 3b 73 2b 3b bb 63 48 d5 3c 8b 88 69 3e
       0.0036177828 -0.0028559833 0.026035493 0.22805993
0000c0 56 02 62 3e cd e3 dd bc f0 ff ff bc b1 b8 76 3e
       0.22071204 -0.027086163 -0.03124997 0.24093892
0000d0 80 f7 6b 3e 44 fc 89 bb 58 cf be bc 2a 51 1c bd
       0.23043633 -0.0042109806 -0.023292229 -0.03816334
0000e0 92 10 78 bc 13 59 59 3e 3b 6d 60 3e b4 72 41 3e
       -0.015140669 0.21225385 0.21916668 0.18891412
0000f0 0d 1d 7a 3e 7b 76 3b 3e 7b 3a 4f 3e 37 70 5b 3e
       0.24425144 0.18306915 0.20237152 0.21429525
000100 3d 27 df bc 75 60 7f 3e 93 2d 18 3c 03 7f 70 3e
       -0.02724039 0.24939139 0.0092882095 0.23485951
000110 64 bd 3f 3e d5 0f 7f 3e 05 e5 69 3e e7 7d a4 ba
       0.1872459 0.24908383 0.2284127 -0.0012549729
000120 15 49 78 3e 84 d8 16 3c 0e 11 82 bc 7a 84 04 bd
       0.24246629 0.009206895 -0.015877273 -0.032352902
000130 83 40 51 3e 4a 39 7d 3e 64 21 68 3e 14 db 3c 3e
       0.20434766 0.24728885 0.22668988 0.18442947
000140 d0 4b 77 3e 67 53 65 3e 83 ed 79 3e 9a 62 4a 3c
       0.24150014 0.22395097 0.2440701 0.01235261
000150 a7 67 57 bc fb 77 57 3e 9d 84 f4 bb b4 0b ff bc
       -0.013147271 0.21041863 -0.007462098 -0.03113351
000160 85 6e 44 3e 27 62 9f 3b 91 2c 40 3e 56 ba 47 3e
       0.19182785 0.0048639956 0.18767 0.19504675
000170 1a c9 64 3e 70 f5 5a 3e f6 8a 70 3e ec 7b dd bc
       0.22342339 0.2138269 0.2349051 -0.02703663
000180 0c 6a 48 3e ac e6 6c 3e d2 bb 72 3e e5 f9 45 bc
       0.19571704 0.2313487 0.2370446 -0.012083505
000190 ae 8b 4e 3e a8 fd 01 3c dd 87 44 3e ff 57 05 3c
       0.20170471 0.0079340115 0.19192453 0.008138656
0001a0 ca a9 72 3e 1f 8b 58 3e e4 9e 5f 3e db 59 10 3b
       0.23697582 0.2114682 0.21837956 0.0022026214
0001b0 8d 38 62 3e a2 21 81 3c 6e ea 40 3e 0e 8f 7a bc
       0.22091885 0.015763108 0.18839428 -0.015292896
0001c0 67 82 16 bc c7 58 4e 3e 60 57 c1 3c 83 cf 78 3e
       -0.009186364 0.20151053 0.023601234 0.2429791
0001d0 ff 83 64 bc a0 cc 73 3e 99 ef 4e 3e a7 9b 56 3e
       -0.013947486 0.23808527 0.20208587 0.20957814
0001e0 b5 f7 47 3e 3f e9 67 3e 28 09 3b bd f9 1c 23 bd
       0.19528086 0.2264757 -0.04566303 -0.039822552
0001f0 8c 90 6f 3e e1 31 60 3e 10 99 bb 3c 51 14 65 3e
       0.23394984 0.21894027 0.022900134 0.22371031
000200 9d ca a1 3c e5 d0 2e bd 87 98 b9 bc 79 58 98 3b
       0.019749934 -0.042679686 -0.022655739 0.0046492186
000210 83 1f 37 3e c3 d4 49 3e 3d 9d c1 3c b9 cd 1f bc
       0.17883115 0.19710068 0.023634547 -0.009753638
000220 fc ea ae bc ad ac 52 3e 88 ad c5 3b fb 2f b5 bc
       -0.021352284 0.20573683 0.0060326494 -0.022117605
000230 3c 8b d3 bc 97 a1 6b 3e e9 3f 56 3e 04 05 64 3e
       -0.025823228 0.2301086 0.20922817 0.22267538
000240 f7 1e 6a 3e c4 1e 5b 3e 61 b2 2e bd d1 8b 43 3b
       0.22863375 0.21398455 -0.042650584 0.0029837976
000250 26 5f 7c 3e 6c 3c 6a 3e 91 95 92 bb 2b 24 af 39
       0.24645671 0.22874612 -0.004473396 0.00033405548
000260 95 e3 46 3e 4a e9 3c 3e 4f c1 52 3e 69 03 9d 3c
       0.19422753 0.18448368 0.20581554 0.019166665
000270 ba 3c 8d bc d2 4c 47 3e 5d 91 79 3e 60 65 ce bc
       -0.01724087 0.19462898 0.24371858 -0.025194824
000280 60 28 3e 3e 31 b4 5a 3e 81 8d 6c 3e 22 ab b5 3c
       0.1857009 0.213578 0.23100854 0.022176329
000290 0f 7c 43 3e f0 cb 78 3e 05 7f 76 bc e7 3f 50 3e
       0.19090293 0.24296546 -0.015044932 0.20336877
0002a0 34 5a 77 3e a0 0e d0 bc c1 37 e3 bb b3 c4 4f 3e
       0.24155504 -0.025397599 -0.0069341366 0.20289879
0002b0 02 a4 6e 3e af 0e af bc 3c 75 47 3e 2a 82 f5 bc
       0.23304752 -0.021369306 0.19478315 -0.029969294
0002c0 f8 f2 6b 3e 0c 98 00 bd 00 14 48 3e 6e 1a 76 3c
       0.23041904 -0.031395003 0.1953888 0.01502095
0002d0 38 bf 68 3e 90 b1 74 3c 2f a8 4f 3e 1a 17 62 3e
       0.22729194 0.014934912 0.20279 0.22079125
0002e0 b7 4c 6a 3e 31 0f 40 3e 2d e7 4c 3e 57 43 dc bc
       0.22880827 0.18755795 0.20010062 -0.026887579
0002f0 a3 ea 62 3c 49 cb 63 3e fc c4 5c 3e 9f 45 64 3e
       0.013849887 0.22245516 0.21559519 0.22292183
000300 fe 41 06 bd c8 9d 45 3e 55 2b 49 3e 77 3a 47 3e
       -0.03277778 0.1929847 0.19645436 0.19455896
000310 1e ed 48 3e 5d 27 3f 3e 4f 05 8a bc 62 02 4b 3e
       0.19621703 0.1866736 -0.016848234 0.19825128
000320 6f 31 18 3c 63 99 6e 3e af 43 2a bc 74 ea 5f 3e
       0.00928913 0.233007 -0.010392114 0.2186678
000330 c3 4c 0a bd a5 21 7a 3e 82 29 75 3e 6d d5 8c 3b
       -0.033764612 0.24426897 0.23941615 0.0042979033
000340 d2 5b 52 3e d3 da aa 3c ac d3 7e 3e eb 7a 01 bd
       0.20542839 0.020856297 0.24885434 -0.031611364
000350 59 20 8a 3c 88 1e 2b bd 7c 19 28 3e 0b b4 29 bd
       0.016861128 -0.041777164 0.16415972 -0.041431468
000360 43 6c 37 3e 5f 72 69 3e 9e c2 54 3e 61 3d 4f 3e
       0.17912392 0.22797535 0.20777366 0.20238258
000370 41 ff 59 3c da e5 54 3e 99 84 7b 3e d5 ab 36 bd
       0.013305486 0.20790806 0.245623 -0.044597466
000380 64 e2 57 3e 8b 52 7d 3e a0 5f 71 3e 3d 8a 50 3e
       0.21082455 0.24738519 0.23571634 0.20365234
000390 1b 6b 6c 3e d8 21 01 3c 88 a5 41 3e ea 40 41 3e
       0.23087732 0.007881604 0.18910801 0.18872419
0003a0 05 d9 5d 3e 34 7f ff bc 30 2f 40 bc bc 7a 7e bb
       0.21664818 -0.031188585 -0.01173 -0.003883048
0003b0 81 ab 3c 3e 3f 6f 3f 3e 24 06 3c 3e d5 ea 47 3e
       0.18424799 0.18694781 0.18361717 0.19523175
0003c0 a7 84 7f 3e 15 34 e3 3b 53 8c b1 bc 0f 97 6b 3e
       0.24952947 0.006933699 -0.021673357 0.23006843
0003d0 18 2e 0e bd 69 4a 42 3e 1d b1 7c 3e b3 e8 66 3e
       -0.034711927 0.18973698 0.24676938 0.22549705
0003e0 0a 58 4a 3e 75 fd 5f bc 7b f2 06 bd f6 a2 be bb
       0.19760147 -0.013671269 -0.03294609 -0.0058177663
0003f0 85 20 77 3e 0e 18 cd bb 7b 83 6b 3e 1c c2 61 3e
       0.24133499 -0.006258971 0.22999375 0.22046703

weight f4 [128, 256]
000000 d5 0a 85 3d cf 92 ff 3c e5 6d c1 3c 7d 18 3e 3c
       0.06496207 0.031197933 0.023611972 0.011602518
000010 ab 71 fd 3d 56 39 91 3d 80 8d df 3c 32 7d 3b 3d
       0.12375196 0.07091014 0.027289152 0.045773692
000020 26 d2 7b bc 57 d2 d8 3d 8b 8b 58 3d 30 c8 82 3d
       -0.0153699275 0.10586994 0.052867454 0.06385839
000030 01 ab 8d 3d fa 06 ee 3d c2 c6 96 3c 8f 15 b2 3d
       0.06917382 0.116224244 0.018405322 0.08695518
000040 b1 26 3d 3d 37 03 a4 bc 87 d7 c7 bc 8a d4 bb bc
       0.046179477 -0.020021064 -0.024394764 -0.022928495
000050 76 5e ed 3d 46 98 71 3d 9b 48 eb 3d 0b b9 e9 bb
       0.115902826 0.05898311 0.11488458 -0.0071326545
000060 64 29 f4 bc 47 7e 22 3d f9 ef 82 bc d6 29 33 3d
       -0.029804893 0.03967121 -0.015983569 0.04374107
000070 e4 7b 9c 3d 30 0d 59 bc bf 5a 84 3d 4f b7 e2 3d
       0.07640818 -0.013247773 0.06462621 0.110701196
000080 af 1e b7 3d e1 5c d6 3d 9a 66 69 3c 47 c4 e8 3d
       0.08941399 0.10466934 0.0142456535 0.11365562
000090 dc e4 81 3d fd 77 24 3d 32 0f ab 3b e0 95 a5 3d
       0.063424796 0.040153492 0.0052203173 0.08085227
0000a0 c7 29 f0 3d 2d 2c d6 3d 07 e2 3d bb ef 22 63 3d
       0.117267184 0.104576446 -0.0028973834 0.055453237
0000b0 ef 92 36 3c a2 41 9c bc 88 30 b1 bb 00 1d 00 3e
       0.01114343 -0.019074265 -0.0054073967 0.12511063
0000c0 48 2d 26 3d 91 58 2f bb 94 1e 3c bd 77 03 ad 3d
       0.040570527 -0.002675567 -0.0459276 0.084479265
0000d0 e1 36 4e 3d 75 0d 52 3d c8 f7 41 bd 69 6f a3 3c
       0.050345305 0.051282365 -0.047355443 0.019950585
0000e0 f9 d7 19 3c 32 65 4b 3d ce 71 5d 3d 88 98 2e 3c
       0.009389871 0.049657054 0.05406361 0.0106564835
0000f0 39 f3 fe 3d 55 d2 e9 3d 06 1d 36 3d e6 be c8 3d
       0.12448735 0.11417071 0.044461273 0.09802036
000100 00 83 08 3d 6b 06 84 3d c2 8b ae bc d7 5b b1 3d
       0.033328056 0.06446537 -0.021306876 0.08660095
000110 7b 0e f9 3d 46 19 ec 3d 55 ba 40 3d 0b 53 f9 3c
       0.12160965 0.11528258 0.0470527 0.030435106
000120 9b 24 a1 3d e6 5a 5d 3d 1a 71 b1 bc 8f d2 e9 3a
       0.0786831 0.054041766 -0.021660376 0.0017839241
000130 88 fb eb 3d e7 da bd 3c f6 d4 9c 3d 06 0e 92 3d
       0.11522585 0.02317567 0.076578066 0.07131581
000140 56 78 9d 3d 5f b5 0a 3d f4 03 d6 3d dc 74 16 ba
       0.07688968 0.033864375 0.10449973 -0.00057394593
000150 d0 98 c2 bc 4d 32 b9 3d 90 e9 4f bd 8a 38 0f bd
       -0.023754507 0.09042797 -0.050759852 -0.03496603
000160 57 3f 1b 3d 24 f0 ab 3b ff 6b ca 3d 38 b2 3d 3d
       0.037902202 0.005247133 0.0988388 0.04631254
000170 f2 2a 00 3e 44 b2 cb 3d d4 07 05 3d df 5b 0c bd
       0.12516382 0.09946111 0.03247817 -0.034267303
000180 47 b9 a6 3d 96 a0 b4 3d 22 72 57 3d df b5 3d bd
       0.081408076 0.08819692 0.05259908 -0.046316024
000190 5c 8f 0c 3d c0 15 3f bc d0 8e 01 3e e7 79 f0 bc
       0.034316406 -0.0116629 0.12652135 -0.029355003
0001a0 52 d9 6e 3c f4 ad 94 3d 57 20 dc 3c 25 74 fa bb
       0.01457818 0.072597414 0.02687089 -0.00764324
0001b0 90 b3 00 3e 60 8b 10 bd c0 90 ad 3c 5e 0f 31 bd
       0.12568498 -0.03528917 0.021187186 -0.043227546
0001c0 41 e5 76 3c 11 c6 12 3d 58 ff c7 bc 58 77 f6 3b
       0.015069307 0.035833422 -0.02441375 0.007521551
0001d0 a4 28 bb bc 61 23 b5 3d 8a 91 ad 3d ea 10 30 3d
       -0.022846527 0.088446386 0.08475025 0.04298488
0001e0 62 28 21 3d 30 95 c6 3d c4 47 f6 bc 73 2d 1c 3d
       0.039345153 0.09696424 -0.030063517 0.03812928
0001f0 34 8b 9a 3d 26 1f f7 3c b0 9a ef 3b 54 09 f0 3c
       0.07546082 0.03016622 0.0073121414 0.029301323
000200 51 4b 0c bd 68 18 3b 3d 97 08 25 3d d5 6e d8 bc
       -0.034251515 0.045677572 0.040291395 -0.026420036
000210 36 53 57 3d 70 0e e2 3d 21 03 20 3a 31 2a a6 3c
       0.05256959 0.1103791 0.0006103982 0.02028379
000220 25 6c 3e bd 46 8f 3e 3c 76 83 ae 3c 18 3c 93 3b
       -0.046489853 0.011630839 0.02130292 0.0044932477
000230 3b 03 8f bc ee 56 e7 3c 5a 5d c2 3c d6 ad d0 3d
       -0.017457595 0.028239693 0.023726154 0.101894066
000240 3c 6a 2a 3d 2b 17 60 3d 49 f1 8f 3d c0 c1 3f bd
       0.04160522 0.054709595 0.07028443 -0.046815634
000250 4b 18 84 3d d8 df b3 3d 2f 0f 23 bd 50 d5 3d bd
       0.06449946 0.08782929 -0.039809402 -0.04634601
000260 e0 d2 41 3c 3b 27 c4 3d ba 0a 00 3e b1 17 e7 bb
       0.011830062 0.09577795 0.12504092 -0.007052385
000270 ce 76 5a bd 86 52 2e 3d f9 d2 c5 3d df b0 63 bc
       -0.053335957 0.04255917 0.096593805 -0.01389715
000280 25 62 1f 3d 44 87 36 3d 99 fa 8e 3d cd 23 c7 3c
       0.038911957 0.044562593 0.069813915 0.024309063
000290 ac 23 a7 3d e4 fb a7 3d 84 82 4e bc 49 6d 00 3e
       0.08161101 0.08202341 -0.01260436 0.12541689
0002a0 90 de a9 3c e4 ad 5b 3c 9c a9 39 3d 4f d6 fd 3d
       0.020736009 0.013408158 0.045327768 0.12394392
0002b0 84 7b e7 3d da 94 dc 3a 96 20 9f 3d bd e0 1f 3d
       0.113028556 0.0016829029 0.07769887 0.039032687
0002c0 3c 08 ea 3c 07 1e 14 bc 50 02 eb 3d f1 64 27 3c
       0.02856838 -0.009040362 0.114750504 0.010216937
0002d0 22 5c 93 3c e8 ac 4a 3d 8b 2a cd 3d 11 96 26 3d
       0.017988268 0.049481302 0.1001788 0.04067046
0002e0 97 fa d4 3d 65 b5 da 3d 0b 0d 1c 3d bb f5 e6 bb
       0.10399359 0.106791295 0.038098376 -0.0070483363
0002f0 70 15 b9 bb 36 3b e6 3d 8c 6c 02 3e 4a f1 5b 3d
       -0.0056483075 0.11241762 0.1273672 0.053696908
000300 c6 c8 0d 3c 06 2d b2 3d 2f e4 e0 3d af 4f e3 3d
       0.008653825 0.08699994 0.109810226 0.11099183
000310 76 4a dd 3d 16 b3 f1 3d a6 a6 9b bc e8 4e 4c 3d
       0.10805218 0.11801736 -0.019000363 0.04987994
000320 11 84 ab bc 94 08 94 3d e5 d5 8f bc e6 aa 8d 3d
       -0.020936998 0.07228199 -0.017558048 0.06917362
000330 77 e4 85 bb 98 76 21 3d 1d b6 fb 3c 8d a1 5a bd
       -0.004086073 0.03941974 0.030726487 -0.053376723
000340 e3 9f 8f 3d e3 a6 59 3d 8a ff 16 3d 67 67 52 bd
       0.07012918 0.05313767 0.036864795 -0.051368143
000350 89 77 3b bd 60 0e 5a 3c 1d 88 5b 3f 56 1f 0d bd
       -0.045768294 0.013309091 0.8575457 -0.034453712
000360 aa 54 07 3c 8e 9b e0 3d a2 10 76 3d ee c1 08 3c
       0.008259932 0.1096717 0.060074456 0.008347018
000370 07 bb 17 bd 9f cf 01 3e ed bd 83 3d 13 af fb bc
       -0.037043598 0.12676857 0.0643271 -0.03072313
000380 16 54 a7 3d 9a 0c 9f 3d 70 52 35 3d 40 86 fd 3b
       0.08170335 0.077660754 0.04426807 0.007736951
000390 6a 6f 01 3e 7a 44 1d 3c 28 80 a2 3d ec cd c9 3d
       0.12640157 0.009598846 0.079346 0.098537296
0003a0 66 4f 79 3d af fd 8c 3d d1 0d f9 3c 97 3b 3c bd
       0.060866736 0.06884324 0.030402096 -0.045955267
0003b0 1c 23 aa 3d 6b 13 cb 3d a1 2a ac 3b d1 34 95 3d
       0.08307478 0.09915813 0.005254105 0.072854646
0003c0 ad 11 ef 3d 57 0e 45 bd d8 8a 0b bd 51 3f d9 3d
       0.11673293 -0.04810938 -0.03406796 0.1060778
0003d0 0e 06 47 bd 40 57 c9 3d f7 fa e2 3d 6d 96 cf 3d
       -0.04858976 0.09831095 0.11083024 0.10136113
0003e0 06 ee d4 3d 93 df 60 3d 37 8b a5 3c 69 8c 07 3d
       0.10396962 0.054900717 0.020207984 0.03309289
0003f0 7c 92 f6 3d 7e a8 2f 3d 91 d7 6f 3d e0 98 a2 3d
       0.120396584 0.042885296 0.05855519 0.07939315

bias f4 [128]
000000 4f 53 5e 3e ca 3b 7a bd f8 9c 6b 3e 3c 34 80 bd
       0.21711467 -0.061092176 0.23009098 -0.06259963
000010 4a 85 ed 3b f4 3d 11 3e 1b 7e 53 bd 7e 16 09 3e
       0.0072485553 0.1418379 -0.051633935 0.13387486
000020 dc 2c 8a 3c 82 ec 0b 3e ea 65 9b bb bb 7d 63 3e
       0.016867094 0.1366444 -0.0047423737 0.22215931
000030 e1 aa d7 3c 6a 95 52 3d 37 15 3e 3d 53 f9 45 3e
       0.026326599 0.051412024 0.04640695 0.19333391
000040 f2 a0 19 3e 81 8d 0b 3e 1a fa 5a 3d 18 8f 2a bd
       0.15002802 0.13628198 0.05346117 -0.04164037
000050 1d b3 10 3e 78 b9 4e 3e d0 c5 94 bc 96 0e 52 3d
       0.14130826 0.20187938 -0.01816073 0.05128344
000060 04 5d 43 3e ee 47 3b 3c 65 3b 21 bd 89 5a 71 3e
       0.19078451 0.011430724 -0.039363284 0.23569693
000070 d4 ec 4c 3e 12 ca 52 3e 40 28 0b 3e a9 3d 86 3e
       0.20012218 0.20584896 0.13589573 0.26218918
000080 c8 e3 07 bc 4c b4 15 3e 75 72 1a 3c c7 d3 2c 3e
       -0.008294053 0.14619559 0.009426703 0.16877662
000090 0d f8 b0 bc 41 cc 57 3e af 8c 5c bd 0e 06 49 3e
       -0.021602655 0.2107401 -0.053845104 0.19631216
0000a0 66 cd 57 3e 84 41 29 3d 3f 4c 6c 3e be f4 18 3c
       0.21074447 0.041322246 0.2307596 0.009335695
0000b0 6d b6 d3 3d 59 1f 4d 3e 85 6c 1a 3e ed c8 11 bb
       0.10337529 0.2003149 0.1508046 -0.0022245005
0000c0 f8 54 08 3e 09 6c 73 bd 4c e9 60 3e 69 72 56 3e
       0.13313663 -0.059429202 0.21963996 0.20942082
0000d0 ef 02 19 bc d2 2b 3d 3e d6 b4 a1 ba a6 24 cf bb
       -0.009339078 0.18473747 -0.0012337219 -0.0063215075
0000e0 e9 b6 63 bb 84 cb 41 bd 0c f8 4d 3e 89 67 3f 3e
       -0.0034746474 -0.04731323 0.20114154 0.1869184
0000f0 ff b8 35 3e 8f 34 da 3c 6f d4 12 bd 90 a2 41 bd
       0.17746352 0.02663639 -0.035847124 -0.047274172
000100 e7 79 46 3d 35 a1 37 3d 3a d3 c4 3c 65 51 94 bb
       0.0484561 0.044831473 0.024026502 -0.0045263045
000110 f6 cb 64 3e ec 3b 26 bd e0 67 73 3c f2 45 b8 3c
       0.2234343 -0.04058449 0.014856309 0.02249429
000120 37 24 78 3e de c6 82 bb 69 df 75 bc 6c bc 9b 3c
       0.24232565 -0.003990992 -0.015006878 0.019010745
000130 69 3b 9d 3c 6a a1 dc 3c de 6a 1d 3e e9 28 4a 3e
       0.019193368 0.026932437 0.15372798 0.19742168
000140 bf c7 8d bb 8c 15 c8 bc 52 07 46 3e a2 15 37 3e
       -0.00432679 -0.024424337 0.1933873 0.17879346
000150 48 08 7b 3e 30 03 5b 3e 45 87 6d 3e 36 03 2a 3e
       0.24514878 0.21387935 0.23196132 0.16602787
000160 6e c9 fb 3a 8f e1 be 3b 00 6b 37 3d 37 9a 50 3e
       0.0019209811 0.0058252285 0.044779778 0.20371328
000170 98 ba 43 bd 63 bb 8b bc b7 24 28 3d b7 5c 87 bc
       -0.04778537 -0.017057126 0.04105064 -0.016523702
000180 05 08 85 bd 9d 17 ad bc a1 87 86 bb d1 ab 4a 3e
       -0.0649567 -0.021129424 -0.0041055237 0.19792105
000190 74 14 2b 3e 34 4d 63 3e ae c3 19 3e 3b 19 46 3e
       0.16707021 0.2219742 0.15016052 0.19345562
0001a0 63 41 c6 bc b3 d6 ed 3c 00 3a 4d 3e d4 10 0e bd
       -0.0242011 0.02903304 0.20041656 -0.034684017
0001b0 ac 8a 5d 3e a2 c2 a9 3a 71 c9 33 bd 45 85 53 bd
       0.2163493 0.0012951682 -0.04389328 -0.051640768
0001c0 4c 16 59 3e b4 5d 0e 3e 1e f3 89 bc 87 51 dc bc
       0.21199912 0.13902932 -0.01683956 -0.026894344
0001d0 42 1e 4d bd 3d aa 11 bd 7d 0d 22 3c 2a a8 d0 3d
       -0.050077684 -0.035562743 0.009890911 0.10188325
0001e0 6b a5 28 3e 9b 03 7d 3c 23 8e 55 3e 4f 9b 2d 3e
       0.16469352 0.015442754 0.20855002 0.16953777
0001f0 e0 b5 a4 bb 07 3c 32 3e 28 b6 e4 bc 99 47 80 bd
       -0.005026564 0.17405711 -0.02791889 -0.06263656

weight f4 [1, 128]
000000 5a 25 11 be be 5d a6 3d 7e e8 ac bd 61 d9 8d 3d
       -0.14174405 0.08123349 -0.08442782 0.06926227
000010 e8 2c 42 3d c7 00 df bd 8c d4 89 3d 56 16 ce bd
       0.047406107 -0.1088882 0.06729993 -0.10062854
000020 c2 e2 a2 bb 1b 75 95 bd 81 65 9a 3d 2c bc f9 bd
       -0.0049708793 -0.07297727 0.075388916 -0.12194094
000030 b0 bf 6b 3d d0 72 88 3d f8 53 97 3c 7b cb 02 be
       0.057555854 0.06662524 0.018472657 -0.12772934
000040 1c d3 ad bd 60 f5 be bd e6 93 63 3c c8 9f 08 3d
       -0.084875315 -0.09324145 0.013890242 0.033355504
000050 fc 56 75 bd 91 47 20 be e9 24 7d 3c 23 dd e8 3c
       -0.059897408 -0.156523 0.015450695 0.028425759
000060 d5 90 e9 bd 5b 31 f4 3c 2c cb 8b 3d 12 a3 a3 bd
       -0.11404578 0.02980869 0.06825861 -0.079900876
000070 c0 4e cd bd a3 fa ca bd c3 31 f0 bd 65 cc 95 bd
       -0.10024786 -0.099110864 -0.11728241 -0.07314376
000080 a3 5d 4c bd 17 cc d8 bd 2c 7a 70 3d d7 ba 04 be
       -0.049893986 -0.10585802 0.058710262 -0.12961899
000090 0f f5 50 3b 38 97 17 be 98 89 80 3d 4f 38 ba bd
       0.0031884348 -0.14803779 0.06276244 -0.09092771
0000a0 53 98 ae bd ae 08 89 39 00 c9 ed bd f0 22 17 3d
       -0.08525147 0.00026137143 -0.11610603 0.036898553
0000b0 af 2d 1f be b9 54 1a be 91 bf be bd f3 96 65 3d
       -0.1554477 -0.15071382 -0.09313882 0.05605216
0000c0 b4 a1 05 be db fb 90 3c 75 44 95 bd 9a 99 ad bd
       -0.13049966 0.017698219 -0.07288448 -0.08476563
0000d0 ba 94 96 b9 2c c4 ee bd d5 eb 87 bd 02 75 8f 3d
       -0.0002872104 -0.116585106 -0.06636778 0.07004739
0000e0 c8 53 a8 3d 28 0f 7b 3d cb af 1b be 3e 36 c9 bd
       0.08219105 0.06129375 -0.15203778 -0.09824799
0000f0 43 64 ce bd a1 00 12 3d 7a bf a5 3d 05 df a9 3d
       -0.10077717 0.03564513 0.08093162 0.08294491
000100 37 ab 2e ba 13 9a f0 3c 2f 0a bc 3c 95 d3 97 3d
       -0.0006663086 0.029370343 0.022954075 0.07413403
000110 55 b5 ed bd f7 06 60 3d 6b a6 f8 3c a6 36 47 3d
       -0.11606852 0.054694142 0.030352792 0.0486361
000120 f6 0a a4 bd 46 16 d8 bb 7a e3 2c 3d 82 de d3 bb
       -0.08009903 -0.006594452 0.042209126 -0.006465734
000130 d4 c3 50 3d 05 22 0c 3d d9 61 88 bd 65 21 8f bd
       0.050968006 0.03421213 -0.06659288 -0.069887914
000140 07 71 29 3d ee 70 35 3d 96 36 96 bd c5 ea 1d be
       0.041367557 0.04429715 -0.0733463 -0.15421589
000150 3b 5b 9f bd ee 4e f6 bd fa da b3 bd f6 8a ec bd
       -0.07781073 -0.120267734 -0.08782001 -0.11549942
000160 69 db 9a 3b e1 44 1f 3d 59 bf 81 3d e3 99 07 be
       0.0047258628 0.038884047 0.06335325 -0.13242297
000170 84 e6 0b bd 23 49 2f 3c 40 08 21 3d e4 df 54 3d
       -0.034155384 0.0106985895 0.03931451 0.05197133
000180 38 50 0a 3d 59 3f c5 ba 29 bf 47 3d f4 db ae bd
       0.03376791 -0.0015048786 0.04876629 -0.085380465
000190 7d 29 e5 bd 4d 6b 02 be e5 b3 b7 bd 68 24 15 be
       -0.11189554 -0.12736244 -0.08969859 -0.14564669
0001a0 c6 fe c8 3c 20 26 ab 3c 33 a5 a4 bd 36 16 02 3b
       0.024535548 0.020892203 -0.08039322 0.0019849665
0001b0 48 90 1d be 9a 43 5a 3d 52 3a f8 3c df e7 38 bb
       -0.1538707 0.053287126 0.030301247 -0.0028214378
0001c0 8a ee c4 bd 08 d6 9f bd b3 a6 1a 3d 29 58 52 bb
       -0.0961581 -0.07804495 0.037756633 -0.0032096005
0001d0 3f 54 b4 3b fc 13 23 3d 61 87 9c 3b a9 97 0b be
       0.005503207 0.03981398 0.0047768806 -0.13632073
0001e0 10 ab a5 bd 88 9a 91 3d 70 db ec bd 7b 5c 22 be
       -0.08089268 0.071095526 -0.11565292 -0.15855591
0001f0 61 1c 9d 3d 2c 47 1d be c0 7c 0c 3c 9a 9f 23 3d
       0.076714285 -0.15359181 0.008574665 0.03994713
